MultiAgents Tennis - Collaboration and Competition/agent2_checkpoint_actor.pth (torch_old, 163773 bytes, 10 tensors)

fc1.weight f4 [256, 24]
-0.082739994 -0.10599262 0.010455792 0.0071200593 0.19251081 -0.1597117 -0.006013738 -0.023294816
-0.02528774 0.015984133 -0.011293075 -0.019956501 0.008021162 -0.0021498755 0.0029546237 0.025480663
0.09520673 0.061943702 -0.0044671865 0.00070088496 -0.24787447 0.20421174 -0.011386997 -0.033172578
-0.15720624 -0.017487643 -0.029467026 0.07171207 -0.061965495 -0.14204131 -0.016804777 0.0448494
-0.05499988 -0.011598715 0.018819844 0.11132261 0.053824414 -0.23276368 0.022319496 0.05869167
-0.2037483 0.0032353464 0.12638085 -0.060108513 0.005934773 0.014615874 0.086924374 -0.152226
-0.0667181 0.020787198 0.03419616 0.00048685496 0.049980044 -0.058625124 -0.03275975 -0.09303889
0.0031184233 -0.09247249 0.043687377 -0.06362052 0.13845907 -0.009915929 0.030648764 -0.08931431
-0.016072303 -0.17526434 -0.086769834 -0.1620049 0.1827681 0.057013273 -0.03454956 -0.16856806
-0.06455021 -0.07943073 0.04315068 -0.021817608 0.04997334 -0.0035282455 -0.054313455 -0.014459682
-0.09072354 0.059150103 -0.04636232 0.0908425 0.26384208 -0.10611868 0.056927186 0.019821104
0.050183885 -0.028345566 -0.06243309 0.06633349 0.29891855 -0.01863079 -0.0018939977 0.024508623
-0.17567226 -0.24026553 -0.032592773 0.09805611 0.034997404 -0.19717324 0.048651986 0.058001332
-0.044648167 -0.24726206 0.025399921 -0.12169207 0.10049716 -0.019572584 -0.0078369295 -0.09138935
0.099535465 -0.13546899 -0.033655904 -0.12580006 0.060546793 0.09442844 -0.05504046 -0.17132406
-0.010164282 -0.008486409 0.043518208 0.04138313 0.01213086 -0.3481423 -0.0021685064 -0.0060997214
-0.051872876 0.01606864 -0.015459822 0.15017658 -0.046018098 -0.29346538 -0.06748083 0.10959426
0.008820897 -0.14899004 0.014834014 0.07303059 0.025304006 -0.33609813 -0.06407287 0.13806613
-0.0144462 0.0122787235 -0.010867598 -0.053029735 -0.037617873 -0.20111425 -0.043527067 0.04550237
0.109698236 0.020108838 -0.023920165 -0.027919328 0.03347504 -0.24539194 0.079038255 -0.06417478
0.098025516 0.15994303 -0.18666682 0.10583174 -0.023238074 -0.021454535 -0.1668067 0.05072669
0.045912877 0.01608409 0.018814638 -0.039689444 -0.024767619 -0.3460539 0.018131707 -0.08144923
-0.03227034 0.10471246 0.004740215 0.016402584 -0.055021722 -0.16222796 -0.036376476 0.02522607
-0.08062628 0.15773147 0.030328166 0.13716419 -0.048604377 0.36933658 -0.013071814 0.21322681
-0.04517624 0.1780817 -0.009582753 0.012364182 0.13089335 0.06665704 0.0056988485 -0.0170698
-0.11649574 0.18149272 0.021792721 -0.01004131 0.02749633 -0.19197439 -0.026068794 -0.021758463
-0.063827105 0.08411772 -0.034187052 -0.03216916 -0.017847272 -0.4543568 0.020659238 -0.001748135
-0.21082959 -0.27708295 0.050590035 0.0057248753 0.06223816 -0.25699142 -0.027977796 0.0065646437
-0.17927116 -0.2734064 -0.027232518 -0.1135504 0.032677248 0.039393943 -0.004097677 -0.041888647
-0.082467824 -0.34466308 0.025383787 -0.060616434 -0.059642274 0.030385574 -0.006644773 -0.039241426
0.09994157 0.3926295 0.033187285 0.096399896 -0.1350846 -0.13603222 -0.017965693 0.0515031
-0.089871086 0.3475655 0.033299264 -0.01701854 -0.051009603 -0.06308792 -0.0196161 -0.037054926
00000000: 9673 a9bd a912 d9bd c54e 2b3c 634f e93b
00000010: 8e21 453e 778b 23be e40e c5bb c5d4 bebc
00000020: 3c28 cfbc 28f1 823c 9706 39bc d17b a3bc
00000030: 316b 033c ede4 0cbb 5ca2 413b d3bc d03c
00000040: bffb c23d aeb8 7d3d 7a61 92bb 98bb 373a
00000050: ced2 7dbe e21c 513e 8790 3abc f8df 07bd
00000060: acfa 20be 3f42 8fbc d564 f1bc c7dd 923d
00000070: 88cf 7dbd 4773 11be 2caa 89bc 01b4 373d
00000080: 8e47 61bd 8908 3ebc 132c 9a3c 1cfd e33d
00000090: fd76 5c3d 9a59 6ebe 60d7 b63c ad66 703d
000000a0: 65a3 50be 1b08 543b fb69 013e 5834 76bd
000000b0: 7c78 c23b 6b77 6f3c 6805 b23d 22e1 1bbe
000000c0: 80a3 88bd ea49 aa3c 4611 0c3d 9140 ff39
000000d0: e0b7 4c3d e620 70bd 162f 06bd 2c8b bebd
000000e0: 765e 4c3b 3862 bdbd 89f1 323d 7a4b 82bd
000000f0: 37c8 0d3e 6c76 22bc 1e13 fb3c 6cea b6bd
00000100: 10aa 83bc 7f78 33be 62b4 b1bd 9de4 25be
00000110: 9027 3b3e c086 693d d783 0dbd 1b9d 2cbe
00000120: e732 84bd 94ac a2bd c4be 303d d7ba b2bc
00000130: d8b0 4c3d 233a 67bb c977 5ebd 4de8 6cbc
00000140: 43cd b9bd 6147 723d 6be6 3dbd a20b ba3d
00000150: 4f16 873e c054 d9bd 7b2c 693d de5f a23c
00000160: 9e8d 4d3d f634 e8bc d7b9 7fbd dad9 873d
00000170: da0b 993e 999f 98bc 0440 f8ba 4fc6 c83c
00000180: 6ee3 33be 2b08 76be 0080 05bd a4d1 c83d
00000190: 7059 0f3d c8e7 49be 4e47 473d ce92 6d3d
000001a0: ffe0 36bd 4432 7dbe 7f13 d03c b139 f9bd
000001b0: 74d1 cd3d af56 a0bc 7766 00bc 572a bbbd
000001c0: 40d9 cb3d 62b8 0abe c6da 09bd bbd1 00be
000001d0: eaff 773d b363 c13d 1b72 61bd 936f 2fbe
000001e0: 1788 26bc 940a 0bbc 2640 323d 5b81 293d
000001f0: 84c0 463c b53f b2be 801d 0ebb 2ce0 c7bb
00000200: a778 54bd 61a2 833c 314b 7dbc e4c7 193e
00000210: 797d 3cbd 1841 96be 6433 8abd f572 e03d
00000220: 8685 103c d890 18be 5d0a 733c 1091 953d
00000230: 594a cf3c 0e15 acbe a338 83bd 3561 0d3e
00000240: c1af 6cbc b32c 493c 020e 32bc b535 59bd
00000250: 3315 1abd e5f0 4dbe 7049 32bd b160 3a3d
00000260: 78a9 e03d 4abb a43c 39f4 c3bc 13b7 e4bc
00000270: 201d 093d 0648 7bbe cfde a13d 116e 83bd
00000280: 9ac1 c83d 1bc8 233e 9625 3fbe 50be d83d
00000290: c65d bebc 6cc1 afbc 60cf 2abe cac6 4f3d
000002a0: 240f 3c3d c8c2 833c 2821 9a3c 6691 22bd
000002b0: 76e5 cabc fa2d b1be f288 943c dbce a6bd
000002c0: e72d 04bd 7c73 d63d ce53 9b3b b65e 863c
000002d0: 755e 61bd 161f 26be 80ff 14bd e7a6 ce3c
000002e0: 641f a5bd 5c84 213e c672 f83c c574 0c3e
000002f0: 6215 47bd af19 bd3e 292b 56bc 2158 5a3e
00000300: b90a 39bd 0d5b 363e fb00 1dbc 2393 4a3c
00000310: e808 063e 7c83 883d 68bd ba3b f7d5 8bbc
00000320: 5295 eebd 3ad9 393e a686 b23c 4f84 24bc
00000330: fc3f e13c ef94 44be 398e d5bc ce3e b2bc
00000340: c9b7 82bd e945 ac3d b907 0cbd cfc3 03bd
00000350: 7134 92bc 74a1 e8be 903d a93c ad21 e5ba
00000360: b6e3 57be d1dd 8dbe 7f37 4f3d bc97 bb3b
00000370: 71ed 7e3d 6194 83be b131 e5bc 391c d73b
00000380: dc92 37be ecfb 8bbe bb16 dfbc 1d8d e8bd
00000390: 94d8 053d 8b5b 213d ce45 86bb 6e93 2bbd
000003a0: e4e4 a8bd ae77 b0be a9f1 cf3c f048 78bd
000003b0: 754b 74bd 2beb f83c 65bc d9bb 9ebb 20bd
000003c0: 2aae cc3d bc06 c93e 64ef 073d 4f6d c53d
000003d0: 9e53 0abe 084c 0bbe ca2c 93bc eaf4 523d
000003e0: 550e b8bd 1bf4 b13e cf64 083d 776a 8bbc
000003f0: 72ef 50bd 3d34 81bd f1b1 a0bc e8c6 17bd

fc1.bias f4 [256]
0.100800075 -0.13927613 0.15346834 -0.069735326 0.20118172 0.14586003 0.058078367 -0.19819185
-0.08300701 0.061483845 -0.18176341 0.09956492 -0.10154515 -0.12668173 0.029637348 0.0828232
0.1284498 -0.15010366 -0.161341 -0.10676309 0.10671581 -0.09049625 -0.15203692 -0.015519736
0.10991367 0.051238738 0.15811816 0.06934293 -0.21650058 0.062349975 -0.1312671 -0.13241148
-0.02449594 0.13535607 0.048903946 -0.1580336 -0.13430415 0.15535615 0.18431275 -0.12588754
0.13271113 0.037444726 -0.13450198 0.016479595 -0.085681126 -0.060735926 -0.0568105 0.15778217
0.12876214 0.10227101 0.109143995 0.11405633 -0.097334586 0.029936269 0.17730777 0.18352523
0.053092252 -0.07790168 -0.12636153 -0.04311661 -0.17005138 0.018392976 -0.15715075 -0.14796571
0.047261257 -0.08833529 -0.16610087 0.17537417 -0.05026967 -0.078973554 -0.08142296 -0.09746976
-0.18697628 -0.11393875 -0.19390853 -0.076743424 0.091882445 -0.16929306 -0.15503973 0.13537155
-0.1127701 0.12750271 -0.017624866 0.060411997 0.026621623 -0.038204096 -0.16518942 0.16183549
0.12945765 0.012318572 0.12989192 0.07111049 -0.14741255 0.07894508 0.20500267 0.0111450935
-0.14450553 -0.057717342 -0.024506014 -0.091051295 0.16485582 0.10799598 -0.2245916 0.012324829
0.013563934 0.15525305 0.06691476 0.10337543 0.05243499 -0.13568833 -0.12461958 -0.02728662
-0.08114141 -0.11061406 -0.2637962 0.20259742 0.023246363 0.115425356 -0.059255093 -0.015186105
-0.06455759 0.16536026 -0.07355884 0.20782055 -0.0046989033 0.0010698199 0.10894824 0.025189113
0.07034143 0.04263859 0.1359402 -0.18398526 0.16607215 -0.15502177 0.2678825 0.10081357
-0.12533042 -0.1277727 0.08737647 0.13340633 -0.22205251 0.12576516 -0.14244711 0.31666175
0.0072825598 -0.17385006 0.018322319 -0.041659262 0.015667904 -0.08450308 0.14000951 -0.133789
0.29282385 -0.29236344 0.16823024 -0.14651136 0.0128152 -0.05584941 -0.27129862 0.18908007
0.014784206 0.11368372 -0.1640857 -0.008269604 -0.0803073 -0.1753997 -0.02880494 0.046851393
-0.03334555 -0.13037701 -0.0045003956 0.07068398 -0.00042512832 -0.18446963 0.07997267 0.16400427
-0.076884076 -0.055824805 0.012086933 0.0051366035 0.15361513 0.1522161 0.08451166 -0.16424881
0.17647152 0.12824765 0.26921892 -0.09550266 0.11508307 0.17111519 0.07123566 -0.10322657
-0.037267517 0.016337223 0.09479886 -0.023557806 -0.21302864 -0.047453485 -0.19326776 -0.17641178
0.16635014 -0.17465712 0.11282775 -0.12631038 -0.14287436 0.04213328 0.080232315 -0.033797126
0.10764907 -0.02557639 -0.23070352 0.13905455 0.06155582 -0.09599904 0.013529546 0.07205239
-0.044345092 -0.047114223 0.005279435 0.093789995 0.19132327 -0.019736579 0.04939133 0.058083426
-0.11577955 0.024993388 0.023686096 -0.15403986 -0.1952746 0.18163534 -0.088000186 0.1772595
0.026924748 0.15038523 0.009720938 -0.024037752 -0.016791124 -0.20524237 -0.024279032 0.1738794
-0.053508718 -0.0687277 -0.12924638 -0.08135039 -0.032283697 0.16009694 0.111541905 -0.023426363
0.041254956 -0.0109863505 -0.12957811 -0.021698512 0.09939518 -0.02496649 0.066600665 -0.01989587
00000000: 4570 ce3d 679e 0ebe ce26 1d3e 65d1 8ebd
00000010: 9502 4e3e 555c 153e 95e3 6d3d cef2 4abe
00000020: 94ff a9bd 7cd6 7b3d 3020 3abe b1e8 cb3d
00000030: e7f6 cfbd dbb8 01be 06ca f23c 369f a93d
00000040: 5888 033e c6b4 19be 9336 25be 9ba6 dabd
00000050: d28d da3d 1956 b9bd 91af 1bbe 7e46 7ebc
00000060: 6b1a e13d b6df 513d bae9 213e ab03 8e3d
00000070: 54b2 5dbe b062 7f3d e26a 06be e096 07be
00000080: b6ab c8bc c89a 0a3e 814f 483d 8fd3 21be
00000090: 0787 09be af15 1f3e 7bbc 3c3e aae8 00be
000000a0: 6de5 073e a45f 193d e3ba 09be 3700 873c
000000b0: 9679 afbd 3cc6 78bd 20b2 68bd a691 213e
000000c0: 39da 033e 7773 d13d e386 df3d 5d96 e93d
000000d0: 5b57 c7bd e83c f53c 2b90 353e 0aee 3b3e
000000e0: 4377 593d ea8a 9fbd eb64 01be 0b9b 30bd
000000f0: f321 2ebe deac 963c 20ec 20be 5384 17be
00000100: 0595 413d 22e9 b4bd 5916 2abe 4995 333e
00000110: 92e7 4dbd e3bc a1bd 15c1 a6bd 3a9e c7bd
00000120: b676 3fbe b858 e9bd f58f 46be a82b 9dbd
00000130: dd2c bc3d 295b 2dbe bcc2 1ebe d79e 0a3e
00000140: 03f4 e6bd 1290 023e 0662 90bc 9272 773d
00000150: 9715 da3c e67b 1cbd 6a27 29be 34b8 253e
00000160: 8c90 043e d6d3 493c 6302 053e 60a2 913d
00000170: 51f3 16be f5ad a13d 38ec 513e e999 363c
00000180: 42f9 13be 0569 6cbd d6c0 c8bc 1a79 babd
00000190: f7cf 283e ff2c dd3d 57fb 65be 14ee 493c
000001a0: 433b 5e3c a8fa 1e3e 9b0a 893d 7fb6 d33d
000001b0: 12c6 563d e2f1 0abe 8d38 ffbd 3188 dfbc
000001c0: 782d a6bd a089 e2bd 4c10 87be b375 4f3e
000001d0: 286f be3c 2164 ec3d 78b5 72bd 24cf 78bc
000001e0: c536 84bd 3354 293e 04a6 96bd e9ce 543e
000001f0: 42f9 99bb 3339 8c3a 4120 df3d 6659 ce3c
00000200: 2b0f 903d cda5 2e3d e833 0b3e a266 3cbe
00000210: d10e 2a3e 07be 1ebe e527 893e 5877 ce3d
00000220: 9e56 00be d9d6 02be 6ff2 b23d ab9b 083e
00000230: bc61 63be 95c8 003e a8dd 11be 7d21 a23e
00000240: 8aa2 ee3b c005 32be b018 963c e7a2 2abd
00000250: fa59 803c f30f adbd a75e 0f3e fcff 08be
00000260: 02ed 953e a9b0 95be 8c44 2c3e 1307 16be
00000270: d8f6 513c 5ac2 64bd a7e7 8abe 359e 413e
00000280: 7439 723c 03d3 e83d 1506 28be 3c7d 07bc
00000290: 2778 a4bd fb9b 33be 56f8 ebbc 3fe7 3f3d
000002a0: 5895 08bd 8d81 05be 0e78 93bb c3c2 903d
000002b0: c2e3 deb9 9be5 3cbe b6c8 a33d bcf0 273e
000002c0: 6675 9dbd 8da8 64bd 4508 463c f450 a83b
000002d0: 494d 1d3e 8ade 1b3e 7314 ad3d d730 28be
000002e0: f3b4 343e 5a53 033e 10d7 893e e696 c3bd
000002f0: acb0 eb3d d238 2f3e 00e4 913d 7468 d3bd
00000300: d3a5 18bd a4d5 853c e825 c23d 4dfc c0bc
00000310: 2e24 5abe 965e 42bd fce7 45be 4aa5 34be
00000320: b157 2a3e 51d9 32be 3c12 e73d 8257 01be
00000330: a84d 12be f293 2c3d d750 a43d db6e 0abd
00000340: 1e77 dc3d 9485 d1bc 8b3d 6cbe 5164 0e3e
00000350: f521 7c3d 259b c4bd 07ab 5d3c 3490 933d
00000360: 33a3 35bd d8fa 40bd 1cff ac3b f814 c03d
00000370: 3fea 433e 9bae a1bc 904e 4a3d e3e8 6d3d
00000380: d41d edbd efbe cc3c 5809 c23c a0bc 1dbe
00000390: 11f6 47be 9dfe 393e 7139 b4bd 8483 353e
000003a0: 4a91 dc3c 96fe 193e 9244 1f3c d2ea c4bc
000003b0: 8a8d 89bc 0e2b 52be d2e4 c6bc 710d 323e
000003c0: f52b 5bbd 1cc1 8cbd 2a59 04be 099b a6bd
000003d0: e93b 04bd 74f0 233e 1570 e43d a5e8 bfbc
000003e0: f5fa 283d 1800 34bc 20b0 04be 14c1 b1bc
000003f0: b38f cb3d 8686 ccbc ee65 883d aafc a2bc

batch.weight f4 [256]
1.3726609 0.27351013 0.72732556 0.81387365 0.90794194 1.0528626 0.6196233 1.102735
0.85635537 0.5695163 0.36358246 1.0866277 0.7968708 0.849271 0.6966158 0.5532686
1.185471 0.43988967 0.63315094 0.7340165 0.6694643 1.1735833 0.3132247 0.30996034
0.4156974 0.31508833 0.37250885 0.49947312 0.577091 0.8812341 0.4742669 0.47012788
0.626341 1.0668977 0.3571423 0.85705006 0.5810658 0.30512565 0.5847913 0.9866966
0.67945594 0.853829 0.9650129 0.6448962 0.8000159 0.9988133 0.9509483 0.3465138
0.96918154 0.9273368 0.9435693 1.0571752 0.675769 0.29933438 0.6606029 0.8210565
0.43516952 0.62634057 0.9049052 0.9521702 0.399205 0.40195823 0.84794706 0.29129168
0.65553266 0.7768711 0.5725644 0.72766197 0.8820517 0.94530934 0.7665941 0.79231143
0.50935775 0.48103058 0.36869115 0.5439541 0.8226745 0.7232916 0.82392937 0.31612092
0.001689953 0.659455 0.4950685 0.52611595 0.8844339 0.9242632 0.3328874 0.62331164
0.74808866 0.80421495 0.37946367 0.89197445 0.8791599 0.81030786 0.67456484 0.6252162
1.008303 0.5213034 0.8358473 0.9922492 0.46038952 0.5285103 1.2043996 0.72926486
1.0716891 0.4001129 0.39126062 0.4229146 1.1874199 -0.00012770228 0.92259574 0.7807698
0.5668232 0.83957577 0.4262225 0.922647 0.7476433 0.74963075 0.71647006 0.70161396
0.6616457 1.1045883 0.4359904 0.93833935 0.3217976 0.41725996 0.18176927 0.51568127
1.1618494 0.80854803 0.9203651 0.7566838 0.52108693 0.710707 0.7673379 0.4843608
0.52636313 0.7193803 0.8479006 0.47556606 0.6195482 0.71724486 0.71881294 0.91027915
0.9241705 0.6791233 0.8108264 0.44009817 0.67458075 0.71334815 0.22566736 0.37521017
0.77890235 0.6292581 0.26605982 0.29364094 0.46649688 0.6969417 0.644444 1.0030217
0.88992244 0.8569453 0.872144 0.6192194 0.44547492 0.38229388 0.72474897 1.1869527
0.7026158 0.37823838 1.0886705 0.83454514 0.9256656 0.7127529 0.7453261 0.74430317
1.0969496 0.9471468 0.63607466 1.1182156 0.2878642 1.4166291 0.62640136 0.8796817
1.3615549 0.6539225 0.8172555 0.6216143 0.63308 0.43054336 0.88734674 0.7707436
0.63946974 0.59879774 0.24992679 0.97973204 0.7127206 0.7158796 0.93467224 0.44184154
0.8754987 0.3358817 0.7139831 1.0315104 0.5992551 0.63925666 0.90315354 0.44117796
0.31822053 0.3997554 0.49709222 0.3538962 0.7773342 0.83408564 0.47473702 -0.0010711083
0.42065156 0.8864447 0.7852308 0.7164336 0.33242652 0.9065056 0.5251962 0.5693519
0.32876617 0.46321458 0.61107373 0.7309669 0.9918462 0.9790304 1.4019313 0.85531056
0.92100275 1.0753677 0.54984695 0.9609125 1.1547506 0.6642457 0.3044014 1.1544778
0.46557108 0.3758778 -0.00012101649 1.0490592 1.0380905 0.38662997 0.6774923 0.6898457
0.48662508 0.57223004 0.46092525 0.8616876 0.6604042 0.7605746 0.26073465 0.94141704
00000000: 5ab3 af3f 8509 8c3e 0232 3a3f 065a 503f
00000010: e26e 683f 34c4 863f a29f 1e3f 6c26 8d3f
00000020: 1b3a 5b3f d2cb 113f 7b27 ba3e 9e16 8b3f
00000030: baff 4b3f d369 593f 6a55 323f 03a3 0d3f
00000040: 84bd 973f 3839 e13e 2e16 223f 81e8 3b3f
00000050: 0362 2b3f fa37 963f fd5e a03e 1fb3 9e3e
00000060: 4ad6 d43e 4253 a13e 7bb9 be3e f1ba ff3e
00000070: 3cbc 133f 8f98 613f 1cd3 f23e 9ab4 f03e
00000080: e257 203f 1b90 883f 5bdb b63e a267 5b3f
00000090: bac0 143f 6e39 9c3e e2b4 153f 2698 7c3f
000000a0: d3f0 2d3f 8a94 5a3f 160b 773f eb17 253f
000000b0: d8cd 4c3f 3ab2 7f3f 5971 733f 426a b13e
000000c0: 481c 783f f265 6d3f c28d 713f 8451 873f
000000d0: 32ff 2c3f 5b42 993e 461d 293f c230 523f
000000e0: 8ace de3e db57 203f dea7 673f 6dc1 733f
000000f0: 9964 cc3e 78cd cd3e 0f13 593f 2f24 953e
00000100: fdd0 273f 06e1 463f 9593 123f 0e48 3a3f
00000110: 24ce 613f cbff 713f 833f 443f ecd4 4a3f
00000120: 4565 023f a449 f63e 16c5 bc3e 9340 0b3f
00000130: cc9a 523f a329 393f 09ed 523f 9ada a13e
00000140: 6a81 dd3a 0bd2 283f 9e79 fd3e 89af 063f
00000150: 436a 623f 839c 6c3f 3870 aa3e 5a91 1f3f
00000160: bd82 3f3f 08e1 4d3f 1049 c23e 7058 643f
00000170: a010 613f 5670 4f3f 48b0 2c3f 2b0e 203f
00000180: 1310 813f 2474 053f 17fa 553f 0b04 7e3f
00000190: 2db8 eb3e 734c 073f c429 9a3f 1ab1 3a3f
000001a0: 1c2d 893f 99db cc3e 5053 c83e 4388 d83e
000001b0: 60fd 973f d2e7 05b9 3c2f 6c3f 88e0 473f
000001c0: 531b 113f 70ee 563f d639 da3e 9832 6c3f
000001d0: 8d65 3f3f cde7 3f3f 956a 373f f99c 333f
000001e0: 9d61 293f 2663 8d3f 223a df3e 0237 703f
000001f0: a8c2 a43e 19a3 d53e b921 3a3e b003 043f
00000200: 7bb7 943f 01fd 4e3f 0c9d 6b3f 08b6 413f
00000210: f465 053f e5f0 353f 4270 443f 24fe f73e
00000220: bcbf 063f 4f29 383f 0410 593f 657d f33e
00000230: b69a 1e3f 5c9d 373f 2004 383f 0e08 693f
00000240: 7096 6c3f 06db 2d3f 5292 4f3f 8c54 e13e
00000250: 53b1 2c3f fc9d 363f 5815 673e 8c1b c03e
00000260: 2566 473f 0f17 213f fe38 883e 1b58 963e
00000270: aed8 ee3e c56a 323f 48fa 243f 0463 803f
00000280: f5d1 633f c460 5b3f d444 5f3f 2a85 1e3f
00000290: 4a15 e43e 06bc c33e 2689 393f 11ee 973f
000002a0: a1de 333f 76a8 c13e 8e59 8b3f c0a4 553f
000002b0: 6cf8 6c3f f976 363f b1cd 3e3f a78a 3e3f
000002c0: d868 8c3f 3678 723f cad5 223f b021 8f3f
000002d0: f062 933e 1a54 b53f d75b 203f d232 613f
000002e0: 6e47 ae3f 7767 273f a837 513f 1d22 1f3f
000002f0: 8811 223f 2e70 dc3e 2829 633f 744f 453f
00000300: 4ab4 233f cf4a 193f cfec 7f3e b8cf 7a3f
00000310: db74 363f e343 373f ae46 6f3f 0e39 e23e
00000320: af20 603f b0f8 ab3e 99c7 363f 8808 843f
00000330: c868 193f 53a6 233f 1235 673f 14e2 e13e
00000340: cded a23e bdac cc3e df82 fe3e e231 b53e
00000350: 60ff 463f a386 553f bb10 f33e 6e64 8cba
00000360: a45f d73e 0aee 623f e304 493f 3168 373f
00000370: cf33 aa3e c010 683f 4273 063f 0cc1 113f
00000380: 0a54 a83e 762a ed3e 546f 1c3f a620 3b3f
00000390: a2e9 7d3f bca1 7a3f 7c72 b33f a2f5 5a3f
000003a0: d6c6 6b3f a6a5 893f c5c2 0c3f 5dfe 753f
000003b0: dece 933f 020c 2a3f 80da 9b3e eec5 933f
000003c0: 555f ee3e 0e73 c03e 3cca fdb8 9247 863f
000003d0: 26e0 843f 5df4 c53e 2370 2d3f ba99 303f
000003e0: ec26 f93e ab7d 123f 65fe eb3e 8f97 5c3f
000003f0: 4010 293f 04b5 423f 037f 853e b500 713f

batch.bias f4 [256]
-0.046239793 0.098095685 0.43480623 0.30135357 0.09338724 -0.14806044 -0.012224816 -0.046079583
0.22662356 0.1352562 0.14074385 0.2406144 0.04379227 -0.33787486 0.15369996 0.08807988
-0.1020868 0.1493653 -0.1766294 0.08313935 0.06958214 -0.12252137 -0.04806698 -0.16576977
-0.112847656 -0.2445828 0.098264426 -0.1337101 -0.17002954 0.3207347 0.112981126 0.007311618
0.1200109 0.017493647 0.09983096 -0.06237295 0.27065918 0.19851331 -0.030034952 0.31214666
-0.30571926 0.1943025 0.12181497 0.09746365 -0.19562297 -0.095941 -0.17821217 0.13940795
-0.042387452 -0.05882206 -0.140559 -0.04906923 -0.16880032 0.23012264 0.19936901 -0.25629067
0.13770099 0.15476604 0.09564515 -0.11314181 0.21037386 0.26904592 -0.032304388 0.17139329
0.108706445 -0.029920498 0.020207671 -0.07266472 0.014117588 0.114124574 0.064805835 0.0010006541
-0.119611196 0.045210943 0.08267545 0.21392299 0.35675952 0.058445673 0.060388062 -0.108539306
-0.009435797 -0.7169938 -0.13580433 -0.22487506 -0.35166723 0.1689485 0.24767375 -0.11037513
-0.4169723 0.04698095 -0.21488507 0.029726712 0.096673645 -0.35883546 0.025756584 0.100000925
0.048800264 -0.004310223 0.0013726534 -0.17746231 0.1624693 -0.3359645 0.04033125 -0.18955848
-0.13096505 -0.16300553 0.09921824 0.03730074 -0.18200696 -0.0015527104 0.13938859 -0.1289068
0.0019921677 0.06419691 0.029071422 -0.03895185 -0.025527883 0.10321978 0.006083308 0.0704243
0.09030015 0.032086574 -0.12624446 -0.06031808 0.09704477 -0.08318793 0.26097417 0.15851308
-0.035308078 0.031103881 -0.5653796 0.13955855 -0.027790273 0.045430366 0.17702273 0.029151168
-0.2617898 0.026611853 0.2364512 -0.026568092 0.123044334 -0.08695582 0.23565973 -0.14664532
0.0093445135 0.025725288 -0.14990604 0.15077376 -0.029431755 -0.030829938 -0.26494482 0.03036893
0.040971838 0.21887803 0.11876066 0.1469327 -0.08922262 -0.17620277 0.016434522 0.055755988
0.0678328 0.09989953 -0.1481045 -0.17441885 -0.22533762 -0.109607406 -0.018872373 -0.18310972
0.29122362 0.10438068 -0.05415401 0.21948557 -0.4491515 0.007053015 0.08737627 0.23359346
-0.09025382 0.06865155 -0.2260483 -0.11562523 0.0014390327 -0.053412694 -0.0510376 -0.04209436
0.19384451 0.111260206 -0.15705091 -0.08644589 -0.2937639 -0.071823515 0.3688995 0.09680214
0.11794966 0.07209663 0.10784377 0.07073694 -0.1730264 -0.08098245 -0.121771336 0.10561097
0.1761924 0.012926785 0.012418658 -0.35238692 -0.024786355 -0.005390895 -0.03622036 0.028419059
-0.1384404 -0.26955834 0.045894805 -0.16467088 -0.34969085 -0.23607555 0.28647438 -0.012868393
-0.04849708 -0.049536545 -0.18760115 0.17089808 -0.3101122 0.19320366 -0.2594708 -0.045953147
-0.022351764 0.13546021 -0.08198913 0.115238346 -0.07993024 -0.21152739 0.1247575 0.36233792
-0.28057748 0.03313014 -0.27405006 -0.30551994 -0.01940605 0.11058806 0.083873965 -0.30966243
-0.20511876 -0.37852696 -0.00090650097 0.041136067 -0.1778155 -0.0551043 -0.20487046 -0.0724573
-0.17925662 -0.04422462 -0.011200709 -0.00392671 -0.5055925 0.26337683 0.13660266 -0.369195
00000000: f065 3dbd 64e6 c83d ec9e de3e 044b 9a3e
00000010: cf41 bf3d 289d 17be 984a 48bc f2bd 3cbd
00000020: 0210 683e 9a80 0a3e 281f 103e 9f63 763e
00000030: 865f 333d effd acbe 8663 1d3e 3963 b43d
00000040: e212 d1bd 38f3 183e 56de 34be f744 aa3d
00000050: 1581 8e3d 7cec fabd e2e1 44bd 8dbf 29be
00000060: ac1c e7bd ea73 7abe dc3e c93d 4deb 08be
00000070: 391c 2ebe 5737 a43e a662 e73d 4c96 ef3b
00000080: 46c8 f53d d64e 8f3c 2d74 cc3d c77a 7fbd
00000090: d793 8a3e 1347 4b3e dc0b f6bc b0d1 9f3e
000000a0: 3c87 9cbe 3cf7 463e 217a f93d 069b c73d
000000b0: 6351 48be b77c c4bd 407d 36be f5c0 0e3e
000000c0: 779e 2dbd 66ef 70bd b3ee 0fbe d1fc 48bd
000000d0: fed9 2cbe 45a5 6b3e 6427 4c3e 8838 83be
000000e0: 7d01 0d3e fd7a 1e3e 9be1 c33d e5b6 e7bd
000000f0: 3f6c 573e 63c0 893e 9b51 04bd b981 2f3e
00000100: 7ca1 de3d d51b f5bc 8f8a a53c 3ed1 94bd
00000110: 754d 673c 25ba e93d ecb8 843d 6128 833a
00000120: b7f6 f4bd 1c2f 393d bf51 a93d a10e 5b3e
00000130: 2fa9 b63e bb64 6f3d 7959 773d db49 debd
00000140: 9a98 1abc e88c 37bf 4a10 0bbe a645 66be
00000150: ba0d b4be d600 2d3e 309e 7d3e 5b0c e2bd
00000160: 657d d5be 196f 403d d50a 5cbe 6f85 f33c
00000170: d5fc c53d 48b9 b7be 79ff d23c 49cd cc3d
00000180: c9e2 473d c53c 8dbb 9bea b33a aeb8 35be
00000190: 5a5e 263e 8a03 acbe 6132 253d 9e1b 42be
000001a0: b41b 06be ecea 26be ef32 cb3d a9c8 183d
000001b0: 0860 3abe 5184 cbba e2bb 0e3e 2500 04be
000001c0: 078f 023b ab79 833d 3127 ee3c fa8b 1fbd
000001d0: da1f d1bc e464 d33d 7c56 c73b 9e3a 903d
000001e0: 49ef b83d 366d 033d 3a46 01be 1710 77bd
000001f0: 69bf c63d 6f5e aabd 689e 853e 4151 223e
00000200: 349f 10bd 91cd fe3c b8bc 10bf 70e8 0e3e
00000210: 6da8 e3bc 3115 3a3d 7245 353e 6ece ee3c
00000220: 5009 86be 1a01 da3c 4320 723e 54a5 d9bc
00000230: abfe fb3d e515 b2bd c950 713e 312a 16be
00000240: bb19 193c d7bd d23c f880 19be 7064 1a3e
00000250: dd1a f1bc 118f fcbc d9a6 87be 43c8 f83c
00000260: 16d2 273d 9021 603e ca38 f33d 8775 163e
00000270: 59ba b6bd 806e 34be b1a1 863c 6460 643d
00000280: eceb 8a3d 2098 cc3d b5a8 17be db9a 32be
00000290: e8be 66be d979 e0bd 3c9a 9abc 1d81 3bbe
000002a0: 431b 953e 8ac5 d53d 98d0 5dbd d3c0 603e
000002b0: 2ff7 e5be fa1c e73b 54f2 b23d 2033 6f3e
000002c0: ffd6 b8bd 2f99 8c3d 3579 67be eccc ecbd
000002d0: ed9d bc3a 45c7 5abd cd0c 51bd 236b 2cbd
000002e0: 2d7f 463e 64dc e33d f4d1 20be 8b0a b1bd
000002f0: 3968 96be 3518 93bd 65e0 bc3e 3340 c63d
00000300: 978f f13d 66a7 933d 32dd dc3d 87de 903d
00000310: d52d 31be 20da a5bd 4063 f9bd 904a d83d
00000320: c86b 343e deca 533c a077 4b3c 0f6c b4be
00000330: c10c cbbc 1ba6 b0bb cd5b 14bd 16cf e83c
00000340: 52c3 0dbe 8d03 8abe 31fc 3b3d 7c9f 28be
00000350: ae0a b3be cabd 71be c5ac 923e f4d5 52bc
00000360: e0a4 46bd d5e6 4abd 841a 40be e8ff 2e3e
00000370: 07c7 9ebe 2ed7 453e 5bd9 84be 5e39 3cbd
00000380: 0c1b b7bc 15b6 0a3e ebe9 a7bd 1502 ec3d
00000390: 77b2 a3bd a39a 58be dc80 ff3d 5b84 b93e
000003a0: daa7 8fbe 78b3 073d 4a50 8cbe 1c6d 9cbe
000003b0: 70f9 9ebc fe7b e23d 1dc6 ab3d 138c 9ebe
000003c0: a70a 52be 49ce c1be 40a2 6dba 4b7e 283d
000003d0: 4415 36be 0cb5 61bd 90c9 51be 7e64 94bd
000003e0: 0c8f 37be e024 35bd 2e83 37bc a2ab 80bb
000003f0: 836e 01bf 54d9 863e 91e1 0b3e 2107 bdbe

batch.running_mean f4 [256]
0.27444485 2.9444258 0.9108887 0.3793288 1.3941207 -1.7943513 -3.6781058 -0.21415639
-0.082717456 4.459612 -0.80686426 -3.1819494 3.36258 -1.9741913 -1.0944204 0.49057034
0.7182861 -0.12638481 -2.6922262 -0.38679504 -1.113934 1.0950149 -0.9765765 -1.3294603
1.9870431 -1.1556945 -0.041947644 1.4687825 -1.4057984 0.23392251 -0.8387206 1.3453892
-2.3495588 -4.96797 1.58666 -1.7527428 3.6809273 2.4132056 -0.92415935 0.0021522236
3.0067854 1.7384269 -0.6009924 0.31184754 -1.1047765 -0.59581685 -1.9046402 1.8555858
0.75213873 4.2257504 1.4953252 3.6293283 -3.7918692 1.3642124 1.7319787 0.048963055
1.4585836 -0.061174247 4.053959 0.1220185 -0.005032714 -0.101894125 -1.6379828 -1.9235464
-0.008645721 3.6139932 4.2673216 0.7781227 -1.4943752 -3.741174 -1.3680599 -2.0881815
-2.4923925 0.8703504 1.2648118 -0.398804 0.1443515 -0.65183973 2.1405983 0.27592552
-0.11581891 0.35925046 2.0168014 0.525973 -1.522658 0.33750287 -1.2746216 -0.17416413
-3.5722783 -0.5144841 0.52222407 1.4213403 -0.22755177 1.1418645 0.03865137 0.11479324
-2.3885307 -0.30809453 1.3421645 1.5671712 2.3717043 -0.905659 0.6298442 -0.6675541
0.6709577 2.1143827 -0.012349936 0.28347012 -0.6053547 -0.100014694 3.4987273 -2.5685802
-2.173295 -2.1921165 -1.0313323 3.4192812 4.462842 3.6085973 -2.4988198 -3.0908363
-0.9548384 -1.1671418 -1.1474788 -2.3440137 -1.7102103 -0.2749745 3.6155093 -0.33810875
0.4746942 2.945202 2.3169262 -1.3705366 1.8868166 -0.821345 2.097133 3.8889492
1.8938401 -3.9967484 7.741974 -1.2259494 0.78455126 1.5222939 -0.7712778 0.34356222
0.41357848 1.767773 0.17772362 -3.3338745 0.05636122 -0.6857917 4.1733027 0.010997464
3.5875103 -2.4639943 -2.1010625 -0.40587568 0.15730746 0.6385079 2.1320555 -1.7731155
1.1532122 3.467388 -0.068919934 -2.023767 0.07975176 -2.6973991 -0.7904458 -2.2003112
0.41928336 -1.0115888 0.5937881 0.60587394 -1.6912307 -1.5888728 1.4896394 3.5114245
-1.4421809 -5.084277 -2.890657 -2.49289 -0.10821419 0.2968225 0.84354013 -2.1581657
0.54591674 3.0052664 -4.2603936 2.0994976 -0.7908866 0.30717105 -2.6919727 -2.6864343
-3.4221294 2.0095918 0.03415053 3.8566773 1.3448656 -2.7015965 -2.2986183 3.886272
2.467833 -3.8208382 -2.1507385 -1.9675641 -1.1083833 -1.8303239 -0.15012255 3.3615637
2.7124836 2.7238421 -1.4199375 -1.2744932 1.7297443 -0.9277126 0.07577093 -0.690094
-2.3737826 -2.3440855 -2.17065 -2.5672805 -3.9664993 0.53102064 -1.837941 0.19103517
-4.549294 -6.044119 -0.5671905 -3.8796127 0.4761475 -1.2035799 0.086894706 4.468052
1.5479372 -2.3663974 0.80939025 -1.4128842 0.7205389 -0.87935644 -2.6620483 2.4371035
2.0759587 -1.0490873 0.18192795 -1.210518 0.4645733 2.261453 -0.5968631 -0.58011407
1.2178495 0.14263937 1.6373125 2.2552936 1.7247728 0.86202675 1.1103587 0.9353677
00000000: 0984 8c3e 7971 3c40 0030 693f 6237 c23e
00000010: 8c72 b23f 4ead e5bf 1666 6bc0 d04b 5bbe
00000020: c567 a9bd 24b5 8e40 a88e 4ebf 0fa5 4bc0
00000030: 8334 5740 4db2 fcbf f815 8cbf 092c fb3e
00000040: 99e1 373f 056b 01be 6f4d 2cc0 000a c6be
00000050: 6495 8ebf 7329 8c3f eb00 7abf c12b aabf
00000060: 6e57 fe3f cced 93bf 4bd1 2bbd 1101 bc3f
00000070: 34f1 b3bf 6289 6f3e 65b6 56bf b735 ac3f
00000080: 2c5f 16c0 9cf9 9ec0 ad17 cb3f e059 e0bf
00000090: 5094 6b40 f671 1a40 b595 6cbf 520c 0d3b
000000a0: 2c6f 4040 c684 de3f a3da 19bf 7baa 9f3e
000000b0: 5169 8dbf 7487 18bf 40cb f3bf d683 ed3f
000000c0: 2a8c 403f 5939 8740 d166 bf3f ea46 6840
000000d0: fcad 72c0 839e ae3f 7ab1 dd3f 7c8d 483d
000000e0: deb2 ba3f d991 7abd 08ba 8140 d6e4 f93d
000000f0: 77e9 a4bb dead d0bd 6ca9 d1bf c536 f6bf
00000100: c8a6 0dbc aa4b 6740 e68d 8840 0d33 473f
00000110: b047 bfbf 656f 6fc0 961c afbf c4a4 05c0
00000120: 5c83 1fc0 49cf 5e3f 5ae5 a13f 0a30 ccbe
00000130: e1d0 133e f8de 26bf 90ff 0840 1c46 8d3e
00000140: 7732 edbd adef b73e 4613 0140 2ba6 063f
00000150: 75e6 c2bf 2dcd ac3e cd26 a3bf 1558 32be
00000160: 35a0 64c0 3bb5 03bf 7ab0 053f 7bee b53f
00000170: 5503 69be 9e28 923f e650 1e3d b818 eb3d
00000180: b0dd 18c0 91be 9dbe 0ccc ab3f 1199 c83f
00000190: 01ca 1740 45d9 67bf 783d 213f d3e4 2abf
000001a0: e2c3 2b3f 0c52 0740 6357 4abc ff22 913e
000001b0: 87f8 1abf 81d4 ccbd 26eb 5f40 9e63 24c0
000001c0: 4417 0bc0 a34b 0cc0 b202 84bf 81d5 5a40
000001d0: 9acf 8e40 42f3 6640 aaec 1fc0 43d0 45c0
000001e0: 4a70 74bf e764 95bf 96e0 92bf 5204 16c0
000001f0: 2ce8 dabf 75c9 8cbe 8164 6740 971c adbe
00000200: 1e0b f33e 317e 3c40 8548 1440 be6d afbf
00000210: 3583 f13f aa43 52bf 6d37 0640 8be4 7840
00000220: 5a69 f23f baca 7fc0 40be f740 e9eb 9cbf
00000230: 5ad8 483f 87da c23f 7672 45bf 63e7 af3e
00000240: 8fc0 d33e 6346 e23f 2efd 353e 335e 55c0
00000250: 06db 663d 0b90 2fbf b28b 8540 b52e 343c
00000260: c599 6540 15b2 1dc0 cf77 06c0 f0ce cfbe
00000270: 3515 213e 4175 233f 9973 0840 73f5 e2bf
00000280: 759c 933f afe9 5d40 e525 8dbd 6685 01c0
00000290: e454 a33d 30a2 2cc0 a85a 4abf e6d1 0cc0
000002a0: 4fac d63e be7b 81bf 7f02 183f 8e1a 1b3f
000002b0: 3f7a d8bf 2f60 cbbf 81ac be3f 2ebb 6040
000002c0: 6299 b8bf 66b2 a2c0 8600 39c0 828b 1fc0
000002d0: 679f ddbd 1ef9 973e 3ff2 573f 631f 0ac0
000002e0: 33c1 0b3f 4956 4040 2555 88c0 2b5e 0640
000002f0: 8b77 4abf 8645 9d3e 4849 2cc0 8aee 2bc0
00000300: 2b04 5bc0 279d 0040 6de1 0b3d cdd3 7640
00000310: 8e24 ac3f f5e6 2cc0 901c 13c0 aeb8 7840
00000320: faf0 1d40 9d88 74c0 b3a5 09c0 24d9 fbbf
00000330: 81df 8dbf 0e48 eabf bab9 19be dc23 5740
00000340: 5599 2d40 6e53 2e40 83c0 b5bf 9822 a3bf
00000350: 4368 dd3f 937e 6dbf ca2d 9b3d 00aa 30bf
00000360: 0eec 17c0 7f05 16c0 eeeb 0ac0 534e 24c0
00000370: 20db 7dc0 f8f0 073f a741 ebbf b99e 433e
00000380: d193 91c0 6c69 c1c0 6633 11bf 934b 78c0
00000390: 9bc9 f33e e80e 9abf daf5 b13d 48fa 8e40
000003a0: ce22 c63f 0e73 17c0 3334 4f3f 64d9 b4bf
000003b0: 3d75 383f 811d 61bf 005f 2ac0 81f9 1b40
000003c0: 82dc 0440 7e48 86bf 524b 3a3e 41f2 9abf
000003d0: 8ddc ed3e a5bb 1040 05cc 18bf 5b82 14bf
000003e0: 7ee2 9b3f 0e10 123e 7593 d13f bb56 1040
000003f0: 5bc5 dc3f c9ad 5c3f 3c20 8e3f 4274 6f3f

batch.running_var f4 [256]
0.38303134 13.374682 9.352267 12.550824 3.537709 5.8737044 26.20919 2.0104768
2.3524663 3.872262 1.7333093 5.335643 7.648733 2.6587558 4.0666733 5.381367
0.64157766 12.830589 10.787521 7.872542 7.121827 1.7152063 9.188642 7.620419
13.653036 1.8765786 11.999879 4.8068495 5.526067 3.3535256 3.735989 10.908316
1.3989022 4.015658 14.982918 5.588427 3.876547 4.3838096 1.593961 16.213251
11.548088 3.7995243 4.6844587 3.6994815 5.190669 2.762856 22.783283 10.7775
1.833974 1.8411686 6.379108 6.43151 3.731368 10.010349 7.9790506 1.9707431
10.376563 10.580439 17.119812 1.5495689 6.1895647 1.1158538 1.4659452 10.480527
10.090309 4.0440073 7.25372 3.6587992 1.0313704 13.900721 7.5031347 6.2425814
7.8779893 10.634155 20.332573 0.37059638 2.5421982 5.790337 4.834961 4.130307
2.709142 1.7518836 18.057829 4.455951 3.4868107 9.623678 7.83299 2.5309482
19.40658 1.5848092 4.1717906 2.3495092 0.9392377 2.0408726 22.86678 0.955367
20.654709 8.613472 3.201714 4.637397 11.932028 5.6652727 1.6986159 12.445894
5.270068 3.8328693 21.024496 12.544959 5.936604 4.4735293 12.586939 3.9488068
11.650679 11.113246 1.7240183 12.223689 6.9247894 9.6969 2.7362185 6.7473097
9.991558 6.236691 7.990243 3.337843 8.167867 1.57178 6.2862825 6.0843234
7.821678 6.357373 3.974079 7.5992465 0.8471364 6.197612 2.240615 5.323889
0.60681534 3.8528843 11.367599 6.859337 1.835181 5.248498 14.392553 0.33820435
4.740783 6.8581896 2.549611 12.896407 16.284945 10.394306 16.221823 3.7431536
3.8411233 4.498028 5.770012 3.093727 4.2768345 5.9974537 5.47004 19.231882
2.8612213 4.7337184 10.574691 2.763651 4.922152 4.924757 10.151257 4.223185
0.35879603 11.613417 7.551111 7.002992 4.7204266 4.678379 4.2926507 4.446972
7.447348 5.8666873 8.972613 2.984754 0.71835333 0.40786058 2.0048158 9.594021
1.5252355 4.280688 5.6635303 3.7205987 7.0879188 4.913119 5.0581284 13.955652
12.605745 3.9567528 11.229944 4.976904 5.0256486 4.366077 4.026822 5.574542
6.2063265 2.20879 14.075015 4.7324324 7.4883265 10.824683 9.001864 5.2261324
6.938377 6.5632906 15.025336 4.143963 6.592355 5.213498 3.6114984 0.869842
5.1464834 9.207118 6.562623 19.597378 6.4594483 9.922342 9.714934 7.9131474
5.4455843 13.017263 3.9648707 14.153722 8.53637 3.304868 0.24561307 18.046595
3.5241394 6.8025126 0.67787516 10.022257 4.632846 29.649803 10.869999 17.039099
5.7952957 2.760384 0.6782413 14.279616 10.871455 4.17725 7.33614 1.0377848
8.928722 0.4574416 4.0780206 1.3117192 1.2547717 7.5486073 7.308965 3.2618122
00000000: af1c c43e b3fe 5541 e3a2 1541 2dd0 4841
00000010: d369 6240 63f5 bb40 6cac d141 a7ab 0040
00000020: cf8e 1640 24d3 7740 14dd dd3f 96bd aa40
00000030: 6cc2 f440 0e29 2a40 3022 8240 2934 ac40
00000040: 6f3e 243f 184a 4d41 b099 2c41 ddeb fb40
00000050: 02e6 e340 e18b db3f ad04 1341 79da f340
00000060: d672 5a41 ba33 f03f 81ff 3f41 b6d1 9940
00000070: 8ad5 b040 2aa0 5640 721a 6f40 7688 2e41
00000080: 3a0f b33f 4580 8040 08ba 6f41 65d4 b240
00000090: 5919 7840 2b48 8c40 ea06 cc3f bdb4 8141
000000a0: f8c4 3841 682b 7340 16e7 9540 4ec4 6c40
000000b0: f619 a640 a2d2 3040 2a44 b641 a470 2c41
000000c0: a9bf ea3f 6aab eb3f a721 cc40 eece cd40
000000d0: bcce 6e40 642a 2041 6254 ff40 4f41 fc3f
000000e0: 6706 2641 7a49 2941 60f5 8841 4658 c63f
000000f0: ea10 c640 4cd4 8e3f 18a4 bb3f 3db0 2741
00000100: e871 2141 8268 8140 791e e840 c429 6a40
00000110: f203 843f 5a69 5e41 ae19 f040 3ac3 c740
00000120: 7d18 fc40 8025 2a41 1ca9 a241 cfbe bd3e
00000130: 60b3 2240 714a b940 00b8 9a40 7a2b 8440
00000140: 9562 2d40 b93d e03f 6f76 9041 2797 8e40
00000150: e827 5f40 96fa 1941 dba7 fa40 0efb 2140
00000160: ad40 9b41 07db ca3f 4f7f 8540 5c5e 1640
00000170: e271 703f a89d 0240 2aef b641 ef92 743f
00000180: d83c a541 c8d0 0941 e2e8 4c40 8e65 9440
00000190: 96e9 3e41 ea49 b540 3f6c d93f 6222 4741
000001a0: 66a4 a840 bb4d 7540 2b32 a841 27b8 4841
000001b0: a9f8 bd40 2727 8f40 1a64 4941 40b9 7c40
000001c0: 2e69 3a41 dbcf 3141 a2ac dc3f 3b94 4341
000001d0: e097 dd40 8126 1b41 341e 2f40 f6e9 d740
000001e0: 6cdd 1f41 f992 c740 12b0 ff40 389f 5540
000001f0: 95af 0241 1630 c93f 3a29 c940 c7b2 c240
00000200: 304b fa40 9a6f cb40 4f57 7e40 072d f340
00000210: eedd 583f d652 c640 3c66 0f40 4c5d aa40
00000220: 4058 1b3f a895 7640 afe1 3541 b07f db40
00000230: 36e7 ea3f b2f3 a740 e647 6641 1f29 ad3e
00000240: 7fb4 9740 4a76 db40 d42c 2340 af57 4e41
00000250: 9147 8241 144f 2641 4bc6 8141 d48f 6f40
00000260: f7d4 7540 d8ef 8f40 f0a3 b840 a0ff 4540
00000270: d4db 8840 24eb bf40 910a af40 e5da 9941
00000280: 401e 3740 9f7a 9740 ef31 2941 a8df 3040
00000290: 4582 9d40 9c97 9d40 8c6b 2241 5524 8740
000002a0: 1db4 b73e 8ed0 3941 b4a2 f140 8318 e040
000002b0: bc0d 9740 48b5 9540 655d 8940 984d 8e40
000002c0: ad50 ee40 e7bb bb40 d38f 0f41 3606 3f40
000002d0: 01e6 373f 1ad3 d03e e74e 0040 1c81 1941
000002e0: eb3a c33f 65fb 8840 a43b b540 4a1e 6e40
000002f0: 3bd0 e240 4538 9d40 30dc a140 5a4a 5f41
00000300: 22b1 4941 703b 7d40 daad 3341 cc42 9f40
00000310: 1dd2 a040 e7b6 8b40 badb 8040 a662 b240
00000320: 3a9a c640 d15c 0d40 4333 6141 1670 9740
00000330: 5fa0 ef40 e731 2d41 a307 1041 7a3c a740
00000340: 2f07 de40 7a06 d240 c767 7041 589b 8440
00000350: 92f4 d240 fad4 a640 ca22 6740 f7ad 5e3f
00000360: feaf a440 5b50 1341 0201 d240 6ec7 9c41
00000370: cdb3 ce40 eac1 1e41 5f70 1b41 8138 fd40
00000380: 3a42 ae40 b646 5041 71c0 7d40 a575 6241
00000390: f994 0841 f582 5340 fe81 7b3e 6d5f 9041
000003a0: 808b 6140 2fae d940 3a89 2d3f 2a5b 2041
000003b0: 4640 9440 cc32 ed41 84eb 2d41 1350 8841
000003c0: 1073 b940 22aa 3040 39a1 2d3f 4f79 6441
000003d0: 7bf1 2d41 08ac 8540 a9c1 ea40 22d6 843f
000003e0: 0cdc 0e41 c935 ea3e 257f 8240 6ae6 a73f
000003f0: 5c9c a03f 318e f140 0be3 e940 88c1 5040

fc2.weight f4 [128, 256]
0.23294853 -0.10852274 0.13159306 0.1978706 -0.07871036 0.005880816 0.074516155 -0.007249155
-0.0057790466 0.12618156 -0.056232065 -0.028114343 -0.02696558 0.23014121 0.11657354 0.10347715
-0.027501717 0.0648239 -0.034065142 -0.1704273 -0.047878325 0.0063084057 -0.03101802 -0.08746508
0.23563768 0.21077129 0.10084199 -0.15982473 0.010108149 0.10679378 -0.074153155 -0.085013196
-0.09669193 0.03252709 -0.13137957 0.098092 -0.012623462 -0.095245816 -0.061442297 0.12997575
0.012568186 0.14389358 -0.048682403 0.08017205 0.1457504 0.16620769 -0.04599125 0.05532774
0.12536739 -0.06693592 0.09953875 0.12558764 0.124401875 0.0033371486 0.2191464 0.26256153
0.021138385 0.03706747 -0.08689184 0.179887 0.0029136476 0.31070095 0.05632095 0.111830585
0.23229647 -0.06843394 0.21399023 -0.015634483 0.08224434 0.05423855 -0.057485018 -0.003572902
0.11766822 -1.6598033e-05 -0.074225225 0.13734895 0.030626386 0.19463766 0.05554151 0.41686794
0.07217891 0.13024944 -0.08596268 -0.19237714 0.06801664 0.031050822 -0.003700355 0.12576316
0.0076069394 0.02291787 -0.06274975 -0.07082639 -0.04641944 0.0582515 0.16661902 -0.07759877
0.09721681 -0.015402326 0.017494934 0.052499574 0.009218031 0.16932145 0.18791564 0.17278929
-0.0035314523 0.13490656 0.1794355 -0.014877811 0.11031299 -0.01521559 0.09949891 0.11643679
0.16324596 0.032983087 0.28058022 0.15240355 0.015162252 0.08251968 0.0815159 -0.068594076
0.13452123 0.0856304 -0.074631326 0.025017785 -0.025011636 0.11196108 0.20633048 0.080371626
0.1009797 0.061441984 0.22734033 -0.06992286 -0.008374715 0.16452418 0.27866173 0.19955298
-0.017616216 0.013449777 -0.023916915 -0.09776652 0.18605785 0.027235888 0.17071356 0.24762644
-0.01567044 0.0031038013 0.06770527 0.15867849 0.086348236 0.15766034 0.46607316 0.0043501095
-0.04623659 0.036475126 -0.03152979 -0.054545864 -0.011086066 -0.015460092 0.039844703 0.102271646
0.057506073 0.0834222 0.021360014 0.032650728 -0.032260478 -0.071607515 0.22153254 0.11731182
0.16141112 0.13348903 -0.06624903 0.09145778 0.10954894 0.037693202 0.104707964 0.0017736758
0.037853394 -0.029478082 0.101123124 0.15812856 -0.14309427 0.10794092 0.29896697 -0.03336115
-0.017512077 -0.07205802 0.18525895 -0.014504432 0.08728469 0.1908037 0.07500175 0.040404364
-0.037796564 0.17112818 -0.042762477 0.06327693 0.086402595 0.15353009 -0.018689742 -0.06597144
0.10304023 -0.09405949 -0.07952207 0.12560658 0.18523626 -0.008106383 0.008438963 -0.060627993
-0.15660636 -0.0112524405 0.11959625 -0.09038033 0.06779774 0.11108748 0.22711302 -0.011257895
-0.1078806 -0.10515959 0.0986932 0.15931919 0.1898841 0.09770955 -0.045940462 -0.06048001
0.1373485 -0.06735286 0.07859013 0.16842462 0.021420136 0.05018465 0.10776459 0.09493032
0.0029433134 0.03753859 0.15060495 0.09237416 0.046168674 0.058275893 0.24859664 -0.11958728
0.08006301 -0.09650284 -0.08271207 -0.06552244 -0.01502013 -0.09269033 -0.03828589 0.13134578
-0.09213569 -0.022644768 0.25194758 0.007532871 0.51484436 -0.04188075 -0.0014381836 0.18092173
00000000: 0f8a 6e3e 2c41 debd 55c0 063e 979e 4a3e
00000010: e632 a1bd dcb3 c03b ed9b 983d 528a edbb
00000020: 285e bdbb bd35 013e 9853 66bd 0d50 e6bc
00000030: ece6 dcbc 23aa 6b3e 1cbe ee3d d4eb d33d
00000040: 484b e1bc 65c2 843d e487 0bbd 7e84 2ebe
00000050: 101c 44bd beb6 ce3b 8119 febc e420 b3bd
00000060: 014b 713e 6ed4 573e 3f86 ce3d 18a9 23be
00000070: a69c 253c b3b6 da3d 9cdd 97bd 661b aebd
00000080: 6b06 c6bd 203b 053d 5e88 06be 75e4 c83d
00000090: a3d2 4ebc 3d10 c3bd ebaa 7bbd 5d18 053e
000000a0: cbea 4d3c d758 133e 3367 47bd 3e31 a43d
000000b0: 983f 153e 5932 2a3e 5261 3cbd 579f 623d
000000c0: 4f60 003e b315 89bd f9da cb3d 0c9a 003e
000000d0: 69c6 fe3d 10b4 5a3b ea67 603e 776e 863e
000000e0: 682a ad3c 0fd4 173d 59f4 b1bd 4c34 383e
000000f0: e5f2 3e3b 3214 9f3e ccb0 663d 6f07 e53d
00000100: 20df 6d3e 1827 8cbd 4120 5b3e e313 80bc
00000110: b86f a83d 3e29 5e3d 6975 6bbd 5927 6abb
00000120: 09fc f03d 013c 8bb7 6503 98bd 34a5 0c3e
00000130: 30e4 fa3c 184f 473e 7f7f 633d b76f d53e
00000140: 89d2 933d 1c60 053e 340d b0bd 83fe 44be
00000150: 4f4c 8b3d 4b5e fe3c a881 72bb 0fc8 003e
00000160: a243 f93b 42be bb3c f182 80bd 6d0d 91bd
00000170: 5022 3ebd 2099 6e3d 2d9e 2a3e 1bec 9ebd
00000180: 9b19 c73d 0a5a 7cbc 8951 8f3c cb09 573d
00000190: 3907 173c 9a62 2d3e f56c 403e adef 303e
000001a0: f06f 67bb f224 0a3e f1bd 373e 10c2 73bc
000001b0: c7eb e13d cf4a 79bc 16c6 cb3d 6976 ee3d
000001c0: f329 273e 4619 073d 36a8 8f3e ad0f 1c3e
000001d0: 186b 783c 1400 a93d cff1 a63d 0d7b 8cbd
000001e0: efbf 093e fe5e af3d 4fd8 98bd 19f2 cc3c
000001f0: 34e5 ccbc da4b e53d 4c48 533e e199 a43d
00000200: 72ce ce3d 97aa 7b3d e7cb 683e b733 8fbd
00000210: 1a36 09bc 0779 283e c0ac 8e3e 9e57 4c3e
00000220: e24f 90bc 745c 5c3c 68ed c3bc d039 c8bd
00000230: f385 3e3e cc1d df3c 89cf 2e3e c991 7d3e
00000240: 4b5f 80bc 2569 4b3b 10a9 8a3d 9d7c 223e
00000250: 58d7 b03d b671 213e 24a1 ee3e 5d8b 8e3b
00000260: 9462 3dbd f166 153d 6225 01bd 7c6b 5fbd
00000270: 55a2 35bc 534c 7dbc 3334 233d cc73 d13d
00000280: 7d8b 6b3d 42d9 aa3d 32fb ae3c c5bc 053d
00000290: 9023 04bd f6a6 92bd 6dd9 623e 2e41 f03d
000002a0: f548 253e 59b1 083e 92ad 87bd 374e bb3d
000002b0: 325b e03d 3064 1a3d 2171 d63d af7a e83a
000002c0: 290c 1b3d 057c f1bc a419 cf3d 74ec 213e
000002d0: 4e87 12be 2110 dd3d 3312 993e b4a5 08bd
000002e0: 7d75 8fbc 2893 93bd 86b4 3d3e ffa3 6dbc
000002f0: 51c2 b23d 0c62 433e 849a 993d 0c7f 253d
00000300: 92d0 1abd 3a3c 2f3e b527 2fbd 5697 813d
00000310: d8f3 b03d fe36 1d3e 3b1b 99bc 091c 87bd
00000320: c206 d33d 43a2 c0bd 78dc a2bd 039f 003e
00000330: 93ae 3d3e a2d0 04bc 9443 0a3c 0f55 78bd
00000340: 6b5d 20be 285c 38bc e1ee f43d 5319 b9bd
00000350: 8bd9 8a3d d581 e33d 5190 683e 0973 38bc
00000360: 81f0 dcbd e95d d7bd a91f ca3d 9224 233e
00000370: fa70 423e f21b c83d 112c 3cbd e3b9 77bd
00000380: 16a5 0c3e 4cf0 89bd ddf3 a03d 8177 2c3e
00000390: 4879 af3c 6b8e 4d3d aeb3 dc3d d46a c23d
000003a0: 9be4 403b 11c2 193d 2f38 1a3e aa2e bd3d
000003b0: 5d1b 3d3d b4b2 6e3d 1e90 7e3e 2dea f4bd
000003c0: 13f8 a33d 48a3 c5bd f264 a9bd a130 86bd
000003d0: fe16 76bc 6ed4 bdbd aad1 1cbd 827f 063e
000003e0: a3b1 bcbd 8581 b9bc 46ff 803e 4dd6 f63b
000003f0: d7cc 033f 268b 2bbd 6f81 bcba 8c43 393e

fc2.bias f4 [128]
0.12926257 0.035309948 0.079052135 0.010047465 0.14829227 0.01121205 -0.050572842 -0.13040397
0.033906408 0.06810345 0.04313313 -0.05342905 -0.21866603 -0.03619272 -0.06462887 -0.08031492
0.05467594 0.013832662 -0.06049169 0.052261107 0.050753366 0.04518947 0.09659044 0.102667406
0.14608635 -0.009608185 0.110614985 0.16019908 0.103212275 0.1259204 -0.18770362 0.010120863
0.002129735 0.03772893 -0.12831627 0.07854304 -0.0857548 0.0721869 0.14845367 0.11423278
0.22454424 0.09977849 0.036253195 0.109017566 0.10035615 0.036382314 -0.03318335 0.12702447
-0.07207032 0.17473459 0.03845014 0.022892462 0.037220698 0.12705228 0.017596753 0.094413735
0.1358031 0.044974864 0.09967991 0.06383384 -0.11424901 0.089941524 0.10382043 0.087802775
0.072399855 0.06225492 0.041191 0.15434714 -0.033742003 0.02716042 0.07762814 0.1587615
0.06874781 0.072458066 0.01704938 0.052632987 -0.12743744 -0.03792935 0.030669803 0.11047131
0.0462943 0.123694144 0.00634843 -0.00068908994 0.11865635 0.015909534 0.058631446 -0.07597013
-0.08921926 0.10100978 0.100094445 -0.032721784 0.054510895 0.03692805 0.07501473 0.09415106
0.07530081 0.06561027 0.14489546 -0.028675007 0.09915847 -0.13669635 0.12260138 0.07420829
-0.14550057 -0.27914542 0.11635988 0.00019704331 0.15676501 0.028241288 -0.08591326 0.030092431
0.0762596 0.046607513 0.022990277 0.051600814 -0.0373838 0.15793575 0.22719893 -0.030386541
-0.06954891 0.05598068 0.03324606 0.00031579158 0.027842538 0.04098271 -0.14313844 0.022818526
00000000: 685d 043e 2aa1 103d 16e6 a13d 1f9e 243c
00000010: eed9 173e bfb2 373c 7825 4fbd 9e88 05be
00000020: 72e1 0a3d d279 8b3d 5dac 303d 6bd8 5abd
00000030: fde9 5fbe d13e 14bd 245c 84bd 267c a4bd
00000040: e1f3 5f3d 64a2 623c 22c6 77bd be0f 563d
00000050: c3e2 4f3d 9818 393d 35d1 c53d 4a43 d23d
00000060: a997 153e a66b 1dbc 1c8a e23d 3a0b 243e
00000070: f560 d33d 47f1 003e 6135 40be fad1 253c
00000080: 0693 0b3b a789 1a3d 5765 03be 2cdb a03d
00000090: 36a0 afbd bad6 933d 3d04 183e e0f2 e93d
000000a0: edee 653e aa58 cc3d 3b7e 143d 9a44 df3d
000000b0: 8687 cd3d 9f05 153d 44eb 07bd b412 023e
000000c0: 9b99 93bd a0ed 323e e57d 1d3d f988 bb3c
000000d0: bb74 183d fe19 023e 1127 903c fd5b c13d
000000e0: f80f 0b3e 9037 383d fb24 cc3d 51bb 823d
000000f0: 63fb e9bd 4333 b83d ce9f d43d f1d1 b33d
00000100: 6046 943d 04ff 7e3d e5b7 283d 2d0d 1e3e
00000110: 0e35 0abd 877f de3c 81fb 9e3d 6092 223e
00000120: a7cb 8c3d e564 943d 24ab 8b3c b095 573d
00000130: f67e 02be ce5b 1bbd 3d3f fb3c c83e e23d
00000140: 189f 3d3d 5b53 fd3d 7e06 d03b 0ba4 34ba
00000150: 1a02 f33d b654 823c 8727 703d 3a96 9bbd
00000160: 96b8 b6bd 37de ce3d 51fe cc3d 4707 06bd
00000170: d146 5f3d de41 173d 53a1 993d 45d2 c03d
00000180: 5037 9a3d ad5e 863d 7a5f 143e d9e7 eabc
00000190: 9913 cb3d 21fa 0bbe 6f16 fb3d 84fa 973d
000001a0: 1afe 14be 26ec 8ebe 174e ee3d 699d 4e39
000001b0: 0287 203e 465a e73c 4bf3 afbd 6784 f63c
000001c0: fe2d 9c3d 85e7 3e3d 1b56 bc3c 605b 533d
000001d0: c11f 19bd e9b9 213e d6a6 683e 32ed f8bc
000001e0: a96f 8ebd ff4b 653d 052d 083d d490 a539
000001f0: 0916 e43c 7cdd 273d e292 12be ebed ba3c
