MultiAgents Tennis - Collaboration and Competition/agent1_checkpoint_actor.pth (torch_old, 163759 bytes, 10 tensors)

fc1.weight f4 [256, 24]
00000000: 9b95 103d 92cd c53d 4dcd 803d acfd d2bb
00000010: d596 d13c ff5a 1cbe 1e26 3e3d 05f3 16bd
00000020: 7572 8f3d d33d 5b3a bd6d 133c 0a30 44be
00000030: f6d2 843d c477 2bbd 3e6f be3c 1ba8 15be
00000040: 4d2f c33d 8b76 ebbd 808d fe3c d93d 88be
00000050: a6ad 2fbb a6a9 88bd 5ade c53c 7195 99be
00000060: b9dd 3fbe 5bb5 a4bb 1ec4 0dbe 7740 353e
00000070: 468d 18bd 5b0d c1bd 7acc 00be 40bf 193e
00000080: 7c06 d8bd fbb2 c2bc 5634 d9bc 6f45 ddbc
00000090: b2ee 743d 4eaf 1dbe ef89 bcbc 4e1a a3bd
000000a0: 3e09 b7bb e610 d03d cf24 c33b b56f cbbd
000000b0: 54ca 6cbd cd81 21bd c235 09bd 0b0c 44be
000000c0: 7345 b3bc 2b12 8f3e 31c6 0f3d 89a4 953b
000000d0: d967 acbd e558 173e f377 02bd 3d2f b6bd
000000e0: 9f09 4dbc d682 2a3e 491c 72bb 0e25 503d
000000f0: 42a7 003d e2ef 9c3e 1413 89bc 4dca cd3c
00000100: b69f 8e3d fa12 633e 96b5 243c b8a8 1fbe
00000110: a2a1 8a3d d706 803e a614 7f3d e260 26be
00000120: 3706 fe3d 0766 02be 4d5d a63d 8776 663d
00000130: 35e6 6cbc fea6 9f3d edf6 84bc 394d 823d
00000140: 18a1 ccbd fac0 64bc 7546 0ebe 2557 443e
00000150: 87f6 ac3d 1c93 01be e00a 12bd f539 f73d
00000160: dc72 8fbd 10d5 4f3c ad5e caba c7ec 723d
00000170: c76a 713d 168b 74be 78a4 713d 0235 8f3c
00000180: 7d82 c9bd 5cc0 82be f016 4bbd 4f0b 7b3d
00000190: 7b55 58be bb19 f3bc 62af 013d 93f5 ad3c
000001a0: 9e88 1b3c 0efb a1be 6490 54bc 62e8 efbc
000001b0: 3efd dfbd 8b32 0f3e 8647 3dbd e646 853a
000001c0: 3302 033e fa24 57be 2dfb b03c 3865 133e
000001d0: 622a 5ebd bfe8 973d b17e 6539 988e c93d
000001e0: 0de7 153e e946 ac3d 5b87 9d3c 43fe 843d
000001f0: 7e25 c5bc 1b52 9b3d b0bd d8bc 0807 8f3c
00000200: 457e c13d 0f8b 333e 713e 513c 583a 2e3d
00000210: e739 84bd 6b6f ae3e 2bc5 20bd fe0c 003b
00000220: bffa 063e 8bf5 ef3d 1e3d 0b3d 69a2 54bd
00000230: 59e1 043d 58bf de3e ddf6 37bd 8511 573c
00000240: cb6a 673e a083 2abe f05e 533c 588c 063c
00000250: 9106 1dbe 4cce b63d 07dc a1bc 7c9d da3d
00000260: eaf3 843e df5c 06be 5acb 98bd 3e37 eebb
00000270: d1e4 e7bd 618a 6d3b cf41 e83c 7d46 32bd
00000280: abfe 8d3e 9f43 9fbc 0396 673b 5473 66bb
00000290: 6d7f 813c 1725 fb3c 35a5 bf3c 641c 70bd
000002a0: f345 b53c 96b5 07be bd18 57bc eb2a 043d
000002b0: 6dba e0bd c2d1 84be e048 62bc 748e 1bbc
000002c0: 590d f23a fc0b cdbd 25b5 9d3d 08f1 db3d
000002d0: 4e12 4cbd cbd2 963c 5fff 123d 4303 ee3d
000002e0: f87e 873c bb1c 773c 7a97 d7bb a489 3e3d
000002f0: c578 b03d 4bda b03e a5b7 4cbd f009 fb3d
00000300: d70f b33d 0f01 1f3e 7e76 b13b b83f bcbc
00000310: 7a34 e13c dbf4 fb3d 1c8d a93c a8af 56bd
00000320: ea00 cb3c 61a1 743e 3e5e f83b 1082 943c
00000330: ae22 1d3c 4f8a a0bd 37ff 24bd fb16 d23b
00000340: 036b 2f3d 4a7a 493e fc62 2cbd 3bc5 b7bc
00000350: 5ef1 93bd 890d 07bf 9d0e 513c 18db 023c
00000360: e132 5c3d 34d1 00bd 618c 673d 4302 723c
00000370: 7ce5 173e 95bb 9a3d 7f8a b4bc 5dc5 7f3c
00000380: 8ff5 213d 23eb a73b 3579 9bbc 400f 3f3c
00000390: f130 ca3d becf 9b3e 3f39 883b 4ca7 aa3d
000003a0: be2c febc 2102 75bd 725c b53c ab03 83bb
000003b0: 4d7b ea3d a643 953e 0d00 22bc 565c 8e3c
000003c0: fcbf 603d 78bc 2fbe fe07 c43c b6ee ec3c
000003d0: d430 e4bd f9ea 4d3d 5304 dfbc 72d7 82bc
000003e0: f4ca a83d 449c 2bbe 1314 8d3c 69bb bf3d
000003f0: db4c 29bd 0842 f9bd 2033 12bd adb1 963d
0.035298925 0.0965835 0.06289158 -0.0064389315 0.025584618 -0.15269087 0.04642307 -0.036852855
0.07004253 0.00083633995 0.008998332 -0.1915895 0.0648555 -0.041862264 0.023246404 -0.14614908
0.09530506 -0.1149722 0.031073332 -0.26609686 -0.0026806383 -0.06672983 0.024153877 -0.29996827
-0.18736924 -0.005026502 -0.13844344 0.17700373 -0.037244104 -0.094263755 -0.12578002 0.15014362
-0.10548112 -0.023766985 -0.026514214 -0.027010648 0.05979795 -0.15398905 -0.02301499 -0.079640016
-0.0055858186 0.10159473 0.0059553157 -0.09933416 -0.057810143 -0.03943043 -0.033498533 -0.19145219
-0.021883702 0.2794355 0.03510112 0.0045667333 -0.08418245 0.14780004 -0.031852674 -0.08895729
-0.012514501 0.16651472 -0.0036943129 0.050816588 0.03140951 0.30651766 -0.01673273 0.025120879
0.06964056 0.22175208 0.010053059 -0.15591705 0.0676911 0.25005218 0.06227555 -0.16247895
0.12403529 -0.12734233 0.081232645 0.05626538 -0.0144591825 0.07795523 -0.016231025 0.06362385
-0.09991664 -0.013962025 -0.13894065 0.19173868 0.08445459 -0.12653774 -0.035654902 0.12071601
-0.070043296 0.012685075 -0.0015439593 0.05930784 0.05893972 -0.23881182 0.05899474 0.01748133
-0.09839342 -0.25537384 -0.04958242 0.06129008 -0.21126358 -0.029675355 0.0316614 0.021235263
0.009493021 -0.31636852 -0.0129738785 -0.029285613 -0.10936974 0.13984124 -0.04621079 0.0010168224
0.12793808 -0.21010199 0.021604145 0.1439408 -0.05423964 0.0741744 0.00021886338 0.09841651
0.1463892 0.084119625 0.019229582 0.06493809 -0.02406573 0.0758402 -0.026457638 0.017459407
0.09447912 0.17533515 0.012771235 0.04253611 -0.064563565 0.3406938 -0.039250534 0.0019538994
0.1318159 0.117167555 0.033993833 -0.0519127 0.03244147 0.4350536 -0.04491316 0.013126736
0.22599332 -0.16651773 0.012901053 0.0082121715 -0.15334536 0.08926067 -0.019758238 0.10674569
0.25967342 -0.13121365 -0.07460661 -0.007269769 -0.1132294 0.003624581 0.028351692 -0.043524254
0.2773336 -0.019441424 0.0035337217 -0.0035163956 0.015807832 0.030657334 0.023394207 -0.058620825
0.022128081 -0.13252863 -0.013128457 0.032267492 -0.10973058 -0.25941283 -0.01381132 -0.009494413
0.0018467113 -0.100120515 0.07700566 0.107393324 -0.049822144 0.01841106 0.035888072 0.11621716
0.016540036 0.0150825335 -0.0065793367 0.046517983 0.08616785 0.34541544 -0.049979825 0.12257755
0.087432556 0.15527748 0.0054157367 -0.022979602 0.027490843 0.12302562 0.020697169 -0.052413613
0.02478071 0.23889686 0.007579594 0.018128425 0.009590788 -0.0783888 -0.040282454 0.006411431
0.042826664 0.19675556 -0.042086586 -0.022432914 -0.072237715 -0.5275503 0.012759832 0.007986806
0.05375946 -0.03144951 0.05653036 0.014771047 0.14833635 0.0755531 -0.022038696 0.01561102
0.039540824 0.005124466 -0.018978694 0.011661351 0.09872616 0.30431932 0.004157215 0.083326906
-0.031027194 -0.059816483 0.022138808 -0.00399824 0.11449299 0.29153174 -0.009887707 0.017378014
0.05487059 -0.17161739 0.023929592 0.02892242 -0.11142126 0.050272916 -0.027223742 -0.015971873
0.08241835 -0.1675883 0.017221486 0.093619175 -0.04133306 -0.121707976 -0.035693288 0.07358108

fc1.bias f4 [256]
00000000: 64b9 d63d 3949 11be 66b6 0b3e 95db 0abe
00000010: d23a 363e aafd 083e 0656 5d3d 461e 45be
00000020: e787 babd 3820 cf3d 6fc5 3abe 3060 d13d
00000030: bb27 8ebd 3395 1ebe eccb 93bb 3f87 113d
00000040: 55b6 223e ce15 06be a65f 24be fb23 95bd
00000050: cb47 143d e677 c4bd 327f a0bd e39b 90bd
00000060: 4f9a ba3d 640c d43c 95bc 373e 876e 053e
00000070: 91d3 33be 7ff5 513d b105 36be 1f29 3fbe
00000080: 91eb 6cbd 7a2b 523e 59a9 863c 2801 11be
00000090: a502 4ebe 34a6 293e 7f82 2a3e 548b f6bd
000000a0: 5390 0f3e 3839 a13d 8300 d8bd e220 7f3d
000000b0: a673 323d 270a 39bd 3fbf 3cbd c516 163e
000000c0: 7e9a b63d ae75 c33d 736c 7a3d ad2b 0c3e
000000d0: 5776 48bd 58a7 05bc 5014 283e 3fed f53d
000000e0: f817 4e3d beb9 d5bd 70f6 45bd 0526 1e3d
000000f0: 62dc 00be 7724 b43d fa4d f9bd 962b 1ebe
00000100: b037 8f3d 833d d9bd d32b 4ebe ec8a f13d
00000110: 8d29 a8bd 1138 c5bd f862 bdbd cca9 f8bd
00000120: aac9 17be 091b b9bd 6945 1dbe 4d86 83bc
00000130: d245 843d 7198 03be 16c5 4dbe a03b a03d
00000140: b248 dbbd 0541 703d ca1f 88bc 7bcf 6f3d
00000150: cd2d f8bb 1b10 80bd 625e 1bbe f373 0b3e
00000160: bf84 c13d 48f1 e13c 5f7d 343e e77b 3c3e
00000170: e66c 1dbe c1d7 cf3d 6dbf 3d3e 276f a83b
00000180: 1776 47be 3c62 94bd 025d 963c 6e2f 3abd
00000190: f980 cf3d 0936 9f3d 1828 4bbe d731 4c3c
000001a0: 7784 0e3d 8875 053e 4f7d e33c b262 d93d
000001b0: 0470 213d 21b5 12be 0ccf 21be 7b41 8bbd
000001c0: 5db9 88bb ea49 e8bd 3969 3fbe 24a5 393e
000001d0: ac87 d23c 6383 ad3d c637 ebbd 8727 0a3d
000001e0: 758b 6bbc 1c91 db3d 4f9d 97bd ace2 3a3e
000001f0: 10af 2d3c 8ef8 703c eead 123e 8e18 26bc
00000200: 2108 623d 92bc 0cbc 86bb 183e bfe3 4cbe
00000210: d2ab 333e 9c2b f8bd 177f 473e 2e3c 863d
00000220: abd2 02be a51d 3dbe c07d 5b3d 98fc 9a3d
00000230: 74f7 0cbe ce2d 0e3e c2da b8bd 3900 2c3e
00000240: 0af1 183d c09d 30be e8a9 2d3d e0ec 57bd
00000250: 00ec 583d fa29 97bd 6b38 313e f726 efbd
00000260: 4ed4 2b3e 55c4 46be 356b 163e 12dc 0cbe
00000270: 4cb0 5e3d ccad 4cbd ca32 5bbe 9472 203e
00000280: 2a0f 5e3d fd2c ea3d 063d b5bd 8456 84bd
00000290: 0a33 c2bd f6ee 42be d922 2a3d 623d 933d
000002a0: 718e e2bc 22f6 03be f035 bf3c 40ea b33d
000002b0: fc7d 6f3c 1b62 43be f30f cb3d e762 193e
000002c0: 5cb3 87bd 046e 24bd 195e 063c 60fd 883d
000002d0: 721c 3b3e 9cff 243e c7e2 b93d 7bbd 06be
000002e0: ebe0 f63d bf2b 993d 3ce1 483e e00d 91bd
000002f0: 70ab 9d3d 3bb7 233e 155a bc3d 78c8 a7bc
00000300: 7312 6dbd 6cac 2cbd ff59 f53d 1a29 98bd
00000310: 6610 54be b244 fcbc eae4 40be 3879 1fbe
00000320: 01f4 263e 638d 01be 5438 f33d 409e ffbd
00000330: 4124 4fbe 4f66 0c3b 402d cd3d 99fc 113c
00000340: 71ac f43d 6773 b6bb 9730 17be c49d 033e
00000350: c1be 163d 1cb9 d2bd e92f d4bc 96d2 7e3d
00000360: 3755 17bd 320e 11bc ab18 8b3d cd5a 8c3d
00000370: cc0e ed3d 1d69 f6bc e0a0 7b3d fd5e 653d
00000380: 6d16 98bd 3ee7 113d ae34 813a a7ac 16be
00000390: 7e4c 3ebe 66ea 453e 0fb9 b9bd 876d 183e
000003a0: 0dbf 323d 52f3 ef3d f40d 14bd 978e 2abd
000003b0: be4e 97bd 9aaf 48be efb9 72bb 9750 303e
000003c0: c460 343d 4521 94bd 2a59 04be f4a8 53bd
000003d0: 5007 c5bd 40fb fe3d 0196 b43d b7c0 223d
000003e0: 7873 f63c 960a cab9 0387 cbbd 8ff2 d4bc
000003f0: 4655 083e fc7a e4bc 7982 9a3d 0f1a a8bc
0.10484579 -0.14188088 0.13643798 -0.13560326 0.17795876 0.13378015 0.054037116 -0.1924983
-0.091079526 0.10113567 -0.18239377 0.102234244 -0.06941172 -0.15486602 -0.0045103934 0.03552937
0.15889867 -0.13094255 -0.16052112 -0.07282253 0.03620128 -0.09593181 -0.078367606 -0.07060983
0.09111463 0.025884815 0.17943032 0.13030444 -0.17561175 0.051259514 -0.17775609 -0.1866803
-0.05784184 0.20524397 0.016438173 -0.14160597 -0.20118196 0.16567308 0.16651343 -0.120382935
0.14019899 0.07872242 -0.105469726 0.06228722 0.043567322 -0.045175698 -0.046080824 0.14657123
0.08916186 0.0954393 0.06113858 0.13688536 -0.048940983 -0.008157574 0.16413999 0.12008142
0.050315827 -0.10435818 -0.048330724 0.038610477 -0.1258407 0.087960176 -0.12173076 -0.15446314
0.069930434 -0.106074356 -0.20133905 0.11794075 -0.0821105 -0.096298344 -0.092473924 -0.12141761
-0.14823022 -0.0903836 -0.15358509 -0.01605525 0.0645863 -0.1285112 -0.20094714 0.078238726
-0.10707225 0.058655757 -0.01661672 0.05854748 -0.0075738193 -0.06253072 -0.15172723 0.1361845
0.094491474 0.027580872 0.1762595 0.1840664 -0.15373573 0.10148574 0.18530054 0.0051402035
-0.19478641 -0.07245299 0.018354896 -0.04545539 0.101320215 0.07773978 -0.19839513 0.012463055
0.034794297 0.13033116 0.027769713 0.10614528 0.039413467 -0.14326908 -0.15801638 -0.06799599
-0.0041724877 -0.11342223 -0.18692483 0.18129402 0.025699459 0.08472326 -0.11485247 0.033729102
-0.014376511 0.10721037 -0.07403051 0.18250531 0.01060082 0.014707698 0.14324161 -0.01013769
0.055183534 -0.008589881 0.14915285 -0.20008753 0.17546013 -0.12117693 0.19482075 0.06554447
-0.12775676 -0.1846834 0.05358672 0.0756771 -0.13766271 0.1388466 -0.090261 0.1679696
0.037339248 -0.17247677 0.042398363 -0.052716136 0.052959442 -0.07381053 0.17306678 -0.11677354
0.16780207 -0.19410832 0.14689334 -0.13755825 0.05436735 -0.049970433 -0.21406093 0.15668708
0.05421368 0.11434362 -0.0884953 -0.06461814 -0.09482391 -0.19036469 0.04153714 0.07189442
-0.027655812 -0.12886861 0.02334115 0.08784914 0.014617439 -0.19080393 0.099151514 0.14979135
-0.06626007 -0.04014398 0.008201146 0.066889524 0.1827257 0.16113132 0.090764575 -0.13158219
0.120546184 0.07479047 0.1961717 -0.070827246 0.07698715 0.15987866 0.09196869 -0.020481333
-0.057878923 -0.04215662 0.11980056 -0.074297145 -0.2070938 -0.030794475 -0.18837324 -0.15573585
0.16304018 -0.12651591 0.11875978 -0.12481356 -0.20228674 0.0021423285 0.100183964 0.008910322
0.11946953 -0.0055679563 -0.1476463 0.12853152 0.03680301 -0.10289213 -0.025901752 0.06221255
-0.0369465 -0.008853482 0.067918144 0.068532564 0.11575088 -0.030079419 0.06143272 0.05599879
-0.074261524 0.03562092 0.0009857619 -0.14714299 -0.18583867 0.19327697 -0.090685 0.14885531
0.04363923 0.117163315 -0.03614612 -0.04163989 -0.07388066 -0.19598237 -0.0037037095 0.17218243
0.044037595 -0.07232908 -0.12924638 -0.051674798 -0.096205354 0.12450266 0.088176735 0.03973457
0.030084357 -0.0003853633 -0.09937861 -0.025994567 0.13313779 -0.027890675 0.07544417 -0.020520238

batch.weight f4 [256]
00000000: 9772 603f 92b6 a43e 3e07 873f 941c 1f3f
00000010: a9bb 5e3f bcf8 8b3f 4c49 3e3f 3e44 663f
00000020: 4de2 323f 24fd 0b3f 62ff d03e 5400 7f3f
00000030: a6a3 923f 7032 623f 5208 2d3f 4fde f63e
00000040: 58da 363f b78f 2c3f 9dc7 273f 35ac 303f
00000050: 20d1 353f d0ba 8a3f 2e84 b13e 18dd a43e
00000060: f580 a23e 4a51 f73e 3492 8b3e 0bd3 193f
00000070: a0ae 223f 5d0a 823f c000 003f b8b3 1a3f
00000080: 4c95 223f 8470 783f 9aa9 cd3e 106c 713f
00000090: 6049 953f 3549 923f b4f8 043f 34d4 893f
000000a0: aacf 193f 6f14 6d3f 703a 7b3f 20eb 173f
000000b0: 532e 793f d57d 673f 551b 833f b668 0e3f
000000c0: 887d 433f 7f37 373f 9ffa 823f 31fc 813f
000000d0: aeec 2a3f a67a ca3e af46 303f 70b3 183f
000000e0: cb8f 213f 9361 413f 759b 593f c111 6e3f
000000f0: b243 073f 97a9 b43e 78e4 713f e5d5 9f3e
00000100: 1193 1c3f 0bdc 083f a59f 173f 0530 713f
00000110: 79ba 5d3f 6637 963f 8a31 933f 5939 4d3f
00000120: a2f0 2e3f cab7 ec3e d2be d23e ffeb 023f
00000130: 217a 553f f49a 1b3f bc29 5a3f 4805 b33e
00000140: 4b75 b43e 4e15 433f 4afc 273f 43ca f03e
00000150: 56d3 653f 35b8 5b3f b678 b73e 017c 483f
00000160: 7412 493f 4e53 3f3f 1028 0f3f 60dd 823f
00000170: 3175 6c3f b404 8d3f fe16 303f eca7 123f
00000180: e4dd 7a3f ddd5 183f 620a 463f afeb 6f3f
00000190: d878 1d3f 5a66 243f faad 713f d5f1 353f
000001a0: 7720 b83f a1a1 943b ab43 123f cd67 013f
000001b0: b923 893f f4bd 00bf bb56 4e3f 322f 413f
000001c0: ddcf 113f d5ed 4a3f bb75 943e b710 593f
000001d0: f01e 1f3f d383 5b3f 321c 3c3f ae19 1b3f
000001e0: 3f23 243f 979f 8d3f e267 023f 43e9 8c3f
000001f0: 20e7 c03a caf0 533e 6349 123b d551 0b3f
00000200: b420 8e3f 2c1e 2d3f efe1 533f 905c 353f
00000210: 732f 823f 92df 4c3f f5c1 2f3f baf4 d63e
00000220: 6bf2 083f 55d8 753f d8db 743f 212e d33e
00000230: a28f 253f 82b9 0d3f a734 353f 24eb 383f
00000240: 94b7 643f 5a3d 203f 73e0 4b3f a93f c63e
00000250: f370 163f 484a 333f 61eb ee3e 7b25 c13e
00000260: 2d06 2b3f b7d4 3f3f c125 ff3e 8c5e 7e3e
00000270: 468b 273f 0062 2c3f 95d1 473f 3a10 873f
00000280: 0885 843f dba8 5f3f d259 433f 679f f73e
00000290: 7cd6 e93e 3094 9b3e 0381 063f a3fd 883f
000002a0: b765 243f 1149 fa3e ffb2 8f3f bbf5 673f
000002b0: 4af8 643f 17e3 433f 6e64 2e3f 3507 6f3f
000002c0: c877 853f 249e 8a3f 4d96 373f 70dd c33f
000002d0: 1ceb fb3e f97d 7a3f 947d bd3e 5b8e 7c3f
000002e0: 9b80 743f d602 423f 4561 563f 9338 f93e
000002f0: ee3b 0a3f 6f60 103f 1a53 3a3f a496 573f
00000300: 5c6a 3f3f c22f e93e 3028 ab3e fdba 6a3f
00000310: cdbd 1c3f c2d2 0d3f 9529 593f 6e8d 023f
00000320: 7896 5e3f 9931 e53e 49fa 2c3f b776 583f
00000330: 5ae4 fc3e 1aa0 283f 7802 ab3f 9527 eb3e
00000340: 94d1 bf3e 0ac9 d73e d667 d73e 7019 643e
00000350: 0162 3e3f 123f 483f dc01 ee3e 35aa a83e
00000360: 366e 023f 0b62 843f 2ff8 8c3f e806 703f
00000370: 97d4 dd3e 2976 833f 5d18 f53e c3e4 2a3f
00000380: 253c e03e ed02 353f 9390 463f 29ee 463f
00000390: d3a4 7f3f 97fc a63f 8cc8 473f e96f 8e3f
000003a0: 035c 433f e4f6 803f 3603 c23e 1136 583f
000003b0: 14a8 893f 8081 253f 25ea ef3e b107 803f
000003c0: 8a6e 533f 0069 043f 6ee7 d0b8 47a4 a13f
000003d0: aae5 883f 9259 963e e840 383f 1df9 053f
000003e0: b5bb 953e 0a50 f23e 2f67 3b3f 2aec 403f
000003f0: 1737 483f 80d1 313f 50e4 e63e 133b 973f
0.8767485 0.3217054 1.0549085 0.6215298 0.87005097 1.0935283 0.7433059 0.8994788
0.6987656 0.54683137 0.40819842 0.99609876 1.1456192 0.8835821 0.6759082 0.48216483
0.71426916 0.6740679 0.6553896 0.6901277 0.71022224 1.0838261 0.34671158 0.3219993
0.3173901 0.48304206 0.27259982 0.6008765 0.63547707 1.0159413 0.50001144 0.6043048
0.6350906 0.97046685 0.40168458 0.94305515 1.1663017 1.1428591 0.5194199 1.0767884
0.60082495 0.92609304 0.98136044 0.5934315 0.9733631 0.9042638 1.0242716 0.55628526
0.7636342 0.71569055 1.0232733 1.0155088 0.66767395 0.39546698 0.68857855 0.596488
0.63110036 0.7553951 0.85002834 0.9299584 0.5283767 0.35285637 0.9448924 0.31217876
0.61161906 0.5346076 0.59227973 0.94213897 0.8661266 1.1735656 1.1499493 0.8016563
0.68335927 0.4623397 0.4116121 0.5114135 0.8338948 0.60783315 0.8521993 0.34964967
0.35245737 0.76204383 0.6561934 0.47029313 0.897756 0.8582795 0.35834283 0.78314215
0.7854378 0.7473649 0.55920506 1.0223808 0.9236632 1.101706 0.68785083 0.5728748
0.9799483 0.5970133 0.7735959 0.93719 0.6151252 0.64218676 0.9440609 0.7107213
1.4384907 0.004535869 0.57134503 0.5054901 1.0714027 -0.50289845 0.8060109 0.7546264
0.569578 0.7926915 0.2899607 0.8479113 0.6215658 0.8574802 0.7348052 0.6058606
0.6411628 1.1064328 0.5093976 1.1008686 0.0014717318 0.20697322 0.0022321574 0.5442174
1.110373 0.67624164 0.8276662 0.70844364 1.017073 0.8002864 0.6865533 0.41983587
0.534949 0.9603322 0.95647955 0.4124613 0.6467229 0.5536119 0.70783466 0.72233796
0.8934262 0.62593615 0.7963936 0.38720444 0.58766097 0.7003522 0.46663955 0.37723908
0.668063 0.7493395 0.4983349 0.24840754 0.6544689 0.67337036 0.7805417 1.0551827
1.0353098 0.8736703 0.7630893 0.48363802 0.4567145 0.30386496 0.52540606 1.0702404
0.64217705 0.4888387 1.12265 0.9060933 0.8944136 0.76518387 0.68121994 0.9337037
1.0427179 1.0829511 0.71713716 1.5301952 0.49202812 0.9784847 0.3700987 0.9865472
0.95508736 0.7578558 0.8374217 0.48675975 0.53997695 0.56397146 0.7278305 0.84214234
0.74771667 0.4554425 0.33429098 0.9169157 0.61227113 0.55399716 0.84829074 0.50997055
0.8694835 0.44764403 0.67569405 0.84556144 0.49392968 0.65869296 1.3360128 0.45928636
0.37464583 0.42145568 0.42071408 0.22275329 0.7436829 0.7822124 0.46485794 0.32942358
0.5094942 1.034242 1.101324 0.9376054 0.43326256 1.0270435 0.4787015 0.6675531
0.43795887 0.7070759 0.7756435 0.77707154 0.99860877 1.3045834 0.78040385 1.1127902
0.76312274 1.0075345 0.37893075 0.844575 1.0754418 0.64650726 0.46858326 1.0002347
0.82590544 0.5172272 -9.96132e-05 1.2628258 1.0695088 0.29365212 0.7197404 0.5233324
0.29244772 0.4732669 0.7320432 0.7536036 0.7820906 0.69460297 0.45096064 1.1814903

batch.bias f4 [256]
00000000: b076 eabd 04ff 8abd 4f80 c0be b6b2 10bd
00000010: 54f8 f3bd 2bf8 2ebe eecd 10be 0225 06bf
00000020: 39cd c0be 34f2 a2be bee9 023c 8090 1e3e
00000030: e87a 7fbe 969b 1dbd e24a c0bd 83bd e6bd
00000040: adf2 413e 4907 9b3d 777f 2fbe 0b47 89bc
00000050: 5cba 84be 5ea9 82be c88d 9a3d abf0 b4bb
00000060: f1a1 813c 75f7 2bbe 42cb 0a3e d548 14be
00000070: 8ef4 c4bd 1967 91bd 31a2 a0bd 376b b1bd
00000080: ce75 313d bf31 9a3d 81f0 89bc 0395 80bd
00000090: 2182 32be ef2c 033d 3310 48be 7bdd 683d
000000a0: df27 95bc ec13 b2be df01 fcbe 842e 07bd
000000b0: 93b3 f9bd 73af a8be 8a06 4a3d 84eb c4be
000000c0: bc70 f53d 49e5 f43c f9c6 4abd d7c3 62be
000000d0: f796 8cbe 49cc 0abd 2e6a 5bbd bad2 493e
000000e0: 8083 48bd 69ad 313d bbd6 f4bd 612c 49be
000000f0: 4f39 0ebe b199 64be 4f57 08be 1a5c 91bd
00000100: 9df3 793d 0364 0d3e 9f1c 43be 78b9 9fbd
00000110: 8ea2 333d 41ba da3e 0560 dcbd 271f 853d
00000120: b17f 67be c44f 803d 2861 83be 80cb 56be
00000130: 1b7a 06bd 367f b53b 6180 133e d8ab f0bd
00000140: 2e24 15be 1027 82be 5972 e03d 3816 d63c
00000150: c4f6 b4be e991 66be 9131 c83d 4785 6dbd
00000160: b2e1 373e 8463 6fbd 0f0a 023e db45 b9bd
00000170: 6b3b 853d c971 debd 2d84 4e3d 75b8 c43d
00000180: 4186 f7bd 1b30 33bc 7a02 efbc f3b1 9abe
00000190: 3842 24be 3206 513e f463 77be 8497 47be
000001a0: e654 30be 52e8 33bd c624 5fbe fbeb 92bd
000001b0: f33f 0dbe b949 863e 74c8 c23b 72a9 9f3e
000001c0: 878d 20bd ca03 203e fdef 17be 4726 b6be
000001d0: ad5d abbd 4fb7 fabc 36c7 933c 6d67 90be
000001e0: 54e6 80be 2a31 253d d7d5 fcbc 96b6 28bd
000001f0: c9d4 35bc 0a41 923d 2f92 53bc 80a9 71be
00000200: cacf 443e a1de 6eba 8470 81be 26a1 9abe
00000210: b280 8b3e 2265 d53d b7b4 85be 02ec a23c
00000220: c2da 92bd 3ba9 16be 1119 153d 0e9a b03d
00000230: 01d7 a43e e304 3fbe 0ce4 f1bd d03f 8dbe
00000240: 13a6 8dbd 8b4b 24be 60ed 07be 0ded 3cbd
00000250: a1b2 b03d 386f bc3d 1fd4 f53d 9f56 48be
00000260: 3435 71be 83e3 3c3e a725 6d3e 39bb a7bb
00000270: fb42 983e 2fe9 953d 73a2 b2bc 6bcf 2bbe
00000280: c02d cbbe 77aa 953d 2528 c53d 6a34 b53d
00000290: 1b49 a53d e8a4 7a3d 8d17 723d 7b5b 90bd
000002a0: b935 0bbe 781a 37be c9c1 1abe 997f 9cbe
000002b0: eccd 58bd a549 99bc d5a3 83bd b948 1abe
000002c0: ed83 c13d 162b 6abe 9cc8 20be 63d4 92be
000002d0: 3178 e33c 2310 8abe 6f7f 85bb 203e 4e3e
000002e0: 3cc5 91bd 130d dfbd eb60 0a3d 3b00 b0be
000002f0: eef9 333e b5b8 28be 40ab 8dbd a866 f13d
00000300: 2e77 4d3d 06c9 35be 2005 2ebe 2993 25be
00000310: cdad c6bd 7eef 283d e73e 7dbe b9d1 aabe
00000320: 9bf0 c8bd cd87 69bd 5dbc 85bd 562c 67bd
00000330: 5226 0cbe f221 2ebe ecb8 17bf 9ef8 acbd
00000340: 2ef6 6f3d c18f b33d 599a 0cbe 61d4 91bb
00000350: 0af8 0ebe 4fe5 93bd cfb0 53be 8f9a 39be
00000360: 8829 09be 3c3e 1fbe b2b6 d7bd 4d1d cebd
00000370: 6cd2 04be bef9 80be 187c 6d3e 752e 183e
00000380: 4238 75bd 5d4c f43c baef 8bbe db78 0bbd
00000390: c71f c5bd 140d b7bd 6b36 a13d d9f9 0bbe
000003a0: 2439 50bd fb2a 0dbe 9b59 09bd 1533 dbbd
000003b0: 36b6 adbc 177d f83c 03d8 303e a342 203d
000003c0: 1446 35bd 7520 8cbd 6f35 9dba f669 89be
000003d0: 01d8 68bd a40e bbbd adc1 acbb 298f 07bc
000003e0: cb14 a03d f18c 1f3e ccc8 2ebe 070e 523c
000003f0: 43ce 88bd b448 0b3e e9ba f6bc 335a cfbd
-0.11448419 -0.067869216 -0.37597892 -0.035326682 -0.11912599 -0.17086856 -0.14141056 -0.5240022
-0.37656572 -0.3182541 0.007990299 0.1548481 -0.24949229 -0.038478456 -0.09389283 -0.11266615
0.1894023 0.07569749 -0.17138468 -0.016757509 -0.2592343 -0.25519842 0.07546574 -0.005521854
0.01582429 -0.16793616 0.13554099 -0.14480908 -0.096169576 -0.070997424 -0.078434356 -0.08663028
0.043325238 0.075290196 -0.016838314 -0.06278422 -0.17432453 0.032025274 -0.1953743 0.056851845
-0.018207489 -0.34780824 -0.49220178 -0.033003345 -0.12192454 -0.32946357 0.049322642 -0.38460934
0.11984393 0.029894488 -0.04950616 -0.2214502 -0.27458927 -0.033886228 -0.053568058 0.19709292
-0.048953533 0.043378267 -0.11955019 -0.19645835 -0.13889049 -0.22324254 -0.13314556 -0.07097645
0.061023343 0.13807683 -0.19053887 -0.07799047 0.043856196 0.42720225 -0.10760502 0.065000825
-0.22607304 0.06265214 -0.25660062 -0.20976067 -0.032831293 0.0055388464 0.14404441 -0.117515266
-0.14564583 -0.25420427 0.1095931 0.026133642 -0.35344517 -0.22516598 0.09775079 -0.05798843
0.1795719 -0.058444515 0.1269915 -0.09046527 0.06505474 -0.108615465 0.05041902 0.09605495
-0.12086154 -0.010936762 -0.029175986 -0.3021389 -0.16040885 0.2041252 -0.24159223 -0.19491392
-0.17219886 -0.04392273 -0.21791372 -0.07173916 -0.13793926 0.2622812 0.005944306 0.31183964
-0.03919747 0.15626445 -0.14837642 -0.35576078 -0.083674766 -0.030604986 0.018039327 -0.28203908
-0.25175726 0.04033009 -0.030863686 -0.041189753 -0.011098095 0.071413115 -0.012913271 -0.23599815
0.1921989 -0.0009112154 -0.25281155 -0.30201072 0.27246624 0.1041968 -0.26114437 0.019887928
-0.07170631 -0.14712994 0.03640086 0.086231336 0.32195285 -0.18654208 -0.118110746 -0.27587748
-0.06916442 -0.16044442 -0.13274145 -0.046124507 0.08627821 0.09200901 0.120033495 -0.19564293
-0.23555452 0.18446164 0.23158894 -0.005118754 0.29738602 0.07319867 -0.021805977 -0.16778342
-0.39683342 0.07307904 0.096267976 0.08847888 0.080705844 0.061192423 0.05910449 -0.070486985
-0.13594712 -0.17881191 -0.15112986 -0.305661 -0.052930757 -0.018711874 -0.06427733 -0.15066804
0.09448991 -0.22867998 -0.15701526 -0.28677663 0.027767273 -0.26965436 -0.004074029 0.20140886
-0.071176976 -0.108911656 0.033783834 -0.34375176 0.1757581 -0.1647671 -0.06917429 0.11787158
0.050162487 -0.17752466 -0.16994143 -0.16169418 -0.097011186 0.041244023 -0.24731027 -0.3336313
-0.09811517 -0.057014275 -0.06530068 -0.056438766 -0.13686493 -0.17005137 -0.59266543 -0.084458575
0.058584385 0.08767653 -0.13730754 -0.0044503664 -0.13961807 -0.072214715 -0.20672916 -0.18125366
-0.13394749 -0.15551084 -0.10532893 -0.100641824 -0.12970895 -0.25190538 0.2319187 0.14861472
-0.059868105 0.02982157 -0.27331334 -0.034050804 -0.09625202 -0.08938041 0.078717075 -0.13669528
-0.050835744 -0.13785927 -0.03353272 -0.107031025 -0.021205049 0.030333085 0.17269902 0.03912605
-0.044256285 -0.06842128 -0.0011994074 -0.26838654 -0.056846622 -0.09133652 -0.0052721114 -0.008273878
0.07816466 0.15581109 -0.17068785 0.012820727 -0.06679966 0.13601953 -0.030118423 -0.10124626

batch.running_mean f4 [256]
00000000: 5890 ddbf 83e5 3e3f 94e6 733f 9884 9abe
00000010: 5dee 7b3f 6135 b0bf 6407 b4c0 7fc3 54bd
00000020: adc9 49c0 0114 af3f fba8 f6bf 6e4b 9840
00000030: 6bbc 7abf 533f 4b3f d6bb 013f 2932 bbbf
00000040: 17e0 d3bf d816 af3e a79d aebf 43b6 0140
00000050: afdc 5a40 e06d c13f 2808 0dc0 10a8 9d3e
00000060: 2c41 c0bf f13f 9fbc e767 e5bf 442b 013f
00000070: 2368 3940 4d6c 8dbe 1f68 8740 03be df3f
00000080: cce4 3240 4ec8 97bd bd3e 553f 18f6 3bc0
00000090: 388e 72be 8b9b 993e d917 813e a0f8 063f
000000a0: e96e eabf 0e75 81c0 2cdb efbb b85d 1340
000000b0: 0238 71bf 8e4d 143f 23a2 a0be c410 6f3f
000000c0: b36e 3e3f 8b0f af3e 6146 4640 51a5 5e3f
000000d0: 8673 9d3e dc1d 52bf a738 5f3f 874d f63f
000000e0: 82f5 4540 ffc3 ab3d 546e a13f 59ae 1940
000000f0: d6e3 4e3f 13e8 6d40 edb6 00be 1018 9dc0
00000100: 1d7a b540 175e a23f bba0 aebe 420e a73f
00000110: bdfb 1b3f 7aae 143f 809d 343f f243 493e
00000120: cccd 4240 e05f 6a3f 1b05 e7bf fc39 52c0
00000130: fb99 02c0 ad80 c03f b2d9 89bf ce41 b9c0
00000140: f395 eb3f cc93 13bf 2017 e93e 666b 9ebf
00000150: 940d 39c0 e13b cb3e a1ee c03f 66ad edbf
00000160: 94f0 6340 cb31 24c0 f307 be3f 4eb2 37bd
00000170: fa01 f03f 3d78 2cc0 2690 4440 25bd 9b40
00000180: 5ae2 d13f b2eb d43f ed18 3dbc a2b2 e8bf
00000190: 721d bd40 6e83 b33f d0c0 43c0 a19e 6bbf
000001a0: 6c7a 1440 67f9 323f 2a15 1bbf b5ae 8bbf
000001b0: 3c54 023f 873c c3bf 887e 2d40 0c39 4640
000001c0: 0da4 1940 a75d 8c40 8825 35bf f659 a73f
000001d0: b3d5 473f c4ca 2140 8969 37be aa2d ad3d
000001e0: e746 80bf 7892 2b3f 5058 6640 5352 0cc0
000001f0: c80b 413e f5f6 08c0 1929 e33e d889 26c0
00000200: 28bf 4e3f 5ec8 503e f014 5cbe de23 2d40
00000210: 04ff 923c ad83 47be 0eba 023e af7d 473f
00000220: 4735 193f 896e 16c0 f983 b7bf d1c2 5940
00000230: bf52 723e 274e a140 7745 273f 7c78 953f
00000240: cad9 43c0 3be8 0f40 d9ba 3340 fa63 ee3f
00000250: 775a 15c0 1dfa 893e 99e4 f63f 8e01 e8be
00000260: 1fef 1dbf a435 ea3f 2476 6040 25b9 7140
00000270: 03c8 1c40 903b 0340 a3f2 7a40 b4f1 983e
00000280: b4b2 cf3f 4495 7fc0 a350 0d40 4ba0 833f
00000290: 79f3 473d d6b6 a03f b8f6 623f da4f 0040
000002a0: c1b8 b6c0 a79d 253e 4e41 e5bf f6c4 4c40
000002b0: 3709 dc3f e3b6 4040 fd1b fa3f 99b7 e7bf
000002c0: c974 2540 fa99 6d40 2e82 fcbe e45f 2640
000002d0: b210 cf3f 7531 1c3f d3a0 f2bf 2fe9 813d
000002e0: 727b 973f 1459 5640 2e8f 36c0 4bce bcbe
000002f0: 96e1 17c0 04da c940 d53c 9ac0 6b22 7740
00000300: 1032 a7bd 9098 66bf 43fb ac40 fcca 0540
00000310: b25d efbe 124a 07bf 6408 b0bf 36a2 58bf
00000320: fc8b 253f 5e1b 86bd 24b4 ab3f 3fd5 6e3f
00000330: 3ac6 2f3f d277 823f 0f47 f13d 16da 2240
00000340: 72e3 903f 60f4 eb3f 7208 88bf df32 593f
00000350: 8366 1440 6c55 f63f 7e81 94be 2222 97bf
00000360: 06a4 9cbe 86db 0240 fd8d 853f ebbb 66bf
00000370: 430e 493e 2731 883f c782 913f 6974 5d40
00000380: 1bdb 2640 fad5 bf3e 791b a03f 4803 f53c
00000390: 29fe c1bf 4280 0e40 8807 ffbf 8f0a 9a40
000003a0: 9cd5 75c0 30c9 893f 240e 7440 5467 45c0
000003b0: 00d9 e63f 8526 e140 4b51 ae3f b6c0 f83f
000003c0: 9092 333f 4477 1840 94ed 3b3e 749b 453f
000003d0: ac5e 4740 7a75 a4be e87b 6fc0 dbec 9140
000003e0: 833d 7440 3156 8fbf f1a2 ff3f eec7 57bf
000003f0: 2861 8640 18cc 9e3f 1e4e 153f d225 e83e
-1.7309675 0.7456896 0.9527371 -0.30179286 0.9841059 -1.376629 -5.625902 -0.051944252
-3.1529343 1.367798 -1.9270319 4.7592077 -0.97943753 0.793935 0.5067724 -1.4624683
-1.6552762 0.34197116 -1.3641862 2.0267494 3.4197195 1.5111656 -2.2036228 0.30792284
-1.5019889 -0.01943967 -1.7922333 0.50456643 2.896981 -0.2762169 4.23146 1.7479862
2.7952147 -0.07411252 0.83298856 -2.9368954 -0.23687065 0.30001482 0.25213507 0.5272312
-1.8315097 -4.045539 -0.0073198285 2.3025951 -0.94226086 0.5793084 -0.313737 0.9338496
0.74387664 0.34191546 3.0980456 0.86971 0.307522 -0.8207681 0.8719582 1.924241
3.0931096 0.08386993 1.2611794 2.4012663 0.808164 3.7172897 -0.1256978 -4.9091873
5.6711564 1.2684964 -0.34107003 1.3051226 0.60931 0.5807873 0.70552826 0.19654825
3.0438108 0.91552544 -1.8048433 -3.284789 -2.0406482 1.5039269 -1.076956 -5.789283
1.8405136 -0.57647395 0.45525455 -1.2376525 -2.8914537 0.3969412 1.5072824 -1.8568542
3.5615587 -2.5655391 1.4846176 -0.04484778 1.8750603 -2.6948388 3.0712981 4.866839
1.6397202 1.6634429 -0.011541587 -1.8179514 5.9098444 1.4024484 -3.0586433 -0.92038924
2.319972 0.6991181 -0.6057917 -1.0912691 0.5090978 -1.5252846 2.7108479 3.0972319
2.4006379 4.386432 -0.70760393 1.3074329 0.78060454 2.5280008 -0.17911352 0.08455975
-1.0021638 0.6702037 3.5991402 -2.1925247 0.1885215 -2.140073 0.44367293 -2.6021633
0.8076043 0.20388934 -0.21492362 2.7053142 0.017943867 -0.19483824 0.12766287 0.7792615
0.5984692 -2.3504965 -1.433715 3.4025156 0.23664378 5.04079 0.6534037 1.1677394
-3.0601678 2.2485492 2.8082793 1.862426 -2.3336465 0.26948634 1.9288512 -0.45313686
-0.61692995 1.829762 3.5072107 3.7769253 2.4497077 2.0505104 3.9210594 0.29871905
1.6226411 -3.9934855 2.2080467 1.0283293 0.048816178 1.2555797 0.8865771 2.0048738
-5.710053 0.16173421 -1.7910554 3.1995215 1.7190312 3.0111625 1.9539791 -1.8102905
2.585253 3.712523 -0.4931807 2.5996027 1.617697 0.61012965 -1.895533 0.06343304
1.1834548 3.349187 -2.852489 -0.3687614 -2.3731437 6.307863 -4.819926 3.8614757
-0.081638455 -0.9007654 5.4056716 2.0905142 -0.4675117 -0.528474 -1.3752561 -0.84622514
0.64666724 -0.065481886 1.341435 0.9329414 0.68661845 1.0192816 0.117811315 2.544561
1.1319411 1.8433952 -1.0627577 0.8484325 2.3187568 1.9244819 -0.29005045 -1.1807292
-0.3059389 2.0446486 1.0433956 -0.9013049 0.19634347 1.064 1.1368035 3.46023
2.6071231 0.3746794 1.2508384 0.029908791 -1.5155689 2.2265782 -1.9924173 4.813789
-3.8411627 1.0764523 3.813363 -3.0844316 1.8034973 7.035952 1.3618559 1.9433811
0.7014551 2.3822794 0.18352348 0.7719033 3.1151533 -0.32120878 -3.7419376 4.560163
3.8162544 -1.1198179 1.9971601 -0.84289443 4.19936 1.2406034 0.5832232 0.45341355

batch.running_var f4 [256]
00000000: d761 5441 b711 bb41 a093 6f40 3ba3 0a41
00000010: 027d f140 a154 8840 f6a3 d740 705b 8140
00000020: 40e6 e93f b843 ca40 eb6c 0241 3d5f 6240
00000030: 7cfb c73f 731b 2a40 4398 d840 1508 ff40
00000040: ddcf 8e40 d7cf 943f 53fe 8d40 69aa cf40
00000050: 5528 5e41 ce85 5d3f c68f 0641 e619 3b41
00000060: 8e4a 5441 6894 b140 797d 6241 c4ed ee40
00000070: 2444 b640 22ae 0d41 49b4 9940 bc86 7740
00000080: 64c2 6a40 9d9b 3541 3a68 4a41 9061 1440
00000090: fbc8 5e3e cb9b c33e 16c7 a540 2eb6 b940
000000a0: c7ef 2541 acef d740 3a82 e640 b6e5 0841
000000b0: 6bc4 b43f 1e88 3e40 c159 3540 87af f240
000000c0: 4268 cc41 5376 3941 b07b 0940 f4cd 0941
000000d0: c9b9 0e41 de11 8940 f240 5e41 4908 8241
000000e0: 0048 2240 17bb dc40 5c0e 1f41 9236 9340
000000f0: 37d0 8041 96d6 6a40 132d e540 3ccc 8d40
00000100: 4a91 a040 3120 c340 43e5 a140 d8fe 6e3f
00000110: 5932 1e41 f372 e63e 00c2 e73e d953 7340
00000120: 38a9 c340 6b19 9e40 4afc 0241 e1ef 9b40
00000130: 9b32 9c40 231a a940 e604 a540 0eec 9540
00000140: 3383 6740 b8bf c840 e40f df40 8847 ac40
00000150: d2f7 3340 2435 1641 bc4c 8740 686b 8e40
00000160: 78c9 0741 2641 5d40 fc64 1440 c1c7 4740
00000170: 4fcc c240 4c27 b240 4b1f 7040 8626 1041
00000180: d9ea ac40 5a7f 0241 f740 9e41 c9f1 1f41
00000190: b5e6 0841 253f 783f 568e 1341 6e1d c840
000001a0: d475 3440 a9f8 8d40 fa10 8440 8fc4 a840
000001b0: b159 3341 92af 413f ef4c e140 4133 5e40
000001c0: 1401 a241 5968 df40 9f17 2940 817b d340
000001d0: bbad 7940 9bb5 b640 3eca 2340 da47 863f
000001e0: e031 8f41 fbfd 2541 a172 3440 49e2 da40
000001f0: 6928 843f 614d 1b41 8e77 1640 e29b 6b40
00000200: d36d d03e 246b 8a40 7162 1d40 e34a 8840
00000210: 152c ca3e 9680 9c40 09cb 6d3f e769 d340
00000220: c7c0 2140 19fd 7640 7948 9740 433b 0041
00000230: 3cc7 d540 697e de40 d4ae 9b40 583b 093f
00000240: e32e 2341 8400 3241 7478 4d40 84f5 4241
00000250: ca48 0341 1eb9 ff41 1058 8640 83bb 0641
00000260: ba88 d240 cddb 5940 760e 4540 a2df bb41
00000270: d99f 953f 5d01 f040 fa66 0b40 afe5 9740
00000280: ae17 fc3f 05b7 0841 bb32 2341 09ce 0441
00000290: 2544 8c41 0961 7a41 4517 fe41 6ba9 8d40
000002a0: 08a0 ea40 17bb e340 3927 7441 d122 9140
000002b0: 26af 3041 2561 c440 05a4 c040 a044 e340
000002c0: 93a8 c940 19a3 0941 dbe1 3e41 d9e7 0e40
000002d0: c1b2 0241 c560 8f40 111a 3141 c438 9a3f
000002e0: f191 1341 72f8 1540 631f 5340 edc5 df40
000002f0: be9b f440 7ddf 8840 d40e bb40 191b 4741
00000300: f833 8441 6023 1f41 e07c 1c41 b019 7040
00000310: 504b 4f40 68f4 ec40 fb28 7f40 cd71 6140
00000320: 3b38 5540 f065 cf3f f0b0 3d41 76cb 1941
00000330: 6067 db40 eaf8 4741 72bd 9540 11ea a441
00000340: d199 e140 b4a7 d940 4290 9240 5402 7040
00000350: 6c66 b740 b075 8341 bc63 9240 d0e5 db40
00000360: 857b 4e40 7b0a f53f e583 5440 9043 6140
00000370: e1cf d140 3ad3 5e40 ede7 2641 f7c4 6f40
00000380: b427 3041 b6f7 1a41 9888 9b40 0380 0b41
00000390: 1e71 ce40 2cd7 c13f fa63 e341 3bf4 b940
000003a0: e92e 7440 851e 1141 106e 8740 705b 2d41
000003b0: 9412 8640 74f7 f040 a23c 7140 86f9 5d40
000003c0: 1da2 943e 2124 a440 c105 233f f345 7440
000003d0: 27cd 8440 f196 3e41 7076 1641 6d5f 9240
000003e0: 9d48 8241 dd57 6940 f5e5 623f 9bcd 0e41
000003f0: 0920 dc40 4290 7641 a7ca 6940 30ad 073f
13.273887 23.38365 3.7433853 8.664851 7.5465097 4.2603307 6.738765 4.042412
1.8273392 6.3207664 8.151591 3.537063 1.5623622 2.6579254 6.7685866 7.9697366
4.462874 1.1625928 4.4372954 6.489552 13.884847 0.86532295 8.410101 11.693823
13.268202 5.549366 14.155633 7.466524 5.695818 8.855013 4.8032575 3.8675985
3.6681147 11.350492 12.650446 2.3184547 0.21756355 0.38204798 5.1805525 5.8034887
10.371039 6.748007 7.203397 8.556082 1.4122442 2.977058 2.8336031 7.5839267
25.550907 11.591388 2.1481743 8.612782 8.920358 4.283431 13.890856 16.254045
2.5356445 6.897838 9.941006 4.6004114 16.101667 3.6693473 7.161752 4.431181
5.0177355 6.0976796 5.059236 0.9335761 9.887292 0.45009574 0.45265198 3.8019927
6.1144066 4.940603 8.186594 4.873032 4.8811774 5.2844405 5.156848 4.6850653
3.6173828 6.273403 6.97069 5.383732 2.8120008 9.387974 4.228117 4.450611
8.486687 3.4571013 2.3186636 3.121567 6.08744 5.567297 3.75191 9.009405
5.403668 8.156092 19.781721 9.99653 8.556325 0.9697135 9.22225 6.2535925
2.8196917 4.436604 4.1270723 5.273994 11.209397 0.75658524 7.0406413 3.4718783
20.250526 6.9814878 2.6420667 6.608826 3.9012287 5.7096686 2.559219 1.0490677
17.899353 10.374507 2.8194964 6.8401227 1.0324832 9.706391 2.351047 3.6813893
0.4070879 4.3255787 2.4591334 4.2591414 0.39486757 4.8906965 0.9288793 6.6066775
2.5273912 3.8591979 4.7275968 8.014468 6.6805706 6.952931 4.8650913 0.53606176
10.198947 11.125126 3.2104769 12.18494 8.205271 31.96539 4.19825 8.420779
6.5791903 3.4040406 3.0790076 23.484196 1.1689407 7.5001664 2.1781602 4.7467875
1.9694726 8.5446825 10.199885 8.300302 17.533274 15.64869 31.761362 4.426931
7.332035 7.116588 15.259576 4.5355 11.042761 6.1368585 6.020022 7.102127
6.301828 8.602319 11.9301405 2.2329009 8.168641 4.4805627 11.068864 1.2048573
9.22313 2.343289 3.2987907 6.992911 7.6440115 4.2772813 5.84556 12.444116
16.525375 9.946136 9.780487 3.7515678 3.2389717 7.4048347 3.9868762 3.5225708
3.331557 1.6202984 11.855698 9.612173 6.856369 12.49827 4.6793756 20.61429
7.0500264 6.8017216 4.5801096 3.750142 5.7312527 16.432465 4.5746746 6.8718033
3.226289 1.9143823 3.3205502 3.5197487 6.556626 3.4816422 10.4316225 3.7463968
11.009693 9.685476 4.860424 8.718753 6.4513083 1.514379 28.423817 5.8110633
3.8153632 9.069951 4.2321854 10.834824 4.189768 7.5302067 3.7693257 3.4683547
0.29029933 5.1294103 0.63680655 3.8167694 4.150043 11.911851 9.403915 4.5741487
16.285456 3.6459877 0.88632137 8.925197 6.8789105 15.410219 3.652994 0.5299864

fc2.weight f4 [128, 256]
00000000: 2ddc 403d f9d4 b93a fb65 323e 968c 2e3e
00000010: babe efbd 2399 2e3e a590 893e 9924 493e
00000020: 942a 80bd 708e acbb 4bcb e03d f424 0a3d
00000030: dad0 debd 85b4 3b3d f244 d23b f2ec c13c
00000040: f600 1e3d 1d6c 8fbe a44d 3a3d b7b9 043e
00000050: e442 0f3e ea45 343e 7e14 663c ef54 9c3d
00000060: aeaa c63d 6f1e 02be 2fcd 99bc 4e7a b2bd
00000070: bff3 613d 616b 9a3e 5822 efbc 555f dc3d
00000080: d026 30be 17b2 a0bd d141 08be b626 193e
00000090: 3714 4abe d6b1 41be 2457 0abe b038 8e3d
000000a0: 9526 eabc a091 103e eeae 41bd 8c91 863e
000000b0: fb7a c8be 3d41 193e df1c 923c c5d6 29be
000000c0: 54f8 c93d 6534 093e a10f b8bc 36cf 43bd
000000d0: e487 123e bc14 d8ba 6424 ff3d 24f3 d8bc
000000e0: 63da 97be 73f6 963d b32a bcbd f7fa a13e
000000f0: b3b7 c9be a9ab e33c 84a1 833d c208 27bd
00000100: d363 813e a61b 40be 8d89 7ebd 7a6d db3b
00000110: 6ecb 1abe c25f 803d 7682 023e 6053 00bd
00000120: 4e66 27bd 4840 26be 0194 1e3d 95cc 9a3e
00000130: 4518 80bb 477f 633e b448 353e 4e3d 1b3e
00000140: 5e40 eb3d 7e84 81be 1097 ff3c f911 403e
00000150: 14ac ed3d 65c2 dcbd 0ec0 023e ea98 96bc
00000160: 7a98 f5bc 854c d0bd 2363 76be 7309 2fbe
00000170: d293 1ebe bf60 713d 53a3 423e ffb0 033e
00000180: c891 bebd 4c4d 863d 4635 bb3c bba7 9abd
00000190: daca 933e 353e 0bbd 6ce0 ab3d 69bb 9f3c
000001a0: 2e6d 0d3e 11ee 00bb 5fbc 633e bb44 aebb
000001b0: 186c fa3d 747c 33be 4919 20be 3afb cd3d
000001c0: 4609 b9bc 00bc df3c a782 9a3d e81f a2bb
000001d0: 718b 80be 8b61 c33d c9a0 dcbe fc5a dcbe
000001e0: 0442 80be 3292 803d 3f6d abbd 31a2 303e
000001f0: c4e7 483d bf92 f63d 4057 243d b174 853d
00000200: 954d 3f3e b2e3 213e fa19 4abd 6110 68be
00000210: 515e 0fbe 9ffd 053e 70fc 373e c3ac 233e
00000220: bbf4 62bd 3bfa 383e 9f67 323e 43bb ee3d
00000230: 6aad 7c3d ff79 173e bafa 2c3e 7b21 79bd
00000240: dc4b 0cbc 4f00 b03c 180c bf3d 9b9e 8bbe
00000250: 036d 993d 28fd 6d3d a5d2 6dbd 2f15 2b3e
00000260: cd8e 5e3e 8368 0d3e 8065 bebd 5aa5 cabb
00000270: 0209 323e 5995 acbb ce57 eb3d 0034 30be
00000280: f240 4c3e c381 553e 6cd6 37be 3fae 5b3e
00000290: 6955 e53c 39a6 66be 5f71 7ebe f5cf 8a3e
000002a0: 0b7d 8cbe 622e 90bd 4321 ccbe f12d f53e
000002b0: 5e0b 17bd 3374 1bbe ec8e 9c3c 43f7 63be
000002c0: 481d 223e f6dc 80be d475 10bd 6ca7 973d
000002d0: 5854 cdbd a688 9fbd a789 123e 97d2 d13d
000002e0: f5a2 af3d b519 863d 8c4d 423e a780 d93d
000002f0: a354 89be 8b7d eb3d 7121 f9bc 61c6 f63b
00000300: da2c 8e3c 42af 2b3e ebe8 babe 8103 b5bd
00000310: dee2 323e e738 82be 96b3 033d 9562 043e
00000320: 7350 023e edf4 a5bd e71b 8c3d d53b 0f3e
00000330: 9ea9 7b3e db43 2cbe 89c0 9d3c d228 68be
00000340: 6e5e 093e cae8 2b3e 5e38 f2bd 7934 6c3d
00000350: 146a eb3d 9817 2a3d e879 9f3d 1918 c8be
00000360: 07a6 87be 71a8 28be 126e 2fbe e1ee e93d
00000370: 9d39 5f3d e754 72bd a453 bdbb b96b fb3c
00000380: 6e83 90bc 4e81 c13d 9a99 f0bd 4902 dcbd
00000390: 1635 a13c d17b 3f3d 4289 583e 8b05 8d3a
000003a0: a6da db3d 18b0 7cbb ada5 cbbd 2ca1 15be
000003b0: 6e89 17be 78a7 033e d1e8 fe3d 983a 02be
000003c0: cc13 79be 4cd3 1e3e 1b65 a9bd 7a15 e1bc
000003d0: f7e6 33be 539a a23b 4a8f febd 126c cdbd
000003e0: 253a b23c ff3d 20be c181 e03d 7437 28be
000003f0: 7372 0ebe 98b4 323d ee26 ce3b a0c5 afbd
0.047084976 0.0014177851 0.17421715 0.17045817 -0.117063 0.17050605 0.26868168 0.19642867
-0.06258121 -0.0052660033 0.10976275 0.033726647 -0.10879679 0.045826454 0.0064169103 0.023672555
0.038575135 -0.2801217 0.0454842 0.1296147 0.1399036 0.17604795 0.014042972 0.07633387
0.09700523 -0.12706922 -0.018774597 -0.08714734 0.055164095 0.3016005 -0.029191181 0.10760371
-0.17202306 -0.07846468 -0.13306357 0.14956173 -0.19734274 -0.18915495 -0.13509804 0.06944406
-0.02858285 0.14118052 -0.047285967 0.26282918 -0.39156327 0.14966293 0.017836032 -0.16585834
0.09861818 0.13398893 -0.02246839 -0.047805034 0.1430965 -0.0016485672 0.12458113 -0.026483126
-0.29658803 0.07371225 -0.09187832 0.31636783 -0.39397964 0.027791815 0.06427291 -0.040779836
0.25271472 -0.18760547 -0.062142897 0.0066964 -0.15116665 0.06268264 0.1274508 -0.031329513
-0.04086905 -0.16235459 0.038715366 0.3023421 -0.003909143 0.22216521 0.17703515 0.15160105
0.114868864 -0.25296396 0.031199962 0.18756856 0.11605087 -0.10779265 0.12768576 -0.018383462
-0.029979933 -0.10170845 -0.24061255 -0.17093448 -0.15486076 0.058930155 0.19007616 0.12860487
-0.09305149 0.06557712 0.022852551 -0.07551523 0.288657 -0.033994872 0.083924145 0.019498544
0.1381118 -0.0019673149 0.22239827 -0.005318252 0.122276485 -0.17527944 -0.15634646 0.10057683
-0.02258743 0.027311325 0.07544451 -0.004947651 -0.25106385 0.09540089 -0.4309142 -0.43038166
-0.25050366 0.062778845 -0.083704464 0.17249371 0.049049154 0.12039708 0.04012227 0.06516398
0.18681939 0.15809515 -0.04934118 -0.22662498 -0.14000823 0.1308503 0.17967391 0.15983872
-0.055409174 0.18064205 0.17422341 0.11656811 0.061688818 0.14792632 0.1689252 -0.060822945
-0.008563008 0.021484522 0.093284786 -0.27269444 0.074914955 0.058102757 -0.058062214 0.167073
0.21734162 0.138094 -0.09296703 -0.006184262 0.17386249 -0.005266827 0.11491357 -0.17207336
0.1994665 0.20850281 -0.17952889 0.21453188 0.027994828 -0.22524346 -0.24847935 0.27111784
-0.2743915 -0.07040097 -0.39869127 0.47886613 -0.036876075 -0.15181045 0.01911112 -0.22262292
0.15831482 -0.2516858 -0.03526862 0.0740498 -0.10025853 -0.077897355 0.14310323 0.10245245
0.085760035 0.06547872 0.18974894 0.106202416 -0.26822385 0.11498555 -0.030411454 0.007530973
0.017355371 0.16766074 -0.36505827 -0.08838559 0.17469355 -0.25434038 0.03215369 0.12928231
0.12726001 -0.081033565 0.068412594 0.13987668 0.24576423 -0.1682276 0.019256847 -0.22671822
0.13414928 0.1678802 -0.118271574 0.05766723 0.11494842 0.041526407 0.07786924 -0.39080885
-0.26493856 -0.16470505 -0.17131832 0.11422516 0.054498304 -0.059163 -0.005777793 0.030691015
-0.017640796 0.09448491 -0.11748047 -0.10742623 0.019678634 0.04674894 0.2114611 0.0010759098
0.10735063 -0.0038557108 -0.099437095 -0.14612263 -0.14798519 0.12856853 0.1244675 -0.12717664
-0.24323958 0.15510291 -0.082712375 -0.027476061 -0.17568575 0.0049622445 -0.12429674 -0.100303784
0.021756241 -0.1564865 0.109622486 -0.16427404 -0.13910846 0.04362926 0.006291262 -0.08582616

fc2.bias f4 [128]
00000000: 99ab ce3c bc91 ff3b 9bd2 2e3c 5124 b4bc
00000010: 2287 d6bb 700c b93c 0e09 6abe 1abf 723c
00000020: ff39 723b 43d6 acbd 1ecf fb3c 7898 0abe
00000030: e47a 0b3d 66bb 18be 1f68 c03d c3f5 9a3d
00000040: 711e 20be 4229 3abd 0dee 40ba 5eb6 993d
00000050: 556a 273d 05f1 153e 06a9 e63d ad67 11be
00000060: 887b 6e3e 4ff9 f13d 01cd 65bd da90 823d
00000070: 3630 bebd 4048 1d3d 91e1 4bbc 6b97 dabd
00000080: 2104 86bc 6688 efbd abc6 0abe 3735 7b3d
00000090: 664f ed3a 3526 683c 5624 21bb 89b0 253c
000000a0: 37bd 73bd 9911 9a3d bd81 b53d 3aef 263e
000000b0: c99b bb3c addc a4bd 7db1 783d b66c bd3d
000000c0: 9e1d 153d 3424 e13d 4a31 fbbc 51d6 fdbc
000000d0: 2057 e63d 003a 11bc a059 353e 7d63 783d
000000e0: d100 7abb 33df b8bd 8d21 623e e204 edbd
000000f0: e9e7 1e3e b577 2dbd a39b 84bc 8c81 e83d
00000100: cb2a f73d 8484 7abd ccd3 a13d 26d2 5e3d
00000110: 195c 5abe 435f e7bc 2459 973a e664 3b3d
00000120: 0293 35bd 2e12 8ebd 22da 833d 3b50 ac3d
00000130: 8b35 573d 17e3 3e3d 93ba 0d3d 67ff 7f3e
00000140: 9979 003d 13c1 873e 13ff 4abd b0f7 4a3d
00000150: a26e a9bd 2d7d d5bd d4f4 c6bd 17c0 a9bd
00000160: 80a7 a73d 5b33 83bd 89d4 a2bd 412e be3b
00000170: 10d5 6bbd ec7c a4bc 07a5 5f3e 3b74 163e
00000180: 1d67 703d 3d69 a23d eecf e8bd f84d 41be
00000190: 9ff0 89bd dc5e d43c ec9d aa3d 5d35 e3bd
000001a0: 0bc2 dd3d db21 973d 9b32 863d 1442 063e
000001b0: 18ae c5bd 443e f7bd 0f2c c0bd 3afa d9bd
000001c0: 7a31 1cbe 95c7 04be a2a9 83bd 84c8 543d
000001d0: a71d 78bc 2ca5 1a3d a1df 523c 361e b33c
000001e0: 91f6 c5bd 8507 9e3d 85c2 85bd 0407 c63d
000001f0: f7f0 8fbe 3fb8 763d 044c 1e3e 63f9 983d
0.025228309 0.0077993553 0.010670329 -0.021989973 -0.006546871 0.022588938 -0.22855017 0.01481607
0.0036960838 -0.08439305 0.03073841 -0.13534725 0.034052745 -0.14915237 0.093948595 0.075664066
-0.15636612 -0.045449503 -0.0007359691 0.07505487 0.04087289 0.14642723 0.112627074 -0.14199705
0.23289311 0.1181513 -0.05610371 0.063752845 -0.09286539 0.03839898 -0.012443916 -0.10673412
-0.01635939 -0.11695938 -0.13552348 0.061330047 0.0018105328 0.0141692655 -0.0024588308 0.01011289
-0.05950662 0.07522888 0.08862636 0.16302195 0.022901433 -0.08049903 0.06071614 0.092492506
0.0364052 0.10993233 -0.030663151 -0.030985983 0.112470865 -0.008863926 0.1770997 0.060641754
-0.003814746 -0.09026947 0.22083111 -0.11573197 0.15518154 -0.04235049 -0.016187495 0.11352834
0.12068709 -0.061161533 0.07901725 0.054399632 -0.21324195 -0.028243667 0.0011546952 0.04575052
-0.04432965 -0.06937061 0.0643809 0.0841374 0.052541297 0.04660329 0.03460176 0.24999772
0.031365965 0.2651449 -0.049559664 0.04955262 -0.08273055 -0.10424266 -0.09714666 -0.08288591
0.08186245 -0.0640628 -0.07950694 0.0058038537 -0.05757624 -0.020079099 0.21840297 0.14692776
0.058692086 0.07930229 -0.113677844 -0.18877399 -0.06735348 0.025924139 0.083309025 -0.110941626
0.108280264 0.07379504 0.06552621 0.13111144 -0.096523464 -0.12072423 -0.093834035 -0.1064343
-0.15253249 -0.1296676 -0.06428839 0.05194904 -0.015143788 0.037755176 0.0128707 0.021864992
-0.096661694 0.07716278 -0.06531242 0.09669307 -0.2811353 0.060234305 0.15458685 0.07469442
