MultiAgents Tennis - Collaboration and Competition/agent2_checkpoint_critic.pth (torch_old, 189873 bytes, 9 tensors)

fcs1.weight f4 [256, 48]
-1.2346159 -3.0621436 -0.058246654 0.045518693 0.01166888 -0.4144329 -0.05929332 0.113449946
0.6459701 -1.8411442 -0.06924688 -0.20125574 0.2951429 1.3871496 -0.00663562 -0.2339989
2.543694 -1.850926 0.06765871 -0.3858538 -2.0676522 2.4487202 0.03412402 -0.42857906
-0.17992538 -0.21009782 0.0310288 -0.010463121 -0.04409198 -0.326333 -0.023429703 -0.072102025
-0.05735779 0.17504221 0.03533657 0.018282142 -0.25255466 1.3494841 0.011512791 -0.02477236
-0.1461187 0.46339893 0.023923445 0.025711287 2.019977 2.3564165 -0.008568362 -0.03447957
-0.98646766 -2.2589548 0.2709683 -0.108642384 0.6437786 0.84381926 0.28433007 -0.09760972
-1.246172 -3.353304 -0.24050285 -1.2774234 0.36239243 2.2907255 -0.25478014 -1.1909151
-0.40088952 -2.716031 0.9110894 1.705709 -0.15734054 -0.8993857 0.8442903 1.7809526
-0.42613313 0.6582965 0.017526565 0.38235044 -0.6624858 0.88394475 0.022906315 0.3553368
-1.3302739 -0.33618087 0.21741144 -0.81295484 -0.43899703 2.3134444 0.21742277 -0.87762934
-1.1540213 0.42539218 0.32036224 0.0673108 0.07944706 -0.89866775 0.2508226 0.14265549
-0.9662099 -1.9166086 0.0011219424 0.042095535 -1.8295926 0.4292321 0.016919758 0.11056076
-0.16347912 -0.1464425 -0.01415939 -0.0884886 -0.17252983 0.08789616 -0.018304778 -0.044337817
0.6227391 0.96750027 -0.040636204 -0.5853017 2.0887873 1.7957927 -0.04871304 -0.64494234
-0.7397301 -1.9901352 0.02523865 -0.010437999 1.8930281 0.32191607 -0.026090667 -0.031128755
0.59054416 -0.57557034 -0.032848753 -0.152731 0.10176238 0.11522836 -0.0125468355 -0.15760829
0.6447777 0.19404715 -0.017650018 -0.16005565 -2.0812387 1.7049053 0.016284363 -0.14055191
1.1056578 -0.03892968 0.1713783 -0.4176026 0.55610025 0.38207385 0.1343861 -0.42091823
0.44915667 -0.43702528 0.075196475 1.0772775 1.7805703 1.4477034 0.18835673 1.1831063
0.24937484 -0.22122379 0.18162088 1.3056773 2.3007205 -0.93982947 0.21871845 1.4064003
-0.22313546 0.9992613 0.018482508 -0.07695623 -0.50169 0.5031352 0.07268486 -0.15662709
-0.37319794 0.31444457 0.11726305 -0.6895645 -1.7188251 1.4186767 0.10421915 -0.6408998
-0.020292776 -0.2416386 0.010857715 -2.5810926 -2.200049 -0.9914626 0.026294967 -2.5025172
1.5001786 -0.3247458 0.12073753 -0.8356312 -0.55435884 -0.16354752 0.07859003 -0.87807566
0.75297654 0.20410922 -0.077714846 0.45864826 -0.1398236 -7.561849 -0.13239872 0.40458855
0.027371984 0.62167084 0.1894393 -1.3593305 0.5845194 -1.1814 0.17167033 -1.4511268
-0.37048563 -0.39858562 -0.09502254 0.20935604 0.527226 -0.17317624 -0.040407814 0.20935825
-0.21706824 -0.25694397 0.016969316 -0.3964307 0.1743168 -7.565921 0.0286763 -0.45663425
0.3845179 0.5790813 0.09729709 0.47163945 -0.5396028 -1.1695561 0.010794189 0.47760004
0.48040366 1.7607288 -0.27083513 0.21517622 -0.13644046 -0.15249607 -0.29561332 0.17989257
-0.5759675 1.4478165 -0.46759292 0.48600364 0.34737778 -0.4881564 -0.39376786 0.5096915
00000000: e507 9ebf 29fa 43c0 0b94 6ebd cf71 3a3d
00000010: d42e 3f3c 8d30 d4be 8ddd 72bd 7258 e83d
00000020: 4c5e 253f 9daa ebbf 4fd1 8dbd fc15 4ebe
00000030: f81c 973e 1e8e b13f 9d6f d9bb 689d 6fbe
00000040: e2cb 2240 25eb ecbf a690 8a3d a18e c5be
00000050: 6a54 04c0 d5b7 1c40 a1c5 0b3d b76e dbbe
00000060: 5c3e 38be e223 57be 1c30 fe3c 836d 2bbc
00000070: cb99 34bd 1e15 a7be a6ef bfbc 3aaa 93bd
00000080: 01f0 6abd 443e 333e 14bd 103d 6ec4 953c
00000090: d84e 81be e5bb ac3f 25a0 3c3c 68ef cabc
000000a0: 24a0 15be a042 ed3e 1afb c33c 7aa0 d23c
000000b0: 4e47 0140 87cf 1640 5162 0cbc 733a 0dbd
000000c0: 2589 7cbf b792 10c0 5bbc 8a3e e67f debd
000000d0: adce 243f 8a04 583f b693 913e 9be7 c7bd
000000e0: 9082 9fbf 889c 56c0 6146 76be 9c82 a3bf
000000f0: 808b b93e 3f9b 1240 8b72 82be e86f 98bf
00000100: 6441 cdbe 74d3 2dc0 283d 693f ac54 da3f
00000110: e11d 21be 243e 66bf 6923 583f 41f6 e33f
00000120: 1f2e dabe 1f86 283f df93 8f3c 70c3 c33e
00000130: ab98 29bf 344a 623f 06a6 bb3c b4ee b53e
00000140: 6a46 aabf e61f acbe 1ba1 5e3e cf1d 50bf
00000150: 38c4 e0be 790f 1440 13a4 5e3e 51ac 60bf
00000160: f8b6 93bf 01cd d93e 8506 a43e 3fda 893d
00000170: 24b5 a23d 170f 66bf d26b 803e 4814 123e
00000180: 8859 77bf 6e53 f5bf 240e 933a 5e6c 2c3d
00000190: 1730 eabf 4fc4 db3e 4e9b 8a3c ae6d e23d
000001a0: 1267 27be 06f5 15be c9fc 67bc 8339 b5bd
000001b0: a9ab 30be e702 b43d e7f3 95bc 929b 35bd
000001c0: d46b 1f3f 19ae 773f 2672 26bd 55d6 15bf
000001d0: b1ae 0540 89dc e53f 5387 47bd f11a 25bf
000001e0: f45e 3dbf c0bc febf 49c1 ce3c 2404 2bbc
000001f0: bf4e f23f 2fd2 a43e 18bc d5bc bb01 ffbc
00000200: e72d 173f 9458 13bf 6a8c 06bd 8465 1cbe
00000210: cb68 d03d d9fc eb3d 3e91 4dbc 1164 21be
00000220: 2710 253f 4cb4 463e c596 90bc a1e5 23be
00000230: 0433 05c0 563a da3f c966 853c d7ec 0fbe
00000240: 3286 8d3f ba74 1fbd cb7d 2f3e 02d0 d5be
00000250: 965c 0e3f 2f9f c33e 839c 093e 9882 d7be
00000260: ddf7 e53e c7c1 dfbe 9c00 9a3d 3be4 893f
00000270: bae9 e33f 584e b93f 96e0 403e 0770 973f
00000280: 1e5c 7f3e 7d88 62be d3fa 393e 6f20 a73f
00000290: 013f 1340 aa98 70bf bbf7 5f3e ed04 b43f
000002a0: 9f7d 64be 97cf 7f3f a168 973c 3a9b 9dbd
000002b0: c16e 00bf 78cd 003f cddb 943d da62 20be
000002c0: cd13 bfbe e1fe a03e 9c27 f03d 4d87 30bf
000002d0: 7602 dcbf 3397 b53f da70 d53d 0212 24bf
000002e0: 093d a6bc 1c70 77be 8fe4 313c 9f30 25c0
000002f0: 9acd 0cc0 7ed0 7dbf 8b68 d73c 3e29 20c0
00000300: da05 c03f 1545 a6be 3d45 f73d edeb 55bf
00000310: 76ea 0dbf 0079 27be cff3 a03d 91c9 60bf
00000320: 12c3 403f 0202 513e f628 9fbd f2d3 ea3e
00000330: eb2d 0fbe abfa f1c0 8893 07be 3b26 cf3e
00000340: 363b e03c d225 1f3f 60fc 413e 8bfe adbf
00000350: 10a3 153f 1d38 97bf 59ca 2f3e 86be b9bf
00000360: 4bb0 bdbe 6a13 ccbe 2d9b c2bd 6e61 563e
00000370: 48f8 063f 1d55 31be aa82 25bd 0262 563e
00000380: 2347 5ebe 298e 83be 3c03 8b3c f7f8 cabe
00000390: 1a80 323e 061c f2c0 8fea ea3c f7cb e9be
000003a0: 88df c43e ac3e 143f b243 c73d ba7a f13e
000003b0: 6923 0abf 04b4 95bf 1cda 303c fe87 f43e
000003c0: 78f7 f53e 905f e13f e7aa 8abe 2857 5c3e
000003d0: 0cb7 0bbe ee27 1cbe a15a 97be c235 383e
000003e0: 9b72 13bf 0d52 b93f 5768 efbe 78d5 f83e
000003f0: 80db b13e a3ef f9be f19b c9be 247b 023f

fcs1.bias f4 [256]
0.15417525 0.082811646 -0.0077522537 0.11531286 -0.09638814 -0.017182754 0.0099029895 -0.10051654
0.0038599204 -0.008574903 0.017060284 -0.003984377 -0.08692669 0.0037265306 -0.07573584 -0.0046830317
-0.01811796 0.093408845 -0.035667412 0.10178675 -0.010166797 0.0008956968 0.14086476 0.06641503
0.13187267 0.088790685 0.026363336 0.123509996 0.12381337 -0.027990876 -0.13694951 0.02463986
0.052474566 0.0011512222 0.0065959245 0.12899771 0.09487647 0.033868324 0.008992235 0.07456032
-0.15710524 -0.10454645 0.13564305 0.069796726 0.026949897 0.003850759 -0.0034262335 0.033055875
0.11901557 -0.06885203 0.025007779 -0.12193148 -0.06605536 -0.03163442 0.02271475 -0.0783621
0.095007695 0.12000531 0.09690539 0.006772162 -0.02736001 0.13114716 -0.054909978 0.049605083
-0.12835628 0.012450065 -0.023777982 -0.12163363 -0.10432664 0.12751974 0.042385206 0.10510683
-0.08128229 0.13206413 -0.06650675 -0.13812381 -0.09699106 0.07427514 0.06323881 0.10803092
0.06203846 -0.06098663 0.018750656 0.086551026 0.09679356 0.1432248 -0.056490254 0.06332177
0.07843852 0.07057833 -0.051819425 0.031057065 0.023121485 0.13518146 -0.047587123 -0.12507445
0.015154809 0.0849453 0.013740189 0.12560688 0.028122872 -0.025363548 -0.04189879 0.047102503
-0.12892242 -0.0034232081 -0.09540855 0.05610735 0.09716771 0.09805606 -0.09270635 -0.111740455
-0.053859822 0.120946445 0.11442886 0.059534714 0.14288105 0.052780427 0.031167373 -0.049971957
0.030674843 0.0020540436 -0.010907795 -0.032100655 -0.06239303 -0.0004956389 -0.11067488 0.10110429
0.11905632 -0.081138596 0.00091101526 0.11663329 0.13359599 0.07396094 -0.089443855 0.09286642
0.14150698 0.020259555 0.049759742 0.012159186 -0.016428635 0.09688438 0.04798617 -0.14255553
0.006421746 0.10733343 -0.020861086 -0.13829474 0.012853821 -0.13056584 -0.10696545 -0.05881013
-0.15741451 0.063580334 0.088965446 -0.03735681 0.1203693 -0.057048634 0.07173732 -0.11923876
0.089532405 -0.054860074 -0.04990247 -0.09185131 -0.10219496 0.0751072 0.10556051 0.006805213
-0.06662465 0.088280834 0.045188576 0.10440705 0.03965338 -0.0008259396 -0.11023598 -0.14298016
0.021217464 -0.12607788 0.036802217 0.12332975 -0.008989179 -0.04699876 0.05898246 0.1383237
0.116381615 0.08807604 -0.07711135 -0.06400265 -0.14257789 -0.016650347 -0.036515214 -0.10467757
0.057979677 0.10423579 0.09015673 0.034911096 0.033244185 -0.02776368 -0.041063722 0.12784106
-0.103884794 0.007666082 -0.1397424 -0.11098506 -0.049874324 0.08936379 0.07657555 -0.075999215
0.031335168 0.0093222745 0.049805507 0.119644195 0.1368236 0.015234526 0.023405349 -0.016875446
-0.14347333 0.008865916 -0.024357133 0.026215859 0.12398153 -0.0453531 0.08376242 -0.123930246
0.08197674 -0.034464184 -0.024922086 -0.059703678 -0.041957334 0.035392374 -0.074065335 0.10006686
0.14070456 0.1511584 -0.05129067 0.10907118 0.12954319 0.111676514 -0.120520115 -0.09853877
0.012770708 -0.10517394 0.06559271 0.04804513 -0.00023271113 -0.1205524 0.091624744 0.015949447
0.092942625 -0.06483103 -0.07884415 -0.12255257 0.13662635 0.07710902 -0.04340729 0.05921234
00000000: 1ee0 1d3e 2799 a93d 9e06 febb 2629 ec3d
00000010: 2567 c5bd d9c2 8cbc 2640 223c 9edb cdbd
00000020: b8f6 7c3b c07d 0cbc 02c2 8b3c 608f 82bb
00000030: 9f06 b2bd cf38 743b 641b 9bbd 1e74 99bb
00000040: 1e6c 94bc 234d bf3d fe17 12bd 9275 d03d
00000050: a392 26bc 32cd 6a3a da3e 103e 9a04 883d
00000060: a109 073e e4d7 b53d ecf7 d73c cff2 fc3d
00000070: dd91 fd3d 1f4d e5bc 7e3c 0cbe 88d9 c93c
00000080: 92ef 563d 9be4 963a a022 d83b fa17 043e
00000090: 984e c23d 83b9 0a3d 2b54 133c 15b3 983d
000000a0: 32e0 20be 731c d6bd 03e6 0a3e 96f1 8e3d
000000b0: 08c6 dc3c 045d 7c3b a98a 60bb 9965 073d
000000c0: 6fbe f33d 4b02 8dbd 1ddd cc3c 36b7 f9bd
000000d0: 0848 87bd 1893 01bd 4914 ba3c 4f7c a0bd
000000e0: 6593 c23d 58c5 f53d 5576 c63d 03e9 dd3b
000000f0: 1a22 e0bc 714b 063e 49e9 60bd b32e 4b3d
00000100: d46f 03be 5cfb 4b3c 0bca c2bc 0d1b f9bd
00000110: 35a9 d5bd 8994 023e 1c9c 2d3d 4042 d73d
00000120: 5477 a6bd d23b 073e b134 88bd 5470 0dbe
00000130: 40a3 c6bd 911d 983d 5983 813d 513f dd3d
00000140: 0a1c 7e3d 1ecd 79bd fa9a 993c aa41 b13d
00000150: b43b c63d 86a9 123e 5362 67bd d8ae 813d
00000160: 60a4 a03d 5f8b 903d 9b40 54bd 636b fe3c
00000170: 4569 bd3c 026d 0a3e b7ea 42bd 8413 00be
00000180: e04b 783c cdf7 ad3d 881e 613c 179f 003e
00000190: f061 e63c 37c7 cfbc 119e 2bbd 8eee 403d
000001a0: 3d04 04be e757 60bb 8f65 c3bd d2d0 653d
000001b0: ddff c63d 9ed1 c83d d4dc bdbd 2ed8 e4bd
000001c0: 1e9c 5cbd c5b2 f73d ae59 ea3d acda 733d
000001d0: 694f 123e 4a30 583d b852 ff3c 65af 4cbd
000001e0: cf49 fb3c 229d 063b 9cb6 32bc fa7b 03bd
000001f0: d58f 7fbd c3ed 01ba 83a9 e2bd c40f cf3d
00000200: cdd3 f33d fe2b a6bd 33d1 6e3a 6fdd ee3d
00000210: 63cd 083e d578 973d 572e b7bd c030 be3d
00000220: 35e7 103e 5ef7 a53c dfd0 4b3d 5337 473c
00000230: 5895 86bc 516b c63d 258d 443d 14fa 11be
00000240: 836d d23b a1d1 db3d dee4 aabc 239d 0dbe
00000250: d598 523c 0db3 05be b410 dbbd e4e2 70bd
00000260: 4531 21be 6836 823d 8433 b63d 7403 19bd
00000270: 2e84 f63d d4ab 69bd 04eb 923d 7333 f4bd
00000280: c45c b73d f5b4 60bd 8866 4cbd 8a1c bcbd
00000290: 974b d1bd ced1 993d 1c30 d83d 44fe de3b
000002a0: 8172 88bd 95cc b43d a817 393d 5dd3 d53d
000002b0: 956b 223d de83 58ba 67c3 e1bd 6469 12be
000002c0: 3fd0 ad3c 8f1a 01be ecbd 163d 4f94 fc3d
000002d0: 5947 13bc c681 40bd 9897 713d baa4 0d3e
000002e0: 7c59 ee3d 3661 b43d 8eec 9dbd d213 83bd
000002f0: f0ff 11be 4f66 88bc fa90 15bd 3261 d6bd
00000300: 197c 6d3d 9379 d53d 17a4 b83d f0fe 0e3d
00000310: 0e2b 083d a870 e3bc 6f32 28bd c4e8 023e
00000320: 8dc1 d4bd c233 fb3b a218 0fbe 234c e3bd
00000330: 0549 4cbd 5d04 b73d a4d3 9c3d 7aa5 9bbd
00000340: 4e59 003d 74bc 183c dc00 4c3d 0408 f53d
00000350: 7c1b 0c3e 3c9a 793c 93bc bf3c 603e 8abc
00000360: acea 12be 5942 113c 9c88 c7bc a4c2 d63c
00000370: 07ea fd3d 2cc4 39bd a28b ab3d 24cf fdbd
00000380: 6ce3 a73d 512a 0dbd 6729 ccbc d88b 74bd
00000390: 74db 2bbd 98f7 103d 91af 97bd dbef cc3d
000003a0: db14 103e 45c9 1a3e 2a16 52bd b660 df3d
000003b0: f8a6 043e a8b6 e43d 40d3 f6bd b2ce c9bd
000003c0: 3b3c 513c 6f65 d7bd 7955 863d f8ca 443d
000003d0: eb03 74b9 2de4 f6bd c1a5 bb3d 6aa8 823c
000003e0: b458 be3d 22c6 84bd 0b79 a1bd d8fc fabd
000003f0: c7e7 0b3e 55eb 9d3d d8cb 31bd a388 723d

batch.weight f4 [256]
3.0949397 1.3651996 3.0698729 1.4334046 1.661652 1.3662742 1.5157541 1.5893477
1.5165133 1.773079 2.0189097 -0.0009775928 2.6421442 1.446967 1.7191914 1.6361378
1.9380434 2.1716936 1.7076583 1.643769 1.6084152 1.8828167 1.1195148 9.36032e-05
1.8255851 1.4445604 2.5763595 1.6314243 2.3944442 1.1525164 1.4784805 1.6782
1.319104 1.6371807 0.0074477945 3.9411588 0.009764196 1.6022038 1.2611192 1.665676
2.4551327 1.9558542 1.4650879 1.2657508 2.6229618 1.6802474 2.246401 1.5386858
1.5883068 1.5481261 0.024656598 3.0541093 2.4289596 1.470657 1.6438935 2.7404375
1.8210843 1.7916379 1.924408 1.7156756 1.6398003 3.5700305 2.230819 1.5689545
1.5828414 3.0638092 1.5994699 1.1743227 2.213234 1.2238197 0.0034350792 1.7827018
1.8368111 2.1064622 1.6904824 1.6819069 2.090837 1.6651565 1.4065164 1.7378623
1.4587927 -0.0005807199 1.6184713 1.6110936 1.2864289 -0.009983022 1.9247355 1.4181123
1.1401547 0.00494152 2.5601037 1.7981501 2.2151897 1.7011136 1.4576141 1.6806707
1.8661296 1.6996042 1.6725801 1.365273 1.6762369 1.5166521 1.217478 1.7092434
1.8315347 1.3946887 2.1314154 1.7539952 1.7457156 2.0854578 1.555052 1.6241765
1.3686404 1.4151158 1.1755885 1.3529677 1.7804577 1.6230439 1.2788569 1.4429568
1.5868495 1.2475506 2.2303214 1.4630123 1.5244824 2.0008075 1.414259 1.1634076
1.7969353 3.7220807 1.5215578 1.8649228 1.3400966 3.1032917 2.3810153 1.3673368
1.5802953 1.5629307 1.9706165 0.8801807 1.4131993 2.3329723 1.4112004 1.3552543
1.6053613 3.2997944 0.04306771 1.8228781 1.7523121 1.8461139 1.3879215 0.0108946115
1.8953323 0.004275609 -0.0005781408 1.638252 1.0571649 1.6116409 1.1655009 1.9810126
1.6965835 1.6528006 1.4267603 1.3085694 1.5397773 0.019057771 1.308064 1.330235
1.5812081 1.4894984 -0.0077105984 1.073917 1.93271 1.4553744 1.4913245 0.0006079024
2.6636508 0.018415796 0.97558886 1.5222656 1.8762659 0.025094591 1.6472315 1.0049458
0.008628428 1.3214558 2.816709 1.6995701 1.4410638 1.9863847 3.7007718 2.0627518
1.9419235 1.4043473 1.6354339 2.6947222 1.267651 -0.001867625 1.3672186 -0.012176221
1.4326895 1.3633455 1.472479 1.5748658 1.2529812 1.5968302 1.842289 -0.007276702
1.6068863 2.3499854 1.7712634 1.4936497 1.9274368 1.3716962 1.3346571 2.736287
-0.007862179 1.4270608 1.9399214 2.2465231 1.742799 1.7950388 1.6303658 0.0072621903
1.340452 1.6403193 4.8325825 1.3718952 1.9767989 1.1882555 1.2905482 4.5551
2.2600918 2.392608 2.0443974 1.4790523 1.5950559 1.7329385 1.5101339 1.573279
1.5451299 1.6169268 1.1125228 0.0033874463 1.5943068 2.0150893 2.317348 1.524834
1.6442752 2.9280205 1.4562088 2.5556626 2.260352 1.5374962 -0.003285358 1.5339316
00000000: 7e13 4640 dcbe ae3f cc78 4440 cd79 b73f
00000010: 03b1 d43f 13e2 ae3f 3b04 c23f bf6f cb3f
00000020: 1c1d c23f 41f4 e23f d135 0140 9222 80ba
00000030: e418 2940 3736 b93f 770e dc3f f76c d13f
00000040: ce11 f83f 07fd 0a40 8c94 da3f 0667 d23f
00000050: 8de0 cd3f 2300 f13f 434c 8f3f d64c c438
00000060: c6ac e93f 5be7 b83f 13e3 2440 83d2 d03f
00000070: 933e 1940 a885 933f d93e bd3f 42cf d63f
00000080: 66d8 a83f 238f d13f a10c f43b f23b 7c40
00000090: 02fa 1f3c 0415 cd3f 5b6c a13f df34 d53f
000000a0: e520 1d40 6e59 fa3f 0088 bb3f 1f04 a23f
000000b0: 9bde 2740 5912 d73f 09c5 0f40 a8f3 c43f
000000c0: a34d cb3f ff28 c63f a2fc c93c 8776 4340
000000d0: 1374 1b40 7d3e bc3f 1a6b d23f 5463 2f40
000000e0: 4a19 e93f 6454 e53f 0053 f63f 429b db3f
000000f0: fae4 d13f 617b 6440 bdc5 0e40 80d3 c83f
00000100: 8c9a ca3f 7315 4440 6ebb cc3f 3550 963f
00000110: a0a5 0d40 20a6 9c3f 111f 613b 932f e43f
00000120: a01c eb3f 47d0 0640 ba61 d83f ba48 d73f
00000130: 46d0 0540 d923 d53f bb08 b43f 4672 de3f
00000140: b8b9 ba3f 743b 18ba 112a cf3f 5138 ce3f
00000150: b4a9 a43f d48f 23bc bc5d f63f b484 b53f
00000160: 97f0 913f 79ec a13b bdd8 2340 c829 e63f
00000170: abc5 0d40 17be d93f 1993 ba3f 3820 d73f
00000180: 56dd ee3f a18c d93f 1b17 d63f 44c1 ae3f
00000190: ee8e d63f a821 c23f 52d6 9b3f 7dc8 da3f
000001a0: bb6f ea3f 2985 b23f 1c69 0840 ea82 e03f
000001b0: 9c73 df3f 2478 0540 f20b c73f 04e5 cf3f
000001c0: 9c2f af3f 8422 b53f af79 963f 0c2e ad3f
000001d0: 0ae6 e33f e7bf cf3f 95b1 a33f cfb2 b83f
000001e0: e21d cb3f bdaf 9f3f 96bd 0e40 fd43 bb3f
000001f0: 3d22 c33f 3b0d 0040 7006 b53f 8aea 943f
00000200: fa01 e63f 9236 6e40 68c2 c23f cab5 ee3f
00000210: 4988 ab3f 559c 4640 8e62 1840 e404 af3f
00000220: 1e47 ca3f 1d0e c83f 293d fc3f 8653 613f
00000230: b7e3 b43f 6b4f 1540 37a2 b43f f978 ad3f
00000240: 7b7c cd3f d52f 5340 c467 303d 1254 e93f
00000250: c34b e03f 764d ec3f 69a7 b13f 507f 323c
00000260: 409a f23f 681a 8c3b 5f8e 17ba 3eb2 d13f
00000270: 2e51 873f 404a ce3f 222f 953f d291 fd3f
00000280: a629 d93f f88e d33f 15a0 b63f 347f a73f
00000290: 6c17 c53f 0b1f 9c3c a46e a73f 2445 aa3f
000002a0: 0765 ca3f e2a7 be3f 30a9 fcbb 1d76 893f
000002b0: 0b63 f73f b549 ba3f b9e3 be3f a45b 1f3a
000002c0: 4179 2a40 b9dc 963c 31c0 793f 99d9 c23f
000002d0: 7b29 f03f 2c93 cd3c 7bd8 d23f 10a2 803f
000002e0: 405e 0d3c 7725 a93f f644 3440 838b d93f
000002f0: c774 b83f db41 fe3f 72d9 6c40 2004 0440
00000300: f390 f83f a7c1 b33f e655 d13f 5476 2c40
00000310: 6342 a23f 19cb f4ba 0501 af3f c67e 47bc
00000320: 5f62 b73f 1b82 ae3f 317a bc3f 3495 c93f
00000330: b061 a03f ef64 cc3f 20d0 eb3f 6771 eebb
00000340: 73ae cd3f 2966 1640 c2b8 e23f ea2f bf3f
00000350: 40b6 f63f be93 af3f 0bd6 aa3f 541f 2f40
00000360: 5ed0 00bc eea9 b63f 584f f83f 09c7 0f40
00000370: 0a14 df3f d5c3 e53f d4af d03f abf7 ed3b
00000380: ee93 ab3f fcf5 d13f 84a4 9a40 439a af3f
00000390: bf07 fd3f c218 983f af30 a53f 61c3 9140
000003a0: 58a5 1040 7d20 1940 68d7 0240 9651 bd3f
000003b0: cb2a cc3f eed0 dd3f 114c c13f 3561 c93f
000003c0: d1c6 c53f 75f7 ce3f 2667 8e3f ebff 5d3b
000003d0: 3f12 cc3f 39f7 0040 6e4f 1440 c32d c33f
000003e0: 9c77 d23f b064 3b40 0d65 ba3f fa8f 2340
000003f0: 9ba9 1040 adcc c43f 294f 57bb df57 c43f

batch.bias f4 [256]
-0.9423562 -0.7402229 -0.72995245 1.6866528 -1.4128954 -2.338798 -1.2615473 -1.1672173
-0.9119904 -1.0446242 -1.0897326 -0.013890866 -0.44139454 -0.7439644 -1.7461976 -1.6645799
-2.1129277 -1.046066 -0.8101252 -1.2220949 -0.7388487 -1.000509 -0.62248075 -0.0040737707
-1.6108258 -1.3702835 1.8190513 -0.7469397 -1.0455981 -0.5218454 0.10946333 -1.1302963
-1.5953479 -0.8965384 -0.05524162 0.25381774 -0.09526525 -0.9109429 -1.4649796 -0.7500278
-0.5511948 -0.63006383 -0.6010236 -0.28111494 -0.24482991 -1.9984925 -0.64308256 -1.8679222
-0.59421843 -1.0604699 -0.20225589 -0.86533815 -1.474921 0.00089687365 -1.5115347 0.05698469
-1.0653025 -0.69906545 0.28938583 -0.6895502 -0.9218887 1.1383022 -0.4320886 -0.89622915
-1.3448311 -3.3082337 -0.023250105 -1.2554483 0.40754768 -0.8864255 -0.042669065 -1.6251323
-0.5373114 -1.5284877 -1.3686998 -1.5556197 -1.8769306 -1.8623219 -1.2485096 -0.74863976
-1.5378263 -0.058847323 -1.5173746 -1.7917441 -1.3116997 -0.046014797 -1.5605258 -1.0957407
-0.85311276 -0.05716559 1.0292455 -0.94660664 -2.3117542 -1.732939 -1.2596178 -1.1556011
-0.3969913 -1.4432257 -1.4556963 -1.0298569 -0.13741441 -1.2145782 -0.9951877 -1.022481
-0.7740183 -1.5219829 -1.6297597 -1.5201792 -1.3176421 -0.1513016 -1.7872071 -0.8955495
-0.23363441 -1.3329307 -0.546649 -1.177563 -1.0422812 -0.74067473 -0.042375047 -0.6622648
-0.13687335 -0.74100965 -0.37003878 -0.7702954 -1.2331529 -0.97750133 -1.0177344 -0.63232166
-1.2801858 -0.026947668 -0.10185135 -1.5343994 -0.7387482 -0.44839087 -2.7772431 -2.0590467
-0.047645066 -0.9189509 -1.8056041 -0.20046346 -1.0072026 -0.15778217 -1.7324904 -1.2126483
-1.2848312 -1.059276 -0.20686324 -1.2380422 -1.0483086 -0.56151706 -1.207437 -0.05206409
-1.7432423 -0.07134729 -0.010706149 -0.8340042 -0.44934705 -0.36700466 -0.6447831 -0.0720015
-0.84911877 -1.3349702 -1.2347586 -1.5893508 -1.6363597 -0.11831865 -0.5916756 -1.1958778
-0.82830983 -1.0816 -0.1496426 -0.16716525 -1.7791641 -0.73392636 -0.92112595 -0.029114371
-1.3040403 -0.080402024 0.8845922 -1.5330067 -1.2051035 -0.15876402 -0.67698795 0.52095944
-0.13995342 -1.5940876 1.344444 -0.9664037 2.1249232 -0.5136311 -0.07692293 -1.2341926
-0.9148919 -0.2955242 -0.79741985 -1.008662 0.246602 -0.14193505 -1.0157299 -0.05696509
1.5276165 -0.484351 -2.0886326 -0.8189412 -0.40881306 -0.20031415 -0.6782392 -0.05387453
-1.112313 -0.4081247 -0.6015038 -0.75015384 -1.2163985 -1.0858285 -0.7858734 -1.5221007
-0.040217716 -1.1159185 -0.6675595 -0.5113208 0.41622016 -2.0271323 -1.0614805 -0.0318124
-1.0498866 -0.9295848 -0.08103536 0.004968564 0.371618 -0.05809062 1.7526822 1.0049363
0.6676488 -4.900356 -1.1774536 -0.8405867 -1.4581155 -0.72328615 -1.3490884 -1.4941128
-0.07579823 -1.4443246 2.7487857 -0.01838282 -0.73617023 -1.1434764 -1.2227854 -1.2256169
-1.293438 -0.5331466 -1.0157413 -0.46756983 -0.6140032 -1.5291004 -0.06606274 -0.96325725
00000000: 423e 71bf 3f7f 3dbf 2ade 3abf 3de4 d73f
00000010: c2d9 b4bf deae 15c0 627a a1bf 6067 95bf
00000020: 3478 69bf 3fb6 85bf 5c7c 8bbf 8496 63bc
00000030: 77fe e1be 7374 3ebf 6783 dfbf f410 d5bf
00000040: 353a 07c0 7ee5 85bf 5d64 4fbf 9b6d 9cbf
00000050: 3025 3dbf ae10 80bf e65a 1fbf 447d 85bb
00000060: 8a2f cebf 7365 afbf acd6 e83f 7137 3fbf
00000070: 29d6 85bf a997 05bf 4f2e e03d 8dad 90bf
00000080: 5c34 ccbf 8a83 65bf 0945 62bd 66f4 813e
00000090: 6d1a c3bd 8e33 69bf 7484 bbbf d201 40bf
000000a0: 1a1b 0dbf dd4b 21bf afdc 19bf 4cee 8fbe
000000b0: b1b4 7abe 9ace ffbf 0fa1 24bf 1318 efbf
000000c0: b31e 18bf 7abd 87bf 2b1c 4fbe cd86 5dbf
000000d0: 36ca bcbf 2c1c 6b3a f879 c1bf c768 693d
000000e0: d55b 88bf f4f5 32bf 612a 943e 5d86 30bf
000000f0: e600 6cbf e3b3 913f b83a ddbe 466f 65bf
00000100: 6d23 acbf 1aba 53c0 0177 bebc 88b2 a0bf
00000110: 17aa d03e c8ec 62bf c2c5 2ebd 5604 d0bf
00000120: 3d8d 09bf 7ca5 c3bf 8e31 afbf 8c1e c7bf
00000130: 433f f0bf 9060 eebf 2acf 9fbf dba6 3fbf
00000140: 7ed7 c4bf e409 71bd 5539 c2bf df57 e5bf
00000150: c7e5 a7bf 037a 3cbd 4fbf c7bf 3b41 8cbf
00000160: 9965 5abf 7726 6abd 51be 833f d054 72bf
00000170: c8f3 13c0 f2d0 ddbf 283b a1bf bdea 93bf
00000180: 7242 cbbe 9fbb b8bf 4254 babf 5ad2 83bf
00000190: 5db6 0cbe 4c77 9bbf 9fc4 7ebf a8e0 82bf
000001a0: 1026 46bf 56d0 c2bf f79b d0bf 3b95 c2bf
000001b0: 7fa8 a8bf ceee 1abe 34c3 e4bf bb42 65bf
000001c0: dc3d 6fbe 799d aabf 30f1 0bbf 62ba 96bf
000001d0: 7869 85bf dc9c 3dbf 7591 2dbd 308a 29bf
000001e0: 8728 0cbe cfb2 3dbf b975 bdbe 1432 45bf
000001f0: f4d7 9dbf 873d 7abf 1f45 82bf d5df 21bf
00000200: 21dd a3bf 5bc1 dcbc 7197 d0bd 3367 c4bf
00000210: 9a1e 3dbf 7d93 e5be 5abe 31c0 6cc7 03c0
00000220: 7927 43bd 5e40 6bbf 091e e7bf 4b46 4dbe
00000230: 04ec 80bf a691 21be 3fc2 ddbf 0f38 9bbf
00000240: 5975 a4bf 5b96 87bf f5d3 53be 2b78 9ebf
00000250: fa2e 86bf 95bf 0fbf 4c8d 9abf 2841 55bd
00000260: 9022 dfbf 871e 92bd d868 2fbc 4d81 55bf
00000270: d110 e6be 09e8 bbbe 8110 25bf 8675 93bd
00000280: d95f 59bf 4ee0 aabf 920c 9ebf d96f cbbf
00000290: 3c74 d1bf 0c51 f2bd 0d78 17bf 8612 99bf
000002a0: 1d0c 54bf de71 8abf e93b 19be 5e2d 2bbe
000002b0: a6bb e3bf 99e2 3bbf e9ce 6bbf 4381 eebc
000002c0: cbea a6bf d1a9 a4bd a274 623f 9039 c4bf
000002d0: d540 9abf 0993 22be 154f 2dbf 995d 053f
000002e0: f34f 0fbe 100b ccbf be16 ac3f 3c66 77bf
000002f0: befe 0740 547d 03bf c589 9dbd 06fa 9dbf
00000300: 5b36 6abf f34e 97be b523 4cbf d61b 81bf
00000310: 3c85 7c3e 6c57 11be 7003 82bf 3a54 69bd
00000320: f088 c33f dbfc f7be 28ac 05c0 21a6 51bf
00000330: f24f d1be 271f 4dbe 16a1 2dbf 8aab 5cbd
00000340: 4660 8ebf b8f5 d0be 27fc 19bf 150a 40bf
00000350: f2b2 9bbf 6efc 8abf 002f 49bf 32d4 c2bf
00000360: 55bb 24bd 6bd6 8ebf 2ee5 2abf ece5 02bf
00000370: cf1a d53e 89bc 01c0 98de 87bf b84d 02bd
00000380: af62 86bf 45f9 6dbf def5 a5bd 56cf a23b
00000390: b744 be3e 6ef0 6dbd e457 e03f c1a1 803f
000003a0: 08eb 2a3f b7cf 9cc0 cdb6 96bf b130 57bf
000003b0: 87a3 babf 4829 39bf eeae acbf 173f bfbf
000003c0: 1a3c 9bbd a1df b8bf 1bec 2f40 9197 96bc
000003d0: a775 3cbf 6f5d 92bf 3b84 9cbf 04e1 9cbf
000003e0: 608f a5bf 4c7c 08bf d003 82bf 5065 efbe
000003f0: 502f 1dbf 90b9 c3bf e74b 87bd 0798 76bf

batch.running_mean f4 [256]
9.576368 70.686104 13.934146 -5.0734277 -59.22389 -14.809357 33.97672 13.550506
86.32994 -69.962204 4.159073 0.7460204 -26.969128 13.902252 24.115658 14.947965
-22.141752 -18.76546 0.34138238 57.070984 8.710191 72.41811 5.3931584 -1.0013796
27.757816 -0.34573898 4.507663 40.31479 16.3713 44.886795 36.183456 50.967663
-6.1804686 60.738052 -1.7543092 19.69228 0.49556407 -15.287239 -40.32391 -70.11238
18.462736 -37.389164 33.537785 80.82457 11.258729 8.330781 33.899902 1.4283412
38.19981 17.996187 0.35608667 7.777956 -14.250832 1.6694373 34.14064 16.61871
19.534674 55.55072 74.18277 7.8170924 13.944202 17.937439 -4.659643 -47.91652
-37.22323 -6.815479 -19.033113 -50.352947 36.389404 -9.596649 -0.342443 25.13808
10.910925 11.741754 52.151367 7.3314524 -35.735806 7.591318 -19.262995 18.666508
15.45918 1.4030392 0.77986616 -1.3320895 34.459908 -2.0582545 -49.681118 6.9506636
-44.99611 2.5098307 95.015045 50.775444 24.096498 49.61706 -67.48755 -40.743603
-11.546732 38.865948 24.281725 47.4269 48.640366 37.26342 -21.659788 35.485283
38.574215 54.32348 11.334621 -9.461957 -14.774769 -10.01426 -49.023296 12.100171
-40.312603 -49.679207 -19.601698 -23.659948 63.634155 -5.1405516 -56.313255 -84.71555
-29.923225 -0.3970942 41.217197 25.83297 29.76203 23.306774 27.306723 24.07582
-23.906927 2.2863817 52.94916 -10.33869 9.185542 0.78340673 -28.582376 -17.695562
42.879265 1.01998 -33.899906 52.569824 16.678871 35.674747 -18.781141 4.5281377
-6.8271265 4.7843227 -0.9159846 54.416557 -59.355385 22.779903 7.31623 0.107323505
23.643867 -0.33399123 -0.8827619 9.03106 -32.938225 30.331648 -27.35279 43.022926
-52.276554 -1.7514583 27.4929 -31.830944 2.4569569 -1.1611942 -88.76376 -11.374082
-64.12397 -29.328331 -4.6936693 -11.829421 30.905415 -21.656864 32.69773 3.010398
8.125668 -1.0214521 -55.956924 -51.501076 24.798458 1.3006284 -2.6639183 -14.204178
-2.4474611 4.2967834 4.8366656 15.998666 4.6454444 -26.17606 0.08070874 10.955058
13.789589 36.65387 59.09244 16.55582 11.563812 -2.7258468 53.569008 2.3091977
11.529111 24.460419 11.675536 -37.3918 21.939543 6.0968175 47.126472 0.12473547
-12.630715 13.9367285 -32.285484 30.406841 2.344897 31.354324 1.017116 5.4792013
-1.0386318 52.416077 -0.8831992 37.32203 32.48963 -7.8494616 -43.953487 -0.42364493
-11.184827 -109.595184 5.9222627 -5.530186 25.654251 -56.16527 0.4320929 -0.40145683
36.323444 -57.11118 5.301443 -4.365747 -21.629915 8.860841 17.29086 -62.65547
13.048917 -22.86128 -25.04833 0.95941114 -11.903752 0.121523775 48.40995 -45.076893
-26.494898 7.720331 -55.056927 13.607772 -2.0291681 -11.290893 -1.4476408 1.238696
00000000: ce38 1941 495f 8d42 43f2 5e41 8559 a2c0
00000010: 43e5 6cc2 20f3 6cc1 29e8 0742 dfce 5841
00000020: eea8 ac42 a6ec 8bc2 2017 8540 31fb 3e3f
00000030: c6c0 d7c1 a06f 5e41 deec c041 dd2a 6f41
00000040: 4f22 b1c1 a91f 96c1 acc9 ae3e b048 6442
00000050: f15c 0b41 13d6 9042 c194 ac40 352d 80bf
00000060: 0210 de41 b304 b1be c63e 9040 5842 2142
00000070: 6cf8 8241 148c 3342 dcbb 1042 e3de 4b42
00000080: 66c6 c5c0 c4f3 7242 348d e0bf ca89 9d41
00000090: 93ba fd3e 8898 74c1 af4b 21c2 8a39 8cc2
000000a0: afb3 9341 818e 15c2 b126 0642 2ea6 a142
000000b0: c123 3441 e14a 0541 8099 0742 e2d3 b63f
000000c0: 9bcc 1842 31f8 8f41 fe50 b63e 04e5 f840
000000d0: 6803 64c1 1fb0 d53f 0490 0842 1ef3 8441
000000e0: 0347 9c41 f033 5e42 945d 9442 9f25 fa40
000000f0: 741b 5f41 e07f 8f41 cc1b 95c0 84aa 3fc2
00000100: 96e4 14c2 6718 dac0 d143 98c1 6b69 49c2
00000110: c08e 1142 e08b 19c1 b054 afbe ca1a c941
00000120: 2693 2e41 39de 3b41 009b 5042 429b ea40
00000130: 77f1 0ec2 14ec f240 9d1a 9ac1 0255 9541
00000140: cd58 7741 ca96 b33f 4fa5 473f e981 aabf
00000150: f2d6 0942 71ba 03c0 77b9 46c2 d66b de40
00000160: 04fc 33c2 11a1 2040 b407 be42 0e1a 4b42
00000170: a1c5 c041 df77 4642 a0f9 86c2 73f9 22c2
00000180: 6abf 38c1 bb76 1b42 f940 c241 25b5 3d42
00000190: bc8f 4242 be0d 1542 3f47 adc1 eef0 0d42
000001a0: ff4b 1a42 3e4b 5942 9c5a 3541 2d64 17c1
000001b0: 7465 6cc1 693a 20c1 db17 44c2 4d9a 4141
000001c0: 1b40 21c2 82b7 46c2 47d0 9cc1 9347 bdc1
000001d0: 6089 7e42 667f a4c0 c640 61c2 5d6e a9c2
000001e0: c462 efc1 ee4f cbbe 69de 2442 eca9 ce41
000001f0: a318 ee41 4674 ba41 2b74 da41 489b c041
00000200: 6341 bfc1 1454 1240 f1cb 5342 466b 25c1
00000210: fbf7 1241 588d 483f b5a8 e4c1 8390 8dc1
00000220: 5e84 2b42 b48e 823f 8199 07c2 8047 5242
00000230: 546e 8541 f1b2 0e42 c73f 96c1 81e6 9040
00000240: d277 dac0 2c19 9940 f77d 6abf 8eaa 5942
00000250: ea6b 6dc2 3e3d b641 8e1e ea40 6dcc db3d
00000260: a426 bd41 e600 abbe affc 61bf 397f 1041
00000270: bec0 03c2 37a7 f241 84d2 dac1 7a17 2c42
00000280: 311b 51c2 c92f e0bf 76f1 db41 c6a5 fec1
00000290: c83e 1d40 03a2 94bf 0c87 b1c2 3dfc 35c1
000002a0: 793f 80c2 6ca0 eac1 8a32 96c0 4f45 3dc1
000002b0: 4a3e f741 4241 adc1 7aca 0242 5caa 4040
000002c0: bc02 0241 f1be 82bf e4d3 5fc2 1a01 4ec2
000002d0: 3e63 c641 fe7a a63f a37d 2ac0 5044 63c1
000002e0: 34a3 1cc0 407f 8940 f7c5 9a40 89fa 7f41
000002f0: 7ba7 9440 9268 d1c1 a04a a53d eb47 2f41
00000300: 28a2 5c41 909d 1242 a95e 6c42 5272 8441
00000310: 6005 3941 4674 2ec0 aa46 5642 e5c9 1340
00000320: 3d77 3841 f0ae c341 ffce 3a41 3491 15c2
00000330: 2f84 af41 2119 c340 8281 3c42 4f75 ff3d
00000340: 6917 4ac1 d7fc 5e41 5624 01c2 3641 f341
00000350: cb12 1640 a8d5 fa41 db30 823f 9e55 af40
00000360: e3f1 84bf 10aa 5142 5819 62bf c249 1542
00000370: 62f5 0142 ca2e fbc0 5fd0 2fc2 fde7 d8be
00000380: 0df5 32c1 bc30 dbc2 2d83 bd40 49f7 b0c0
00000390: e83b cd41 3da9 60c2 483b dd3e c08b cdbe
000003a0: 354b 1142 d971 64c2 6ca5 a940 33b4 8bc0
000003b0: 110a adc1 01c6 0d41 ae53 8a41 349f 7ac2
000003c0: 5dc8 5041 e7e3 b6c1 fb62 c8c1 f89b 753f
000003d0: c575 3ec1 75e1 f83d caa3 4142 bd4e 34c2
000003e0: 8df5 d3c1 f40c f740 4b3a 5cc2 6fb9 5941
000003f0: e4dd 01c0 7fa7 34c1 4b4c b9bf 978d 9e3f

batch.running_var f4 [256]
663.6255 1040.8171 113.4209 3547.2434 1304.919 1185.9978 1926.2129 1714.7507
1751.6261 1663.0247 170.06804 27.521004 4171.9287 1144.111 2117.7964 677.8547
152.7406 1021.1116 378.59723 2245.8452 570.7831 2611.2803 1112.348 17.194386
1094.6503 1690.261 769.9893 1971.897 2138.7908 1382.2119 661.85626 1119.7024
1380.0521 658.00024 19.88692 549.7213 21.513407 2575.9102 1166.3425 837.8533
317.514 1345.8575 643.591 935.4993 138.05801 592.6329 440.21304 703.9089
1092.3442 1384.0597 81.97868 169.96625 274.74512 1426.8033 1092.3464 1072.0951
390.5778 1507.417 851.3385 246.08603 824.6541 401.5123 160.49193 1357.0092
504.27512 260.62872 1143.6885 1043.7477 863.3315 1454.1189 7.581822 1040.5548
981.2527 279.10516 854.4132 392.9916 1067.348 1912.3951 649.3889 530.3735
638.96405 14.749822 518.8665 1256.1482 1055.4067 12.915635 1135.9011 857.33154
1465.7368 46.82888 1281.3213 940.70294 369.65604 1739.4612 689.116 541.70135
578.49554 644.9485 454.48502 1823.7368 1240.8834 1602.2329 1433.0593 621.34796
718.2818 1213.0774 414.19275 1255.0073 593.5724 108.80458 1241.8623 366.11337
871.9757 920.9828 1694.9845 674.5758 1409.8613 439.3184 1980.0804 1589.2728
1290.6959 1231.5438 582.57794 1611.0121 592.8492 394.7369 1757.2906 776.471
362.62918 113.08017 752.1425 192.35168 1455.7988 212.7651 774.77783 857.5802
1443.4773 1467.07 702.85175 2065.4678 854.08527 711.83417 1435.4403 1292.0931
1243.0619 127.50579 89.83024 832.46515 624.35114 667.8402 861.9499 17.465725
368.14645 13.012756 21.424562 1266.6506 1729.4285 818.5648 1602.9475 527.0221
1080.5057 1759.0938 1055.0669 631.1215 321.0232 62.41163 1603.1725 2257.7573
1077.2589 1101.7986 25.093687 1057.818 489.99356 439.8838 984.11957 53.15597
355.89435 14.466623 1228.8173 1702.3868 369.6896 48.105965 436.14243 1102.2281
21.988352 1492.276 170.2942 415.7678 406.25693 1023.10144 177.2874 302.8868
832.9026 2518.7473 960.7062 276.55728 880.2019 38.321697 1169.8468 12.29106
290.72403 1080.9163 2721.5393 1574.6954 1495.2051 1497.084 1229.8387 19.70591
1704.0583 556.6002 836.1778 1630.9913 966.4153 1097.9186 878.68994 407.35825
127.85113 2027.7644 250.6355 1007.35065 985.58264 2343.7393 728.8457 5.063706
1870.6333 1546.9418 80.38806 721.9817 890.81946 1363.5104 851.2086 29.587137
5094.2246 307.14224 645.4638 2439.7083 1704.1642 1262.4786 2109.333 2040.3832
1332.6172 768.2199 6635.559 6.2656813 492.1495 549.68207 1219.8129 823.6635
889.87244 172.40015 901.97833 1391.8757 92.735176 923.13763 5.165639 837.7133
00000000: 08e8 2544 261a 8244 80d7 e242 e5b3 5d45
00000010: 681d a344 ee3f 9444 d0c6 f044 0658 d644
00000020: 09f4 da44 cae0 cf44 6b11 2a43 042b dc41
00000030: 6e5f 8245 8d03 8f44 be5c 0445 b376 2944
00000040: 98bd 1843 2447 7f44 724c bd43 865d 0c45
00000050: 1eb2 0e44 7c34 2345 230b 8b44 1a8e 8941
00000060: cfd4 8844 5a48 d344 517f 4044 b47c f644
00000070: a7ac 0545 c8c6 ac44 cd76 2544 7af6 8b44
00000080: ab81 ac44 0480 2444 6a18 9f41 2a6e 0944
00000090: 751b ac41 90fe 2045 f6ca 9144 9c76 5144
000000a0: cbc1 9e43 713b a844 d3e5 2044 f5df 6944
000000b0: da0e 0a43 8128 1444 451b dc43 2bfa 2f44
000000c0: 048b 8844 e901 ad44 16f5 a342 5cf7 2943
000000d0: 605f 8943 b559 b244 168b 8844 0b03 8644
000000e0: f549 c343 586d bc44 aad5 5444 0616 7643
000000f0: dd29 4e44 93c1 c843 ef7d 2043 4ba0 a944
00000100: 3723 fc43 7a50 8243 08f6 8e44 ed77 8244
00000110: 37d5 5744 cec3 b544 499e f240 c111 8244
00000120: 2c50 7544 768d 8b43 729a 5544 ed7e c443
00000130: 236b 8544 a50c ef44 e458 2244 e797 0444
00000140: b3bd 1f44 45ff 6b41 75b7 0144 be04 9d44
00000150: 04ed 8344 71a6 4e41 d6fc 8d44 3855 5644
00000160: 9437 b744 c650 3b42 482a a044 fd2c 6b44
00000170: f9d3 b843 c26e d944 6d47 2c44 e36c 0744
00000180: b79f 1044 b43c 2144 153e e343 94f7 e344
00000190: 451c 9b44 7447 c844 e621 b344 4556 1b44
000001a0: 0992 3344 7aa2 9744 ac18 cf43 3ce0 9c44
000001b0: a264 1444 f29b d942 983b 9b44 830e b743
000001c0: 72fe 5944 e63e 6644 81df d344 daa4 2844
000001d0: 903b b044 c1a8 db43 9382 f744 bba8 c644
000001e0: 4556 a144 67f1 9944 fda4 1144 6360 c944
000001f0: 5936 1444 535e c543 4da9 db44 251e 4244
00000200: 8950 b543 0c29 e242 1f09 3c44 085a 4043
00000210: 90f9 b544 dec3 5443 c8b1 4144 2265 5644
00000220: 466f b444 3d62 b744 83b6 2f44 7c17 0145
00000230: 7585 5544 63f5 3144 176e b344 fb82 a144
00000240: fb61 9b44 f702 ff42 15a9 b342 c51d 5044
00000250: 7916 1c44 c6f5 2644 cb7c 5744 ceb9 8b41
00000260: bf12 b843 4034 5041 8165 ab41 d254 9e44
00000270: b62d d844 26a4 4c44 525e c844 6ac1 0344
00000280: 2f10 8744 00e3 db44 24e2 8344 c7c7 1d44
00000290: f882 a043 82a5 7942 8565 c844 1e1c 0d45
000002a0: 49a8 8644 8eb9 8944 dfbf c841 2d3a 8444
000002b0: 2dff f443 20f1 db43 a707 7644 b79f 5442
000002c0: 7af2 b143 4a77 6741 279a 9944 61cc d444
000002d0: 45d8 b843 826c 4042 3b12 da43 4dc7 8944
000002e0: 25e8 af41 d588 ba44 514b 2a43 47e2 cf43
000002f0: e320 cb43 7ec6 7f44 9349 3143 8371 9743
00000300: c439 5044 f56b 1d45 322d 7044 5547 8a43
00000310: ec0c 5c44 6b49 1942 193b 9244 2fa8 4441
00000320: ad5c 9143 521d 8744 a118 2a45 41d6 c444
00000330: 90e6 ba44 b022 bb44 d7ba 9944 b4a5 9d41
00000340: de01 d544 6a26 0b44 610b 5144 b9df cb44
00000350: 949a 7144 653d 8944 28ac 5b44 dbad cb43
00000360: c7b3 ff42 7678 fd44 b0a2 7a43 71d6 7b44
00000370: 4a65 7644 d47b 1245 2036 3644 e109 a240
00000380: 44d4 e944 235e c144 b0c6 a042 d47e 3444
00000390: 72b4 5e44 5570 aa44 5acd 5444 75b2 ec41
000003a0: cc31 9f45 3592 9943 af5d 2144 557b 1845
000003b0: 4105 d544 51cf 9d44 54d5 0345 430c ff44
000003c0: c093 a644 130e 4044 795c cf45 7680 c840
000003d0: 2313 f643 a76b 0944 037a 9844 77ea 4d44
000003e0: d677 5e44 7066 2c43 9d7e 6144 06fc ad44
000003f0: 6978 b942 cfc8 6644 ea4c a540 a76d 5144

fc2.weight f4 [128, 260]
-0.08932977 0.029891543 -0.11355645 -0.044922177 -0.054519847 -0.012237862 -0.01186906 -0.04282268
-0.07071982 -0.0015452994 -0.04983805 0.050711256 -0.010474534 -0.083791286 -0.0978333 -0.08810176
-0.008245017 -0.08703232 0.053150885 0.02034775 0.006276236 -0.112834245 -0.09583783 -0.031026883
-0.090288565 -0.024095254 -0.09253307 -0.012329881 -0.06533125 0.03830216 0.01584356 -0.12226619
0.03965719 -0.069144085 -0.016792677 0.008611092 0.06551252 -0.04568663 -0.0397947 -0.09089409
0.038598523 -0.05870187 0.048841607 -0.03569542 -0.043246232 0.03102193 -0.11049599 -0.015783664
0.054412697 0.023883503 0.026799977 -0.036243718 -0.048006933 -0.09495866 -0.011123325 -0.11328175
-0.09696762 -0.061838727 0.013804875 0.01612089 -0.101285264 -0.039868806 -0.005133928 -0.0054810406
-0.050963115 -0.04291912 0.01569301 0.045656305 0.021620966 -0.03599114 -0.022212496 -0.06320529
-0.01430074 -0.10765378 -0.076433145 0.0013721177 -0.027359964 0.04319853 -0.05582293 -0.077488214
-0.030554168 -0.08808064 -0.10215588 0.031230973 -0.05232011 -0.072473325 0.02894196 0.0033539943
0.00017975784 -0.08578906 0.038843744 -0.016249012 0.012263898 -0.0031896774 -0.06206761 0.008710501
-0.03623492 -0.100561306 -0.061453484 0.052425 -0.05430835 0.00028839975 -0.09397843 -0.03519867
-0.016772086 0.021132613 -0.075937 0.07375135 -0.09366204 -0.03073681 -0.09082685 -0.117332086
-0.079797864 -0.11837267 0.044702277 -0.0044269795 -0.0552331 -0.035641976 -0.05779201 0.017691147
-0.023123242 0.04325054 -0.06137996 0.065489106 -0.015733175 -0.050843213 0.044505574 -0.033089686
0.036700856 0.009827045 0.06644852 0.031756833 0.019515453 -0.0067542875 -0.0338408 -0.083297625
0.017294394 -0.12260392 0.016323455 0.012039797 0.03440889 0.04160017 -0.050758146 -0.059068706
-0.087970294 -0.03683813 -0.04607017 -0.07665697 -0.10627946 -0.04408735 0.022373678 -0.003903432
-0.055645507 -0.011577158 -0.005870014 0.05361466 0.038997304 0.0026954317 0.04383202 0.0025662035
-0.04815428 -0.100737974 0.02858684 -0.095111094 0.049237225 -0.07310306 -0.074806266 -0.07454892
-0.07673212 -0.028000778 0.023787078 0.032615576 -0.06420336 -0.04630332 -0.01625486 -0.072004184
-0.096769266 -0.045116547 -0.0168158 -0.056416545 0.00049573055 -0.08361033 0.014037751 -0.10472111
0.029689606 0.060421977 -0.01218902 -0.060995433 0.021814851 -0.032219846 -0.12792026 -0.08258559
0.048221353 -0.060710922 -0.010234806 -0.08444958 -0.054017518 0.05401094 -0.1047936 0.08676704
-0.08050119 -0.0094399415 0.026382048 0.025678076 -0.03367602 0.0069182925 0.026926624 -0.0012782345
-0.044685066 -0.03570871 -0.07562687 -0.018894691 0.041737303 -0.08547148 0.0067458777 0.024050549
-0.032085568 -0.014794632 0.014799579 0.04860874 -0.05536256 -0.057678256 -0.07149199 -0.06996836
-0.06796641 -0.10511988 0.011090333 -0.0027551241 -0.077255994 -0.061513495 -0.16242184 -0.040814023
-0.0091038635 -0.0067541446 0.004001152 0.059067525 0.025951285 -0.025131794 0.04434281 0.0113157565
0.004243737 -0.047277518 -0.096371494 -0.048938047 0.044252183 -0.0930358 0.023981038 0.008054807
0.011921012 -0.024472343 0.037774686 -0.023153624 -0.04955532 -0.073490925 0.017789863 -0.12995933
00000000: 87f2 b6bd 1cdf f43c 4990 e8bd 5100 38bd
00000010: 3450 5fbd 5081 48bc 7276 42bc d666 2fbd
00000020: 8ed5 90bd a58b caba fc22 4cbd 9bb6 4f3d
00000030: 619d 2bbc c49a abbd d35c c8bd b26e b4bd
00000040: 1c16 07bc 003e b2bd beb4 593d 53b0 a63c
00000050: e2a8 cd3b a415 e7bd a046 c4bd 172c febc
00000060: 36e9 b8bd 6963 c5bc fa81 bdbd 4503 4abc
00000070: 64cc 85bd bae2 1c3d 5bca 813c b266 fabd
00000080: 946f 223d 6a9b 8dbd cc90 89bc 8a15 0d3c
00000090: 6e2b 863d e721 3bbd c4ff 22bd ae26 babd
000000a0: 7c19 1e3d 5f71 70bd 230e 483d 5c35 12bd
000000b0: f622 31bd b421 fe3c b94b e2bd be4c 81bc
000000c0: d9df 5e3d 56a7 c33c a08b db3c 4b74 14bd
000000d0: eba2 44bd b079 c2bd 9b3e 36bc 4300 e8bd
000000e0: f696 c6bd 9b4a 7dbd d82d 623c f50f 843c
000000f0: a66e cfbd 794d 23bd 823a a8bb 4d9a b3bb
00000100: b3be 50bd f6cb 2fbd a18e 803c 1b02 3b3d
00000110: 741e b13c 726b 13bd fbf6 b5bc c671 81bd
00000120: a74d 6abc 9679 dcbd fb88 9cbd a1d8 b33a
00000130: 0122 e0bc f1f0 303d 96a6 64bd 24b2 9ebd
00000140: bc4c fabc 9f63 b4bd 1a37 d1bd 19d8 ff3c
00000150: 9d4d 56bd e56c 94bd b017 ed3c b0ce 5b3b
00000160: 617d 3c39 2db2 afbd 9e1a 1f3d a61c 85bc
00000170: 84ee 483c e809 51bb 9b3a 7ebd 7db6 0e3c
00000180: 116b 14bd 16f3 cdbd a6b6 7bbd 99bb 563d
00000190: 6f72 5ebd 5c34 9739 c377 c0bd 7b2c 10bd
000001a0: 9d65 89bc 4d1e ad3c dc84 9bbd f30a 973d
000001b0: e2d1 bfbd c3cb fbbc 6d03 babd ce4b f0bd
000001c0: 106d a3bd 5f6d f2bd bc19 373d 3210 91bb
000001d0: 1a3c 62bd 52fd 11bd 51b7 6cbd 06ed 903c
000001e0: f46c bdbc 7a27 313d 8e69 7bbd 271f 863d
000001f0: dce2 80bc f940 50bd 7a4b 363d 0d89 07bd
00000200: a353 163d 9d01 213c 2916 883d 7413 023d
00000210: dfde 9f3c 1253 ddbb a79c 0abd f297 aabd
00000220: f9ac 8d3c c417 fbbd c4b8 853c 9242 453c
00000230: 56f0 0c3d f164 2a3d c6e7 4fbd 07f2 71bd
00000240: c529 b4bd 94e3 16bd 13b4 3cbd 54fe 9cbd
00000250: 0ca9 d9bd f094 34bd 0149 b73c b9d0 7fbb
00000260: 8bec 63bd 1fae 3dbc 3f59 c0bb 0c9b 5b3d
00000270: a3bb 1f3d d7a5 303b 3489 333d c02d 283b
00000280: 6c3d 45bd b64f cebd f32e ea3c 9bc9 c2bd
00000290: f9ac 493d 0fb7 95bd 0734 99bd 1bad 98bd
000002a0: bb25 9dbd e361 e5bc 1edd c23c e997 053d
000002b0: 0d7d 83bd 8da8 3dbd ea28 85bc ee76 93bd
000002c0: f72e c6bd 21cc 38bd 4ac1 89bc 0915 67bd
000002d0: eaf3 013a e53b abbd 98fe 653c 0578 d6bd
000002e0: 9e37 f33c 097d 773d 75b4 47bc 59d6 79bd
000002f0: 0fb5 b23c f5f8 03bd 87fd 02be a222 a9bd
00000300: c183 453d 04ac 78bd e3af 27bc e7f3 acbd
00000310: 7941 5dbd 933a 5d3d 079e d6bd ebb2 b13d
00000320: cfdd a4bd fca9 1abc 2a1f d83c d45a d23c
00000330: deef 09bd d8b2 e23b 3995 dc3c 6f8a a7ba
00000340: b007 37bd 4c43 12bd 43e2 9abd 0ac9 9abc
00000350: bcf4 2a3d ac0b afbd 860c dd3b a805 c53c
00000360: 286c 03bd 2f65 72bc ef79 723c f519 473d
00000370: dac3 62bd 0940 6cbd 646a 92bd 924b 8fbd
00000380: f931 8bbd 1749 d7bd 3ab4 353c 508f 34bb
00000390: 6438 9ebd 93f5 7bbd e951 26be 9b2c 27bd
000003a0: 5f28 15bc df51 ddbb 181c 833b caf0 713d
000003b0: ca97 d43c 31e1 cdbc cea0 353d b965 393c
000003c0: 0c0f 8b3b 12a6 41bd 6b5e c5bd 4373 48bd
000003d0: c741 353d 8e89 bebd e273 c43c 4ff8 033c
000003e0: 5950 433c 397a c8bc a1b9 1a3d abac bdbc
000003f0: 85fa 4abd 6982 96bd 0cbc 913c 0f14 05be

fc2.bias f4 [128]
-0.09254808 3.3752217 0.1156214 -2.0172663 -0.20102839 -0.35707763 -0.1066652 -0.061622143
-0.07310265 -0.09182881 -0.10888524 -0.09273506 -0.16474943 -0.08654311 1.0705616 1.1573775
-0.026676754 -1.1778986 -0.14243108 2.7785397 0.6242053 -1.7215284 -1.6451931 -0.045271106
-0.08655762 0.009834995 -3.9068506 -0.13738006 -1.6329803 1.8583869 -0.113787465 -0.10871581
-0.06121385 -0.1387715 -0.10087979 3.7675312 -0.13565509 3.3996377 -0.026494427 -2.0836287
1.9693657 -0.2058948 -0.04932527 1.0302707 5.0543537 -0.030036055 -0.05358438 -0.620553
0.29758936 -0.15766187 -0.08767086 -0.10244072 -0.12278829 5.4265723 -0.12974043 1.4258862
-0.38965935 -0.15678357 -0.6786371 0.57374406 -0.10453901 1.6225901 -0.16249786 -0.28142473
-1.1217887 -0.1152235 4.9334345 -0.12591313 -0.6519882 2.3753948 -0.13294661 -0.080068156
0.93042344 -0.09850152 -0.09650525 -0.3330353 -0.16089182 -0.2004731 -0.025155855 2.7404158
-0.08124747 -0.86997294 2.369437 -0.08580221 -0.07523319 -0.10690054 -0.066376 -0.075022794
1.8953844 -0.13240077 1.6135305 -0.0846947 -0.08553617 -2.1500227 1.5590158 2.358228
-0.16522874 1.671444 -1.0756695 -2.6918097 -0.1062866 -0.060315046 -0.16044165 -0.07619527
-0.42278928 -0.4459749 -0.14167191 -0.08259081 -0.142427 1.3544381 -1.8277717 -1.6093879
-1.712354 0.5467379 -0.22179744 -2.029391 -0.041397676 -0.17542545 0.29909974 -0.5554438
-0.13073681 0.3316001 -0.123762496 -0.055567373 -0.12609096 -1.6033907 3.9785943 -0.06531536
00000000: d989 bdbd a203 5840 eaca ec3d e41a 01c0
00000010: 63da 4dbe e1d2 b6be 4973 dabd 8067 7cbd
00000020: d8b6 95bd be10 bcbd 3aff debd e1eb bdbd
00000030: 13b4 28be 843d b1bd 2a08 893f f224 943f
00000040: 3589 dabc 62c5 96bf 74d9 11be 98d3 3140
00000050: ebcb 1f3f 0b5b dcbf b095 d2bf 326e 39bd
00000060: 1f45 b1bd f522 213c d709 7ac0 5cad 0cbe
00000070: 8005 d1bf 9fdf ed3f 6709 e9bd 65a6 debd
00000080: 60bb 7abd 1e1a 0ebe 109a cebd 3b1f 7140
00000090: 2be9 0abe aa93 5940 d70a d9bc 2c5a 05c0
000000a0: 2d14 fc3f 16d6 52be 4b09 4abd e9df 833f
000000b0: 44bd a140 2c0e f6bc 4b7b 5bbd 90dc 1ebf
000000c0: a25d 983e 1d72 21be c88c b3bd 71cc d1bd
000000d0: 6d78 fbbd 7ba6 ad40 adda 04be 7083 b63f
000000e0: 6e81 c7be df8b 20be 29bb 2dbf e4e0 123f
000000f0: 8c18 d6bd 08b1 cf3f d765 26be e716 90be
00000100: c696 8fbf 4cfa ebbd b2de 9d40 5fef 00be
00000110: b3e8 26bf 7806 1840 2823 08be c6fa a3bd
00000120: 3b30 6e3f 2abb c9bd 8ba4 c5bd 9a83 aabe
00000130: d3c0 24be d248 4dbe a713 cebc f962 2f40
00000140: 1365 a6bd 8cb6 5ebf dba4 1740 12b9 afbd
00000150: dc13 9abd acee dabd 24f0 87bd 8da5 99bd
00000160: f59b f23f 1194 07be 2b88 ce3f 6a74 adbd
00000170: 962d afbd f999 09c0 d48d c73f 35ed 1640
00000180: b931 29be e1f1 d53f 8aaf 89bf 9c46 2cc0
00000190: caac d9bd e90c 77bd d14a 24be 440c 9cbd
000001a0: d677 d8be d256 e4be 7112 11be 5f25 a9bd
000001b0: 62d8 11be 3a5e ad3f 6cf4 e9bf 6c00 cebf
000001c0: 6a2e dbbf 04f7 0b3f de1e 63be 8be1 01c0
000001d0: 9c90 29bd bba2 33be 9a23 993e 9131 0ebf
000001e0: dfdf 05be 7dc7 a93e 3177 fdbd 9d9a 63bd
000001f0: fd1d 01be e83b cdbf 4aa1 7e40 0fc4 85bd

fc3.weight f4 [1, 128]
0.023056043 3.6724172 0.042741306 -6.799948 -0.022906931 -11.976402 -0.029829837 -0.020833395
0.038076956 -0.011146034 -0.02489357 0.059350092 0.008530723 -0.013393463 8.548198 6.8987164
0.02239907 -19.252146 0.0012179808 3.7118194 12.777504 -7.1951747 -19.151756 0.017383115
-0.0059052003 0.009906869 -5.1243806 0.0033708909 -15.805289 5.6180468 0.0077819033 0.016087594
0.010412969 0.014828916 -0.024853561 2.7522888 0.013471074 3.844775 -0.013366123 -16.595812
3.9315803 -10.103578 0.009635235 4.7781706 4.139111 0.009226705 -0.01787465 -10.820809
10.383836 0.012168414 -0.016312713 -0.00041621906 0.0026707724 4.570693 -0.019175466 5.818563
-15.555475 -0.016934158 -7.9983406 9.733326 0.009892052 4.8861227 -0.0036341073 0.024405997
-20.59564 -0.0017433872 3.3874412 0.007192183 -17.843699 4.0942783 0.008646524 0.027531363
9.167382 -0.0061573237 -0.03075675 -6.838501 0.014540242 0.21158132 -0.0153227 3.5049124
-0.025872812 11.538637 4.1622615 0.016341727 0.030640176 0.009489767 0.011946028 -0.022834755
4.2577415 0.022456016 4.6332946 -10.98741 0.019841572 -10.2884 6.0411983 4.034362
-0.027370915 3.753584 -12.418653 -9.585526 -0.025248472 0.008131211 0.0071071894 0.021209396
-13.156904 -12.137775 0.0022067209 0.0128881065 -0.014590064 5.0612354 -10.031526 -11.443556
-13.229324 7.011985 -0.028039483 -13.145754 0.008859073 0.031405482 10.461442 -12.337147
0.0062440867 11.600478 0.017789332 -0.019109936 -0.022466091 -10.985675 3.8130383 0.0038630594
00000000: 07e0 bc3c e208 6b40 8211 2f3d 2d99 d9c0
00000010: 51a7 bbbc 589f 3fc1 b45d f4bc ccaa aabc
00000020: 95f6 1b3d db9d 36bc 9aed cbbc 1519 733d
00000030: 72c4 0b3c 4170 5bbc 6bc5 0841 49c2 dc40
00000040: 417e b73c 6504 9ac1 a7a4 9f3a 738e 6d40
00000050: a870 4c41 df3e e6c0 cc36 99c1 0967 8e3c
00000060: 6980 c1bb 6c50 223c edfa a3c0 2aea 5c3b
00000070: 77e2 7cc1 0ac7 b340 56ff fe3b 21ca 833c
00000080: 289b 2a3c fbf4 723c b299 cbbc 8025 3040
00000090: c8b5 5c3c cb10 7640 95fd 5abc 39c4 84c1
000000a0: 039f 7b40 41a8 21c1 1bdd 1d3c c6e6 9840
000000b0: 9973 8440 9b2b 173c dc6d 92bc 0922 2dc1
000000c0: 3124 2641 075e 473c 3da2 85bc fa37 dab9
000000d0: 2008 2f3b 1e43 9240 de15 9dbc ab31 ba40
000000e0: 3ae3 78c1 81b9 8abc 68f2 ffc0 b4bb 1b41
000000f0: 4612 223c 1e5b 9c40 342a 6ebb 16ef c73c
00000100: dfc3 a4c1 5e82 e4ba d6cb 5840 67ac eb3b
00000110: e5bf 8ec1 5404 8340 26aa 0d3c 7489 e13c
00000120: 99ad 1241 60c3 c9bb 94f5 fbbc 00d5 dac0
00000130: 323a 6e3c c6a8 583e 100c 7bbc 7c50 6040
00000140: 38f3 d3bc 429e 3841 3f31 8540 16df 853c
00000150: 1b01 fb3c f87a 1b3c 46b9 433c f40f bbbc
00000160: 6b3f 8840 aef5 b73c f343 9440 6ecc 2fc1
00000170: cb8a a23c 499d 24c1 7f51 c140 7e19 8140
00000180: f838 e0bc b83a 7040 cdb2 46c1 515e 19c1
00000190: e2d5 cebc c538 053c 6de3 e83b 54bf ad3c
000001a0: ae82 52c1 5434 42c1 a29e 103b a328 533c
000001b0: 2a0b 6fbc a4f5 a140 2181 20c1 ce18 37c1
000001c0: 50ab 53c1 2e62 e040 0fb3 e5bc 0255 52c1
000001d0: a525 113c 09a3 003d 1162 2741 f464 45c1
000001e0: 329b cc3b 8f9b 3941 efba 913c 718c 9cbc
000001f0: cf0a b8bc 53c5 2fc1 d208 7440 622b 7d3b
