Navigation - Value based methods/checkpoint/checkpoint_ddqn_er_10.pth (torch_old, 28337 bytes, 6 tensors)

fc1.weight f4 [64, 37]
-0.16398261 0.13708487 0.041809764 0.028010398 -0.0503271 -0.4781736 0.14756079 0.1685575
0.18349057 -0.04212401 -0.036188792 -0.280066 -0.115568124 -0.12769507 0.16468397 -0.28387037
0.18017963 -0.1468482 0.17250052 -0.22567222 -0.18133222 0.10457175 0.20784964 -0.075382456
-0.20392758 -0.18999426 0.115575604 -0.19796337 0.114831544 -0.07546825 -0.25080684 0.25981748
-0.13429098 -0.010764927 0.034128413 -0.12321541 -0.027032468 0.30631387 0.01641226 -0.02652218
0.049518757 -0.18627326 -0.08589566 0.00605754 0.03976337 0.05697014 0.002485921 -0.07623354
0.04392422 0.087946445 0.18735924 0.22635089 0.27408984 -0.09425656 -0.0063384715 -0.23885092
-0.9259268 -0.021790972 -0.105419874 -0.2401575 0.22305256 0.27446914 0.018412327 0.07805416
-0.021752315 -0.06012997 -0.1986846 0.053704105 -0.029895695 0.19515836 0.18015777 0.2198939
-0.012306454 0.00020167558 0.45889595 -0.33241144 -0.19308667 -0.2561717 -1.969977 -0.7086765
0.13422847 0.22400859 0.0069072503 -0.226014 -0.050071687 0.01692739 0.07499853 -0.055494647
0.10548509 0.08548472 -0.0028784454 0.101069756 0.13780266 0.20253135 -0.0048883846 -0.0653676
-0.037103552 0.15059757 0.09433189 0.00618169 0.09073991 0.111236915 0.09941063 0.042370997
-0.059053674 -0.0070897113 -0.1543805 -0.12325532 -0.14534079 -0.0149905225 0.0007355226 0.21149606
-0.09544015 0.16396385 -0.032871384 -0.26327157 -0.15026 -0.0034894445 0.2882531 -0.07959682
-0.51030236 0.030419873 -0.09971416 0.09662165 -0.21230562 -0.14566287 0.08841766 -0.026181316
-0.058871116 -0.46663687 -0.16724195 0.14344014 -0.2411999 -0.026775802 0.14535993 -0.08680803
0.112075 -0.26244462 0.15974015 0.035608307 -0.09608215 0.1474647 0.2558426 0.021541284
-0.3103608 -0.17500609 -0.01796614 -0.011599921 0.019629398 -0.04077781 -0.2110003 -0.14038257
-0.1425412 0.3652259 0.1071481 -0.34865722 -0.2653738 -1.3488983 0.055768315 -0.07889008
-0.045874756 0.016279211 -0.13241489 -0.10419962 -0.071879804 0.06430631 0.018125292 0.040013507
-0.03564079 0.0059608985 0.048488103 0.11361029 0.23626015 0.15922235 0.0356973 0.03669374
-0.042740673 -0.0899389 0.08803078 0.055580463 0.034815837 0.09966598 0.26670074 -0.026902882
0.010776997 -0.02574312 -0.094934426 0.16445655 -0.096896775 0.07135944 0.29735157 0.025943505
-0.11794689 -0.3143396 -1.1563398 0.02542055 0.03869086 -0.050336972 -0.19560377 0.121583186
0.054555424 0.047651075 -0.11170906 0.04521494 -0.008387311 0.1508588 -0.01782898 0.09711476
0.16936934 0.050198987 -0.01432167 0.088055834 0.0734189 -0.0188253 0.039835744 0.071957655
-0.12374392 -0.09539233 0.20608197 0.068824135 -0.02391203 0.015491207 -0.07457619 -0.09356334
-0.09628204 0.2655519 0.15676987 -0.3644392 0.1137666 0.052725416 -0.053275976 0.16458766
-0.14506726 0.15850288 0.2643102 0.09014811 0.2832631 -0.338064 0.0034523057 0.085258305
0.089940235 0.06793876 -0.26033518 0.043508302 0.036773425 0.17632845 0.041870773 -0.36404347
0.21987261 0.07314198 -0.030685883 0.02270217 0.06955574 -0.21111445 -0.051537443 -0.059452806
00000000: 0feb 27be fa5f 0c3e b740 2b3d 1076 e53c
00000010: ca23 4ebd 2cd3 f4be 2d1a 173e 569a 2c3e
00000020: f4e4 3b3e 3a8a 2cbd b33a 14bd d064 8fbe
00000030: fbae ecbd 7fc2 02be eaa2 283e 7557 91be
00000040: 0281 383e 605f 16be faa3 303e 9e16 67be
00000050: 27af 39be b729 d63d 89d6 543e 1e62 9abd
00000060: 64d2 50be db8d 42be e7b2 ec3d e9b6 4abe
00000070: cd2c eb3d 198f 9abd c169 80be cc06 853e
00000080: 9383 09be 605f 30bc 3cca 0b3d 5c58 fcbd
00000090: 3273 ddbc 2cd5 9c3e 0173 863c 0b45 d9bc
000000a0: 2ed4 4a3d 6bbe 3ebe 10ea afbd 547e c63b
000000b0: eade 223d 8659 693d d5ea 223b 5520 9cbd
000000c0: e2e9 333d 441d b43d 1adb 3f3e 87c8 673e
000000d0: 8155 8c3e 9509 c1bd f4b2 cfbb 5695 74be
000000e0: 8a09 6dbf fb82 b2bc 60e6 d7bd d9eb 75be
000000f0: e467 643e 3887 8c3e 73d5 963c dcda 9f3d
00000100: e931 b2bc d84a 76bd fa73 4bbe d6f8 5b3d
00000110: d1e7 f4bc 98d7 473e 477b 383e de2b 613e
00000120: 02a1 49bc e078 5339 69f4 ea3e d531 aabe
00000130: 83b8 45be f028 83be 3528 fcbf d36b 35bf
00000140: 3073 093e 8262 653e 3756 e23b 3770 67be
00000150: f817 4dbd 4fab 8a3c d498 993d 5b4e 63bd
00000160: 9108 d83d 9d12 af3d 4da4 3cbb a9fd ce3d
00000170: 241c 0d3e 6164 4f3e be2e a0bb 73df 85bd
00000180: e5f9 17bd 4036 1a3e 1431 c13d c68f ca3b
00000190: d9d5 b93d 2ed0 e33d cd97 cb3d 368d 2d3d
000001a0: 44e2 71bd cf50 e8bb ec15 1ebe 496d fcbd
000001b0: 37d4 14be cf9a 75bc 16d0 403a 6c92 583e
000001c0: 2076 c3bd 24e6 273e 25a4 06bd 88cb 86be
000001d0: c2dd 19be 2aaf 64bb e995 933e a803 a3bd
000001e0: 2da3 02bf 1933 f93c f036 ccbd 92e1 c53d
000001f0: a566 59be a628 15be 5114 b53d 337a d6bc
00000200: d722 71bd 07eb eebe 7941 2bbe f9e1 123e
00000210: 1bfd 76be ed58 dbbc 3cd9 143e 69c8 b1bd
00000220: 9487 e53d 245f 86be ec92 233e 04da 113d
00000230: b8c6 c4bd fc00 173e cdfd 823e 5977 b03c
00000240: 9ce7 9ebe cc34 33be ba2d 93bc 980d 3ebc
00000250: d5cd a03c a206 27bd 7610 58be 73c0 0fbe
00000260: 52f6 11be e4fe ba3e 7770 db3d 3383 b2be
00000270: 13df 87be b3a8 acbf 516d 643d 1f91 a1bd
00000280: 2be7 3bbd fb5b 853c c597 07be 9c66 d5bd
00000290: b835 93bd 07b3 833d 7e7b 943c 34e5 233d
000002a0: 14fc 11bd a453 c33b 769b 463d 83ac e83d
000002b0: 2eee 713e 2f0b 233e 5537 123d 2d4c 163d
000002c0: d810 2fbd e331 b8bd 7b49 b43d 57a8 633d
000002d0: 0d9b 0e3d ad1d cc3d 008d 883e 6f63 dcbc
000002e0: 0092 303c 3ce3 d2bc fb6c c2bd 4c67 283e
000002f0: d171 c6bd e624 923d 773e 983e 7987 d43c
00000300: 248e f1bd 1ff1 a0be f102 94bf c23e d03c
00000310: 4f7a 1e3d 242e 4ebd 5b4c 48be 9b00 f93d
00000320: 8275 5f3d c62d 433d b8c7 e4bd 4d33 393d
00000330: ef6a 09bc bb7a 1a3e 150e 92bc 1ae4 c63d
00000340: 286f 2d3e 749d 4d3d 70a5 6abc 9e56 b43d
00000350: a65c 963d 8437 9abc ce2a 233d 895e 933d
00000360: 746d fdbd 0e5d c3bd 2707 533e abf3 8c3d
00000370: 29e3 c3bc d5ce 7d3c 67bb 98bd 239e bfbd
00000380: 852f c5bd 6bf6 873e 4888 203e c697 babe
00000390: 77fe e83d 9bf6 573d e937 5abd ab89 283e
000003a0: 838c 14be 944e 223e ab53 873e 939f b83d
000003b0: dc07 913e b916 adbe 1440 623b e89b ae3d
000003c0: 9632 b83d 7a23 8b3d a74a 85be c335 323d
000003d0: bb9f 163d 728f 343e b080 2b3d e863 babe
000003e0: 4926 613e 76cb 953d f660 fbbc e7f9 b93c
000003f0: 3d73 8e3d 632e 58be ed18 53bd c984 73bd

fc1.bias f4 [64]
0.11804606 0.019983083 -0.087104924 -0.05523712 0.19717446 -0.001335099 -0.11081089 0.08091262
0.061173998 -0.19609202 0.104971774 0.12903285 0.077861205 0.08724057 -0.0475942 -0.026170881
0.13061988 0.03137165 -0.052227497 -0.118168026 -0.070465274 0.07605084 0.01067961 -0.06588511
-0.2062913 0.15432806 -0.12596509 -0.009350911 0.15172933 0.11107991 -0.15051915 -0.15787444
0.1526549 -0.0047217356 -0.19881728 0.086099744 -0.037544172 0.023183685 -0.10958249 -0.05661029
-0.010858971 -0.069457255 -0.08755064 0.061616786 -0.032573603 -0.064778395 -0.10116884 -0.14090876
-0.07328466 0.07581989 -0.17532942 0.03947637 0.024831679 -0.08561585 -0.17673673 0.020235078
0.05407891 -0.0008199732 -0.11252511 -0.07769076 -0.0051232567 -0.003686402 0.16698289 0.0841635
00000000: 22c2 f13d 90b3 a33c 1164 b2bd 5140 62bd
00000010: 1ae8 493e 7dfe aeba d2f0 e2bd 84b5 a53d
00000020: 9691 7a3d 59cc 48be 71fb d63d 3021 043e
00000030: b275 9f3d 2fab b23d 23f2 42bd 5164 d6bc
00000040: 38c1 053e 8f7f 003d 80ec 55bd 1402 f2bd
00000050: 1950 90bd 8bc0 9b3d 88f9 2e3c c6ee 86bd
00000060: 073e 53be 2d08 1e3e fefc 00be 9034 19bc
00000070: ef5e 1b3e dd7d e33d b121 1abe d6a9 21be
00000080: 9151 1c3e cab8 9abb c296 4bbe 1055 b03d
00000090: ebc7 19bd b6eb bd3c c96c e0bd 31e0 67bd
000000a0: d3e9 31bc 9b3f 8ebd c04d b3bd e261 7c3d
000000b0: e66b 05bd 89aa 84bd 9c31 cfbd 634a 10be
000000c0: 4516 96bd 7547 9b3d 8e89 33be f9b1 213d
000000d0: ce6b cb3c 5d57 afbd 79fa 34be 09c4 a53c
000000e0: d981 5d3d 78f3 56ba 9173 e6bd 551c 9fbd
000000f0: fee0 a7bb 9097 71bb 90fd 2a3e ea5d ac3d

fc2.weight f4 [64, 64]
-0.1324168 -0.007500693 0.2833672 -0.09137655 -0.09465218 -0.04948145 -0.37275732 0.10809555
0.036833223 -0.07122303 -0.052420955 -0.15262881 0.15695927 0.09507886 -0.17238043 0.15834165
-0.14724545 0.053484052 -0.042444505 -0.09343998 0.13036722 -0.07271798 -0.1660414 -0.3366614
-0.058071718 0.06500413 0.047290053 0.34136632 -0.003787921 0.29480258 0.10472951 -0.15514126
0.028370686 -0.35008535 -0.102804326 0.105132245 0.0051911366 0.16568951 0.036489107 -0.07851712
-0.06959648 0.14653194 0.2757349 -0.12169901 0.208481 -0.16379932 -0.09991913 0.06329448
-0.07049398 -0.3479125 0.049669094 0.07567708 0.012316239 0.19610469 0.056145977 -0.007087337
-0.12198889 0.045021277 -0.08594349 -0.11821167 0.10418764 0.041826364 -0.10707001 -0.032523923
0.08356454 0.08973698 -0.5849644 0.16189755 -0.035959054 -0.062233124 -0.07032785 0.14139298
-0.09872863 -0.06211495 -0.12829438 0.60301703 0.09586856 -0.0578997 -0.20685144 -0.081010506
0.009368969 -0.04224766 -0.10323603 0.040312473 0.14751312 -0.16233042 0.038028598 -0.15695386
-0.0428999 -0.13755085 0.025907125 -0.040743105 0.18545672 -0.35756287 0.19382237 0.16006419
0.03979437 -0.027274366 0.055790197 -0.24251516 -0.049786024 -0.0386036 0.044840854 -0.15497881
0.003096763 -0.025729846 -0.16117361 -0.17924263 -0.2859448 0.03903446 -0.05713068 -0.13771771
-0.12547506 0.039084926 0.0024573999 -0.10116456 0.0049147 -0.048827663 -0.10578341 0.2060584
-0.20979434 -0.26136637 0.08128638 0.022786867 -0.0052770763 -0.00475732 0.14195956 -0.002047908
-0.008731296 -0.14600775 0.0059076934 -0.0847694 0.046378117 0.091478154 -0.16212541 -0.0657398
0.1368559 -0.032023408 0.13254946 -0.38717565 0.08638733 -0.0479608 -0.03575401 0.08731322
0.024346 0.17564343 0.024450995 -0.051509317 -0.21489227 0.13814782 -0.2590216 0.13210276
0.23703408 -0.17035888 0.4317687 0.5297423 -0.13274218 0.18636015 0.27280024 0.0035781325
-0.14302535 0.011564896 0.11221866 0.10155118 0.05515159 -0.02840572 0.22650003 -0.08998481
0.020553393 0.21359755 -0.045163102 0.30085516 -0.0683905 -0.07439714 0.11862428 -0.07848046
0.08455632 -0.124905 -0.16283703 0.10442626 -0.054433435 0.12988064 0.0067547034 -0.09957488
0.13957773 -0.24516639 0.24730803 -0.033169966 -0.06311556 -0.14829546 -0.10589076 -0.09036055
-0.25324842 -0.016747773 0.30854356 -0.41840392 0.09076034 -0.29873922 -0.4327222 -0.050750423
-0.1858689 -0.40610036 -0.06537047 -0.22889751 0.0032723828 -0.05483765 0.14684494 -0.10590917
0.026739383 0.16274428 -0.08577634 -0.16253433 -0.03519668 0.059791803 -0.23172428 0.12472513
0.12412564 0.26729348 0.1256002 0.09495638 0.025058739 -0.07743306 0.020637432 0.13283442
-0.1235961 -0.15803866 0.06783916 0.13021299 -0.20529315 0.1614317 -0.106524765 -0.18709974
-0.2728937 0.01900019 0.07819936 0.114891306 -0.040015224 0.03154646 -0.106183484 -0.04325715
-0.30672854 -0.29244146 -0.42069373 0.054489806 0.043658916 -0.12890409 0.25978276 0.09291916
-0.16613069 0.009979831 0.005999761 0.27353558 -0.11538302 0.009793889 -0.22378497 -0.26098132
00000000: 4598 07be 60c8 f5bb 8115 913e a123 bbbd
00000010: 01d9 c1bd 10ad 4abd 0cda bebe 3361 dd3d
00000020: 6fde 163d 61dd 91bd 5bb7 56bd ba4a 1cbe
00000030: eeb9 203e b5b8 c23d 7f84 30be 5024 223e
00000040: 83c7 16be 1812 5b3d 4ada 2dbd 765d bfbd
00000050: fc7e 053e 2aed 94bd c206 2abe e25e acbe
00000060: 9cdc 6dbd e320 853d 37b3 413d 91c7 ae3e
00000070: c53e 78bb 5df0 963e 6d7c d63d 5add 1ebe
00000080: a469 e83c 633e b3be 138b d2bd 934f d73d
00000090: 691a aa3b 83aa 293e 9a75 153d 95cd a0bd
000000a0: 9988 8ebd 780c 163e 202d 8d3e 553d f9bd
000000b0: 0b7c 553e 02bb 27be 67a2 ccbd 89a0 813d
000000c0: 265f 90bd 9621 b2be d271 4b3d 96fc 9a3d
000000d0: 0dca 493c abcf 483e 53f9 653d e43c e8bb
000000e0: 50d5 f9bd 3b68 383d 2403 b0bd f618 f2bd
000000f0: 5460 d53d 1f52 2b3d 8547 dbbd ce37 05bd
00000100: e323 ab3d 06c8 b73d 3ac0 15bf 79c8 253e
00000110: cd49 13bd 29e8 7ebd 0c08 90bd 52c9 103e
00000120: 3c32 cabd 3f6c 7ebd 9a5f 03be 535f 1a3f
00000130: bc56 c43d 3c28 6dbd ddd0 53be d6e8 a5bd
00000140: 4e80 193c e20b 2dbd 696d d3bd b11e 253d
00000150: ae0d 173e f239 26be e0c3 1b3d 83b8 20be
00000160: ceb7 2fbd 21da 0cbe 2e3b d43c 3ee2 26bd
00000170: 5ee8 3d3e 7b12 b7be 5f79 463e dee7 233e
00000180: 6cff 223d 7e6e dfbc 4384 643d e555 78be
00000190: 6eec 4bbd cf1e 1ebd 0bab 373d c4b2 1ebe
000001a0: 10f3 4a3b 66c7 d2bc b20a 25be 618b 37be
000001b0: 5b67 92be 99e2 1f3d dc01 6abd df05 0dbe
000001c0: 897c 00be 8417 203d 540c 213b 5d2f cfbd
000001d0: 7e0b a13b 84ff 47bd f9a4 d8bd f900 533e
000001e0: 54d4 56be d0d1 85be 7979 a63d 86ab ba3c
000001f0: 53eb acbb 4be3 9bbb d95d 113e 3236 06bb
00000200: b60d 0fbc 0e83 15be 5395 c13b 949b adbd
00000210: fbf6 3d3d e658 bb3d 3404 26be 97a2 86bd
00000220: f423 0c3e fa2a 03bd 0cbb 073e e33b c6be
00000230: d7eb b03d 8b72 44bd cc72 12bd 46d1 b23d
00000240: 4371 c73c dfdb 333e 744d c83c 6ffb 52bd
00000250: b80c 5cbe 9f76 0d3e 7b9e 84be f245 073e
00000260: 10b9 723e 8f72 2ebe c910 dd3e 319d 073f
00000270: 91ed 07be 32d5 3e3e 79ac 8b3e 1a7f 6a3b
00000280: 3d75 12be b17a 3d3c e6d2 e53d 11fa cf3d
00000290: a2e6 613d 1db3 e8bc a0ef 673e f549 b8bd
000002a0: 975f a83c 51b9 5a3e f2fc 38bd b009 9a3e
000002b0: 5210 8cbd 875d 98bd 49f1 f23d 5dba a0bd
000002c0: dd2b ad3d 31ce ffbd c0be 26be 6fdd d53d
000002d0: 98f5 5ebd 6eff 043e 8f56 dd3b eaed cbbd
000002e0: 77ed 0e3e e60c 7bbe 513e 7d3e 3bdd 07bd
000002f0: bb42 81bd c4da 17be 41dd d8bd f40e b9bd
00000300: c7a9 81be a032 89bc 6cf9 9d3e 0a39 d6be
00000310: 8fe0 b93d 59f4 98be c48d ddbe addf 4fbd
00000320: 6b54 3ebe 63ec cfbe f4e0 85bd 1c64 6abe
00000330: 7975 563b 729d 60bd 855e 163e e8e6 d8bd
00000340: 8d0c db3c 70a6 263e 81ab afbd 666f 26be
00000350: 652a 10bd 40e8 743d 2149 6dbe e46f ff3d
00000360: 9535 fe3d b1da 883e 579d 003e 7e78 c23d
00000370: fc47 cd3c 3995 9ebd d50f a93c bf05 083e
00000380: f41f fdbd e3d4 21be 42ef 8a3d 8e56 053e
00000390: 5e38 52be 5a4e 253e a829 dabd 1397 3fbe
000003a0: b9b8 8bbe 49a6 9b3c fc26 a03d 224c eb3d
000003b0: 01e7 23bd dc36 013d ba76 d9bd 692e 31bd
000003c0: 860b 9dbe e3ba 95be 2b65 d7be b430 5f3d
000003d0: b1d3 323d 6fff 03be 3f02 853e 674c be3d
000003e0: 2a1e 2abe 7282 233c a599 c43b db0c 8c3e
000003f0: ef4d ecbd 8c76 203c e327 65be 589f 85be

fc2.bias f4 [64]
-0.12186922 -0.049446587 0.00510588 0.0011540662 0.22820577 -0.085617624 -0.154885 0.14300624
0.0049469094 0.23480637 0.0028269165 0.1916176 0.08970509 -0.09514737 -0.1377186 0.0032168054
-0.017694283 -0.17024954 -0.010226423 0.15249942 0.04623338 0.58945394 -0.0977767 -0.11573034
-0.08802282 -0.1067823 0.06982153 -0.05690683 -0.17147416 -0.018367387 0.0997598 -0.15694384
-0.09172266 0.10411259 -0.022314865 -0.010037837 -0.22415783 -0.16487579 0.12412958 -0.17085452
-0.043811366 0.5778806 0.15292577 -0.08028276 0.016067764 -0.12648083 -0.035122175 -0.17623018
0.06678212 -0.2353379 -0.14620444 0.32810116 -0.009898261 -0.013809901 0.17418295 -0.22858039
-0.14082175 -0.20979916 -0.09514359 -0.049386617 -0.048957516 -0.026129514 0.061962813 -0.11513898
00000000: 9296 f9bd 8188 4abd 3a4f a73b 0944 973a
00000010: c6ae 693e 4b58 afbd 2c9a 1ebe 3a70 123e
00000020: af19 a23b 1571 703e ca43 393b 6737 443e
00000030: 4db7 b73d a0dc c2bd 1b06 0dbe 0ad1 523b
00000040: 9af3 90bc e555 2ebe ba8c 27bc cf28 1c3e
00000050: 365f 3d3d 74e6 163f 273f c8bd 0704 edbd
00000060: 4f45 b4bd aeb0 dabd 97fe 8e3d 2317 69bd
00000070: ec96 2fbe 3477 96bc de4e cc3d e3b5 20be
00000080: 17d9 bbbd fb38 d53d aacd b6bc bd75 24bc
00000090: a189 65be 33d5 28be a637 fe3d 7df4 2ebe
000000a0: 8c73 33bd fcef 133f 9398 1c3e 4a6b a4bd
000000b0: 8ba0 833c 3184 01be 45dc 0fbd af75 34be
000000c0: 10c5 883d 6bfc 70be 9eb6 15be e0fc a73e
000000d0: 512c 22bc ec42 62bc 045d 323e fa10 6abe
000000e0: 9433 10be 97d5 56be a4da c2bd 9f49 4abd
000000f0: ad87 48bd 900d d6bc b8cc 7d3d fccd ebbd

fc3.weight f4 [4, 64]
-0.10572555 0.27963746 0.16937268 -0.23454204 0.15339689 -0.6197393 0.065036334 -0.28394574
0.09723425 0.13376433 -0.5795331 0.3410691 0.033546608 0.069605365 0.45639098 0.10322807
-0.17438726 0.072818905 0.20853789 0.2441111 0.34746665 0.2068849 0.045278475 -0.031178577
0.24021696 -0.06740224 -0.18047526 0.172597 0.14675288 -0.21062759 -0.5484624 0.5033996
0.06899189 0.28669927 0.3643401 -0.06604503 -0.31598064 -0.16085394 0.46315634 -0.118462406
-0.007893884 0.23730175 0.43429843 0.1792204 0.60012084 -0.10479396 0.08650266 0.36178637
-0.43463632 0.0033808025 -0.15029198 0.113588065 0.3226137 0.21713556 0.20200592 -0.47929773
-0.19978379 -0.022173788 0.58797693 0.4501535 -0.2318037 0.19021298 0.048117403 0.09841183
0.021618312 0.255608 0.306186 0.19255227 0.18729183 0.3510384 0.0010347537 0.017095793
-0.007552964 0.110984445 0.49146467 0.22715671 0.050927162 0.2844365 0.04618364 0.052815635
-0.2505361 -0.06960013 0.42568904 0.19152199 0.75126386 0.19105561 0.08616668 0.09536085
0.29522103 -0.03500246 0.091590635 0.2967953 -0.0026942447 -0.12124 0.06915351 0.53104085
0.07675043 0.16926304 0.35557413 0.16079783 -0.14921181 -0.16921937 0.50984365 -0.056467224
0.26429924 0.22235979 0.36518142 0.16606483 0.48011935 -0.18643185 0.06351795 0.3727089
0.10324126 -0.20756084 -0.3868366 0.051743202 0.34051883 0.34535572 0.21915212 -0.32566166
-0.4810311 -0.21917263 0.41058743 -0.43224975 -0.22464438 -0.5227088 -0.14608611 0.617312
-0.17108731 0.22684902 0.30493513 0.78518504 0.21481769 0.39466193 0.38118756 0.11224714
0.11903935 0.10008305 -0.34977907 0.24673808 0.31161016 -0.47953972 -0.7516545 0.30755496
0.14803529 -0.28821287 -0.25288054 0.078607 -0.2519372 0.23199865 -0.17679209 0.024381971
0.4633619 -0.07747328 -0.17286608 0.141435 0.1626417 0.11723477 -0.11572966 -0.19291857
-0.35049787 0.016492542 0.32648823 0.38558343 -0.21788613 -0.31350827 0.48571175 -0.30249247
0.3799266 0.19361253 0.28092363 0.16621144 0.40172935 -0.15505646 0.45506215 0.69495445
-0.23328722 0.07706094 0.19640687 0.27601784 0.12966563 0.04976306 0.16924472 -0.08826972
-0.32453004 -0.2318372 -0.11982413 -0.34171996 -0.05542703 -0.09277211 0.037106615 -0.4464124
0.14873342 0.47750536 0.31996357 -0.21369267 0.09743297 0.19297108 -0.43310937 0.08607456
0.32896173 0.29036647 0.28322396 0.12762374 0.17503007 0.30735114 -0.45547637 0.20633386
0.703286 0.4112945 0.3584992 0.18711987 -0.05893144 0.25404814 -0.20793162 0.053685036
-0.075117916 -0.13993718 0.08505952 0.501263 0.38781092 -0.43960842 -0.4939778 0.24459155
-0.13247655 0.05289715 0.11063378 -0.13147026 -0.28241593 -0.0882466 0.27962828 0.29360062
-0.45591608 0.19047117 0.37654364 -0.08367716 0.6961931 -0.21432835 0.63143104 0.30016077
-0.5503636 -0.43783343 -0.33864453 0.13194147 -0.030834312 0.3724097 0.14404184 0.05151969
-0.26221249 -0.18432043 -0.3039318 -0.10669649 -0.28896892 -0.9297157 0.08309225 0.6289288
00000000: a386 d8bd a42c 8f3e 0870 2d3e ca2b 70be
00000010: 1314 1d3e 3ca7 1ebf c531 853d 5661 91be
00000020: c022 c73d 84f9 083e 485c 14bf 9ca0 ae3e
00000030: 2b68 093d 428d 8e3d 14ac e93e 3d69 d33d
00000040: 9392 32be 1422 953d f58a 553e 43f8 793e
00000050: 26e7 b13e a3d9 533e ec75 393d 376a ffbc
00000060: 6ffb 753e 300a 8abd 82ce 38be 45bd 303e
00000070: 6346 163e c2ae 57be 0868 0cbf ccde 003f
00000080: 9f4b 8d3d 3fca 923e c98a ba3e 9e42 87bd
00000090: 37c8 a1be e5b6 24be d422 ed3e 6b9c f2bd
000000a0: 5955 01bc 3bff 723e 5d5c de3e 8d85 373e
000000b0: 85a1 193f 379e d6bd 4e28 b13d 103c b93e
000000c0: a788 debe 7490 5d3b 24e6 19be dca0 e83d
000000d0: 9f2d a53e c958 5e3e a4da 4e3e 8366 f5be
000000e0: 1f94 4cbe cea5 b5bc a885 163f 857a e63e
000000f0: f35d 6dbe 31c7 423e c116 453d 248c c93d
00000100: e318 b13c 0ddf 823e 69c4 9c3e 6c2c 453e
00000110: 6ec9 3f3e 4ebb b33e 93a0 873a 7a0c 8c3c
00000120: db7e f7bb d04b e33d 42a1 fb3e c59b 683e
00000130: 0099 503d a9a1 913e 0e2b 3d3d 3555 583d
00000140: 4546 80be 838a 8ebd eaf3 d93e 571e 443e
00000150: d452 403f 15a4 433e 2878 b03d 8d4c c33d
00000160: 3627 973e bd5e 0fbd df93 bb3d 8ef5 973e
00000170: ed91 30bb ad4c f8bd 5ba0 8d3d 4bf2 073f
00000180: 542f 9d3d 4a53 2d3e d00d b63e 30a8 243e
00000190: fbca 18be d847 2dbe 1d85 023f 2d4a 67bd
000001a0: 3b52 873e 49b2 633e 0ff9 ba3e e60c 2a3e
000001b0: 34d2 f53e fee7 3ebe b315 823d b3d3 be3e
000001c0: 2770 d33d d48a 54be 720f c6be aef0 533d
000001d0: 7c58 ae3e 77d2 b03e 6a69 603e 20bd a6be
000001e0: b549 f6be ca6e 60be 8438 d23e d74f ddbe
000001f0: 2d09 66be 3ed0 05bf 9997 15be 2908 1e3f
00000200: 8331 2fbe 1c4b 683e 7520 9c3e e301 493f
00000210: 2bf9 5b3e 2111 ca3e 042b c33e d4e1 e53d
00000220: e7ca f33d 58f8 cc3d 3e16 b3be e8a8 7c3e
00000230: 5e8b 9f3e 3b86 f5be 6e6c 40bf d877 9d3e
00000240: 9096 173e a390 93be 8f79 81be b5fc a03d
00000250: eafd 80be 0e91 6d3e fc08 35be b3bc c73c
00000260: c53d ed3e 50aa 9ebd ce03 31be 56d4 103e
00000270: 8c8b 263e c818 f03d ac03 edbd 728c 45be
00000280: 7574 b3be 5e1b 873c 7729 a73e 316b c53e
00000290: 8b1d 5fbe 2884 a0be 36af f83e 4be0 9abe
000002a0: bd85 c23e 5d42 463e 39d5 8f3e 5533 2a3e
000002b0: 78af cd3e 1fc7 1ebe e8fd e83e 89e8 313f
000002c0: d8e2 6ebe 20d2 9d3d e21e 493e 3652 8d3e
000002d0: 11c7 043e 5ad4 4b3d 7d4e 2d3e c1c6 b4bd
000002e0: cd28 a6be bb66 6dbe 5a66 f5bd ebf5 aebe
000002f0: 7407 63bd 4eff bdbd 1bfd 173d 2b90 e4be
00000300: 934d 183e 957b f43e 44d2 a33e 40d2 5abe
00000310: f08a c73d 369a 453e 83c0 ddbe dc47 b03d
00000320: ac6d a83e eaaa 943e bb02 913e ccaf 023e
00000330: 153b 333e 215d 9d3e 3334 e9be 2f49 533e
00000340: 8d0a 343f 3195 d23e 358d b73e 5a9c 3f3e
00000350: 1862 71bd 9912 823e 07ec 54be d7e4 5b3d
00000360: 6cd7 99bd b14b 0fbe b033 ae3d c652 003f
00000370: 278f c63e 5b14 e1be a8ea fcbe 3576 7a3e
00000380: efa7 07be afaa 583d f793 e23d 24a0 06be
00000390: d298 90be a2ba b4bd 702b 8f3e d252 963e
000003a0: d56d e9be e00a 433e 54ca c03e ee5e abbd
000003b0: b639 323f e478 5bbe 77a5 213f acae 993e
000003c0: a1e4 0cbf b42b e0be d162 adbe aa1b 073e
000003d0: 3d98 fcbc 7cac be3e b47f 133e 4f06 533d
000003e0: b740 86be 7fbe 3cbe f39c 9bbe b083 dabd
000003f0: bcf3 93be d901 6ebf 452c aa3d 7a01 213f

fc3.bias f4 [4]
0.31039745 0.2893811 0.20815493 0.2402823
00000000: 6aec 9e3e c229 943e 9126 553e 900c 763e
