Navigation - Value based methods/checkpoint/checkpoint_dqn_2.pth (torch_old, 28333 bytes, 6 tensors)

fc1.weight f4 [64, 37]
0.21135618 -0.1644227 -0.1324938 -0.20700397 -0.88649684 -0.054952618 0.039927606 0.1311282
0.1776247 0.20126255 -0.044674255 -0.06519481 -0.104446925 -0.22734444 -0.0741253 -0.13779853
-0.029764578 0.21555275 0.21769543 0.08392261 0.09170122 0.09639749 -0.0058129597 -0.038971126
-0.12787007 -0.084278785 0.119255766 -0.13120331 0.001701809 -0.10936989 -0.041102108 0.008467338
0.03137365 -0.13067749 -0.11985988 0.005187364 -0.0408173 0.15516299 0.10535475 0.09846738
-0.0048889033 -0.044948407 -0.0033868395 -0.14052197 -0.023678755 -0.09393497 -0.06514827 0.12391226
-0.09992566 0.03317151 0.12388863 0.14353448 0.09509005 -0.043807875 0.11995468 0.05001302
-0.047878277 -0.062865354 -0.14522563 -0.1401023 0.1010494 0.06081192 0.04162815 0.08307196
-0.024985699 -0.07923821 -0.19160429 0.07499345 0.15245524 0.11232924 -0.027601315 -0.21243322
0.17124142 0.047797583 0.08019737 0.17237364 0.11345852 0.09747158 -0.05405662 -0.64144146
0.05283089 0.26770538 0.030233104 -0.2681233 0.0963511 -0.050304808 -0.11418829 0.14192836
-0.11502421 0.028528936 0.19677792 0.051425952 -0.2272222 0.073424384 0.10770575 -0.14061402
-0.047051646 -0.066416875 -0.4173985 -0.21325028 0.258536 0.2185266 -0.1607365 -0.060121275
-0.25401664 0.07749468 0.01672619 -0.089116484 -0.10248399 -0.018721566 -0.007880594 0.47394323
-0.6514252 -0.37961984 -0.294437 -2.2434862 -0.05068852 -0.015126088 0.06752067 0.07534428
0.08250972 -0.04130845 0.0064806165 -0.026277445 -0.030437551 -0.011582652 -0.0717295 0.05006844
-0.051355146 -0.08252226 -0.060338598 -0.019776462 -0.0112835085 0.021964466 0.017259395 0.037182923
-0.07536179 0.041217953 0.09268213 0.1594579 0.235862 -0.04049203 0.017155549 0.040194374
0.044994194 0.039492957 0.002239234 0.0026820805 0.0054976754 -0.18143009 -0.08145764 -0.41174957
-0.4017155 0.13466841 0.009271787 -0.17330876 -0.11005653 -0.6017015 0.03640659 0.08336785
-0.15067305 -0.12728684 -0.029278774 -0.034479756 -0.23882613 0.06599117 -0.14952427 -0.3928083
0.116378956 -0.21416555 0.02999003 -0.11033227 0.13788328 -0.0031078695 -0.18138427 0.23497838
-0.10911156 -0.57406235 0.23369724 -0.0562947 -0.08863595 -0.08642638 0.11846061 0.13799603
0.0036356724 -0.019606568 -0.08247568 0.062416993 0.07478593 0.15119281 0.11825953 0.22962676
-0.07869013 0.040738907 -0.049839247 -0.11960189 -0.022673478 -0.027210927 0.031131567 0.1304433
-0.047948264 0.01869427 0.024251342 0.013995514 -0.06503812 0.048202317 0.013625301 -0.0148648415
0.29129332 0.19838727 -0.013604634 -0.02467457 0.04335985 -0.011362955 -0.046300173 0.2394353
-0.39447257 -0.38075382 0.03028279 -1.0461099 0.01689995 0.008011263 0.07587825 -0.22701626
-0.16894086 0.060500484 -0.19084297 -0.34457386 -0.15511073 0.0028255456 0.061598763 0.04718703
-0.009070274 0.042844698 0.08963126 -0.4218066 0.12831661 -0.46753597 0.042643316 0.044009697
-0.20693608 -0.07987456 -0.1457017 -0.12050836 0.11355558 -0.44386992 0.12539431 -0.5363943
-0.120585494 0.11091379 -0.2732712 -0.056395352 -0.018372772 -0.268661 0.0968666 -0.27273628
00000000: c16d 583e 6d5e 28be 74ac 07be d9f8 53be
00000010: 75f1 62bf ff15 61bd 218b 233d 7946 063e
00000020: 40e3 353e c517 4e3e 5afc 36bd db84 85bd
00000030: 45e8 d5bd fbcc 68be 01cf 97bd 0f1b 0dbe
00000040: d8d4 f3bc dcb9 5c3e 8deb 5e3e 9edf ab3d
00000050: d9cd bb3d 0c6c c53d a47a bebb 30a0 1fbd
00000060: 5ff0 02be 5b9a acbd 5e3c f43d 295a 06be
00000070: 3c0f df3a 52fd dfbd af5a 28bd 97ba 0a3c
00000080: a881 003d 52d0 05be 1979 f5bd c3fa a93b
00000090: 0b30 27bd 0ce3 1e3e 3bc4 d73d 44a9 c93d
000000a0: 1833 a0bb d21b 38bd bdf5 5dbb fee4 0fbe
000000b0: f3f9 c1bc fa60 c0bd 756c 85bd b6c5 fd3d
000000c0: d3a5 ccbd d9de 073d 52b9 fd3d b4fa 123e
000000d0: 92be c23d e36f 33bd cdaa f53d 74da 4c3d
000000e0: 031c 44bd 8dbf 80bd 07b6 14be fa76 0fbe
000000f0: fdf2 ce3d eb15 793d 4782 2a3d a221 aa3d
00000100: cfae ccbc a547 a2bd ea33 44be 2a96 993d
00000110: 3a1d 1c3e df0c e63d 271c e2bc 1888 59be
00000120: e959 2f3e 66c7 433d 853e a43d b782 303e
00000130: f15c e83d 2e9f c73d 796a 5dbd 8235 24bf
00000140: 3465 583d ae10 893e 6aab f73c 7547 89be
00000150: ba53 c53d 6a0c 4ebd 8ddb e9bd ab55 113e
00000160: d091 ebbd 84b5 e93c 2780 493e 05a4 523d
00000170: f0ac 68be 865f 963d d594 dc3d 1ffd 0fbe
00000180: 3ab9 40bd 9205 88bd 42b5 d5be 485e 5abe
00000190: d55e 843e 70c5 5f3e 1c98 24be ba41 76bd
000001a0: 780e 82be 88b5 9e3d 5d05 893c b482 b6bd
000001b0: 20e3 d1bd f85d 99bc 9b1d 01bc b0a8 f23e
000001c0: cdc3 26bf 885d c2be 72c0 96be 4795 0fc0
000001d0: c49e 4fbd 69d3 77bc 4748 8a3d 1a4e 9a3d
000001e0: dbfa a83d 0d33 29bd 5a5b d43b cc43 d7bc
000001f0: 2c58 f9bc 2ac5 3dbc ebe6 92bd 9114 4d3d
00000200: c659 52bd 6e01 a9bd 9b25 77bd 3f02 a2bc
00000210: 77de 38bc d3ee b33c 9363 8d3c 1f4d 183d
00000220: 4857 9abd 28d4 283d 21d0 bd3d ef48 233e
00000230: cf85 713e f9da 25bd cb89 8c3c dba2 243d
00000240: d54b 383d 5ec3 213d 1dc0 123b d8c5 2f3b
00000250: d825 b43b cfc8 39be 43d3 a6bd d7d0 d2be
00000260: a7ad cdbe 84e6 093e b1e8 173c da77 31be
00000270: 5165 e1bd 1c09 1abf 141f 153d c3bc aa3d
00000280: 094a 1abe 7b57 02be 0ada efbc a53a 0dbd
00000290: d68e 74be 6126 873d e41c 19be 2b1e c9be
000002a0: 1758 ee3d 374e 5bbe a7ad f53c e3f5 e1bd
000002b0: 4631 0d3e 66ad 4bbb ccbc 39be 2c9e 703e
000002c0: e275 dfbd c0f5 12bf 544e 6f3e 4595 66bd
000002d0: c486 b5bd 5000 b1bd 7a9b f23d d54e 0d3e
000002e0: 7644 6e3b f49d a0bc 02e9 a8bd f6a8 7f3d
000002f0: 5e29 993d 4ad2 1a3e 0d32 f23d 4723 6b3e
00000300: 4a28 a1bd d7dd 263d 3d24 4cbd d6f1 f4bd
00000310: bbbd b9bc 73e9 debc a107 ff3c ee92 053e
00000320: 6665 44bd ba24 993c c0aa c63c 714d 653c
00000330: b532 85bd cb6f 453d a83c 5f3c aa8b 73bc
00000340: 6624 953e 0826 4b3e f9e5 5ebc 5322 cabc
00000350: 199a 313d b02b 3abc 40a5 3dbd 872e 753e
00000360: 4ff8 c9be 2af2 c2be 9d13 f83c eee6 85bf
00000370: c471 8a3c ac41 033c 0e66 9b3d f376 68be
00000380: d5fe 2cbe 5bcf 773d 576c 43be fc6b b0be
00000390: 59d5 1ebe ca2c 393b fc4e 7c3d 3047 413d
000003a0: 7d9b 14bc ec7d 2f3d 9890 b73d 09f7 d7be
000003b0: 6e65 033e e060 efbe c2aa 2e3d 8343 343d
000003c0: 0de7 53be 4695 a3bd d432 15be 16cd f6bd
000003d0: d48f e83d eb42 e3be 5e67 003e 2351 09bf
000003e0: 87f5 f6bd c526 e33d 34ea 8bbe d0fe 66bd
000003f0: 7f82 96bc ef8d 89be ff61 c63d 17a4 8bbe

fc1.bias f4 [64]
0.119029924 -0.009176939 -0.08600758 -0.002549064 0.16825762 -0.044973757 -0.16978723 0.019929223
-0.020921996 -0.2271317 0.13801388 0.20311524 0.12852767 0.21468526 -0.05058325 -0.06512916
0.032925386 0.00087820576 -0.014422576 -0.24306701 -0.04984251 0.044746887 -0.004363389 -0.17049356
-0.054008115 0.25883168 -0.10384564 0.07411887 0.116206884 0.14787818 -0.041627575 -0.16840047
0.13264126 -0.010164735 -0.028307006 0.0051842574 -0.05911403 0.025505856 -0.070593916 -0.20289409
-0.12731043 0.0059016556 -0.112377964 0.20444039 -0.005438622 -0.0835209 0.04864133 -0.14142877
-0.10376828 0.02846326 -0.15084694 0.0264421 -0.094344504 -0.06900459 -0.22349128 -0.023761753
0.008611873 -0.07839947 -0.047019143 -0.11478334 0.056891374 0.045719508 -0.014390104 0.012178665
00000000: f6c5 f33d df5a 16bc be24 b0bd 330e 27bb
00000010: ba4b 2c3e 6736 38bd b4dc 2dbe 9c42 a33c
00000020: 9b64 abbc 3695 68be 8353 0d3e 71fd 4f3e
00000030: c29c 033e 74d6 5b3e 6230 4fbd 7062 85bd
00000040: c5dc 063d 6437 663a ab4c 6cbc 8fe6 78be
00000050: a927 4cbd 8348 373d c3fa 8ebb dd95 2ebe
00000060: 9d37 5dbd 9685 843e 06ad d4bd a2cb 973d
00000070: e0fd ed3d 616d 173e ad81 2abd 2c71 2cbe
00000080: 1cd3 073e fd89 26bc 18e4 e7bc b4e0 a93b
00000090: 8e21 72bd a8f1 d03c 8b93 90bd 78c3 4fbe
000000a0: aa5d 02be ad62 c13b 6b26 e6bd d258 513e
000000b0: 7836 b2bb 010d abbd 223c 473d b4d2 10be
000000c0: 7784 d4bd c82b e93c 9f77 1abe 1a9d d83c
000000d0: b137 c1bd 4752 8dbd e6da 64be 02a8 c2bc
000000e0: d018 0d3c e78f a0bd 2597 40bd 8713 ebbd
000000f0: ee06 693d 6144 3b3d 79c4 6bbc 0689 473c

fc2.weight f4 [64, 64]
0.061711513 0.075048454 0.08210426 -0.4032478 0.1107691 -0.15735626 -0.014289265 0.044377793
-0.13149194 0.022441845 0.19393355 -0.19676588 -0.2104031 0.08349691 -0.07487062 -0.09311071
-0.06571513 -0.39944902 0.10549599 0.015370589 0.117922224 0.18109891 -0.43963847 -0.025785135
-0.26310533 0.062666915 0.07776077 0.014648546 -0.07676709 -0.23989879 -0.4043716 0.05206806
-0.13932809 0.57427967 -0.014306337 0.09405463 -0.13200518 -0.31984773 0.18661435 -0.027930759
-0.19919358 -0.060623392 -0.18321705 -0.07491521 0.14016475 -0.17089531 -0.27948543 0.20341256
-0.12874532 -0.34569296 0.5792273 0.12564577 -0.14624266 -0.4837771 0.004242009 0.020543655
-0.17487946 -0.1645773 -0.26398206 0.033987332 0.22030777 0.02317239 -0.11906318 -0.069487154
0.00078171643 0.0656787 -0.39389598 0.34310102 0.1562701 0.10599209 -0.021970348 0.060597077
-0.08376103 0.0036840732 -0.17694774 0.20691961 0.19288717 0.060548045 -0.0854724 0.079448305
0.062113523 0.2916119 -0.13808018 -0.03952201 -0.18456857 -0.11022772 0.27063552 -0.12499515
0.01622124 0.12937826 -0.17758308 0.14637761 0.06724986 0.18145406 0.141352 -0.05520372
-0.28275532 -0.0048888433 0.09747294 -0.034684226 -0.02070612 0.2960979 0.071861744 -0.06596962
0.029869236 0.23028994 -0.10045759 -0.10946111 -0.054133594 -0.054055136 0.012692109 -0.08347859
-0.22624318 -0.08529054 -0.19860737 0.07339343 -0.06660474 0.21486805 -0.1802653 -0.05657831
-0.07178999 -0.0062179593 0.13568936 0.08518639 -0.08409669 0.064374514 0.071436115 -0.11499699
-0.15073192 -0.123074934 0.1555473 -0.1324129 0.09607596 -0.06924381 -0.051146585 -0.16716689
0.061791476 -0.068530664 0.068799436 -0.025812913 -0.03027587 0.10590499 -0.10442106 0.020036932
-0.10478185 0.17915675 -0.016976904 0.047641695 -0.013699893 0.2730564 0.28274888 -0.055987936
-0.18951929 0.13884103 0.04198917 0.2226142 -0.07576945 0.058561627 -0.24882631 0.012415101
-0.056193516 0.33199567 -0.18138273 0.039685376 0.034220677 -0.39902616 0.08845356 0.037889104
0.015405664 -0.16217677 -0.04891321 -0.024028143 0.05920719 -0.06992553 -0.5389723 -0.06768896
0.15186158 -0.016020708 -0.036268882 -0.07271511 -0.21288897 -0.02979164 -0.1634824 -0.0020465597
-0.090281405 -0.17929052 0.15331881 0.13754797 0.10461943 -0.068994105 0.020696156 -0.060278844
0.08093208 -0.20346606 -0.26015037 -0.01536477 0.039858088 -0.12257391 0.062941626 -0.18959256
-0.40280503 -0.2047368 -0.08239332 0.07384333 0.022354394 0.11476188 -0.22067356 -0.35419318
-0.04100431 0.10576942 0.04069631 0.02213073 0.19813992 -0.13099968 0.1614648 -0.21083933
0.027717413 -0.10679553 -0.11472141 -0.24525763 0.27859682 0.025864093 0.078961626 0.00082888507
-0.49924248 -0.15042247 0.26643398 -0.18843019 -0.29244912 -0.062542774 0.0020328641 -0.4162374
-0.24823047 0.03236466 -0.3209297 -0.20204209 -0.4930793 -0.11967062 -0.223844 -0.22086585
0.004434315 -0.24003693 -0.413948 -0.034856685 0.0519948 -0.05732463 0.06662933 -0.07787329
-0.18788494 -0.48214662 -0.10609775 0.29169062 -0.03678997 0.29543883 -0.16392887 -0.5364971
00000000: 36c5 7c3d 01b3 993d 4726 a83d 7f76 cebe
00000010: e9da e23d 0022 21be 851d 6abc 7dc5 353d
00000020: d3a5 06be f6d7 b73c 8496 463e ff7c 49be
00000030: e973 57be 6e00 ab3d c555 99bd d4b0 bebd
00000040: a795 86bd 9584 ccbe 480e d83d ecd4 7b3c
00000050: 3581 f13d fe71 393e 4b18 e1be 593b d3bc
00000060: beb5 86be 8357 803d 0a41 9f3d 7500 703c
00000070: 1038 9dbd 07a8 75be cb09 cfbe 5145 553d
00000080: 06ac 0ebe fe03 133f 2065 6abc b79f c03d
00000090: 5e2c 07be 15c3 a3be d517 3f3e 0ccf e4bc
000000a0: 67f9 4bbe 3c50 78bd 409d 3bbe 256d 99bd
000000b0: 5987 0f3e 2eff 2ebe b718 8fbe 624b 503e
000000c0: d0d5 03be abfe b0be 3e48 143f 49a9 003e
000000d0: a3c0 15be a2b1 f7be 8d00 8b3b 2b4b a83c
000000e0: 9a13 33be f486 28be a828 87be 4d36 0b3d
000000f0: 5c98 613e 06d4 bd3c 66d7 f3bd 484f 8ebd
00000100: 1aec 4c3a 8e82 863d bcac c9be f0aa af3e
00000110: 4505 203e 6212 d93d 29fb b3bc a434 783d
00000120: e78a abbd 7e70 713b ca31 35be bce2 533e
00000130: 3784 453e 3a01 783d 270c afbd cbb5 a23d
00000140: c06a 7e3d 284e 953e e464 0dbe d5e1 21bd
00000150: 8bff 3cbe 12bf e1bd bd90 8a3e 75fd ffbd
00000160: 68e2 843c bc7b 043e 57d8 35be 03e4 153e
00000170: 4bba 893d 18cf 393e 94be 103e 4c1d 62bd
00000180: 4ec5 90be 9732 a0bb e59f c73d 0c11 0ebd
00000190: e29f a9bc 259a 973e 402c 933d 151b 87bd
000001a0: 54b0 f43c 20d1 6b3e b5bc cdbd 252d e0bd
000001b0: 30bb 5dbd eb68 5dbd 90f2 4f3c d3f6 aabd
000001c0: 4bac 67be ceac aebd bb5f 4bbe 4b4f 963d
000001d0: 1168 88bd 5f06 5c3e 7897 38be a8be 67bd
000001e0: a106 93bd 06c0 cbbb 27f2 0a3e 3476 ae3d
000001f0: e33a acbd c9d6 833d 194d 923d 8b83 ebbd
00000200: 7859 1abe b60e fcbd cb47 1f3e 3f97 07be
00000210: 79c3 c43d b3cf 8dbd 157f 51bd cc2d 2bbe
00000220: 0f19 7d3d ce59 8cbd b8e6 8c3d 9a75 d3bc
00000230: 1a05 f8bc b7e4 d83d b5da d5bd 7e24 a43c
00000240: de97 d6bd de74 373e 2613 8bbc f023 433d
00000250: 8475 60bc 0cce 8b3e 76c4 903e 9b53 65bd
00000260: 5811 42be 582c 0e3e d6fc 2b3d faf4 633e
00000270: 032d 9bbd 51de 6f3d 53cc 7ebe b568 4b3c
00000280: 2c2b 66bd 56fb a93e 65bc 39be 228d 223d
00000290: fb2a 0c3d 284d ccbe 2427 b53d 9b31 1b3d
000002a0: 0a68 7c3c ab11 26be 3859 48bd abd6 c4bc
000002b0: 3d83 723d 1e35 8fbd 17fa 09bf 82a0 8abd
000002c0: 9a81 1b3e dc3d 83bc ae8e 14bd a9eb 94bd
000002d0: 91ff 59be 990d f4bc ee67 27be 931f 06bb
000002e0: 75e5 b8bd ef97 37be 9bff 1c3e 60d9 0c3e
000002f0: b642 d63d c84c 8dbd fc8a a93c f3e6 76bd
00000300: b8bf a53d 6859 50be 6e32 85be 84bc 7bbc
00000310: 3c42 233d 0808 fbbd 8ae7 803d 8d24 42be
00000320: 763c cebe 86a6 51be d4bd a8bd 2c3b 973d
00000330: 9020 b73c 4708 eb3d 40f8 61be cf58 b5be
00000340: 23f4 27bd a39d d83d 2db1 263d 814b b53c
00000350: 31e5 4a3e c824 06be 0757 253e 44e6 57be
00000360: a10f e33c 9db7 dabd 0ff3 eabd d124 7bbe
00000370: 3ea4 8e3e efe0 d33c a2b6 a13d 8949 593a
00000380: b69c ffbe 5908 1abe 096a 883e d8f3 40be
00000390: e4bb 95be 6d16 80bd cd39 053b 121d d5be
000003a0: 2130 7ebe ce90 043d e650 a4be 1fe4 4ebe
000003b0: e474 fcbe df15 f5bd 5d37 65be a82a 62be
000003c0: bb4d 913b 3ecc 75be fef0 d3be e2c5 0ebd
000003d0: 80f8 543d 3bcd 6abd f574 883d 087c 9fbd
000003e0: e964 40be ecdb f6be c749 d9bd 7958 953e
000003f0: 14b1 16bd c243 973e f8dc 27be e057 09bf

fc2.bias f4 [64]
-0.0481056 0.0050210888 0.10926596 0.00984539 0.106362075 -0.1596603 -0.18610878 -0.049878146
0.17382593 0.3906357 0.018270742 0.09920413 0.2657894 -0.079024106 -0.0783467 0.15935452
0.22092511 -0.07013545 -0.041975763 0.14934094 0.17140119 0.3390367 -0.07562899 -0.020970432
-0.056641575 -0.10553059 0.023577284 0.0050427923 -0.027051263 0.07404465 -0.006292074 0.12515794
-0.12816702 -0.003999534 0.08331515 -0.028685194 -0.18854831 -0.13343829 0.23202422 0.048242826
-0.11302617 0.44205046 0.20163459 -0.028346684 0.122778215 -0.165112 0.25651202 -0.16819057
0.018092094 -0.06372213 -0.14670931 0.26589876 -0.011079784 -0.028731888 0.27204666 -0.15653597
-0.16468884 -0.18723772 -0.07095938 -0.025413964 -0.012286998 0.24586105 0.11917094 -0.11296119
00000000: 610a 45bd f287 a43b d5c6 df3d 8f4e 213c
00000010: 5cd4 d93d fd7d 23be 4d93 3ebe 074d 4cbd
00000020: 6dff 313e 6701 c83e 86ac 953c 892b cb3d
00000030: 8c15 883e 64d7 a1bd 3c74 a0bd d52d 233e
00000040: 313a 623e 2da3 8fbd c7ee 2bbd d5ec 183e
00000050: cb83 2f3e 3896 ad3e 5fe3 9abd 2fca abbc
00000060: ff00 68bd 6c20 d8bd 2625 c13c 023e a53b
00000070: 9c9a ddbc b9a4 973d be2d cebb 6729 003e
00000080: 373e 03be 860e 83bb 22a1 aa3d 36fd eabc
00000090: cf12 41be 0ca4 08be c297 6d3e 459a 453d
000000a0: 447a e7bd 7054 e23e 4c79 4e3e 4e37 e8bc
000000b0: 2573 fb3d 1f13 29be 8b55 833e 263a 2cbe
000000c0: df35 943c c080 82bd f73a 16be e223 883e
000000d0: fb87 35bc 235f ebbc b349 8b3e f74a 20be
000000e0: 31a4 28be 3fbb 3fbe 2753 91bd f230 d0bc
000000f0: 684f 49bc 00c3 7b3e e50f f43d 3258 e7bd

fc3.weight f4 [4, 64]
0.46012902 0.17107292 0.08962538 0.22742285 0.33340675 -0.19935611 -0.09879926 -0.2567744
0.11259659 0.1284199 0.012095706 0.082965866 0.085827686 -0.103012666 -0.01725221 0.13272725
0.2826908 -0.32690042 -0.08345107 0.1383819 0.24932702 0.1801332 0.36504805 -0.0015787263
0.20396167 -0.07147986 -0.33646995 0.059998408 0.2657474 0.061501104 -0.08825521 0.15372227
-0.15598264 0.054902505 0.121841505 -0.1709104 -0.15040097 -0.3439245 0.19290067 0.05142493
0.10119734 0.12890929 0.29311794 0.2999483 0.050638895 0.016791912 0.17402433 -0.24077363
-0.38624927 0.22549658 -0.14529298 0.18500942 0.24358067 -0.40609595 0.120898865 -0.0011912013
-0.24643357 -0.114165 0.38357523 0.100646235 0.09098162 0.16384909 0.30214316 0.11753311
0.5199833 0.11500252 0.12306148 0.004622425 0.24291751 -0.21169834 -0.101354524 -0.15678354
0.059567455 0.11216087 0.24868912 0.13288112 0.057898667 -0.08253277 -0.02367469 0.22633485
0.18697464 -0.13331433 -0.03721002 0.13212536 0.18265808 0.17633536 0.44845563 0.0551884
0.19627324 -0.071942925 0.22133929 0.031632084 0.24280548 0.074222244 -0.018056497 0.15946727
-0.25314978 -0.299608 0.14449126 0.082186386 -0.13380371 -0.12378071 0.21873762 -0.058785208
0.21723928 0.16226539 0.25712943 0.3529592 0.133348 -0.20492396 0.14946447 -0.32363787
-0.28673315 0.295074 -0.030059522 0.1394809 0.18787566 -0.1334998 0.15386738 0.087886326
-0.10187359 -0.26199624 0.4902104 0.060185164 0.027331859 0.08082422 0.32514086 0.07560438
0.40170193 0.20745173 0.11120395 0.34467 0.50636363 -0.20273978 -0.14535573 -0.017161025
0.1391087 0.13164908 0.08878705 0.65288925 0.21620174 -0.25433135 -0.07422688 0.31575313
0.18330018 -0.5063666 0.3585275 0.035223592 0.18777376 0.25672114 0.071119346 0.12554874
0.47841543 -0.048211996 -0.08980517 -0.116223186 0.03641499 0.35455912 0.20918189 0.011816968
-0.2226245 -0.48103353 0.10950074 0.51562506 0.062379923 -0.29336584 0.13158354 0.10037706
0.2893567 0.1672627 0.22000863 0.31722718 0.10938818 -0.15406518 0.1611989 -0.1558011
0.1998335 0.33357096 -0.27539766 0.20385092 -0.067816794 -0.04908819 0.12037942 0.35312277
-0.34045973 -0.012133407 -0.38855204 -0.24882358 -0.057803065 0.18010893 0.22308782 -0.29631928
0.09344821 0.18863845 0.060961235 -0.34311166 0.15735568 -0.15966508 -0.23152061 -0.044243105
0.15378071 0.1744408 0.34126845 -0.09341384 0.13643035 0.02590579 0.050748024 0.12338081
0.276657 0.017029613 0.030435603 0.18591477 0.27657768 0.20703945 0.633149 0.19270174
0.22761169 -0.083623506 -0.014789629 0.41741452 0.4100734 -0.082703725 -0.06828264 0.11269538
-0.14731917 0.22002132 0.027951816 0.209192 -0.49537778 0.17844702 0.21907887 -0.046261262
0.054800577 0.2017584 0.2427746 0.124870315 0.2723537 -0.066896796 0.123169966 -0.3117764
-0.021415269 0.15857732 0.29351312 0.2076737 -0.072493084 -0.074263126 0.11708312 0.5943453
-0.06062213 -0.19864358 -0.123279035 -0.28887743 -0.2568768 0.09470589 0.24836603 -0.26656136
00000000: 0896 eb3e bd2d 2f3e 838d b73d 89e1 683e
00000010: 4ab4 aa3e 0224 4cbe 4457 cabd ef77 83be
00000020: 0a99 e63d 8280 033e 112d 463c 02ea a93d
00000030: 6dc6 af3d 4ef8 d2bd 8254 8dbc a7e9 073e
00000040: d9bc 903e 7e5f a7be 65e8 aabd fcb3 0d3e
00000050: 954f 7f3e d674 383e 94e7 ba3e 44ed ceba
00000060: 54db 503e 0864 92bd ca45 acbe e4c0 753d
00000070: 0b10 883e 95e8 7b3d 26bf b4bd 5f69 1d3e
00000080: eab9 1fbe 73e1 603d 0a88 f93d 2303 2fbe
00000090: b602 1abe df16 b0be c187 453e f3a2 523d
000000a0: 8d40 cf3d cc00 043e 8e13 963e d392 993e
000000b0: bb6a 4f3d 318f 893c 6f33 323e 5d8d 76be
000000c0: 77c2 c5be 93e8 663e afc7 14be 1c73 3d3e
000000d0: 366d 793e cfeb cfbe d399 f73d 1522 9cba
000000e0: 1559 7cbe 57cf e9bd f963 c43e 9d1f ce3d
000000f0: 9254 ba3d 0ec8 273e 82b2 9a3e 33b5 f03d
00000100: a01d 053f 7186 eb3d a807 fc3d b677 973b
00000110: 5ebf 783e 73c7 58be f692 cfbd dd8b 20be
00000120: 01fd 733d 99b4 e53d 5ca8 7e3e fd11 083e
00000130: 2727 6d3d f106 a9bd 6cf1 c1bc 53c4 673e
00000140: 4876 3f3e 8d83 08be 8969 18bd df4b 073e
00000150: b80a 3b3e 4291 343e fa9b e53e 3b0d 623d
00000160: dafb 483e d056 93bd c4a6 623e a590 013d
00000170: 00a2 783e d501 983d 38eb 93bc 634b 233e
00000180: d99c 81be 3866 99be 84f5 133e 5651 a83d
00000190: d703 09be be80 fdbd c1fc 5f3e c2c8 70bd
000001a0: f973 5e3e e628 263e 78a6 833e 11b7 b43e
000001b0: 618c 083e 96d7 51be 370d 193e ddb3 a5be
000001c0: b0ce 92be f013 973e 633f f6bc 15d4 0e3e
000001d0: 7a62 403e 2cb4 08be 698f 1d3e bffd b33d
000001e0: 1aa3 d0bd 5f24 86be dcfc fa3e b884 763d
000001f0: 10e7 df3c 2b87 a53d dd78 a63e 78d6 9a3d
00000200: e0ab cd3e 3a6e 543e e6be e33d 9678 b03e
00000210: 0ca1 013f 049b 4fbe 22d8 14be 4795 8cbc
00000220: 8372 0e3e 04cf 063e fcd5 b53d c023 273f
00000230: fd63 5d3e b837 82be 4304 98bd 65aa a13e
00000240: 0bb3 3b3e 3ea1 01bf eb90 b73e 9d46 103d
00000250: c447 403e f470 833e 05a7 913d d98f 003e
00000260: def2 f43e f179 45bd c6eb b7bd 6c06 eebd
00000270: e227 153d c688 b53e c733 563e f59b 413c
00000280: adf7 63be 074a f6be ed41 e03d 0100 043f
00000290: 1782 7f3d 0c34 96be d6bd 063e 7d92 cd3d
000002a0: 9026 943e ea46 2b3e f149 613e 9a6b a23e
000002b0: e906 e03d 43c3 1dbe 5311 253e 538a 1fbe
000002c0: 27a1 4c3e d0c9 aa3e ec00 8dbe 4cbe 503e
000002d0: 88e3 8abd b310 49bd 7c89 f63d 82cc b43e
000002e0: bd50 aebe 33cb 46bc 4bf0 c6be 9ccb 7ebe
000002f0: e8c2 6cbd 7a6e 383e 2271 643e 29b7 97be
00000300: c661 bf3d 702a 413e 7db2 793d 55ac afbe
00000310: d921 213e 3e7f 23be bd13 6dbe 4238 35bd
00000320: b178 1d3e 9ca0 323e bdba ae3e c14f bfbd
00000330: 66b4 0b3e 6138 d43c 29dd 4f3d 14af fc3d
00000340: fca5 8d3e b081 8b3c 1654 f93c 7160 3e3e
00000350: 979b 8d3e 2602 543e 0e16 223f 9b53 453e
00000360: 0a13 693e cd42 abbd 3350 72bc 5bb7 d53e
00000370: 24f5 d13e 9260 a9bd c5d7 8bbd d6cc e63d
00000380: d6da 16be 454d 613e 35fb e43c 6d36 563e
00000390: 28a2 fdbe d1ba 363e 3656 603e 737c 3dbd
000003a0: 9276 603d c199 4e3e e899 783e 02bc ff3d
000003b0: f271 8b3e 3001 89bd 8940 fc3d 28a1 9fbe
000003c0: 136f afbc 1862 223e 5a47 963e 6aa8 543e
000003d0: 4177 94bd 4417 98bd 46c9 ef3d 0327 183f
000003e0: e94e 78bd 3969 4bbe b879 fcbd bee7 93be
000003f0: 5b85 83be 29f5 c13d aa53 7e3e bb7a 88be

fc3.bias f4 [4]
0.2982113 0.21507901 0.15892945 0.1333393
00000000: 27af 983e ac3d 5c3e 67be 223e 198a 083e
