Navigation - Value based methods/checkpoint/checkpoint_dqn_8.pth (torch_old, 54445 bytes, 6 tensors)

fc1.weight f4 [128, 37]
-0.059199616 0.016184235 0.086306795 -0.031858347 -0.10514677 0.11457039 -0.024838815 0.1651632
0.08897957 0.26533002 0.24269551 -0.2309279 -0.10532025 -0.26339388 -1.0016998 -0.030205565
0.103630416 0.050585844 -0.0536957 -0.05955727 0.10347605 0.17682858 -0.04831839 0.075424805
-0.29355395 -0.04561464 0.15715267 0.058792695 -0.0827672 0.040114116 -0.40216815 0.27846068
0.09025227 0.054618303 0.26282442 -0.07572453 -0.013235617 -0.06067348 0.08464485 0.27817887
-0.055319414 0.026171807 -0.19115502 0.057348434 -0.23330864 -0.05831393 -0.26030198 0.015158941
-0.06375537 0.066118754 0.15500902 0.12721469 0.16353644 0.10521602 -0.045304816 -0.2380624
-0.6090406 -0.32335418 0.004915839 -0.06898842 0.038847435 -0.058107786 -0.10758974 0.24023615
0.0999877 -0.4404139 -0.17194335 -0.31990996 0.2183318 0.22966625 0.15429507 -0.47717574
-0.09863129 -0.008490433 0.3255736 0.05325601 -0.11651671 -0.16202734 -0.54301953 -0.49728993
-0.11012237 0.2012206 0.18947414 -0.19018573 0.22771724 -0.18671805 -0.047472347 -0.08994072
0.18646446 -0.11498678 -0.076607786 0.21240541 0.029388875 -0.36517286 -0.08551439 -0.10570034
0.16279458 -0.21427205 -0.3514008 -0.052772883 0.19548844 0.13965063 -0.44426987 0.115177944
-0.112359785 -0.049830105 -0.060004942 -0.27028614 -0.15844397 -0.0075615696 -0.018126784 0.4218016
-0.47237155 -0.43673185 -0.09551183 -2.1142204 -0.020607563 -0.018060846 0.06868088 0.12935416
0.08787893 -0.07485839 0.042367678 0.013128786 -0.0006645293 0.0008813713 -0.102049194 0.03768678
-0.024930958 0.006632815 0.1526306 -0.015564939 -0.010130535 0.034741588 0.028512646 -0.0062684896
-0.049025916 0.07188833 0.08005672 0.20748502 0.162046 0.054663695 0.048237417 0.06889582
0.043185346 -0.058287058 -0.0023528954 0.0008369687 -0.14017862 -0.035712868 -0.17697789 -0.20539854
-0.3495144 0.044780254 0.11240126 -0.12687486 -0.06066345 -0.13636874 -0.10759283 0.019704176
-0.17761007 0.047826275 -0.11272041 -0.41022158 -0.019069208 0.13107212 -0.0549748 -0.43356407
-0.56372243 -0.0528528 0.3064097 -0.1620811 0.08740864 -0.0886692 -0.094631635 0.31556454
-0.41614237 -0.38831803 0.27649626 -0.17501134 -0.17459759 -0.136512 0.030136298 0.19256671
0.019509148 -0.037301853 -0.26548848 -0.19835837 0.076774865 -0.34547082 0.023010941 -0.15820578
-0.098553255 -0.06471141 -1.1095489 -0.4882887 0.17801237 -0.23661345 -0.15552953 -0.004428669
-0.055689752 -0.43635902 0.001489193 -0.16175936 -0.72823566 -0.12574784 -0.17889494 0.22496744
-0.34368205 -0.100921415 -0.03383424 0.16263326 -0.08878439 -0.04974257 -0.12498608 0.16090453
-0.5462582 -0.16990729 -0.29594645 -0.63278323 0.36365423 0.09721487 -0.016424445 -0.11602762
-0.024666304 0.15306132 -0.016932456 -0.13931479 0.038401294 0.008476141 -0.0647916 0.024631262
-0.18970905 0.24083082 0.14227521 -0.17860617 -0.16646901 -0.3645187 -0.24918035 0.26057738
0.15560304 -0.3032605 -0.024169335 0.043696947 0.120524965 -0.48855904 0.038630236 -0.12203496
-0.06323706 -0.013376353 0.05728643 0.15390861 -0.021657217 0.08671766 0.08810517 -0.33639008
00000000: 4c7b 72bd cd94 843c 9ec1 b03d e67d 02bd
00000010: 3157 d7bd e1a3 ea3d c57a cbbc 8b20 293e
00000020: ec3a b63d 56d9 873e 2c85 783e 5d78 6cbe
00000030: 25b2 d7bd 90db 86be b337 80bf a971 f7bc
00000040: 2f3c d43d 1a33 4f3d 06f0 5bbd 53f2 73bd
00000050: 40eb d33d 8d12 353e 81e9 45bd 5278 9a3d
00000060: b44c 96be 6bd6 3abd a1ec 203e 9cd0 703d
00000070: da81 a9bd b34e 243d fce8 cdbe 6692 8e3e
00000080: 2fd6 b83d 71b7 5f3d ec90 863e 7615 9bbd
00000090: 34da 58bc c184 78bd 475a ad3d 766d 8e3e
000000a0: 9c96 62bd 4266 d63c 24be 43be 31e6 6a3d
000000b0: 76e8 6ebe 96da 6ebd 4d46 85be 355d 783c
000000c0: 2d92 82bd 4569 873d afba 1e3e 9144 023e
000000d0: 1976 273e 7f7b d73d 8b91 39bd a1c6 73be
000000e0: 16ea 1bbf ae8e a5be 0c15 a13b cd49 8dbd
000000f0: 7d1e 1f3d 6e02 6ebd 0258 dcbd 7700 763e
00000100: 5ac6 cc3d ee7d e1be eb11 30be 3dcb a3be
00000110: 5f92 5f3e a12d 6b3e 87ff 1d3e 6150 f4be
00000120: 34ff c9bd 751b 0bbc 95b1 a63e f922 5a3d
00000130: 50a0 eebd 7fea 25be 5403 0bbf c99c febe
00000140: d687 e1bd c60c 4e3e 8205 423e 0cc0 42be
00000150: b52e 693e 0433 3fbe 5d72 42bd d732 b8bd
00000160: 8af0 3e3e 307e ebbd 8be4 9cbd ce80 593e
00000170: f0c0 f03c f0f7 babe 2b22 afbd 6b79 d8bd
00000180: 9fb3 263e 226a 5bbe ceea b3be 6128 58bd
00000190: 1f2e 483e 9300 0f3e 5777 e3be 6ae2 eb3d
000001a0: e31c e6bd a71a 4cbd bec7 75bd f262 8abe
000001b0: 233f 22be 0bc7 f7bb 9f7e 94bc 61f6 d73e
000001c0: afda f1be 519b dfbe b59b c3bd 634f 07c0
000001d0: 31d1 a8bc 57f4 93bc 90a8 8c3d 6b75 043e
000001e0: def9 b33d 5b4f 99bd bb89 2d3d 1f1a 573c
000001f0: ce33 2eba d40b 673a 2bff d0bd 745d 1a3d
00000200: 023c ccbc 1658 d93b 324b 1c3e 1604 7fbc
00000210: 8bfa 25bc 324d 0e3d 5a93 e93c e767 cdbb
00000220: 66cf 48bd 303a 933d c7f4 a33d f476 543e
00000230: 63ef 253e 0ae7 5f3d 9994 453d 4019 8d3d
00000240: 1ee3 303d 69be 6ebd 0933 1abb 0568 5b3a
00000250: fc8a 0fbe a847 12bd b139 35be ff53 52be
00000260: 8df3 b2be 806b 373d a232 e63d 7ceb 01be
00000270: 3d7a 78bd 3fa4 0bbe a159 dcbd a76a a13c
00000280: 6adf 35be 7ce5 433d f5d9 e6bd 9008 d2be
00000290: 0737 9cbc c537 063e 422d 61bd 1cfc ddbe
000002a0: 1d50 10bf 2d7c 58bd bbe1 9c3e 96f8 25be
000002b0: 4d03 b33d 3398 b5bd 3bce c1bd ad91 a13e
000002c0: 9d10 d5be 9fd1 c6be eb90 8d3e 2c36 33be
000002d0: b6c9 32be cdc9 0bbe 66e0 f63c 3530 453e
000002e0: a6d1 9f3c d4c9 18bd 1bee 87be 751e 4bbe
000002f0: 243c 9d3d 8de1 b0be 7181 bc3c b200 22be
00000300: 4ad6 c9bd 6a87 84bd b305 8ebf fa00 fabe
00000310: e048 363e cc4a 72be 2243 1fbe 5e1e 91bb
00000320: f01a 64bd 736a dfbe 0631 c33a 3fa4 25be
00000330: a76d 3abf 0bc4 00be 3c30 37be dd5d 663e
00000340: 18f7 afbe e3af cebd c695 0abd 5589 263e
00000350: 97d4 b5bd ddbe 4bbd b4f8 ffbd 28c4 243e
00000360: 94d7 0bbf 2dfc 2dbe 4b86 97be 15fe 21bf
00000370: e330 ba3e 9718 c73d 8f8c 86bc e49f edbd
00000380: fd10 cabc 1bbc 1c3e efb5 8abc 89a8 0ebe
00000390: ad4a 1d3d 83df 0a3c 75b1 84bd 80c7 c93c
000003a0: 1743 42be 5b9c 763e 98b0 113e 89e4 36be
000003b0: da76 2abe 32a2 babe 2229 7fbe 666a 853e
000003c0: 6756 1f3e f644 9bbe c5fe c5bc 92fb 323d
000003d0: cbd5 f63d 6924 fabe bd3a 1e3d 77ed f9bd
000003e0: 6f82 81bd 7e28 5bbc 2da5 6a3d 389a 1d3e
000003f0: 7a6a b1bc 0799 b13d 7c70 b43d 523b acbe

fc1.bias f4 [128]
0.03918965 0.076952875 -0.06591822 -0.021918155 -0.030915856 -0.16016082 0.10088032 0.080279216
-0.2058982 0.13391064 -0.16792049 -0.04560156 -0.06711311 -0.068710476 -0.034416962 -0.036914572
0.058110304 0.013394934 -0.026317904 -0.06160627 -0.011765667 0.07368876 0.1182918 -0.110403776
0.06454241 0.17111719 0.20316406 -0.025772888 -0.03865137 -0.15378317 0.16310517 0.077201925
-0.04236264 0.0062984247 0.03918412 -0.122818224 0.0025209852 0.11270579 -0.08727746 0.01087483
-0.020087779 0.08979387 0.11177896 0.046118975 0.008906097 -0.06446369 0.105862655 -0.11561552
-0.048312735 0.039961915 -0.0054938314 -0.088374846 0.09055119 0.030555496 -0.020562835 0.017359667
-0.108417794 -0.10378739 0.0734005 -0.09118715 -0.10817259 0.059710454 0.059654374 -0.018203892
0.21436025 0.020824268 0.073327675 -0.05357881 -0.26438367 -0.114117354 -0.016839588 -0.05810504
0.05151953 -0.12136095 -0.057015274 -0.027008602 0.15360478 -0.1177436 0.07016621 -0.011522793
-0.018495562 0.07894105 0.039704118 -0.10810268 0.023810325 0.18586482 0.08975666 -0.14320847
-0.03272398 0.12189921 0.0869563 -0.05015906 -0.12471827 -0.095581874 -0.059554752 0.09070494
0.04497171 -0.18379442 -0.04241864 0.070548154 -0.13064528 -0.18968128 0.13054852 0.14475454
-0.2767694 -0.25708118 -0.12030291 0.120980635 -0.14263736 -0.028401343 0.10260059 -0.09074068
-0.12924047 -0.09174246 0.038121875 0.1130415 0.20566286 0.26326227 0.112406634 0.030272616
-0.0027331016 -0.0009558502 -0.12684453 -0.18039685 0.0066386913 0.08789556 0.084365964 0.035641532
00000000: 5485 203d 7899 9d3d 2200 87bd b48d b3bc
00000010: 4043 fdbc 3301 24be 579a ce3d 6e69 a43d
00000020: fad6 52be df1f 093e 59f3 2bbe b4c8 3abd
00000030: 9972 89bd 14b8 8cbd cdf8 0cbd bc33 17bd
00000040: 1205 6e3d 6d76 5b3c a598 d7bc db56 7cbd
00000050: c9c4 40bc 22ea 963d f942 f23d 601b e2bd
00000060: d02e 843d 5839 2f3e 3d0a 503e aa21 d3bc
00000070: e650 1ebd 5679 1dbe 0b05 273e 0b1c 9e3d
00000080: 7384 2dbd 0463 ce3b 877f 203d 1f88 fbbd
00000090: 1d37 253b 4bd2 e63d 86be b2bd 582c 323c
000000a0: 208f a4bc d9e5 b73d 5eec e43d 40e7 3c3d
000000b0: e1ea 113c 8a05 84bd 85ce d83d d4c7 ecbd
000000c0: 93e3 45bd 1baf 233d 9905 b4bb dffd b4bd
000000d0: e772 b93d 854f fa3c 6473 a8bc dc35 8e3c
000000e0: 260a debd 7c8e d4bd 0053 963d 54c0 babd
000000f0: 9789 ddbd f392 743d 2558 743d 5420 95bc
00000100: 4181 5b3e a897 aa3c d22c 963d 7475 5bbd
00000110: 4c5d 87be 5cb6 e9bd 2df3 89bc 8dff 6dbd
00000120: 2506 533d 178c f8bd d988 69bd 2541 ddbc
00000130: 924a 1d3e 8e23 f1bd 4db3 8f3d 19ca 3cbc
00000140: 0184 97bc d8ab a13d c9a0 223d f064 ddbd
00000150: df0d c33c 5953 3e3e 57d2 b73d 3ea5 12be
00000160: 9409 06bd 4ba6 f93d 2516 b23d 9673 4dbd
00000170: 4b6c ffbd 6ec0 c3bd afef 73bd 83c3 b93d
00000180: 4134 383d 9b34 3cbe 2bbf 2dbd 8d7b 903d
00000190: e0c7 05be cf3b 42be 83ae 053e 893a 143e
000001a0: b8b4 8dbe 25a0 83be 5f61 f6bd b2c4 f73d
000001b0: 870f 12be efa9 e8bc 4220 d23d 40d6 b9bd
000001c0: 9d57 04be 79e3 bbbd af25 1c3d 4d82 e73d
000001d0: 4999 523e 50ca 863e 7335 e63d 47fe f73c
000001e0: d61d 33bb 0592 7aba 88e3 01be f4b9 38be
000001f0: 6189 d93b 9602 b43d 10c8 ac3d dbfc 113d

fc2.weight f4 [64, 128]
-0.41504183 -0.5662736 -0.48534337 0.18449616 0.14519541 -0.014370315 -0.46706918 0.17780873
-0.0091699865 0.023762377 0.041733682 0.21011049 -0.392043 -0.3139214 -0.009695094 0.16857666
-0.149965 -0.46023723 -0.08124182 -0.082048014 -0.35794148 -0.18372038 -0.092891686 0.11540411
-0.04499669 0.15034333 -0.11268057 0.050799094 0.05021801 -0.22275822 -0.22130695 -0.29505667
0.11173896 -0.21454705 -0.58337015 0.2287913 0.00423722 -0.1135278 0.0467152 -0.1541601
0.036065225 -0.0034531564 -0.24889201 0.36694288 0.01939014 -0.17772776 0.1835993 -0.015505019
0.10843873 -0.013414209 -0.30224368 0.136487 0.07979023 0.081876814 -0.16880855 0.0054118317
0.15404154 0.0049368218 0.08528158 -0.21554631 0.12025357 -0.03232986 -0.012587517 0.056507822
0.35985526 0.11817529 -0.07383988 -0.30799225 -0.059682008 -0.1680381 -0.38850477 -0.050570097
-0.010991645 0.02453526 -0.022245005 0.14701329 0.06615525 -0.16562162 -0.08737957 0.2546073
-0.12401411 0.10035495 0.03577293 -0.18272108 -0.053559165 -0.36958164 0.029326675 -0.07919058
0.42216063 0.08890085 -0.30969542 -0.34501848 0.16445617 -0.24901658 0.15570387 -0.36455446
0.12445014 -0.078333385 -0.18811534 0.01692443 0.08276565 -0.15452369 -0.041915387 -0.066618994
0.071027964 0.072155476 -0.46444553 -0.30904168 -0.06757785 -0.5750421 0.10932221 -0.22624224
-0.49403608 0.39415008 -0.33895406 0.003899988 0.107673466 0.054987155 -0.09997839 -0.24122642
0.044504374 -0.31197575 -0.13470139 -0.34265298 0.053075347 -0.35609418 -0.03327337 -0.22185959
0.019364271 -0.12096449 -0.331427 0.38661873 0.020471418 -0.4315725 0.041233417 -0.42387185
-0.122828536 -0.09533666 0.08323485 -0.05195418 -0.05361379 -0.23143505 -0.048108026 -0.017714042
0.056983866 0.010569013 0.0025159102 0.07870569 -0.15408045 -0.110651076 0.25461024 0.050885852
-0.112893604 0.05617636 -0.037754893 -0.32873967 0.13254549 -0.1594545 0.064168714 -0.20263664
0.02554568 -0.0859876 0.09152115 0.26096943 0.0060349233 0.11423711 0.66133314 0.22986676
-0.262215 0.05557453 0.08748971 0.1761319 -0.10563421 -0.1604913 0.08746921 -0.045204017
-0.36492953 -0.18528406 0.06953471 -0.14899679 0.24734916 0.10054633 -0.24818374 -0.07387932
-0.0022940042 -0.10944933 -0.07963333 -0.2214539 -0.12629808 -0.042843748 0.04589706 -0.0225085
0.040549707 -0.04915678 0.11473125 0.03886239 -0.047608525 0.07402458 0.08369232 0.106575064
-0.022523256 -0.13233598 0.08801056 0.19747108 -0.10793752 0.013741758 -0.18314332 0.12086044
-0.102265276 0.035893098 -0.071848385 0.18888791 0.051987946 0.00062338926 0.08509187 -0.074122086
0.13971849 0.012171162 -0.31398234 -0.1273243 0.045474317 -0.06291527 -0.042882264 -0.34077233
-0.015830252 -0.39703515 -0.09035135 0.11283773 0.18765406 0.081590235 0.06919016 0.019211618
0.25536677 0.04771077 -0.19235536 -0.016595487 -0.034166213 -0.11648177 0.0859385 -0.032638878
-0.15535203 -0.025748655 -0.018132113 -0.032814946 -0.09568174 -0.0068377783 0.017915864 -0.49595714
-0.07478363 0.06688093 -0.034784105 0.1908128 0.05782163 -0.38498038 0.2691502 -0.018057153
00000000: 5d80 d4be 4ff7 10bf ed7e f8be 90ec 3c3e
00000010: 1bae 143e 7871 6bbc b123 efbe 7e13 363e
00000020: b63d 16bc 51a9 c23c f0f0 2a3d 3427 573e
00000030: dcb9 c8be 4eba a0be 2cd8 1ebc 5c9f 2c3e
00000040: 6d90 19be 37a4 ebbe 1c62 a6bd ca08 a8bd
00000050: 1b44 b7be 3221 3cbe ff3d bebd fd58 ec3d
00000060: 734e 38bd 9af3 193e 12c5 e6bd b612 503d
00000070: 66b1 4d3d bb1a 64be 4a9e 62be ab11 97be
00000080: 65d7 e43d 39b2 5bbe bf57 15bf 4448 6a3e
00000090: 61d8 8a3b 4381 e8bd 7058 3f3d 25dc 1dbe
000000a0: 21b9 133d 5a4e 62bb 8cdd 7ebe f0df bb3e
000000b0: 12d8 9e3c 44fe 35be 7401 3c3e c308 7ebc
000000c0: 2015 de3d 45c7 5bbc afbf 9abe 40c3 0b3e
000000d0: 0f69 a33d 08af a73d 26dc 2cbe bc55 b13b
000000e0: 11bd 1d3e 10c5 a13b 1ca8 ae3d 2cb8 5cbe
000000f0: 8147 f63d 516c 04bd df3b 4ebc bf74 673d
00000100: f33e b83e e305 f23d 5d39 97bd 29b1 9dbe
00000110: 1f75 74bd 2e12 2cbe 19ea c6be 9722 4fbd
00000120: 4d16 34bc 2bfe c83c 283b b6bc a78a 163e
00000130: 677c 873d b798 29be 0ff4 b2bd e35b 823e
00000140: 1cfb fdbd e586 cd3d a386 123d 3c1b 3bbe
00000150: db60 5bbd ce39 bdbe 7f3e f03c ac2e a2bd
00000160: 7025 d83e a611 b63d 6690 9ebe 43a6 b0be
00000170: 3367 283e 34fe 7ebe d670 1f3e e2a6 babe
00000180: b7df fe3d 416d a0bd 4fa1 40be 1aa5 8a3c
00000190: 0981 a93d 753b 1ebe 78af 2bbd 8a6f 88bd
000001a0: 1c77 913d 40c6 933d cecb edbe b63a 9ebe
000001b0: 4166 8abd f635 13bf 53e4 df3d 0cac 67be
000001c0: 4cf2 fcbe 0ace c93e 638b adbe f196 7f3b
000001d0: e883 dc3d 363a 613d 78c1 ccbd 0f04 77be
000001e0: 384a 363d 49bb 9fbe 29ef 09be 3670 afbe
000001f0: 8965 593d fa51 b6be a849 08bd 292f 63be
00000200: d2a1 9e3c 3bbc f7bd cdb0 a9be e4f2 c53e
00000210: adb3 a73c 12f7 dcbe 5fe4 283d bb05 d9be
00000220: 878d fbbd de3f c3bd 0877 aa3d e8cd 54bd
00000230: 229a 5bbd 4ffd 6cbe ec0c 45bd 0a1d 91bc
00000240: ea67 693d a729 2d3c f8e1 243b 7330 a13d
00000250: 44c7 1dbe 089d e2bd 465c 823e af6d 503d
00000260: c334 e7bd 2f19 663d e0a4 1abd 9150 a8be
00000270: 01ba 073e 0a48 23be e36a 833d fb7f 4fbe
00000280: 2d45 d13c 441a b0bd 716f bb3d c99d 853e
00000290: 9bc0 c53b 25f5 e93d 214d 293f 3162 6b3e
000002a0: 0b41 86be 1ea2 633d ce2d b33d ec5b 343e
000002b0: c056 d8bd d557 24be 0f23 b33d d927 39bd
000002c0: 0bd8 babe 1bbb 3dbe 3768 8e3d 9d92 18be
000002d0: 1949 7d3e 3ceb cd3d e123 7ebe 0a4e 97bd
000002e0: 0157 16bb f826 e0bd cd16 a3bd d0c4 62be
000002f0: 4954 01be ed7c 2fbd 8efe 3b3d bf63 b8bc
00000300: 7317 263d 9f58 49bd 38f8 ea3d 2b2e 1f3d
00000310: 2801 43bd 339a 973d e166 ab3d 0744 da3d
00000320: b182 b8bc 1583 07be e13e b43d dc35 4a3e
00000330: 590e ddbd 1c25 613c ec89 3bbe ae85 f73d
00000340: 7570 d1bd a404 133d 3f25 93bd d56b 413e
00000350: 50f1 543d f26a 233a a544 ae3d 52cd 97bd
00000360: 5d12 0f3e 8e69 473c 4bc2 a0be 4d61 02be
00000370: 4743 3a3d b9d9 80bd 50a5 2fbd b679 aebe
00000380: 72ae 81bc 3148 cbbe 210a b9bd 7817 e73d
00000390: 6328 403e c818 a73d 92b3 8d3d af61 9d3c
000003a0: 6fbf 823e 5e6c 433d cef8 44be 42f3 87bc
000003b0: dff1 0bbd ff8d eebd 8600 b03d 58b0 05bd
000003c0: 9a14 1fbe d8ee d2bc cc89 94bc f768 06bd
000003d0: caf4 c3bd 710f e0bb 4ac4 923c 18ee fdbe
000003e0: 2928 99bd def8 883d c779 0ebd 6e64 433e
000003f0: 60d6 6c3d 261c c5be 0ece 893e 98ec 93bc

fc2.bias f4 [64]
-0.05533126 -0.106876135 0.2715902 -0.045373116 0.05011275 -0.10409344 0.06810747 0.07977002
-0.02217629 -0.14782465 -0.0008535378 -0.0225909 -0.08327396 -0.058607377 -0.06537461 0.04484431
0.009503239 -0.049769044 -0.11814828 -0.041629262 -0.06690373 0.050160002 -0.07722099 -0.051991545
-0.038519777 0.050930936 0.37985486 0.004485247 -0.02274136 -0.07650851 0.030819317 0.27466208
-0.13777621 0.036416907 0.04098317 -0.105767824 -0.021550555 -0.0002525334 0.009431964 0.10292418
-0.06447005 -0.03634107 -0.0057076467 -0.010416558 0.30544218 0.026937297 0.03221899 -0.2128912
0.09822783 -0.04938955 -0.04734784 -0.07210094 -0.1558015 0.30199632 0.09188695 0.2651217
-0.013018465 0.24340333 0.095353186 0.10053895 -0.044087518 -0.11740727 -0.10134505 -0.112369195
00000000: 08a3 62bd e0e1 dabd df0d 8b3e 29d9 39bd
00000010: 0743 4d3d f12e d5bd ee7b 8b3d 775e a33d
00000020: 0dab b5bc 585f 17be f4bf 5fba 8d10 b9bc
00000030: 8a8b aabd 4a0e 70bd 20e3 85bd abae 373d
00000040: 79b3 1b3c a0da 4bbd baf7 f1bd 7283 2abd
00000050: d304 89bd 9374 4d3d 0a26 9ebd 16f5 54bd
00000060: eac6 1dbd f59c 503d 567c c23e fbf8 923b
00000070: 174c babc 7eb0 9cbd cb78 fc3c 82a0 8c3e
00000080: 3515 0dbe e529 153d f8dd 273d cd9c d8bd
00000090: ca8a b0bc 7666 84b9 8688 1a3c eac9 d23d
000000a0: e008 84bd 60da 14bd 3607 bbbb 36aa 2abc
000000b0: eb62 9c3e 9bab dc3c 0ff8 033d 2700 5abe
000000c0: ac2b c93d b24c 4abd cfef 41bd a8a9 93bd
000000d0: 6e8a 1fbe 439f 9a3e 3a2f bc3d 08be 873e
000000e0: 664b 55bc b93e 793e 8848 c33d 5de7 cd3d
000000f0: 1d95 34bd 3973 f0bd fe8d cfbd d221 e6bd

fc3.weight f4 [4, 64]
0.16624582 -0.25089115 0.13154821 0.2997728 0.20785527 -0.17141205 0.23718861 0.3608727
0.12652609 -0.11039302 0.3631849 0.11956276 -0.06589726 0.037002176 0.26725912 0.47881362
-0.39237872 -0.041867003 -0.023115544 0.37515566 -0.024785785 0.2680078 -0.007904775 0.13330416
-0.40887716 0.50966674 0.20470452 0.2856522 0.14100793 -0.71059066 -0.038464542 0.16007392
0.08525059 0.07059079 0.20991923 0.043019664 -0.06984686 0.035090234 -0.7063482 0.15640475
0.16473168 -0.0929324 0.02369431 0.15469804 0.042408943 0.037314173 0.34137475 -0.18525848
0.078444906 0.17194922 0.43448973 -0.0016517261 -0.25222033 0.11949922 0.07189929 0.10561665
-0.58501965 0.071607836 0.20147415 0.12836204 -0.4638528 0.1261674 0.21063171 -0.06732309
0.15656911 0.085992515 0.044437286 0.5083335 0.2468586 -0.15837209 0.105168104 0.35934335
-0.008429441 -0.10072789 0.5694134 0.12049659 0.07766153 0.13294293 0.40495607 0.37607
-0.21108674 -0.5423046 0.006077966 0.6878716 -0.53280354 0.30048642 -0.47745603 -0.13982297
-0.10161784 0.35415214 0.17573814 0.29837477 0.23097254 -0.38562915 -0.6485225 0.105460264
-0.27644274 -0.016202452 0.1694652 -0.08417917 -0.48402104 -0.3176133 0.22370365 0.094593264
-0.59658426 -0.11009342 -0.4837259 0.3168012 0.1450494 -0.06267529 0.32349765 -0.14741668
0.112410545 0.09236901 0.36377883 0.06560875 -0.21679279 0.14617418 0.12828095 0.08982456
-0.14227411 0.07556957 0.2623461 0.054204788 0.039681684 0.31674156 0.20100486 0.031807624
-0.4913801 -0.1670348 0.07656692 0.1704234 0.20023474 0.16233617 -0.05554907 0.49795154
0.23475003 0.058621015 0.61191684 0.17653562 -0.4476387 0.1437187 0.05818292 0.30503067
-0.75734895 -0.382535 0.06394146 -0.14223534 -0.2549834 0.12199829 -0.30261913 -0.30262938
-0.23011094 0.29466343 0.1371077 -0.37480965 -0.042697303 -0.083777316 0.69356483 0.024726618
-0.68945926 0.5109835 0.40693468 -0.006071186 -0.011007556 0.0949852 0.05774828 0.27514717
0.35724285 -0.03730848 -0.64448935 0.52884704 0.105186746 0.11836542 0.18923834 -0.39205393
0.13594575 0.23025814 0.37805954 0.25959098 -0.32343903 0.17183872 -0.055601668 0.14769185
-0.6802695 0.1285243 0.44655466 -0.13305041 -0.03806673 -0.6481824 0.40420333 0.27614552
0.112070955 -0.23144525 0.12289706 0.46050018 0.37082586 -0.031879004 -0.065543085 0.18394949
-0.5061712 -0.49700087 -0.17417845 0.17648141 0.16612528 0.2970591 0.59764606 0.3185455
-0.08680795 -0.08840407 -0.15103027 0.52503955 0.12787147 0.21925682 -0.34803462 0.32928848
-0.16240178 0.44507548 0.16263202 0.40558922 0.38986397 0.10700862 0.04196118 0.128261
-0.57312477 0.7855302 0.26314878 -0.20824564 -0.2537143 -0.39378324 0.2892994 0.09540851
0.11565749 -0.20027047 -0.04855949 -0.06825427 0.15972573 -0.2325573 0.19760083 -0.16714272
-0.036179345 0.17857775 0.5126779 0.40591234 0.035541855 0.033205476 0.04951677 0.12180119
-0.3085746 0.09630185 0.12704901 -0.04260937 0.14390503 0.33381012 -0.2501377 0.36358917
00000000: 583c 2a3e ce74 80be 93b4 063e d27b 993e
00000010: 03d8 543e a486 2fbe 92e1 723e 4ec4 b83e
00000020: 0e90 013e bc15 e2bd 5ff3 b93e 52dd f43d
00000030: 25f5 86bd 988f 173d 30d6 883e 0f27 f53e
00000040: dde5 c8be bc7c 2bbd cf5c bdbc 6714 c03e
00000050: 8f0b cbbc 5238 893e 0883 01bc e380 083e
00000060: 5958 d1be 8579 023f 109e 513e 0141 923e
00000070: 6264 103e 45e9 35bf ff8c 1dbd 6bea 233e
00000080: dd97 ae3d e791 903d 11f5 563e 6335 303d
00000090: df0b 8fbd c7ba 0f3d 3cd3 34bf 9128 203e
000000a0: 6caf 283e 5853 bebd 921a c23c 2a69 1e3e
000000b0: 00b5 2d3d bfd6 183d acc8 ae3e 66b4 3dbe
000000c0: b9a7 a03d 7513 303e 7075 de3e bb7e d8ba
000000d0: 0623 81be 02bc f43d ef3f 933d 8b4d d83d
000000e0: d9c3 15bf 21a7 923d 3d4f 4e3e 5771 033e
000000f0: 1d7e edbe 0732 013e d7af 573e b0e0 89bd
00000100: a753 203e d81c b03d df03 363d 2522 023f
00000110: 80c8 7c3e 4b2c 22be 6062 d73d dafb b73e
00000120: a31b 0abc 6d4a cebd 14c5 113f ebc6 f63d
00000130: 020d 9f3d 3122 083e 6756 cf3e 3f8c c03e
00000140: 1f27 58be 79d4 0abf ad29 c73b 5a18 303f
00000150: d065 08bf 5bd9 993e 1e75 f4be c12d 0fbe
00000160: 041d d0bd 6e53 b53e b3f4 333e 94c4 983e
00000170: 1184 6c3e 2f71 c5be 9205 26bf 8dfb d73d
00000180: e789 8dbe 01bb 84bc 4988 2d3e 2166 acbd
00000190: 9bd1 f7be 369e a2be 9212 653e 1dba c13d
000001a0: bfb9 18bf a978 e1bd ecaa f7be c433 a23e
000001b0: d487 143e e75b 80bd 7ca1 a53e 66f4 16be
000001c0: 8037 e63d f72b bd3d 3841 ba3e e15d 863d
000001d0: eefe 5dbe afae 153e 155c 033e f0f5 b73d
000001e0: 4eb0 11be 38c4 9a3d 3a52 863e d705 5e3d
000001f0: 4389 223d f32b a23e 38d4 4d3e b648 023d
00000200: 2c96 fbbe 2c0b 2bbe 1ecf 9c3d 7983 2e3e
00000210: 560a 4d3e 743b 263e 6c87 63bd 81f3 fe3e
00000220: 5062 703e 971c 703d 95a6 1c3f c1c5 343e
00000230: e630 e5be ff2a 133e 3751 6e3d fb2c 9c3e
00000240: 9fe1 41bf a1db c3be bdf3 823d 24a6 11be
00000250: 2f8d 82be 3dda f93d e5f0 9abe 3df2 9abe
00000260: 34a2 6bbe 20de 963e f665 0c3e 0de7 bfbe
00000270: 5ee3 2ebd 7193 abbd 778d 313f 7a8f ca3c
00000280: 6780 30bf d1cf 023f be59 d03e cdf0 c6bb
00000290: 0959 34bc 9a87 c23d 7689 6c3d 17e0 8c3e
000002a0: 89e8 b63e c7d0 18bd 41fd 24bf 8562 073f
000002b0: 266c d73d 9269 f23d b2c7 413e 4bbb c8be
000002c0: 5d35 0b3e cac8 6b3e 0591 c13e 1ce9 843e
000002d0: cd99 a5be 7df6 2f3e 93be 63bd 883c 173e
000002e0: 2426 2ebf e09b 033e d0a2 e43e 5e3e 08be
000002f0: dceb 1bbd 48ef 25bf bdf3 ce3e f262 8d3e
00000300: 7585 e53d fcff 6cbe 74b1 fb3d aec6 eb3e
00000310: e3dc bd3e 8f93 02bd 743b 86bd 415d 3c3e
00000320: 7094 01bf e676 febe d65b 32be 8bb7 343e
00000330: bf1c 2a3e 2118 983e 55ff 183f 6518 a33e
00000340: 5ec8 b1bd 310d b5bd aea7 1abe fe68 063f
00000350: bdf0 023e dc84 603e 9831 b2be 8098 a83e
00000360: a74c 26be efe0 e33e 0289 263e 64a9 cf3e
00000370: 409c c73e 5627 db3d 7cdf 2b3d da56 033e
00000380: 4eb8 12bf 8218 493f 70bb 863e 583e 55be
00000390: d7e6 81be f59d c9be 0d1f 943e 8965 c33d
000003a0: d6dd ec3d b413 4dbe 51e6 46bd e5c8 8bbd
000003b0: 248f 233e 8023 6ebe df57 4a3e 7627 2bbe
000003c0: cb30 14bd 16dd 363e dc3e 033f bed3 cf3e
000003d0: 5694 113d 7702 083d 19d2 4a3d e772 f93d
000003e0: 7dfd 9dbe e839 c53d 2319 023e 2a87 2ebd
000003f0: d75b 133e 29e9 aa3e 0c12 80be 5c28 ba3e

fc3.bias f4 [4]
0.16840963 0.1651636 0.24826159 0.20886339
00000000: 9373 2c3e a620 293e 4938 7e3e 49e0 553e
