Navigation - Value based methods/checkpoint/checkpoint_ddqn_er_11.pth (torch_old, 54445 bytes, 6 tensors)

fc1.weight f4 [128, 37]
0.085483916 0.032704994 -0.064594015 -0.17995329 -0.19658375 0.010081242 -0.01566382 0.32791486
-0.003797622 0.16350596 0.11511163 -0.018452102 -0.22767141 -0.2644358 -0.0929381 0.028989252
0.1299486 0.047683533 0.026537461 -0.16657884 0.19352315 0.03328422 0.009839829 0.14197537
-0.32575667 0.1723998 0.16246332 -0.0998815 -0.37335438 -0.023612045 -0.037421856 0.18448518
0.0021525507 -0.118268766 -0.14765534 -0.2020643 -0.026279533 0.24585348 0.0068935873 0.094258256
-0.07318346 -0.2993682 0.0823627 -0.31543046 -0.018396428 -0.1640211 -0.025613835 0.046058446
-0.01988223 -0.011907765 0.17183541 0.13681905 0.1952188 -0.092300214 0.054153826 -0.16406088
-0.43586934 -0.11331236 -0.018593239 -0.12359726 0.03992347 0.12691787 -0.05596294 0.10188403
0.043588676 -0.12276117 -0.029273562 -0.032257855 0.088338025 0.20168981 -0.034370687 0.062389087
0.012437178 0.023248328 0.12994164 0.14357151 -0.0042522997 0.08334886 0.07454153 -0.44703975
-0.03009071 0.2628385 0.14146225 -0.06075655 0.01522003 -0.07649071 0.021186676 -0.014206805
-0.05087401 -9.221339e-05 0.01695999 0.13448785 -0.02067443 0.18242715 -0.25667524 -0.004487996
0.08624431 0.08794883 -0.19046575 -0.11465768 0.239188 0.11364659 -0.14717641 0.12238007
-0.16846634 -0.013013111 -0.15110031 0.009995663 0.025557585 -0.034125134 -0.038903236 0.22672231
-0.20456432 0.10008315 0.061723035 -0.8899325 0.012065019 -0.048271775 0.09276443 0.062339216
-0.04027508 -0.022192826 -0.012760584 0.024442263 0.020365465 -0.12471593 0.0014587019 0.043615118
-0.06988852 -0.3270996 -0.1309265 0.017551007 0.0084070545 -0.0021410622 0.08647543 -0.042777386
-0.087938614 0.038813394 0.09360323 0.18657297 0.27869374 0.09554047 0.18492426 0.009609722
-0.046300992 -0.26396272 -0.014156048 -0.0039618253 -0.13579066 -0.11838193 -0.12189871 -0.15034308
-0.059717216 -0.033044413 0.25867414 -0.13644585 0.11894615 0.103112996 -0.009211227 -0.07834397
-0.026853055 -0.044174924 -0.09365804 -0.013482524 -0.179036 -0.099382795 -0.027661901 -0.07847418
-0.09077429 0.013462468 0.120095804 -0.16511121 0.21840218 0.06010245 -0.24121206 0.01803641
0.17857745 0.41321835 0.026466306 -0.15601176 0.06245248 0.25888234 0.46383163 0.08755252
0.062247053 -0.038852125 -0.04819415 0.07035107 -0.08088476 0.08451137 0.14320262 0.18064344
-0.031396672 0.013616156 -0.6611523 -0.14129591 0.09217969 -0.011970778 -0.12059166 -0.114260085
-0.0013794053 0.054891627 -0.050473634 -0.14618656 -0.03738631 0.12392324 0.030238604 0.12941958
-0.012335804 -0.07257167 -0.12002763 0.048833217 0.17055129 0.077793 0.03940382 0.25361386
-0.44291067 -0.3598934 -0.1557166 -1.4620005 0.0028673399 0.077172495 0.09250858 0.041656584
-0.34525257 0.036647458 -0.5304421 -0.039877422 -0.13967589 -0.15781762 0.16414182 0.17870961
0.11256935 0.009500303 0.010394356 -0.051710933 0.17054771 -0.096852496 -0.13169126 0.033216618
-0.050354443 0.039093737 -0.006725649 -0.097784735 0.0047035506 -0.1894327 0.26951352 -0.33093715
-0.14856279 0.022151846 0.15721732 0.03815606 0.024802364 -0.10774018 0.05089394 -0.09514086
00000000: 3112 af3d acf5 053d de49 84bd ad45 38be
00000010: 404d 49be cb2b 253c 6951 80bc 75e4 a73e
00000020: 86e1 78bb 1b6e 273e a5bf eb3d dd28 97bc
00000030: b222 69be 2164 87be 5556 bebd de7a ed3c
00000040: 3f11 053e cf4f 433d 1765 d93c a593 2abe
00000050: ef2a 463e 0955 083d 3c37 213c fe61 113e
00000060: 94c9 a6be 9389 303e c95c 263e ac8e ccbd
00000070: 4e28 bfbe 0c6e c1bc a947 19bd afe9 3c3e
00000080: cf11 0d3b e536 f2bd f632 17be f2e9 4ebe
00000090: 2d48 d7bc 04c1 7b3e 9ae3 e13b 790a c13d
000000a0: 36e1 95bd ca46 99be c6ad a83d 1a80 a1be
000000b0: 1bb4 96bc 26f5 27be 1bd4 d1bc c8a7 3c3d
000000c0: 0fe0 a2bc c918 43bc 9ff5 2f3e 4b1a 0c3e
000000d0: 70e7 473e e507 bdbd 67d0 5d3d 93ff 27be
000000e0: 442a dfbe 5010 e8bd d950 98bc 8f20 fdbd
000000f0: cb86 233d c2f6 013e 6539 65bd 93a8 d03d
00000100: 0a8a 323d 356a fbbd 1ccf efbc d020 04bd
00000110: 91ea b43d c687 4e3e 47c8 0cbd b38b 7f3d
00000120: 4ec5 4b3c 4773 be3c 6c0f 053e 6904 133e
00000130: e056 8bbb cfb2 aa3d 3ba9 983d 65e2 e4be
00000140: cb80 f6bc c592 863e 7bdb 103e dcdb 78bd
00000150: 6f5d 793c 29a7 9cbd ae8f ad3c a9c3 68bc
00000160: 4461 50bd b062 c1b8 adef 8a3c 2fb7 093e
00000170: 6c5d a9bc 2fce 3a3e f06a 83be 0a10 93bb
00000180: dba0 b03d 841e b43d 7409 43be a5d1 eabd
00000190: b3ed 743e 8bbf e83d 6ab5 16be 67a2 fa3d
000001a0: 7182 2cbe f234 55bc 0aba 1abe d9c4 233c
000001b0: 245e d13c ccc6 0bbd 0059 1fbd e529 683e
000001c0: 4f79 51be 65f8 cc3d 4bd1 7c3d 9ed2 63bf
000001d0: 5cac 453c a0b8 45bd 47fb bd3d 6857 7f3d
000001e0: 7bf7 24bd bbcd b5bc c511 51bc 243b c83c
000001f0: 7ad5 a63c 116b ffbd ea31 bf3a c4a5 323d
00000200: b621 8fbd 9979 a7be 9911 06be 21c7 8f3c
00000210: bebd 093c 1051 0cbb 081a b13d 5737 2fbd
00000220: 2919 b4bd cbfa 1e3d 0db3 bf3d fc0c 3f3e
00000230: f2b0 8e3e b9aa c33d c95c 3d3e 1872 1d3c
00000240: 1ca6 3dbd 1f26 87be c5ee 67bc 33d2 81bb
00000250: b50c 0bbe 3a72 f2bd 08a6 f9bd 89f3 19be
00000260: 0a9a 74bd 9459 07bd f070 843e 76b8 0bbe
00000270: 0a9a f33d e82c d33d b0ea 16bc ce72 a0bd
00000280: f0fa dbbc c4f0 34bd c9cf bfbd cee5 5cbc
00000290: 3755 37be 3589 cbbd 369b e2bc 12b7 a0bd
000002a0: dfe7 b9bd af91 5c3c caf4 f53d ea12 29be
000002b0: d2a4 5f3e fd2d 763d 4b00 77be 18c1 933c
000002c0: 02dd 363e 5b91 d33e decf d83c 8cc1 1fbe
000002d0: 2cce 7f3d 3a8c 843e 577b ed3e bc4e b33d
000002e0: c4f6 7e3d 6823 1fbd 3b67 45bd 3914 903d
000002f0: e9a6 a5bd 4c14 ad3d b5a3 123e 98fa 383e
00000300: cc99 00bd 4c16 5f3c 4741 29bf e0af 10be
00000310: b5c8 bc3d 1521 44bc c3f8 f6bd 3101 eabd
00000320: 29cd b4ba 0bd6 603d 71bd 4ebd eeb1 15be
00000330: 6322 19bd 78cb fd3d f3b6 f73c 9186 043e
00000340: 1d1c 4abc 75a0 94bd 0cd1 f5bd 5705 483d
00000350: ffa4 2e3e f051 9f3d e665 213d add9 813e
00000360: 30c5 e2be f343 b8be 2c74 1fbe d522 bbbf
00000370: fbe9 3b3b 9d0c 9e3d 2375 bd3d 18a0 2a3d
00000380: f2c4 b0be a51b 163d 0ecb 07bf 8256 23bd
00000390: 3207 0fbe f19a 21be cb14 283e a7ff 363e
000003a0: c28a e63d 29a7 1b3c 174d 2a3c d8ce 53bd
000003b0: 0fa4 2e3e 9a5a c6bd 13da 06be 260e 083d
000003c0: 7640 4ebd c120 203d d562 dcbb 5d43 c8bd
000003d0: 3e20 9a3b a5fa 41be adfd 893e 9870 a9be
000003e0: d820 18be ca77 b53c 94fd 203e 8749 1c3d
000003f0: 542e cb3c e2a6 dcbd 2a76 503d 36d9 c2bd

fc1.bias f4 [128]
0.042230897 0.06657365 -0.062425964 -0.032144062 -0.028773317 -0.065808505 0.03753706 0.08980731
-0.19052505 0.088877544 -0.118163444 -0.006907322 -0.06597263 -0.01966708 -0.06230061 0.022237742
0.041310985 -0.03654597 0.027698103 0.00065366906 -0.11696932 0.094452724 0.13580775 -0.01005991
0.019806098 0.12813887 0.14989884 -0.15656666 0.0009568269 -0.04942627 0.11820257 0.07879581
-0.14643456 0.023539506 0.018774016 -0.16181763 0.10163444 0.039645925 -0.020831319 0.020876687
-0.03956963 0.10222308 0.1494114 0.015820341 0.039123327 -0.10778231 0.071856596 -0.11099896
-0.103853576 0.051211275 0.033709355 0.051220525 0.024971899 0.0681383 0.06840335 0.056498397
-0.08429828 -0.02137141 -0.024058938 -0.08892088 -0.07382436 0.0108037125 0.043084618 -0.04988165
0.115741156 0.0842671 0.099061 -0.08914111 -0.15275915 -0.10542298 -0.0072763716 -0.10464367
0.098885365 -0.1473589 -0.107010715 -0.022986695 0.19176945 -0.0069497125 0.13093618 0.016055051
-0.018846387 0.09449649 0.117548384 -0.16417554 -0.059696954 0.045557946 0.0965951 -0.078405604
0.045674227 0.036642335 0.053722896 -0.020954018 -0.12734748 -0.2032175 -0.05426358 0.12485323
0.031195631 -0.19186325 -0.05738632 0.07506151 -0.10644413 -0.09215013 0.06341348 0.15974888
-0.24156885 -0.21370697 -0.052573938 0.1892615 -0.12232651 0.031554863 0.09929362 -0.07026177
-0.06752895 -0.11124423 -0.019062713 0.19640338 0.05946192 0.16913263 0.037098426 -0.038440704
0.014819388 0.05843675 -0.060388945 -0.21139728 -0.042604193 0.00036953803 0.16916564 0.030666206
00000000: 4efa 2c3d c457 883d 5eb2 7fbd 7ea9 03bd
00000010: 05b6 ebbc 9cc6 86bd 76c0 193d e5ec b73d
00000020: 0019 43be 6e05 b63d adff f1bd d156 e2bb
00000030: a91c 87bd db1c a1bc ed2e 7fbd ed2b b63c
00000040: b535 293d 3ab1 15bd 22e7 e23c fd5a 2b3a
00000050: 9c8d efbd 6e70 c13d 3011 0b3e 52d2 24bc
00000060: 6640 a23c d636 033e 157f 193e 0353 20be
00000070: 91d3 7a3a 3373 4abd 3014 f23d b35f a13d
00000080: f1f2 15be ecd5 c03c f7cb 993c 85b3 25be
00000090: b825 d03d c463 223d 71a6 aabc 9605 ab3c
000000a0: c413 22bd 565a d13d 4dff 183e a999 813c
000000b0: c83f 203d f9bc dcbd 8d29 933d 6c53 e3bd
000000c0: 2fb1 d4bd eac2 513d d212 0a3d 9dcc 513d
000000d0: de91 cc3c 188c 8b3d 0e17 8c3d dd6a 673d
000000e0: 94a4 acbd 1813 afbc 4017 c5bc 261c b6bd
000000f0: 3a31 97bd 0e02 313c 7f79 303d b350 4cbd
00000100: b309 ed3d 3b94 ac3d 7ee0 ca3d 9d8f b6bd
00000110: e56c 1cbe 01e8 d7bd a16e eebb 6c4f d6bd
00000120: 6984 ca3d 40e5 16be 6f28 dbbd 984e bcbc
00000130: 365f 443e 6aba e3bb 2214 063e e285 833c
00000140: bd63 9abc 6087 c13d 35bd f03d a21d 28be
00000150: cb84 74bd f89a 3a3d a7d3 c53d 1e93 a0bd
00000160: e614 3b3d 4616 163d 8a0c 5c3d c3a7 abbc
00000170: 6167 02be 4018 50be 7d43 5ebd 0db3 ff3d
00000180: fb8d ff3c cd77 44be eb0d 6bbd d9b9 993d
00000190: 61ff d9bd 35b9 bcbd edde 813d 3695 233e
000001a0: d35d 77be 00d6 5abe c557 57bd c4cd 413e
000001b0: 5286 fabd ac3f 013d 745a cb3d 67e5 8fbd
000001c0: 9e4c 8abd 04d4 e3bd 6829 9cbc f81d 493e
000001d0: 588e 733d 1b31 2d3e 85f4 173d 0074 1dbd
000001e0: 05cd 723c 605b 6f3d 665a 77bd 8778 58be
000001f0: bc81 2ebd 8ebe c139 c239 2d3e b237 fb3c

fc2.weight f4 [64, 128]
-0.1387765 0.020010956 -0.04574627 0.012709494 0.060949076 0.02321435 0.017556708 0.0589347
0.099851266 0.01521398 -0.02858824 0.38382 0.2317349 -0.11267388 -0.06108555 -0.020625934
-0.04004828 0.067893535 -0.04150319 -0.034374088 0.09036516 0.13685021 0.021032885 0.07704554
0.035813596 0.033051994 -0.010708559 -0.027567353 0.13672628 0.28525504 -0.1957766 -0.022234142
0.055910334 -0.19316061 -0.03829607 -0.11914152 0.10704026 0.0011538379 -0.23463622 -0.14419113
-0.051556 -0.041976366 -0.05112853 -0.06249735 0.062007032 0.013955138 -0.1930902 -0.10593757
0.11789815 -0.12547301 -0.17803448 0.070298485 -0.04519524 -0.28140926 -0.11654703 -0.020796873
0.041764542 -0.12324674 -0.009492987 0.005184871 -0.023171566 0.08276993 -0.015219615 -0.16816388
-0.04878737 -0.053348955 -0.013567509 -0.06465264 0.121277645 -0.09326144 0.016595062 -0.07472605
-0.050535828 -0.04114562 -0.13223541 -0.06888614 -0.11961049 -0.07436934 0.004377106 0.13818328
-0.025766945 0.041131105 0.09023886 -0.026723873 0.0011232401 0.038283587 0.09339361 -0.05925412
-0.5110555 0.061850477 -0.1736009 -0.025110614 -0.10088815 -0.09056577 0.21964428 0.07628914
0.13229801 0.061918806 -0.099919744 0.033400614 -0.17560877 -0.11010861 -0.21484183 0.02326574
0.007154087 -0.013080158 0.12631306 -0.08203529 0.0034030501 0.046199817 -0.0626673 -0.0057467516
-0.0031391522 0.007978019 -0.13325523 0.11714928 0.13194029 0.08227277 -0.074101575 0.043102663
0.12094345 -0.1299054 0.053804807 0.024916288 -0.08442726 -0.05330412 -0.012932904 -0.04382333
-0.057303082 0.0026701575 -0.05887317 -0.026817456 0.026840292 -0.046927888 -0.029645143 0.003545322
0.1877981 -0.0645596 -0.105459 0.015475887 -0.10492586 -0.08200589 -0.19347535 -0.07534325
-0.039760653 0.041744284 -0.016997999 0.054174315 -0.029158657 -0.025482452 0.012723623 -0.14313757
-0.11243388 0.006483884 0.07422251 0.037258256 0.15921728 0.12567931 0.05255392 0.00975819
0.039973434 -0.06335249 -0.020943873 0.13251758 -0.0030431603 0.08762729 -0.2908026 -0.19947961
-0.039104696 -0.0016239276 0.03692555 0.04255066 -0.07090214 -0.0851946 -0.014804933 0.18146127
-0.042720784 -0.11282366 -0.0067877835 0.07595874 0.08999828 -0.09776298 0.03474868 -0.019232698
-0.0840105 -0.06766544 -0.1710698 0.10341559 -0.12084593 -0.17386152 -0.028440671 -0.046472814
-0.021806657 0.11652255 0.1279525 0.06220025 0.021582805 0.10778357 0.10305317 0.13829893
-0.011400658 -0.1667308 -0.025074538 0.06056165 -0.034353726 -0.034563076 -0.12098219 0.07882552
0.04026891 0.10104016 -0.17718291 -0.10389317 -0.08440258 0.20345515 0.0074068927 0.07097988
0.13228382 0.08045565 0.04481522 -0.12734121 -0.0003016687 -0.13752389 -0.007524671 -0.08457278
-0.06713761 -0.16841768 0.055710368 -0.025696957 -0.040384993 0.09845279 0.14332482 0.15432006
0.0016650228 -0.1122887 -0.009119149 0.017950118 0.032408886 -0.03928304 -0.078888826 -0.03202374
-0.0924701 0.111824326 -0.014563285 -0.18278882 -0.06387775 0.05034915 0.055663776 0.009581096
-0.017265566 -0.060386404 0.0109516485 0.015153222 -0.17212242 -0.051934928 0.14098312 -0.04184147
00000000: 6d1b 0ebe 04ee a33c 7160 3bbd 7b3b 503c
00000010: bda5 793d 052c be3c 16d3 8f3c 8365 713d
00000020: d27e cc3d 0f44 793c e231 eabc 0e84 c43e
00000030: ea4b 6d3e 90c1 e6bd d734 7abd b8f7 a8bc
00000040: aa09 24bd c40b 8b3d 40ff 29bd d8cb 0cbd
00000050: 5e11 b93d 7622 0c3e 284d ac3c 0dca 9d3d
00000060: 47b1 123d 8761 073d f472 2fbc eed4 e1bc
00000070: f901 0c3e f30c 923e a979 48be 6024 b6bc
00000080: 3c02 653d e5cb 45be 57dc 1cbd 7800 f4bd
00000090: ed37 db3d 603c 973a 7a44 70be d7a6 13be
000000a0: 622c 53bd 69ef 2bbd 266c 51bd 39fd 7fbd
000000b0: 16fb 7d3d 17a4 643c 70b9 45be ccf5 d8bd
000000c0: 9674 f13d ff7b 00be ac4e 36be a7f8 8f3d
000000d0: a51e 39bd e014 90be 36b0 eebd 345e aabc
000000e0: 4c11 2b3d c968 fcbd 7988 1bbc dae5 a93b
000000f0: 4cd2 bdbc 4883 a93d b15b 79bc 2733 2cbe
00000100: 44d5 47bd 6f84 5abd 424a 5ebc 9a68 84bd
00000110: 6a60 f83d dbff bebd 5ef2 873c f909 99bd
00000120: a8fe 4ebd 4f88 28bd b868 07be 2d14 8dbd
00000130: 58f6 f4bd f44e 98bd d46d 8f3b eb7f 0d3e
00000140: 3315 d3bc 1779 283d 27cf b83d 06ec dabc
00000150: af39 933a 40cf 1c3d 2645 bf3d 73b4 72bd
00000160: 89d4 02bf ed56 7d3d 6fc4 31be c6b4 cdbc
00000170: 729e cebd 8c7a b9bd 6eea 603e 7b3d 9c3d
00000180: 2179 073e 939e 7d3d b9a2 ccbd 15cf 083d
00000190: c9d2 33be 9f80 e1bd 7fff 5bbe cb97 be3c
000001a0: d56c ea3b 294e 56bc 3658 013e 1e02 a8bd
000001b0: b505 5f3b 053c 3d3d b757 80bd 3f4f bcbb
000001c0: 3cba 4dbb 3db6 023c 0f74 08be f6eb ef3d
000001d0: 5b1b 073e a07e a83d 91c2 97bd 6b8c 303d
000001e0: 33b1 f73d ec05 05be 6e62 5c3d 3e1d cc3c
000001f0: 33e8 acbd 6c55 5abd 88e4 53bc 1880 33bd
00000200: a3b6 6abd cffd 2e3b fe24 71bd 48b0 dbbc
00000210: 2ce0 db3c 7537 40bd 5fda f2bc a258 683b
00000220: 254e 403e d337 84bd e3fa d7bd 938e 7d3c
00000230: 5fe3 d6bd b4f2 a7bd 671e 46be 904d 9abd
00000240: 11dc 22bd 0efc 2a3d 633f 8bbc e3e5 5d3d
00000250: 23de eebc 93c0 d0bc be76 503c a892 12be
00000260: bc43 e6bd c376 d43b f901 983d 1d9c 183d
00000270: db09 233e 14b2 003e c742 573d d1e0 1f3c
00000280: 2fbb 233d f3be 81bd 7c92 abbc b0b2 073e
00000290: c26f 47bb f075 b33d 14e4 94be 6244 4cbe
000002a0: 3f2c 20bd f8d9 d4ba 3f3f 173d 9a49 2e3d
000002b0: 2435 91bd 827a aebd 6490 72bc fcd0 393e
000002c0: fdfb 2ebd 1710 e7bd 0e6c debb 4290 9b3d
000002d0: 0551 b83d f537 c8bd a254 0e3d e48d 9dbc
000002e0: b20d acbd 2e94 8abd ec2c 2fbe 8ecb d33d
000002f0: 127e f7bd c108 32be 69fc e8bc 475a 3ebd
00000300: e0a3 b2bc 60a3 ee3d fb05 033e b0c5 7e3d
00000310: 6cce b03c a2bd dc3d 8a0d d33d 3c9e 0d3e
00000320: d3c9 3abc 7bbb 2abe 1e69 cdbc 7e0f 783d
00000330: 7eb6 0cbd 0392 0dbd 83c5 f7bd 466f a13d
00000340: 03f1 243d 25ee ce3d 706f 35be f1c5 d4bd
00000350: 43db acbd 8c56 503e 85b5 f23b e65d 913d
00000360: 6975 073e efc5 a43d 2a90 373d bc65 02be
00000370: 4a29 9eb9 10d3 0cbe 8491 f6bb 7e34 adbd
00000380: 717f 89bd af75 2cbe 8e30 643d 6d82 d2bc
00000390: bc6a 25bd 9ea1 c93d bec3 123e 1406 1e3e
000003a0: e53c da3a 9ef7 e5bd 7c68 15bc 200c 933c
000003b0: 2ebf 043d 41e7 20bd 7790 a1bd 532b 03bd
000003c0: f760 bdbd 2704 e53d d89a 6ebc fe2c 3bbe
000003d0: 56d2 82bd e93a 4e3d b3ff 633d 07fa 1c3c
000003e0: 8470 8dbc bc57 77bd 8b6e 333c 3845 783c
000003f0: dc40 30be b8b9 54bd e15d 103e f661 2bbd

fc2.bias f4 [64]
0.011074554 -0.050850455 0.071372494 -0.021732302 0.016447086 -0.10392418 -0.012508189 0.049794063
-0.07615652 -0.10162726 -0.027727729 -0.06289043 -0.070645995 -0.06516948 -0.08133657 -0.028937908
-0.02476202 -0.027968492 -0.061886176 -0.076062106 -0.028408177 0.03717079 -0.09577341 -0.01994319
-0.015996613 0.03800261 0.25628883 -0.026072154 0.050119497 -0.035812672 -0.010048439 0.04843107
-0.107643865 0.059450608 0.04037817 -0.064238116 -0.048209667 0.090253666 0.019626286 0.01976747
0.007441993 -0.007433058 -0.0356494 0.014962123 0.1870553 0.0008323112 -0.06868744 -0.10986378
0.01607813 -0.035449136 -0.06969291 -0.058801938 -0.078114726 -0.043939423 0.16754048 -0.00046448552
0.016821802 0.09952622 0.03827324 0.09427809 -0.0027013505 -0.044246726 -0.032693766 -0.09369971
00000000: 0c72 353c 9148 50bd be2b 923d f107 b2bc
00000010: 0abc 863c 33d6 d4bd 26ef 4cbc dcf4 4b3d
00000020: f3f7 9bbd f421 d0bd 4325 e3bc b3cc 80bd
00000030: d9ae 90bd 9477 85bd ca93 a6bd 310f edbc
00000040: b8d9 cabc 2e1e e5bc 5c7c 7dbd 73c6 9bbd
00000050: 44b8 e8bc 6640 183d d924 c4bd e75f a3bc
00000060: 540b 83bc a0a8 1b3d 4a38 833e 4595 d5bc
00000070: 1a4a 4d3d 4fb0 12bd 35a2 24bc a85f 463d
00000080: 6374 dcbd 7b82 733d 9463 253d 468f 83bd
00000090: 8077 45bd ead6 b83d 4ec7 a03c 64ef a13c
000000a0: f6db f33b 0391 f3bb 1b05 12bd b123 753c
000000b0: 6d8b 3f3e 762f 5a3a 00ac 8cbd 4300 e1bd
000000c0: 48b6 833c 1d33 11bd 28bb 8ebd 4dda 70bd
000000d0: 9dfa 9fbd d3f9 33bd bb8f 2b3e 3186 f3b9
000000e0: e0cd 893c 67d4 cb3d 67c4 1c3d df14 c13d
000000f0: 2409 31bb 0e3c 35bd e6e9 05bd a2e5 bfbd

fc3.weight f4 [4, 64]
0.18766607 0.08969422 0.085230246 0.29238355 0.1645652 -0.23738068 0.12048095 -0.1300355
-0.016311834 -0.14542864 0.07618282 0.16403165 -0.05766222 0.18186921 0.29737625 0.16943386
-0.10180454 -0.06171652 -0.3983355 -0.021939183 0.0018332349 0.19149175 -0.06848618 -0.110117905
-0.30644313 -0.47057277 0.16697106 0.4990871 0.042857107 -0.4248935 0.09695538 0.26093647
0.079204455 0.15002379 0.14895722 -0.03697374 0.03282294 0.22610782 -0.086055756 0.11885826
0.27140972 0.061757382 -0.4951874 0.1150135 0.026874602 -0.03652341 0.12239401 -0.048509788
0.100447744 0.09612465 -0.10196489 0.18616663 -0.10048157 0.075200476 0.124829456 0.037967306
-0.034287862 0.096699 0.121078454 0.10440827 -0.5734856 0.115640745 0.083031006 -0.06970789
0.122202165 0.087338895 0.06112093 0.11296522 0.24250276 -0.09315375 0.016920244 -0.2240297
0.0764179 0.23098083 -0.041757166 0.14889778 0.20780684 0.1811633 0.2823444 -0.23644374
-0.08455315 -0.048400898 0.234808 0.13978425 -0.135982 -0.28597754 -0.35986662 -0.052071232
-0.15838555 -0.22918044 0.14071046 0.112969674 0.09038756 0.016567128 -0.34544072 0.12792912
-0.044951234 -0.010208265 0.05943412 -0.11641803 -0.08111655 0.07964501 -0.021477092 0.08580727
0.24223533 -0.23337838 -0.43116552 0.084546916 0.13292107 0.10990021 0.37551233 -0.028755201
0.14552197 -0.019031417 0.037025493 0.11637333 -0.14191821 0.49533468 0.099024884 0.030580604
0.116667256 0.048004813 0.15011846 0.069840826 0.3778474 0.16257289 0.074167795 0.16158314
0.004099109 -0.080660634 0.03244409 0.17653409 0.43132982 0.009715047 -0.12076799 0.20386599
0.01557185 -0.21772718 -0.1473236 0.17003624 -0.2271474 0.14477856 0.0795556 -0.023118218
-0.027557662 -0.037069414 0.10634993 -0.052584086 0.047278743 0.16553532 0.1120395 0.062385414
0.06897623 -0.16205427 0.16472213 0.44597176 -0.018091546 -0.2761347 -0.1582885 0.034206934
-0.21471164 -0.102398165 -0.037260484 -0.36944392 -0.10916868 0.07721456 0.04651029 0.16548924
0.23794743 -0.013401879 -0.27193177 0.036203828 0.09637332 0.2775565 0.08405271 -0.08601272
0.040450983 0.099564716 -0.0045362604 0.18183349 -0.13611165 0.39166442 -0.006677599 0.10497337
0.11719429 0.1515859 0.33771574 0.038639884 0.14757115 0.08324823 0.118245095 -0.063416734
0.1268077 -0.005175702 0.13275625 0.4419382 0.03082402 -0.15665251 -0.13153313 -0.4218443
-0.085416295 -0.23313542 -0.2643298 0.19383918 0.073260695 0.058625605 0.34714994 -0.12476529
0.068456486 0.13780779 -0.3052888 0.36521903 0.112658955 0.34266934 -0.3740208 0.1407467
-0.18668762 -0.18619396 0.12399188 0.14987563 0.08238593 -0.1465222 -0.44340664 0.14828223
-0.39443615 0.003668947 0.15800917 0.08548072 -0.10047049 -0.021155173 -0.06685706 0.06951686
0.18269506 -0.040206045 0.1689171 -0.00040377534 0.1399413 -0.12757133 0.025366057 -0.16447169
-0.003303722 0.09749333 0.10101925 -0.20282575 0.009381966 -0.24238864 0.107303455 0.25090608
0.19553728 0.044858567 0.12394997 -0.032158803 0.06601223 0.18983194 0.0055920808 0.23221889
00000000: 892b 403e 9ab1 b73d 328d ae3d 4cb3 953e
00000010: c883 283e ec13 73be b7be f63d 0728 05be
00000020: 65a0 85bc 3feb 14be bd05 9c3d eaf7 273e
00000030: 382f 6cbd ec3b 3a3e b341 983e 1280 2d3e
00000040: e67e d0bd 76ca 7cbd a1f2 cbbe cdb9 b3bc
00000050: 2849 f03a 6a16 443e 7b42 8cbd 7f85 e1bd
00000060: 1de6 9cbe eaee f0be 76fa 2a3e 5888 ff3e
00000070: ef8a 2f3d a48b d9be 8b90 c63d 7799 853e
00000080: f235 a23d d69f 193e 3e88 183e c771 17bd
00000090: 5971 063d cf88 673e 003e b0bd f66b f33d
000000a0: 37f6 8a3e 4ff5 7c3d 3489 fdbe 338c eb3d
000000b0: 2028 dc3c 9299 15bd b6a9 fa3d 33b2 46bd
000000c0: 8cb7 cd3d 00dd c43d f8d2 d0bd 77a2 3e3e
000000d0: 48c9 cdbd b502 9a3d 96a6 ff3d 9b83 1b3d
000000e0: 6e71 0cbd 200a c63d fbf7 f73d 01d4 d53d
000000f0: f4cf 12bf 0ed5 ec3d 290c aa3d 03c3 8ebd
00000100: 2145 fa3d bcde b23d f159 7a3d 4f5a e73d
00000110: a552 783e 65c7 bebd 539c 8a3c 0b68 65be
00000120: fd80 9c3d 3d86 6c3e 9009 2bbd a978 183e
00000130: 51cb 543e df82 393e 728f 903e 4f1e 72be
00000140: 342a adbd 0540 46bd 8271 703e 9a23 0f3e
00000150: de3e 0bbe a66b 92be 7040 b8be a548 55bd
00000160: d22f 22be 47ae 6abe 6716 103e a55c e73d
00000170: 1d1d b93d c9b7 873c 9bdd b0be daff 023e
00000180: c91e 38bd 9140 27bc 3171 733d 936c eebd
00000190: 6f20 a6bd ec1c a33d baf0 afbc b9bb af3d
000001a0: 8a0c 783e befa 6ebe bac1 dcbe ef26 ad3d
000001b0: 761c 083e 5c13 e13d 2743 c03e 0790 ebbc
000001c0: b603 153e c6e7 9bbc 0ba8 173d 2455 ee3d
000001d0: 0253 11be 829c fd3e 8fcd ca3d 2d84 fa3c
000001e0: 3eef ee3d b2a0 443d a7b8 193e b508 8f3d
000001f0: 3775 c13e 8279 263e 49e5 973d 0d76 253e
00000200: d251 863b 6731 a5bd 18e4 043d 5ac5 343e
00000210: 43d7 dc3e dc2b 1f3c 3555 f7bd 3fc2 503e
00000220: 1321 7f3c e0f3 5ebe ffdb 16be fb1d 2e3e
00000230: 5499 68be d540 143e 0cee a23d 6b62 bdbc
00000240: 9bc0 e1bc 19d6 17bd fecd d93d 6962 57bd
00000250: 5ba7 413d 1782 293e f774 e53d d987 7f3d
00000260: 6943 8d3d 8ef1 25be ebac 283e 6956 e43e
00000270: b934 94bc 8761 8dbe 6116 22be 921c 0c3d
00000280: 5edd 5bbe 21b6 d1bd 739e 18bd c127 bdbe
00000290: d493 dfbd ab22 9e3d 9381 3e3d 0376 293e
000002a0: 7ea8 733e 8e93 5bbc a43a 8bbe 774a 143d
000002b0: 605f c53d e31b 8e3e d423 ac3d 7027 b0bd
000002c0: eeaf 253d 96e8 cb3d e9a4 94bb 8f32 3a3e
000002d0: da60 0bbe 3d88 c83e c3cf dabb 47fc d63d
000002e0: 8f03 f03d 5639 1b3e 14e9 ac3e db44 1e3d
000002f0: e41c 173e 0c7e aa3d 7c2a f23d a2e0 81bd
00000300: e1d9 013e ef98 a9bb 41f1 073e b945 e23e
00000310: a882 fc3c 8469 20be 9fb0 06be fafb d7be
00000320: bdee aebd 0dbb 6ebe 3c56 87be c77d 463e
00000330: b409 963d 6721 703d a3bd b13e f284 ffbd
00000340: ea32 8c3d 7c1d 0d3e d04e 9cbe fdfd ba3e
00000350: bdb9 e63d 5b72 af3e a87f bfbe e71f 103e
00000360: 0a2b 3fbe a1a9 3ebe 74ef fd3d ff78 193e
00000370: f4b9 a83d ea09 16be 3206 e3be 4cd7 173e
00000380: 89f3 c9be b772 703b 28cd 213e 8410 af3d
00000390: 79c3 cdbd 9d4d adbc 5bec 88bd db5e 8e3d
000003a0: 6a14 3b3e 18af 24bd 9bf8 2c3e cfb1 d3b9
000003b0: c64c 0f3e 0fa2 02be 7acc cf3c 446b 28be
000003c0: 4283 58bb 95aa c73d 2ee3 ce3d 8eb1 4fbe
000003d0: d1b6 193c ba34 78be eac1 db3d c376 803e
000003e0: ed3a 483e 9ebd 373d 7bd9 fd3d f3b8 03bd
000003f0: 6c31 873d 4e63 423e c63d b73b caca 6d3e

fc3.bias f4 [4]
0.09212269 0.085031234 0.17199437 0.1254243
00000000: d2aa bc3d db24 ae3d 4b1f 303e 3a6f 003e
