Navigation - Value based methods/checkpoint/checkpoint_ddqn_er_27.pth (torch_old, 54453 bytes, 6 tensors)

fc1.weight f4 [128, 37]
00000000: 2316 523e 133f 41be 23e8 0dbe 12c9 59be
00000010: 7a58 d3bd 8707 febe 7b2b 5c3d 5ea9 013d
00000020: 3b84 a03e 6b8b e3bc 068b bcbe 7a7e 223d
00000030: 1f84 2ebe 3580 86bd 89ac cebe 1282 e7bd
00000040: 7199 7cbd bf53 ef3c e300 3d3e 4e5a aabe
00000050: b3ce 1cbf 132e ae3e 75a7 0dbe f19a 9a3d
00000060: 93e3 eebe a026 68be 8eac 993d f6b6 bb3d
00000070: e102 453e cc20 823d e0f3 32bf 34de 353e
00000080: a119 19be 84ff 673e bb24 15bf db12 c03c
00000090: 500f 6d3c a90d 623e 25a6 5d3d 6f81 c43d
000000a0: f2f7 bdbd 7d7f f9bd 48a1 ac3d 55aa 74bd
000000b0: 3a3a 6dbe 4393 87be 1709 0ebf 028c 6e3d
000000c0: 28d2 03be 5768 893c a09b 1f3e 7c77 413e
000000d0: be2f 293e 61c5 843a 2481 403d f383 17bd
000000e0: a92a cb3e 8c1a 77be a1ed 96bd c217 50bc
000000f0: c593 c33b ab94 ed3d 62d7 92be aec0 1e3e
00000100: 665a 403e 7bcf 10be f0e0 ca3e f621 19be
00000110: b9f1 433e a995 823d 09b8 9a3d 1a3a c73d
00000120: 4d18 653c 6944 e53b 8512 e03d 04c0 8a3e
00000130: 2af8 cbbc ddcc 90be 5546 563e 290c 3bbd
00000140: 2fe9 cfbe ab3d 7e3e c98e eb3d 4c9e 0cbf
00000150: 181e 8abd ae90 f7bd 2eaa 6e3e bdb7 f5be
00000160: 57c9 a03e 6298 9abd 5149 74bc 967d 403e
00000170: 2561 8e3d db8a e83d e941 47be b376 9bbe
00000180: fe7c 083e d41e a23d cc73 c13d eadc ac3e
00000190: 05b2 633e 5a4c d5bd 111a 8fbe bc5b f9bd
000001a0: c916 8abd f648 8e3d f2a6 dbbe 480c 293c
000001b0: 9cfb 693d 7124 383d a926 28bd 81c7 893e
000001c0: 65e8 68be 6346 7f3e 8dde ef3d 0147 03bf
000001d0: 4535 c33d 1e6e 143e 4835 e7bd 6426 cf3d
000001e0: 2e46 69bd 7cfa 0c3d 036f bf3c 041a 2c3e
000001f0: a8ee 0fbd 97e6 b1bd 0a25 e33d 43ce 1ebe
00000200: 9ffd 053d 2247 0bbe ce9e 8bbe fc5d 3ebd
00000210: 2746 9cbc afce 403e b8d6 803e 15c3 6abe
00000220: 1714 da3d 3559 80bd 593a a53d 7046 9c3e
00000230: a2f6 263e 03f8 183e 5f8c 8b3e e832 0a3e
00000240: e5c9 d4bd bd3c e6bd 5da3 7cbb c19b c7bc
00000250: c2e8 e3bd 9423 42be 7258 2ebe 0b85 8dbc
00000260: ed86 64be c551 9bbe ac9f b43e e990 8ebd
00000270: 14b4 1e3e 8e4f e6bd c697 143e 7eed e6bd
00000280: 8ac2 8dbd 9b79 83be ca6c bebe c994 69bc
00000290: dae7 31bd 810c 44bc a3d7 4dbe 1bb8 883d
000002a0: b9d8 abbe e24d 5bbe f9b2 ce3e da33 5cbd
000002b0: d134 06be 14a4 bcbd 80f0 2abd 48e7 46bd
000002c0: 17fb 5d3e 80cc 52be c30e 3f3e ef94 04be
000002d0: 9ba5 0bbe 0808 7abe 7c25 bc3e 2821 853d
000002e0: 2d23 a53d 7e6c 6dbd fddc 4bbd a016 d13c
000002f0: 9c87 343e 3c60 fa3d 3e87 c23e 60d2 0abe
00000300: fae7 ccbe c3cb a83d a2b4 c4bf 7509 cebd
00000310: 5398 e13b b657 043c 1b4f dbbc c5dd 8ebd
00000320: 2071 0b3e 15cf c3bd 7133 863d 5bba 3abe
00000330: aac4 19be 6cf2 2b3e dbc2 463e 2019 653c
00000340: 2bdc c3bd b416 8dbb bbda 2e3d 83f5 64bd
00000350: 7244 323e 8ad8 c1bd 4698 293d 2684 4b3e
00000360: 749a b0bd ec75 763b bbde 07be fca3 b7be
00000370: 41bd bbbd 0772 2c3d 2dd9 513d 4cc0 2c3a
00000380: b586 00be d561 0a3e 8e58 9dbe ff5f 01be
00000390: e6fe 3bbe c3ca 533d 182f a43e 8aea 113e
000003a0: 55ee 35be 7dda 963e 8245 193e 8132 7fbd
000003b0: b5f2 d03e 8ada 85be 1afd f63d 16f3 963d
000003c0: 0136 27bd 29f3 963e dd22 ab3c 0ba9 3bbd
000003d0: 15e8 673d 8b7c bebc bcdb 953d ba3b b4bd
000003e0: 3fd9 e6bd cabc 583b ea18 0d3d df36 ecbd
000003f0: 21a3 a83e ffa9 3e3d 1fde d9be 7365 65be
0.20516257 -0.18871717 -0.13858084 -0.21268108 -0.1031961 -0.49615118 0.053752404 0.03165566
0.31350884 -0.02777644 -0.36824816 0.0396714 -0.17042588 -0.06567422 -0.4036601 -0.11304106
-0.06166977 0.029214738 0.1845737 -0.33272022 -0.612529 0.34019527 -0.13833411 0.07549084
-0.46658 -0.22670984 0.07503615 0.091657564 0.1923938 0.06353912 -0.69903374 0.17760545
-0.14951183 0.22656065 -0.5825917 0.023446491 0.014468983 0.22075523 0.054113526 0.09595
-0.092758074 -0.121825196 0.084291995 -0.059732754 -0.23166743 -0.2647954 -0.5548262 0.05823899
-0.12873137 0.016773386 0.1558671 0.18893236 0.16522118 0.0010129624 0.046998158 -0.03699107
0.39680985 -0.2413122 -0.07369543 -0.012700977 0.0059685432 0.11600622 -0.2867995 0.15503189
0.18784484 -0.14141648 0.3962474 -0.14954361 0.19135179 0.06376202 0.07554633 0.09727879
0.013982845 0.0069966805 0.10941032 0.2709962 -0.024898607 -0.28281298 0.20925267 -0.045665894
-0.40607592 0.24828212 0.115018435 -0.5492904 -0.06744021 -0.12088142 0.23307106 -0.47991744
0.3140361 -0.07548596 -0.014910058 0.18797907 0.069521226 0.113546096 -0.19458736 -0.30363998
0.1332893 0.07916036 0.094459146 0.33762294 0.22235878 -0.104149535 -0.27949575 -0.121757
-0.06742627 0.0694751 -0.42900807 0.0103178695 0.05712472 0.04495663 -0.041052494 0.26910022
-0.22744901 0.24929194 0.1171237 -0.5128022 0.09531645 0.14495131 -0.112894595 0.10114744
-0.056951694 0.034418568 0.023368364 0.16806799 -0.03513971 -0.0868656 0.11091049 -0.1550837
0.032712575 -0.13601354 -0.27269596 -0.04647635 -0.01907642 0.18828844 0.25163817 -0.2292598
0.10648363 -0.06267015 0.080677696 0.3052249 0.1630502 0.14938359 0.27255532 0.13495982
-0.10390071 -0.11242054 -0.003854952 -0.024366261 -0.111283794 -0.18958884 -0.17025927 -0.017275354
-0.22317095 -0.30335823 0.3527807 -0.06961233 0.15498382 -0.112456426 0.14511022 -0.11275767
-0.06921871 -0.25678715 -0.37192374 -0.014256665 -0.043434 -0.011965872 -0.2010179 0.0667574
-0.33563784 -0.21416429 0.4037092 -0.053760387 -0.13106085 -0.09210983 -0.041733265 -0.04856041
0.21677814 -0.20585823 0.18657975 -0.12947439 -0.13637392 -0.24417126 0.36747348 0.06500465
0.0806335 -0.057964794 -0.049771298 0.025523484 0.17629856 0.122253865 0.37993807 -0.13556814
-0.40020734 0.082419895 -1.5367625 -0.100603975 0.0068846135 0.008077553 -0.026771119 -0.06975893
0.13617373 -0.09560982 0.065527804 -0.18235151 -0.15016428 0.16791695 0.19410269 0.013983041
-0.09563478 -0.004305685 0.042689066 -0.0558982 0.17408922 -0.0946513 0.041404985 0.1987463
-0.086232096 0.0037606908 -0.13268559 -0.35867298 -0.09166957 0.042100932 0.051232506 0.0006589934
-0.12551387 0.13513882 -0.30731624 -0.12634276 -0.18358955 0.05170704 0.3206718 0.14249626
-0.17766698 0.29463568 0.14967921 -0.062304024 0.4081017 -0.26143295 0.12059994 0.07370584
-0.040822987 0.2948239 0.020890648 -0.04581551 0.056617815 -0.023252746 0.07317302 -0.088004544
-0.11271905 0.0033071511 0.034447588 -0.11533903 0.32936957 0.04654884 -0.42552277 -0.22401981

fc1.bias f4 [128]
00000000: 45cc f2bb 3006 033d 77f5 20be 9f7a 493d
00000010: 9041 b2bc a075 42bd b8d6 be3d 7e82 843d
00000020: c266 90be d090 6b3e 08ed 20be d7ca 9fbd
00000030: dbb7 753d 6672 ac3d ed4e 81bd 322b b43c
00000040: 46af 803d 7a82 71bc 90f1 6cbd 8414 2d3d
00000050: ae96 eb3a 491f 253d 4989 863e 43ba d2bc
00000060: 4859 193e 5342 513e 01f0 a63e 9c78 28be
00000070: 9874 95bc 4a70 36be 0610 143e 31af dd3d
00000080: 2ef4 43be b1dc aabb 0305 333e 9455 b5bd
00000090: ffc2 bfbd a458 803e 5447 8f3d f6dc 783d
000000a0: f942 57bc 5b5a 4d3e 0bbe 3f3e 7ef6 bb3d
000000b0: cb9b 413d d46a 2dbe 6c7e e23d 1989 dcbd
000000c0: b16f 5dbe 60cf 1b3d 09f2 e0bd 8bd2 7a3c
000000d0: f0a9 a13d 05b8 1d3d 1d58 933d 718c a63d
000000e0: 1310 d3bd a11e 963b a946 43bd bfde 3bbd
000000f0: 3cf3 3bbc e73b e93d af58 fe3c 0c69 efbd
00000100: 3592 893d 7c6c dd3c 0b0f 8a3d b8e6 8dbc
00000110: 131d 4cbe 0f92 42bd d734 52bc aee4 943c
00000120: ab3e 193e 528f 03be 4e70 78bd 5c37 97bb
00000130: bb9b 353e 4d3f 88bd dacd 533e a4e1 a63b
00000140: f8db 953d f1d8 8a3e 881a 5b3d a53c 8fbd
00000150: 4d42 103d 2c16 323e 3384 be3d 190b 5dbd
00000160: 57f4 023d 56bb 963d 5836 113e 9e8a debc
00000170: 7641 67bd cee7 25bd dfb4 50bd ae2c fa3d
00000180: bd0d 7abd 795d 0cbe 5bb9 06bd 8101 6a3d
00000190: b79c ecbd bdb8 7ebe 3cd2 2d3e e528 a53d
000001a0: e447 56be abff 56be da54 d8bd aa22 bb3d
000001b0: ee4d bcbd 1f3e dfbc 60d3 273d 2bde 70bd
000001c0: f361 68bd c204 37be 8b79 d1bc 7547 613e
000001d0: 9b8f 383e 4c3e 4d3e 29a3 70bd c9cb 2bbc
000001e0: 05cf 243e f776 aebb e23d bebd 2f1a 6bbe
000001f0: 11ee 7d3b b691 883d 523d ca3d 3ba2 683d
-0.0074096047 0.031988323 -0.15718637 0.049189206 -0.021759778 -0.047475457 0.09318298 0.06470202
-0.28203398 0.2300446 -0.1571542 -0.078023605 0.05998979 0.08420257 -0.06313882 0.021993253
0.06283431 -0.014740581 -0.05784756 0.042255893 0.0017973983 0.04031304 0.26276615 -0.025723582
0.14975464 0.20435457 0.32604983 -0.16452259 -0.018244073 -0.17816272 0.14459237 0.10824431
-0.19136116 -0.0052142967 0.1748238 -0.08854213 -0.093633644 0.25067627 0.06996027 0.0607576
-0.013138526 0.20053999 0.1872484 0.09177874 0.047267716 -0.16935283 0.11059269 -0.10768337
-0.21624638 0.038039565 -0.109836645 0.015308986 0.07893741 0.038505573 0.07194541 0.08132256
-0.103058 0.004581288 -0.04767481 -0.045866724 -0.011471566 0.113883786 0.031048147 -0.11689958
0.0671734 0.027029268 0.067411505 -0.01732193 -0.19932966 -0.047502574 -0.012829981 0.01817545
0.14965312 -0.12847641 -0.060653977 -0.0046147536 0.17735188 -0.06652699 0.20683995 0.0050928164
0.07317346 0.27118638 0.0534921 -0.06993989 0.03521948 0.1739127 0.09302559 -0.05396566
0.031971302 0.0735995 0.14180887 -0.027165707 -0.056458913 -0.04050427 -0.050953742 0.12215553
-0.061048258 -0.13707532 -0.032891612 0.05713034 -0.115533285 -0.2487516 0.1697473 0.08064441
-0.20925862 -0.20995967 -0.10563059 0.09137471 -0.091945514 -0.027251301 0.040973067 -0.058805626
-0.056734037 -0.17872909 -0.025570652 0.21999915 0.18023531 0.20043296 -0.05874935 -0.010485598
0.16094597 -0.0053242403 -0.09289147 -0.22959207 0.0038746635 0.06668417 0.09874977 0.05679534

fc2.weight f4 [64, 128]
00000000: dc3f 24bf 14aa 7abd 216c 01be 64c0 bebc
00000010: ed45 51be 4a64 23bc 0f61 b43d 29b3 823e
00000020: e2fb d63d 110b 3e3e f295 fd3d 901f ecba
00000030: f6b4 1ebd a160 c0bc 1083 493d 8b0e 6dbe
00000040: 2e6d 013e c98a 71be 2dba 49be d074 d3bc
00000050: 7843 a2be 6b97 d0bd c356 f5bb ce15 593d
00000060: a611 e2bc 02b5 ad3d 7bf2 77bc 0d4f e5bc
00000070: e422 49b9 83be 3d3e 4d74 973e 84ac 8a3e
00000080: c4c2 afbd f0b4 eabc 3428 f83a 1bc9 2a3e
00000090: a3a3 30bb 9541 1bbd 4958 ce3e a891 a53e
000000a0: b2f5 0d3e 279e 883c 71f5 7dbb 5875 54bd
000000b0: 28b6 a6bd 17bd 91bc 48e3 e8bd a392 48be
000000c0: 53fc 9a3d aec3 52bd b779 0dbe c9dc fabc
000000d0: 4649 1fbd 9f77 64bf e681 9c3b c5c9 5b3c
000000e0: 69c6 15be 9f53 f93e 9bab bb3d ca3b ae3d
000000f0: b394 1fbe 84ac f13d 960c 5bbe a1ad 25be
00000100: 59b8 993e b233 25bd 644c 333d 00c8 873c
00000110: b0c0 8a3e 8792 1abe 8be8 233d 2bbe f3bd
00000120: deda cdbd 8e14 5fbe f880 ad3d 596e 143d
00000130: 1887 55bd 262b 60be 4f33 3d3c 760e 983b
00000140: 0b73 b7bb 6df3 fa3b 4c7e e73c 6c5b 0dbe
00000150: 9e67 383d bb09 65be b1c0 223d a97d e23a
00000160: db63 45bf 554f 49bd d7b3 a13c 4abb c9bb
00000170: 9f6b aabd 76bb 633d 458a 8c3e ef60 133e
00000180: 7ad1 c7bd 13d2 efbc 338c 453e 54b3 babd
00000190: 1bae 853e e7cc 07be 361a 38be f16f 1b3e
000001a0: 6819 baba e4d3 7b3d d5e1 efbe 4c3a 2abe
000001b0: a8eb 093c 7e15 9b3c c599 46be 1807 dcbe
000001c0: 14ce aebb 0e34 4b3e 2adf 4d3d 2322 b73c
000001d0: 00fd 5bbd 2288 3cbd ce81 a1bc c64f 2dbd
000001e0: 27ad a23d d654 81be 474d c43d e40e 92bd
000001f0: f2a0 1cbd ec7c 53be aed8 51bd 6fab 433e
00000200: 2b42 4bbe 902e bfbe b458 a6be 22de 90bd
00000210: 1bf5 f2be 7e84 01be 22ec 883c 706e 9cbd
00000220: 8ac8 48be c22e 213d 6446 10be f8c8 89be
00000230: 49ee 4e3d 8668 ffbd dbae 93be 5103 74be
00000240: 880f 66be 4305 ff3d c463 e5bd a555 333d
00000250: ce78 543d 4a22 cebe 42a9 b83d d706 cebe
00000260: f3b7 b8bd d67e dcbd 201f 653d 9e2c fc3d
00000270: 5b56 a4bc 74e3 06bf 8086 debe 0019 26be
00000280: be17 21bc b69f ce3d 71c5 adbd 2fb0 20bf
00000290: 4dac 60be f177 45bb 5996 e9be e17c 24be
000002a0: 43b5 f53d 1a2c 04be 968c 46bd 9f3f 18bd
000002b0: 5f40 2ebe 51e1 543e 221b 0f3e 5133 8b3e
000002c0: 086f 01be 1c51 81be ce87 d33d 4439 1fbd
000002d0: 10eb 253e b591 09bf 73c9 89bd d983 093e
000002e0: ca5a 83be 7429 373d 9347 a83d 5301 8ebe
000002f0: c79b a4bd 5b49 24bd e382 4cbd 2155 3d3d
00000300: caaa 36bd 15c5 e93e 45a0 163e 038f ff3c
00000310: a12e 84be bb72 1ebe 1217 8abe d490 b6be
00000320: 90a2 c0be 9852 37bf 8070 c3bd 3803 0dbe
00000330: 7dde bbbd 3c01 80bd 7681 c9bd e2e4 fabe
00000340: 53f1 90bc c92a bfbb a3c3 e1bc f202 cbbd
00000350: 7fc1 31be b735 dcbe 0d86 80be ab39 77be
00000360: 72ad 3e3d 9304 143d ce65 d7bd 5d3c f9be
00000370: 147a a63d 3e07 0fbf fd6b 33bf 3109 63be
00000380: f6d9 efbd 7a83 cdbd 348e 573d b65f 6d3e
00000390: 678e 983e 90ea b2bd 31e4 093e 1049 70be
000003a0: fbb3 633e 94e8 cb3e 3575 4d3e de5f 963e
000003b0: df75 10be caa1 11bf e21d f63c 784b 05be
000003c0: 3d0b c5be 698f d43e b6dd b83c 3a20 24bb
000003d0: 46dc 3bbd 562b ea3d 46d1 3c3e 558f 1a3e
000003e0: a6cf 36bd 900d 73be ead3 cfbd b58a d4be
000003f0: 02ea e9bd 8f4e 29bd b955 3d3e 4aca a7be
-0.6415994 -0.061197355 -0.12638904 -0.023285098 -0.20436831 -0.009972641 0.08807575 0.25527313
0.104972616 0.18558909 0.123821154 -0.0018014777 -0.038746797 -0.023483576 0.049197257 -0.23150079
0.12639305 -0.23588099 -0.19699927 -0.025812536 -0.316921 -0.10185131 -0.0074871494 0.05299931
-0.027596306 0.0848179 -0.015133495 -0.027991796 -0.00019181852 0.18529706 0.29580918 0.27084744
-0.085820705 -0.02865073 0.001893288 0.16678278 -0.0026953004 -0.03790434 0.4030173 0.3233769
0.13863257 0.016676975 -0.003875103 -0.05186972 -0.08140212 -0.01779036 -0.113714755 -0.19587187
0.07567658 -0.051456146 -0.13815962 -0.030622857 -0.03888824 -0.8924503 0.0047762273 0.013414805
-0.14626469 0.4869661 0.091635905 0.085074976 -0.15584068 0.11800483 -0.2139152 -0.16179515
0.3002346 -0.040332504 0.043774024 0.01657486 0.27100134 -0.15094958 0.040016692 -0.11901506
-0.10051511 -0.21785185 0.084718645 0.03623805 -0.05213079 -0.2189146 0.011547877 0.0046403958
-0.005598431 0.007658413 0.028258465 -0.13804406 0.045020692 -0.22366993 0.039734546 0.0017279881
-0.7710549 -0.049147923 0.019739075 -0.00615636 -0.08321308 0.0555987 0.2744924 0.14392446
-0.09756751 -0.029274976 0.19291763 -0.091162354 0.26109394 -0.13261758 -0.17978749 0.15179421
-0.0014198245 0.06148137 -0.46851984 -0.16623801 0.008418001 0.018931147 -0.19394596 -0.42974162
-0.005334625 0.19844076 0.050261654 0.022355145 -0.053708076 -0.046028264 -0.019715216 -0.042312406
0.079431824 -0.25260037 0.09585052 -0.071317464 -0.038239427 -0.20653123 -0.051232032 0.19108365
-0.1984946 -0.37340212 -0.3248955 -0.070736185 -0.47452626 -0.12648198 0.01671416 -0.07638252
-0.1960775 0.039351232 -0.14089352 -0.2691114 0.050520215 -0.12471108 -0.28844342 -0.2382939
-0.22466862 0.124521755 -0.112006694 0.04378285 0.05187302 -0.40260535 0.09016658 -0.40239593
-0.090194605 -0.107663795 0.055937886 0.123131976 -0.020060709 -0.52690816 -0.4346199 -0.16220474
-0.009832321 0.10089056 -0.084849246 -0.62768835 -0.21940728 -0.0030131305 -0.4562252 -0.16063263
0.119974636 -0.12907448 -0.048473917 -0.03717005 -0.17016743 0.20789076 0.13975194 0.2718759
-0.12640011 -0.25257194 0.10328637 -0.038872972 0.1620295 -0.53737956 -0.067278765 0.13429202
-0.25655204 0.044717267 0.08216777 -0.27735385 -0.08037525 -0.04010902 -0.04992951 0.046223763
-0.04459647 0.45658174 0.14709575 0.031196123 -0.25816825 -0.15473454 -0.26970726 -0.3565737
-0.37624025 -0.71610403 -0.09542942 -0.13770759 -0.09173296 -0.062502354 -0.09839146 -0.4900275
-0.017693197 -0.005833958 -0.027559107 -0.09912671 -0.17358969 -0.4300973 -0.25102273 -0.24143092
0.04655213 0.036137175 -0.105174646 -0.48678866 0.08128753 -0.55870426 -0.7008665 -0.22171475
-0.117114946 -0.10034843 0.05262585 0.23181042 0.29796144 -0.087361455 0.13465954 -0.23465371
0.22236626 0.3982588 0.20064242 0.29370016 -0.14107464 -0.56887496 0.030043546 -0.1301707
-0.38485137 0.41515663 0.022566658 -0.0025043623 -0.045864366 0.11434047 0.18439206 0.1509374
-0.044631623 -0.23735642 -0.10147841 -0.41512075 -0.114215866 -0.041334685 0.18489732 -0.32771522

fc2.bias f4 [64]
00000000: b25a 313d d46b 9abd 9405 a03e ebda f73c
00000010: 53be 283e dc97 28bd b178 423c 3d1b cf3d
00000020: bebd fcbc 5535 29be a69e 0f3c d38e 943d
00000030: 1b10 54bd 4d2a 8bbd 7e17 c63c fcae a43c
00000040: 8b58 1cbc b0e2 f4bc 8809 debd 69c9 febc
00000050: e838 903c f76e 073d 3665 483c 0b6b 1bbd
00000060: cc5c 403d c093 983d c1b9 bb3e a08c c53d
00000070: 7fb5 7a3d 0bc9 8cbd 3735 893d 4021 863e
00000080: ebbd c0bd e928 043e 271e 633d 6918 eebc
00000090: 5e28 92bc 8cfd c33d 349d 1b3d 257e c33d
000000a0: bda0 f43d 7dd0 733d e6d8 97bd 0120 13bc
000000b0: 48e5 b03e 216a 5a3c bbec 513e d956 04be
000000c0: 6144 413d 5fdd 513e e870 84bb 80f1 a5bd
000000d0: 8e72 2bbd dfdf b23d 0b64 623e 0937 873e
000000e0: c03a 24bd 32df a03e bf3b bc3e eef8 073d
000000f0: 9b61 27ba 873d b7bd c557 e6bd 3df7 cebb
0.043299384 -0.07540098 0.31254256 0.030255755 0.16478853 -0.04116045 0.011869595 0.10112617
-0.030852195 -0.16524251 0.008765852 0.07253804 -0.051773172 -0.067951776 0.024181124 0.02010297
-0.009542595 -0.02989325 -0.10841662 -0.0311019 0.01760526 0.03306481 0.012231162 -0.03794388
0.046963498 0.07450056 0.36665156 0.09645963 0.061208244 -0.068742834 0.06699603 0.26197243
-0.09411224 0.12906231 0.055448677 -0.029064374 -0.017841514 0.095698446 0.037991717 0.095455445
0.11944721 0.059525 -0.07414417 -0.008979798 0.34549928 0.013330967 0.20500462 -0.12923755
0.04718435 0.20494603 -0.00404178 -0.08102703 -0.041857295 0.08734106 0.22108476 0.26409176
-0.04009509 0.31420285 0.36764333 0.033196382 -0.0006385089 -0.08947282 -0.112472095 -0.006316094

fc3.weight f4 [4, 64]
00000000: 49d2 243e bb97 7d3d 6beb 193e 40ba 193e
00000010: 61ae f73d d8a6 f1be b8fd 813e d26e fb3e
00000020: ffd7 b7be a93b 08be 3952 1d3d 67ea b93d
00000030: b73e 3cbe 77a3 0a3e a8d2 813d a0b3 1c3d
00000040: d425 9f3d f517 a5be 724b 3cbb 4030 d53e
00000050: 980e 27bf ba3b 90bd 44f1 e3bb 5fe7 83be
00000060: de34 95bf 439f 18bf b3ec 4f3e 17a6 823d
00000070: 740e 233a bee5 5fbf f805 2f3e bf93 023e
00000080: c523 a23d d10a dc3d 7467 f33d 2b7a 56be
00000090: 2997 043e 1d4f 7f3e d62e f7be b9d6 a63e
000000a0: d7ec 1e3e fde8 2b3d b3cd a6be 1949 9c3d
000000b0: e325 ac3d 0a70 3ebe 4957 313e b5ca 35bd
000000c0: d6bd 153d bcf5 e73d ad16 46bf b72a 4fbd
000000d0: 3414 0d3e 6af3 443e 1a10 d23d 90d5 c43d
000000e0: 5588 c6be 38b1 0b3e 8886 2b3e 5f17 b13d
000000f0: f381 713e b00f ff3d e111 9d3e fa30 363e
00000100: e116 5d3e 74b5 3c3c cd5f f23d 5a1b 393e
00000110: 8df5 d43d 3aad 193d 0ee5 5a3e 9982 b83e
00000120: 9524 4e3e e5fb 8ebd b7f2 c33d 39d5 cb3d
00000130: d5aa 2abe a8d5 233e 4b9b ed3d bc1b 83be
00000140: 80d5 cbbe e2e3 f03c 4f8b 003e 086a 863e
00000150: 7114 ee3d 6e3c b93c a4dc 86bf bddb 6abe
00000160: 7792 043d f290 a1bd 0568 2c3e a9f5 903d
00000170: 988f 043e 2890 653d 4d24 bbbb 5135 a13d
00000180: f094 38bd 948d 163e 8b4f de3d aaec b03d
00000190: bc73 953d b127 483e 2a73 873d 6da0 7c3e
000001a0: 0b4a 2c3e 11c7 21bf ec97 1fbf 4749 303d
000001b0: da73 403e d917 82be d611 103e f5e7 f1bd
000001c0: d72d bf3d 6458 2b3d 7453 c7bb 1ada fb3d
000001d0: 848c 903e 711b 103e 1c7d 103e 891e c93d
000001e0: 757a 97bd 66ce ef3d 31d6 2d3e 15ca 0e3e
000001f0: f513 ca3e ebb2 ba3d 6dc4 e13e e238 313e
00000200: 7765 5a3e 71e0 1bbf 6536 033e 860d 4f3e
00000210: 2baa aa3d 1686 b13e 0515 82bd 8fca 033f
00000220: 1da4 61bd 8c13 5dbe fc12 983d 3121 5c3d
00000230: ad76 27be 40c5 953d 73e8 0d3e b2d0 01bf
00000240: 6364 3abe da04 bcbd 3ba9 293d 8cda 7f3d
00000250: 9de5 9d3e 32cf 06bf 1138 603e f1ca dfbd
00000260: 6445 4e3d 899a 2a3e fe46 343e 6468 043d
00000270: a919 64ba 7305 973d 8b92 9f3e eeb3 1f3d
00000280: 308e 0fbf 67ef 923e 2c2e b2be c1e3 11bf
00000290: 4c07 b53e fcdc 773e b92f 9b3d 358a 273e
000002a0: c3f5 603e 2a2d 05be 5d9b cd3c 663d e7bb
000002b0: 4174 003e 50e4 423e db9c 2d3d 1f57 6abf
000002c0: 9fff afbb e7fc 153e ad01 4cbe 3688 3d3e
000002d0: 7731 a43d 8d9d c13e 0a5b 933c fab5 023e
000002e0: 431b 84be 656c 503e b778 353e 43da ed3d
000002f0: 8127 f5bd eac0 eebe 87f8 2d3f d05c cd3d
00000300: 55a2 163e 50ce 25bd fedb 143e 6c1a 1e3e
00000310: 5b42 233e 2a03 15bd 4bd5 123d e74c 9a3e
00000320: 20f0 92be bc25 3bbe 06b9 4abf 1eb8 c33d
00000330: 666b 04be 7f3f af3d a627 b53c e7c1 383e
00000340: 86ef 303e a035 213e 9ec1 d4bd c6c3 bc3e
00000350: 7fc0 7a3e a324 b93d 8f83 443d 7f00 caba
00000360: ac5a 95bd bbac 393e afb1 383e 6d11 cebd
00000370: bb57 343d ab6d 8c3d 3cce cabe e760 2a3e
00000380: 1125 03bf 5bce 8d3d 0165 0b3d 1e4b 523d
00000390: a402 a1be 9a97 213e 9687 473e 173e 6e3e
000003a0: 8971 243e 87b1 0bbe bd75 9bbe 3b90 8ebd
000003b0: e39e 263e eec9 f5be 668f 9d3d 2d81 1cbe
000003c0: af73 2bbd c67a 243e abe6 2b3c 4997 30bd
000003d0: d21e f33e 73ed fd3d 5d4d d53d 99d4 0d3e
000003e0: 29ad a9be e068 a33d 3ed2 dd3d 4920 83bd
000003f0: 42ae 183f 8943 ac3d c650 85bc 1f0b b63e
0.16095842 0.06191228 0.15031211 0.15012455 0.12093807 -0.47197604 0.25388885 0.49107987
-0.3590698 -0.13304009 0.03840849 0.09077912 -0.18383299 0.1353892 0.063390076 0.03825724
0.07770887 -0.3224484 -0.0028731492 0.41638374 -0.65256643 -0.07042642 -0.0069562513 -0.2576246
-1.1656759 -0.59618014 0.20305137 0.063793354 0.000622011 -0.87459934 0.1709212 0.12751673
0.07916979 0.107442506 0.118849665 -0.20945041 0.12948288 0.24932523 -0.4827792 0.32585695
0.15520035 0.04197024 -0.3257881 0.0763113 0.08405664 -0.18597427 0.17318453 -0.04438277
0.036557995 0.11326167 -0.7737835 -0.050577845 0.13777238 0.1923348 0.102569774 0.09611046
-0.38775888 0.13641822 0.16750538 0.08647036 0.23584728 0.12454164 0.30677703 0.1779212
0.21590759 0.011517871 0.11834679 0.1807684 0.103983976 0.037518717 0.2137644 0.36037138
0.20131142 -0.06981639 0.095677786 0.09952778 -0.1666673 0.15999472 0.116018854 -0.25607097
-0.39811325 0.029405538 0.12553142 0.2625277 0.11624993 0.022611823 -1.0536084 -0.22935386
0.032366242 -0.07888974 0.16836555 0.07078106 0.12945402 0.05604568 -0.0057111145 0.078714974
-0.045063913 0.14702445 0.10855015 0.0863889 0.07297465 0.19546391 0.06613763 0.24670573
0.1682512 -0.63194376 -0.6234119 0.043038633 0.18794194 -0.2540882 0.14069304 -0.118118204
0.09334915 0.041832343 -0.0060829464 0.12297459 0.28232205 0.14072968 0.14110225 0.09820277
-0.07396404 0.11709289 0.16976239 0.13944276 0.3946835 0.09116157 0.44095173 0.17306855
0.21327768 -0.60889345 0.12813719 0.20220003 0.08333238 0.34672612 -0.063516654 0.51480955
-0.05508815 -0.21589488 0.07425496 0.05374259 -0.16353865 0.07313013 0.13858204 -0.5070907
-0.18202357 -0.09180613 0.041421156 0.062464282 0.30839244 -0.52659905 0.21896388 -0.1092738
0.050359145 0.16660513 0.17605206 0.032326117 -0.00087013334 0.07374086 0.3116649 0.038989954
-0.56076336 0.28698274 -0.3480085 -0.5698815 0.3535713 0.24205393 0.07577462 0.16361316
0.2196875 -0.1300551 0.025098497 -0.00705688 0.12544347 0.19032407 0.042385917 -0.91539186
-0.0053710486 0.14647256 -0.19922514 0.18508992 0.08017247 0.37815514 0.017987747 0.12764731
-0.2580205 0.20353849 0.1772183 0.11613896 -0.119704254 -0.46631557 0.6795735 0.10027468
0.14710362 -0.040479958 0.14537045 0.15439767 0.15943281 -0.03637997 0.035847943 0.30136797
-0.28698826 -0.18276113 -0.79188573 0.09556602 -0.12931594 0.08557033 0.022113632 0.18042718
0.17278871 0.15743113 -0.10388492 0.36868113 0.24487494 0.09040191 0.047977027 -0.0015411525
-0.07292685 0.18132298 0.18036531 -0.100619175 0.04402898 0.06856855 -0.3961047 0.16638528
-0.51228434 0.06924125 0.03403187 0.05134117 -0.31447327 0.15780488 0.19485316 0.23265873
0.16058935 -0.1364194 -0.30363265 -0.069611035 0.16271548 -0.48005623 0.07693367 -0.15283652
-0.04185837 0.1606246 0.010492007 -0.043113027 0.47484452 0.123988055 0.104151465 0.13850631
-0.33139923 0.07978988 0.10831116 -0.06402642 0.59640896 0.08411319 -0.016273867 0.3555536

fc3.bias f4 [4]
00000000: d8d7 ea3d 2777 0e3e fef0 963e 4031 793e
0.1146695 0.1391264 0.29480737 0.24335194
