Navigation - Value based methods/checkpoint/checkpoint_ddqn_er_15.pth (torch_old, 54445 bytes, 6 tensors)

fc1.weight f4 [128, 37]
000000 d2 7e 56 bd 58 50 9b 3d a4 04 80 bc dd f3 8b be
       -0.05236704 0.07583684 -0.015627213 -0.2733449
000010 63 eb 11 be 8b fb 3f be a8 6f fa 3d 4e 3f ae 3d
       -0.14249949 -0.187483 0.12228328 0.08508168
000020 98 e2 86 bc 8a c4 7e 3c b7 79 bd bc 16 74 81 bd
       -0.01646547 0.015549788 -0.023129327 -0.0632097
000030 b4 be 74 be 82 44 3f be 33 b1 b6 be d7 6d b7 3d
       -0.23900872 -0.18678477 -0.35682067 0.08956497
000040 90 b7 a7 bd 2d de 1c 3d ab 76 dc bd 4c ac 19 be
       -0.08189309 0.03829782 -0.107648216 -0.15007132
000050 41 95 35 3d 62 e1 cf 3d 2d 99 77 bd 92 5b e0 3d
       0.044331793 0.1015041 -0.060448814 0.10954966
000060 97 bf 5c be 95 bb 7f 3c 6b 5d 25 3d 2a f8 d4 bd
       -0.2155746 0.015608688 0.040372293 -0.10398896
000070 65 f3 41 be d4 d6 9b bd f4 94 76 be 02 11 8a 3e
       -0.18940504 -0.076093346 -0.24080259 0.269661
000080 9d 2e 44 be 5b 29 39 be 68 d1 4c 3c 2c dd 06 be
       -0.19158407 -0.18082182 0.012501098 -0.13170308
000090 c9 9b d4 bc 56 f0 c4 3d 64 c4 f5 3d 50 8e 2e 3e
       -0.02595319 0.09616153 0.12000349 0.17046475
0000a0 fc e8 40 bd b1 06 1a 3c 45 d8 41 bd a5 f6 73 be
       -0.04709719 0.009401009 -0.04732539 -0.23824556
0000b0 a7 36 c9 3c 90 5f 04 be b6 81 3d 3e 6f 75 5b 3d
       0.024562193 -0.12927079 0.18506512 0.05357879
0000c0 b2 ce b9 bd 19 8c 8a 3d f8 19 4e 3d 13 7e cd 3d
       -0.09072627 0.06765003 0.050317734 0.100338124
0000d0 2c 22 a0 3d d9 9f 6a bd e4 17 3f 3e 44 b6 15 be
       0.07819018 -0.05728135 0.18661457 -0.1462031
0000e0 31 be b8 3d dd 32 01 be dd ca 01 bd 35 2f da bd
       0.09020651 -0.12617059 -0.031687606 -0.10653535
0000f0 28 44 eb bd e0 0b 06 bc 2e f7 af bd 89 fd e0 3d
       -0.11487609 -0.008181542 -0.08592068 0.10985858
000100 81 7f 27 3e 8b bf 8b be 0d 65 64 be aa df c1 3d
       0.16357233 -0.27294573 -0.22304173 0.09466489
000110 b5 90 0e 3d 9c b3 20 3e 4f 94 37 be d8 d0 b0 be
       0.034805972 0.15693516 -0.17927669 -0.34534335
000120 8b a7 13 3d 60 98 02 3d fb fe 8c bd 28 5b 2d 3e
       0.036048453 0.031883597 -0.06884571 0.16929305
000130 aa a6 92 3d 35 ba 2d 3e f6 6a 14 3e 05 34 fe be
       0.07160695 0.16965564 0.14493927 -0.49649063
000140 eb 11 b7 bb 82 a2 60 3e 57 32 24 3e cc 26 8e be
       -0.005586853 0.21936992 0.16034828 -0.27763975
000150 06 7e cd bc c9 7f 53 3d 86 77 06 bd 0a 2a 0c be
       -0.025084507 0.051635537 -0.03282883 -0.13687912
000160 f6 ef 2a 3d d2 43 0e bc ab fb bf 3d 9c 7c 27 bc
       0.04173275 -0.008683162 0.09374174 -0.01022258
000170 e4 25 1b 3e 13 1f 77 3e 4a 53 f6 be 17 20 f3 bc
       0.15151173 0.24132948 -0.4811042 -0.029678388
000180 9e 2c 32 3e 88 f0 83 3d 7b 80 d3 be ff 07 1f be
       0.17399833 0.06442362 -0.4130896 -0.15530394
000190 10 41 e4 3d d3 90 fe 3d 1a ea a5 3d 0e 45 23 3d
       0.11145222 0.12429967 0.08101292 0.039860778
0001a0 36 7c 8e be ef 89 04 3e 70 7a b0 bd a5 74 55 be
       -0.2782914 0.12943242 -0.08617103 -0.20845278
0001b0 76 a4 d4 bd 53 8a 2f 3d e4 6c a3 bc 91 49 28 3e
       -0.10382931 0.042856526 -0.019949384 0.16434313
0001c0 83 70 00 bb cd 8f a4 3d 57 18 c9 3d 31 89 2f be
       -0.0019598312 0.0803524 0.098190956 -0.17142178
0001d0 d8 7f 7d bd d7 1f c2 3d d0 a8 cf 3d 1e cd 1f 3e
       -0.0618895 0.09478729 0.1013962 0.1560559
0001e0 62 1a e7 3d ff b2 7a 3d bc fc 63 bc 0c 0b 52 3b
       0.11284329 0.06120586 -0.013915237 0.0032050041
0001f0 c9 c4 8a bd 4a 4c 0d bd 27 8c 48 bd 6f 5c 0a bd
       -0.06775815 -0.034496583 -0.048961785 -0.033779558
000200 ae 00 05 bd e5 a3 e8 bd 73 80 4f 3c b6 dc 38 3d
       -0.03247135 -0.113593854 0.012664902 0.04513236
000210 42 e9 a0 3a 92 91 9a 3d f2 59 a9 bc cf f7 99 bd
       0.0012276547 0.075472966 -0.020672772 -0.07517969
000220 1c 76 e3 3c a1 55 86 bb bd 34 17 3d 89 75 21 3e
       0.02776628 -0.004099563 0.03691553 0.15767492
000230 d0 b3 6e 3e 96 6b a0 3e ed d3 27 be 78 5d b7 be
       0.2331078 0.31332082 -0.16389437 -0.35813498
000240 9d ab 89 be 86 1a a1 bf bd 27 85 3c 18 7a a4 3a
       -0.26888743 -1.2586219 0.0162543 0.0012548594
000250 49 a1 59 bd a3 7f 0f be f9 0b 61 be e9 b1 18 be
       -0.05313233 -0.14013533 -0.21977223 -0.14911617
000260 87 e2 2b be c7 78 9d bd 08 c0 b4 bc d2 82 65 3d
       -0.16785632 -0.07689052 -0.022064224 0.056032963
000270 51 d3 d0 3d e1 8c 80 3e af 99 18 be 83 95 d2 bd
       0.101965554 0.25107482 -0.14902376 -0.10282423
000280 5d cc 34 3c 66 af 0a bc 38 98 50 be d5 3b 3a be
       0.011035052 -0.00846467 -0.20370567 -0.18186887
000290 1f 27 16 bd 57 cf 8b bc ae b0 cf bd d7 4b 8f 3d
       -0.036658403 -0.01706664 -0.10141121 0.06996887
0002a0 6f e1 d9 bd f3 8c 06 be 01 c5 0a 3e ba 10 4d be
       -0.10638701 -0.13139705 0.13551714 -0.20025912
0002b0 11 19 e8 bb d8 2d ea 3d 43 41 9d be d3 38 a6 3d
       -0.0070830663 0.11434525 -0.30713853 0.08116307
0002c0 e4 8c 2c be cd 2c 02 bf e9 ab 3d 3d 18 d4 c2 bc
       -0.1685062 -0.5084961 0.046306524 -0.023782775
0002d0 1e 06 39 3d 39 b8 12 be 6f cd 68 3d 58 62 d4 3d
       0.04517185 -0.14328088 0.05683654 0.1037032
0002e0 1b 8e 90 3d 2c 85 f5 3c e6 dd 91 bc 70 53 89 bd
       0.070583545 0.029970728 -0.017806005 -0.067053676
0002f0 6a df 05 bd 1e 52 57 3e dd 7c 5e 3e 7a 73 ec 3d
       -0.032683767 0.21027419 0.21727319 0.11545463
000300 04 7f 83 be f4 f6 79 bd 89 72 39 bf fa 80 d2 bd
       -0.25682843 -0.06102653 -0.7244039 -0.102785066
000310 a8 34 2a 3d 94 b2 8d bd 6b 83 df bd 6d b3 8a 3d
       0.041554123 -0.06918827 -0.10913738 0.06772504
000320 27 14 12 3e 9a 99 c8 3d 7e 38 6a be 16 e6 5c be
       0.142655 0.09794922 -0.22873113 -0.21572146
000330 47 8b 85 be 7b 17 99 3d 35 96 40 3d ed 64 0b 3d
       -0.26082823 0.07475182 0.04701825 0.034031797
000340 fd ea 0b 3e b7 47 c0 3d 0d c0 8e 3d 4f f9 8b 3b
       0.1366386 0.093886785 0.069702245 0.0042716633
000350 09 3d 36 bd ab 8d f2 bd e0 1b 46 be 79 32 7b 3d
       -0.0444918 -0.11843427 -0.19346571 0.06132743
000360 39 5f 6b bd d7 a0 c2 bd c1 9d 48 bd 10 f1 99 bd
       -0.05746386 -0.09503334 -0.04897857 -0.07516682
000370 d6 9c cc bd 6f 42 3a 3d f6 1b 0d bd 41 12 ba 3d
       -0.099908516 0.045473512 -0.034450494 0.09085513
000380 2e 92 01 bd 26 54 c5 bd e9 c5 5e be b1 b3 03 bc
       -0.03163355 -0.09635191 -0.21755184 -0.008038447
000390 59 c8 b9 bd 39 8f 5d bd 49 31 b9 3c e2 9c 67 3e
       -0.090714164 -0.054091666 0.022606509 0.2261844
0003a0 fd 86 c9 bd 63 02 30 3e ce d7 d3 3d ea 3d ef 3c
       -0.098402 0.1718841 0.10343896 0.029204328
0003b0 b1 bf 2c 3e 47 58 40 be f7 61 aa bb 5f 8e 0c bd
       0.1687 -0.18783675 -0.0051996666 -0.034315463
0003c0 b8 a2 59 3e 35 18 dc 3d b5 65 6c be 6a 51 06 3c
       0.21253479 0.107468046 -0.23085673 0.008198122
0003d0 47 62 35 3e d9 2f e5 bd c8 86 1d 3d 90 f8 2c be
       0.17713271 -0.11190767 0.038458616 -0.16891694
0003e0 6d 51 2d bc 79 0a 77 bd b2 8a 29 3b ee fd ce 3d
       -0.010578495 -0.060312722 0.0025870022 0.10107027
0003f0 fb 80 0a be 98 ef 9a 3d a5 35 f1 bc 80 ff 03 3b
       -0.13525765 0.0756523 -0.029444525 0.0020141304

fc1.bias f4 [128]
000000 1f 2f 59 bd 5f 31 10 3d fe f4 8e bd 5b 11 b1 bc
       -0.053023454 0.035203334 -0.06980322 -0.021614721
000010 18 8f 83 bd d6 3c b2 bd 06 22 b6 3d c7 86 01 3e
       -0.06423777 -0.0870301 0.08893208 0.1264907
000020 54 1f 2b be 2a 71 92 3c 49 81 ba bd 2c fc 4d bd
       -0.1671117 0.017876226 -0.091066904 -0.050289318
000030 8e eb 08 bd d2 61 72 bd 1c 84 c9 bd 7f b6 1b bd
       -0.033427767 -0.05917532 -0.09839651 -0.03801584
000040 6b 7c 97 3d bd 20 63 bd e7 4e 1d bd 70 cf a1 bb
       0.07396778 -0.055451144 -0.038405325 -0.0049380586
000050 fa 4b a8 bd 8f bb 81 3d 03 0c 2e 3e c7 38 8d bd
       -0.082176164 0.06334602 0.1699677 -0.06895595
000060 d1 28 2f 3c e2 e8 2c 3e 1f 06 27 3e ae f6 04 bc
       0.010690884 0.16885713 0.16310929 -0.008115454
000070 1a cb ad 3a b8 df f1 bd 8c ca f6 3d 14 2d da 3d
       0.0013259382 -0.11810249 0.120503515 0.10653129
000080 cd ec d1 bd 7b da cc 3c 18 eb 82 3c 8b be 1d be
       -0.10250244 0.025006523 0.015981242 -0.15404718
000090 7b 2f b5 3d 57 85 9f 3d b2 88 19 bd c4 56 68 bb
       0.08846947 0.077891044 -0.03748388 -0.0035452107
0000a0 0e b7 4c 3d 81 f2 d7 3d 08 0b 82 3e 52 46 88 3a
       0.049979262 0.10544301 0.2539904 0.0010396934
0000b0 8d b6 1e 3d f3 cd 12 be e8 17 5e 3d d7 30 18 be
       0.038748313 -0.14336376 0.054222018 -0.14862381
0000c0 c9 f5 43 be b3 61 52 3d db db fd 3b 47 51 9e 3d
       -0.19136728 0.051362704 0.007747156 0.07730346
0000d0 38 1a 54 3d 7b 5f c4 3d 7f 02 91 3d d4 65 f9 3c
       0.051782817 0.09588524 0.07080554 0.030444063
0000e0 81 de ec bd 13 ab 6b bc f4 9f 42 3d d4 66 93 bd
       -0.11565877 -0.014384049 0.047515824 -0.07197347
0000f0 fa b2 f6 bd e2 64 9a 3d 2c e3 bd 3d 47 c1 98 bd
       -0.12045856 0.07538773 0.09271845 -0.0745874
000100 1c 33 06 3e 15 a3 25 3c 15 93 c3 3d 53 8d 16 bd
       0.13105434 0.010109683 0.09549538 -0.03675587
000110 f8 1a 0d be ec 9b 79 bd 4e 67 bd 3c 66 26 4b bd
       -0.13779819 -0.060939714 0.023120549 -0.049597166
000120 16 24 e1 3d 3a 2b 19 be 3d af b2 bd 80 e5 19 bd
       0.10993211 -0.14957896 -0.0872483 -0.037572384
000130 fc ca 32 3e 3e da 00 be fc 88 b1 3d f1 99 f3 bc
       0.17460245 -0.12583253 0.08668706 -0.02973649
000140 75 27 09 bd 20 24 8f 3d 23 53 b7 3d 6c 7d ce bd
       -0.033484895 0.06989312 0.08951404 -0.10082516
000150 a6 ad bc bc 75 e4 19 3e 53 08 e3 3d 89 10 f5 bd
       -0.02303202 0.15028556 0.11085572 -0.119660445
000160 c4 95 f9 bd 53 c0 30 3d f2 61 e7 3c 49 56 8f bc
       -0.12186769 0.043152165 0.028244946 -0.017497199
000170 64 e8 e8 bd 56 d8 46 be 89 ea 2e bc 69 36 a0 3d
       -0.1137245 -0.19418463 -0.010676035 0.07822878
000180 bb dd 27 bd a4 a5 29 be e9 73 ff bc e6 2b ed 3d
       -0.040982943 -0.16567093 -0.0311832 0.115806386
000190 50 21 17 be 1f b1 2f be b5 b6 e7 3d 2a 76 25 3e
       -0.14758801 -0.1715741 0.113141455 0.16158357
0001a0 04 3b 73 be f8 f0 65 be e6 9a 9d bd 9b 66 01 3e
       -0.23752981 -0.22455204 -0.0769556 0.12636797
0001b0 89 f4 0d be 34 f6 2b 3d e2 5b d4 3d 26 d2 5c bd
       -0.13862814 0.041982844 0.10369088 -0.05391135
0001c0 18 6f ba bd 9e 11 ba bd 7a 27 c4 bc e0 1f 2c 3e
       -0.09103221 -0.090853915 -0.023944605 0.16809034
0001d0 bc 39 2f 3c 60 ac 31 3e ab 57 4e bb fc d9 6f bd
       0.010694917 0.17350912 -0.003148536 -0.058557495
0001e0 93 93 35 bc 44 74 15 3d 88 ed 65 bd 20 22 35 be
       -0.011082548 0.036487833 -0.05613473 -0.17688799
0001f0 77 24 ab bd 17 14 d8 3c 4e 67 37 3e b4 e8 84 bd
       -0.083565645 0.026376767 0.17910501 -0.06489697

fc2.weight f4 [64, 128]
000000 37 21 4c bd 53 a1 b3 bd 2d 8b 80 bd 2e 74 aa 3c
       -0.049836364 -0.087710045 -0.06276546 0.020807352
000010 f4 90 f5 3d 69 85 56 b9 a4 5a 74 3c 83 88 ac 3c
       0.11990538 -0.0002045833 0.0149141885 0.021061188
000020 c5 62 a7 3b c7 ab c4 3b 67 48 8e 3d 5b 3a 82 3c
       0.00510821 0.006001923 0.069474034 0.015896967
000030 c8 4e fa 3c c4 96 0c be 97 08 4a bd b1 36 bf ba
       0.030555144 -0.13729388 -0.0493246 -0.0014588443
000040 f1 3c a3 bc c3 54 be bd ab 78 86 bd c9 e7 dc bd
       -0.01992652 -0.09293511 -0.06565984 -0.10786397
000050 57 5d ae 3c df 15 82 3d b9 76 8e bd f0 22 a9 bc
       0.021284742 0.06351828 -0.06956238 -0.020646542
000060 b1 06 9e bd 6b 3e 74 3d 03 9a 29 be f1 94 8f bd
       -0.0771612 0.05962984 -0.16562657 -0.0701083
000070 f2 76 f2 bd 47 15 84 3c 30 64 60 bd 3b c1 74 3d
       -0.11839093 0.016123427 -0.054783046 0.05975459
000080 30 0f d4 bb f3 8d 8e bd b9 81 5d bd 49 98 aa bc
       -0.006471537 -0.069606684 -0.05407879 -0.020824568
000090 67 c8 b3 bb 34 c8 a7 bd c1 5f a5 3c 81 04 16 bd
       -0.0054865363 -0.081924826 0.02018726 -0.03662539
0000a0 d3 5f b5 bd d0 35 cc bd 9a 41 94 bd 5b db 27 bc
       -0.08856168 -0.099712014 -0.07239075 -0.0102451695
0000b0 15 6c 28 3d ed ce 46 bd 52 cc bd bd 5a 5a 04 be
       0.0411187 -0.048537184 -0.09267487 -0.12925091
0000c0 3f db 94 bd f3 61 b3 bd 5c c1 34 be 7b bf c2 bd
       -0.072683804 -0.08758917 -0.17651886 -0.09509178
0000d0 46 23 c7 bd da a7 07 be bf b9 13 bd ea b9 9c 3a
       -0.09723525 -0.13247624 -0.036065813 0.0011957262
0000e0 d3 84 7a 3c af 76 ef bd b8 b2 06 3d f8 21 b9 3c
       0.015290457 -0.11692559 0.032885283 0.022599205
0000f0 4d 23 2f 3d cc 86 3d bd ce 63 f4 bb 27 50 c0 bd
       0.042758275 -0.04627113 -0.0074581867 -0.09390288
000100 83 fa b7 bc f8 1c 94 3d 3f 98 e9 3c ad 99 92 bd
       -0.02245832 0.07232088 0.02851498 -0.071582176
000110 5b 5f 25 bd 58 01 91 bd 49 cf 6f 3c 37 29 6d bd
       -0.04037414 -0.070803344 0.014636823 -0.057900634
000120 6b 46 9f bc 1e d8 42 bc fe 89 4c bd e6 85 15 bd
       -0.019442758 -0.011892347 -0.049936287 -0.03650465
000130 07 16 97 bd f9 d8 c4 bd d3 1f ec 3c 86 a5 7a 3d
       -0.07377248 -0.09611697 0.028823769 0.06119301
000140 08 c8 b6 bd 3b ad 24 3d 45 4a 31 3d 3b c6 11 bd
       -0.08924872 0.040204268 0.04328372 -0.035589438
000150 67 20 96 bd 31 41 c5 bd 37 ab d7 3c 22 d7 83 bc
       -0.07330399 -0.09631575 0.026326759 -0.016093794
000160 2c 09 9f bc 5b ea 5d 3d 5c 19 f8 bc 46 fe 49 bd
       -0.019413553 0.054178577 -0.03028553 -0.04931476
000170 88 6d a5 bd 2d 15 82 bd 4a 66 fd 3d b3 2e 80 bd
       -0.08077532 -0.06351695 0.12373026 -0.06258907
000180 7f 1a f9 bc e4 aa 1e 3c 10 d2 65 bd a0 93 38 bd
       -0.030408142 0.009684298 -0.056108534 -0.04506266
000190 c3 77 92 3c a3 6b 2c bd 51 ea 08 bd 4a 9e 1b bb
       0.017879372 -0.042094838 -0.033426587 -0.002374547
0001a0 5c 2b a6 bc 50 8f 00 3d 08 f5 a1 3c fa 7e bd bd
       -0.020284347 0.031386673 0.01977016 -0.092527345
0001b0 d0 42 07 3d 83 ac cf bd 7e 8f 61 bd 24 9e 23 bd
       0.0330227 -0.10140326 -0.055068485 -0.039945737
0001c0 6b bc 46 bd f2 80 d2 3d 1c cc ba bd 1a ca 2a bc
       -0.048519533 0.102785006 -0.09120962 -0.010424161
0001d0 60 f2 a8 3d bb d8 bd 3c 0c 55 48 bd 3e 60 b3 bb
       0.08249354 0.023174634 -0.048909232 -0.0054741194
0001e0 fb fc 70 3d 1f c1 0f be 97 a1 46 bd a0 76 f4 bd
       0.05883501 -0.14038514 -0.048493948 -0.119366884
0001f0 b3 17 22 3c ec c4 df bd 99 46 1b 3d c5 8e 5c bd
       0.009893346 -0.10926232 0.037909124 -0.053847093
000200 b5 8c 87 3d c1 9c 8a bd 27 14 2c be 09 e2 09 3e
       0.066186346 -0.0676818 -0.16804563 0.13465132
000210 00 3e 2b be 73 8f 16 be df b9 d6 bd 29 44 55 bd
       -0.1672287 -0.14703159 -0.10484671 -0.052066956
000220 1c 83 a6 ba 08 9c 81 bc 69 a0 1c 3d c9 03 f0 bd
       -0.0012703869 -0.015821472 0.038238917 -0.11719472
000230 a3 43 fc bd 56 1e 54 bd 1d 71 2f be b9 96 68 bd
       -0.12317588 -0.051786743 -0.17132993 -0.056784365
000240 84 f4 b0 3b f8 aa 1b 3d d0 cc 91 3d 87 54 36 3c
       0.0054002423 0.038004845 0.07119143 0.011128551
000250 4a da aa 3d 39 63 09 3d 64 f0 0c 3e cf cc e3 bd
       0.083424166 0.03354189 0.13763577 -0.111230485
000260 cd e1 f7 bd c1 d5 7f 3e 3a 73 9f 3d c2 53 bc bd
       -0.12103615 0.24983884 0.077856496 -0.09195663
000270 57 1d 96 bd 09 63 77 3c 87 c5 13 3d c7 12 80 3d
       -0.07329815 0.015099295 0.03607705 0.062535815
000280 43 45 88 bd aa 6c 62 bd af 62 93 3d 6e a3 36 3d
       -0.066538356 -0.05527941 0.07196557 0.044589452
000290 26 4e 84 3d 17 4f a5 3c 73 2f 98 be 81 b9 2c bd
       0.06460218 0.020179315 -0.297237 -0.042169098
0002a0 84 b1 fc 3d 15 9d 34 bd 92 b5 9a bd bc 9e 2c be
       0.12338546 -0.044095118 -0.07554163 -0.16857427
0002b0 bc cd cd bd 6a f9 8a 3d f2 93 c1 bd 3a 78 aa 3d
       -0.10049006 0.06785853 -0.094520465 0.08323713
0002c0 85 77 12 be 3c 44 c1 be 3d 33 88 bd 07 a7 e9 bc
       -0.14303406 -0.3774737 -0.06650398 -0.028522028
0002d0 e6 be 29 bd 7c 13 4c 3c b5 fe 1d bd 0a 6a 45 bd
       -0.04144182 0.012455817 -0.038572986 -0.04819683
0002e0 e5 ff 17 bc f1 2b 2f bd d1 5d 15 bd 34 4f 0a 3e
       -0.009277319 -0.042766515 -0.036466423 0.13506776
0002f0 c9 be 0f 3d 41 ed 05 be 68 b9 34 bd 14 68 05 3e
       0.035094056 -0.13078786 -0.04412213 0.13027984
000300 63 27 21 3e c5 68 2a 3e 3d 1c 89 3d f7 ed 24 3e
       0.15737681 0.16641529 0.06694839 0.16106401
000310 58 81 61 bb 3e c6 e5 3c 98 88 96 bc 81 86 1e 3e
       -0.003440937 0.02804863 -0.01837568 0.15480997
000320 8e c3 bc 3b 2c 74 79 3c 9e c5 de 3c 56 a8 1a 3d
       0.0057606166 0.015225451 0.02719384 0.037758194
000330 fb 09 55 3d 0e 26 c5 bd ff 64 97 bd 2a 79 7e bc
       0.05201147 -0.09626399 -0.0739231 -0.015531817
000340 5a 71 89 3c aa 9f a6 3d 08 8f 55 be da a8 22 be
       0.016777683 0.08135922 -0.20855343 -0.15884724
000350 17 a8 4a bd 39 f7 0e 3c 6b 39 01 be 92 1a 6a bd
       -0.04947671 0.008725935 -0.1261956 -0.057154246
000360 ed 35 a3 bc 96 45 27 bd 0f 39 34 bd 35 cb 3a be
       -0.019923175 -0.040837847 -0.043999728 -0.1824158
000370 40 ae 76 3c 6d 3f a8 bd fb bd 1a be 61 2e b4 3c
       0.015056193 -0.082152225 -0.15111534 0.021994771
000380 c1 ef ee bd bf 56 66 be 80 de 6b bd 13 c5 31 3c
       -0.11666823 -0.22494029 -0.05758524 0.010850209
000390 72 71 21 3e 5d d2 e4 3c 83 7b ee 3d 77 1a ed 3d
       0.15765932 0.02793234 0.11644652 0.115773134
0003a0 31 43 ef bc a5 30 0f 3d 4a 08 97 3d 42 da cb 3d
       -0.029206844 0.0349585 0.07374628 0.09953739
0003b0 aa b9 e0 ba db 23 20 be 95 17 04 bd 59 10 80 3c
       -0.0017145176 -0.15638678 -0.032249052 0.015632795
0003c0 f6 74 10 be bc cb a6 3d cb c2 75 3e 8a a2 a2 bd
       -0.14107117 0.08144328 0.24000089 -0.07941158
0003d0 a3 ff 01 bd dd 7c ee 3d 1b 4a 16 3d 8f 36 f7 bc
       -0.031737935 0.116449095 0.036691766 -0.030177383
0003e0 b0 08 80 3c ed 9d 04 3d b8 4f 77 3c e0 2b be bd
       0.015629143 0.032377172 0.01509469 -0.09285712
0003f0 6b a8 4b 3d ad 5f 3b bc 3b d8 a1 3e 89 4c 06 3d
       0.049721163 -0.011436385 0.31610283 0.032787833

fc2.bias f4 [64]
000000 3f a2 bb bd bf 41 80 bc 8e 5a 30 3e 9d 82 4c bb
       -0.09161805 -0.01565635 0.17222044 -0.0031205781
000010 5c 0b b5 3d 59 40 97 bd 98 a2 03 3d 57 7a 40 3d
       0.08840057 -0.0738532 0.032137483 0.046991672
000020 0c e4 c2 bd 2c 66 bf bd df 45 79 bc b0 82 46 bd
       -0.09516153 -0.093456596 -0.0152144125 -0.048464477
000030 b2 f2 17 bd 78 12 03 be a0 e5 cc 3c ef 13 c4 bc
       -0.037096687 -0.12800014 0.025011837 -0.023935286
000040 66 10 71 bc 85 86 79 bd 8f 00 e2 bd d2 51 56 bd
       -0.014713382 -0.060919303 -0.11035263 -0.052324124
000050 c1 ab 14 bd 6f b3 45 3d c1 c0 34 bd 99 37 63 3d
       -0.03629661 0.048266824 -0.044129137 0.055472944
000060 08 6f b3 bc 2a 5d e1 3c 8b cb 7a 3e 7a ad d8 bc
       -0.02190353 0.027510244 0.24491708 -0.026449908
000070 28 b5 56 bb 96 c3 cf bd fb 8a 67 3c 24 fd 92 3d
       -0.0032761786 -0.10144727 0.014132257 0.07177189
000080 9e 18 0e be cf 6b 92 3d e7 9b 81 3d 3a 46 f8 bd
       -0.13876578 0.07149469 0.06328564 -0.1212277
000090 f9 97 e5 bc d6 ad d0 3c f1 10 28 bc 2d 78 40 bd
       -0.028026568 0.025473516 -0.010257945 -0.04698961
0000a0 a0 af 2d bc b8 ae bb 3c 64 81 9d 3c d8 bc 1e 3d
       -0.010600954 0.02291046 0.019226737 0.038754314
0000b0 c6 da 5d 3e c9 05 bf 3c 65 7b 88 bd f0 db d4 bd
       0.21665487 0.023318188 -0.06664161 -0.10393512
0000c0 f0 31 5e 3d 9f 40 61 bd 4f ac 91 bd 72 d5 8c bd
       0.054246843 -0.054993268 -0.071129434 -0.06876649
0000d0 21 d4 95 bd ba 51 26 3e 40 f9 1c 3e fc d7 b3 3c
       -0.07315851 0.16242114 0.15329456 0.021953575
0000e0 59 6e 3a bb 34 16 24 bb 2e 3a 1a 3e 32 5d cc 3d
       -0.002844712 -0.0025037648 0.15061256 0.09978713
0000f0 73 f7 db 3c ff a3 bc bc 5f 16 ee bd 89 06 a4 bd
       0.026851391 -0.023027418 -0.11625361 -0.08009059

fc3.weight f4 [4, 64]
000000 1c 71 9d 3d e8 46 03 3e 47 cb ce 3d 2e 79 33 3e
       0.076875895 0.12820017 0.10097366 0.17526695
000010 bc d3 56 3e a9 57 3e be c7 c6 77 3e 9e b5 df 3d
       0.20979208 -0.18588127 0.24196921 0.109233126
000020 26 b5 1b be b4 25 3e bd ee 08 a7 3d e4 47 4d 3e
       -0.15205821 -0.046422675 0.08156 0.20046955
000030 1c 21 9c bd 8b 65 1f 3e 16 be cf 3e c6 c2 29 3e
       -0.076235026 0.1556608 0.40574712 0.16578206
000040 f8 04 63 be 78 aa b7 bb a5 6f 45 be 54 d3 03 3e
       -0.22169864 -0.0056050383 -0.1928087 0.12873584
000050 c1 66 8c 3b 08 fd 55 3e 3b 24 95 3d 96 c8 d4 3c
       0.00428471 0.20897305 0.07282301 0.025974553
000060 e8 47 54 be 02 ea b0 bd 04 7c 0a 3e 51 8f 30 3e
       -0.20730555 -0.086383834 0.1352387 0.17242171
000070 74 bb ed 3b 2d 33 b7 be e0 e0 92 bd 18 ac 63 3e
       0.007255012 -0.35781232 -0.07171798 0.22233617
000080 8c 58 ac 3c b2 7a 79 3e 0f 91 f8 3c a0 14 7b bd
       0.021038316 0.24363211 0.030342607 -0.061298966
000090 33 e9 fe be 3e 23 0f 3e f3 bb 5a be 45 12 ce 3d
       -0.49787292 0.13978288 -0.2136076 0.100620784
0000a0 ea 64 15 3e db 02 b3 3b 80 68 03 bf 72 40 9f 3d
       0.14589277 0.005462987 -0.5133133 0.07775964
0000b0 1d 55 22 3d ba 6c f6 bd f9 18 20 3e d8 2b 8c bd
       0.03963195 -0.12032457 0.15634526 -0.068443
0000c0 1a 18 cf 3d 3f 19 89 ba 13 38 39 be 68 76 24 3e
       0.10112019 -0.0010459794 -0.18087797 0.16060793
0000d0 9c 41 38 be c6 1b ff 3d 8b c8 ba 3d 45 8c 7c 3d
       -0.17993778 0.12456469 0.09120282 0.06165721
0000e0 4c 89 7c be 90 74 be bc df 27 f0 3d e2 3d c9 3d
       -0.2466175 -0.02324894 0.11726355 0.09826256
0000f0 56 86 11 bf 79 31 33 3c c6 e6 89 3d 54 ff 5a 3c
       -0.56845605 0.010937088 0.0673347 0.013366539
000100 ab 5a d5 ba f3 d4 3f 3e fe 37 1e 3d b5 78 5a 3d
       -0.0016277632 0.18733577 0.038627617 0.05333777
000110 9d 5f 14 3e bd ac 82 3c 9b e2 a6 3d 5a 12 a9 3e
       0.14489599 0.015951509 0.0814869 0.33021814
000120 e4 6c 84 bc 01 aa 37 3e f1 ac b7 bc 3f 27 7f 3e
       -0.016165204 0.17935945 -0.022421332 0.24917315
000130 1d 9a a9 3e ff 8d 58 3d a3 70 a2 3d 48 0d 3b be
       0.33125392 0.052869793 0.0793164 -0.18266785
000140 c8 68 05 be 14 2b 5a bd 7a a9 40 be d0 9e 1f 3e
       -0.13028252 -0.05326374 -0.1881465 0.15587926
000150 a5 7f bb bd 22 80 17 3e 0b 51 c8 be e4 7f 95 bd
       -0.09155206 0.14794973 -0.3912433 -0.07299784
000160 3f 17 2f be 40 dd df 3c 55 6d dd 3d 95 9a 92 3d
       -0.17098711 0.02732718 0.10811869 0.071583904
000170 64 06 31 3e 72 01 1c 3c 2c bc c5 bd a0 92 d9 3d
       0.17287594 0.009521829 -0.096550316 0.106236696
000180 f3 bb cf bd f1 fb 01 bf e7 e7 a3 bd 30 55 16 be
       -0.1014327 -0.5077506 -0.08003216 -0.14680934
000190 52 a3 fa bd 6a 2f 03 3d 04 b3 60 be 69 6b 3f bd
       -0.12238182 0.03202764 -0.21943289 -0.046733294
0001a0 83 6e 27 3e cf 66 80 bd 93 c5 58 be f7 19 f5 3d
       0.1635075 -0.06269609 -0.21169119 0.11967843
0001b0 d5 02 f4 3d 08 41 cc bd 0b 42 16 bc 69 3e 5c 3d
       0.11914603 -0.09973341 -0.009171019 0.053770456
0001c0 18 a6 0b 3e 2e cf 7b bd 82 43 74 bc c2 33 67 3e
       0.13637578 -0.06147688 -0.014908673 0.22578338
0001d0 42 c8 b0 be 51 0a 85 3d bf 0f be 3d 96 ab 41 3d
       -0.34527785 0.06496108 0.09280347 0.047282778
0001e0 1d e1 bd 3d 91 73 59 3e 8d 6f 95 3d 63 59 b7 3c
       0.092714526 0.21235491 0.07296667 0.02238149
0001f0 04 f2 97 3e 4e ac 82 3c ef 9c 66 3e 74 44 76 3e
       0.2967683 0.015951302 0.22520803 0.2404955
000200 20 11 0b 3d 4b 8b a4 bd 8b 63 81 3d d7 ab 28 3e
       0.03395188 -0.080343805 0.063178144 0.16471802
000210 7c 1b 84 3e 92 36 14 3e b7 d0 df bd 4e 91 93 3e
       0.2580222 0.14473942 -0.10928481 0.28821796
000220 68 d3 a9 3d 37 a9 26 be ac 0a 08 bc e3 fd 1b 3e
       0.08292276 -0.16275488 -0.008303326 0.15233569
000230 9a 3c e4 3d e5 b0 ec 3c fc aa 01 3e be 77 1f be
       0.11144371 0.028892944 0.12662882 -0.15573022
000240 e8 f0 46 be d7 a7 00 bd b5 90 b0 3d bc 1a 0b be
       -0.19427836 -0.031410065 0.08621351 -0.13584417
000250 63 44 8c bd 55 70 88 3e 8d a3 34 3e 9d 43 a3 3d
       -0.06848981 0.26648203 0.17640515 0.079718806
000260 95 40 41 3e 46 61 e7 bb a7 22 16 3e 57 8a bc 3e
       0.18872292 -0.0070611564 0.14661656 0.36824295
000270 31 bf 34 bd 5a ce 8d be 61 7f b8 3e 33 ab a4 bb
       -0.044127647 -0.27696496 0.36034682 -0.0050252913
000280 fc c2 54 be 37 d5 73 3e ab 7f dc bd 5e 55 27 be
       -0.20777506 0.23811804 -0.10766538 -0.16341159
000290 38 5b cf bd 34 14 d7 3e d4 7a 18 be 04 5e a9 3d
       -0.101248205 0.420076 -0.14890605 0.08269885
0002a0 65 97 95 3e 03 02 9a bd d3 3a b5 be 3e 9b a4 3c
       0.29217067 -0.07519915 -0.35396442 0.020093556
0002b0 04 4b b7 3d 58 8f c5 bc a4 fb 6d bb 60 39 4d be
       0.08949855 -0.024116203 -0.003631332 -0.20041418
0002c0 64 82 1d 3d 2a b4 87 bd e0 ab 15 bd a2 47 12 3e
       0.03845443 -0.066261604 -0.036540866 0.14285138
0002d0 28 cd b2 3d 80 1f e1 3d 2a 58 db bb 5d 38 26 3e
       0.08730537 0.10992336 -0.0066938596 0.16232438
0002e0 a0 6e 8c 3d f7 bc 3d 3e 63 6e fb 3d d5 57 b6 3c
       0.068570375 0.18529116 0.12276914 0.022258678
0002f0 bf 4d 17 3d 9b 5d d0 bd 20 37 13 bd 25 9e 87 3d
       0.03693938 -0.10174104 -0.035941243 0.066219606
000300 c0 e3 28 bd 2c 72 5b be ea 4d 88 3d c7 a9 0a 3e
       -0.041232824 -0.21430272 0.06655486 0.13541327
000310 5a 70 dc 3d 8b e2 d6 3d c3 a7 27 be a0 ee 15 be
       0.10763617 0.104924284 -0.1637259 -0.1464181
000320 5e a7 0f be 56 36 b2 be ba 4c ba bd f4 b4 15 3e
       -0.1402869 -0.3480708 -0.09096666 0.1461981
000330 67 85 a0 be 81 72 c1 3c cf 48 56 3e 8d 6a 97 3d
       -0.31351778 0.02361417 0.20926212 0.0739337
000340 4e 28 fd 3d be 6a 56 3e 87 50 0e be f8 f4 57 3e
       0.12361203 0.20939156 -0.13897906 0.21089542
000350 d8 e3 04 3e e8 11 c3 3e 44 a0 86 be a6 f5 15 3e
       0.1297754 0.380996 -0.26294148 0.14644489
000360 4a 08 27 3d 28 9d 80 3e 7b 7f 03 3e d8 28 09 3e
       0.04077939 0.251199 0.12841599 0.13394487
000370 2c 3f 17 3e f7 d6 23 be 61 e2 72 be 43 86 61 3e
       0.14770192 -0.15999971 -0.23719169 0.22023873
000380 22 d6 0d be 55 5c 3f 3e fa 71 d5 bd 57 84 57 bd
       -0.13851216 0.18687566 -0.1042213 -0.052616443
000390 9d 97 3f be 54 aa 59 be 5f af 02 be 9f 28 6a 3d
       -0.1871018 -0.21256381 -0.12762211 0.057167646
0003a0 db dd 26 3e 3d a3 eb bd bb 00 24 3e 80 e1 b5 bd
       0.16295569 -0.115057446 0.16015904 -0.08880901
0003b0 6c 8f f8 3d e3 43 85 be bf 3c 0e 3e 5a 1a ce bb
       0.121367306 -0.26028356 0.1389036 -0.0062897624
0003c0 ee 42 6c bd 39 80 06 3e 94 41 b9 3d 00 b8 cf 3e
       -0.057681017 0.1313485 0.09045711 0.40570068
0003d0 3f 5e af bd c4 57 ae 3d 0b bd ce 3d 86 4f d0 3d
       -0.08562898 0.08512834 0.10094651 0.10171418
0003e0 ef 44 52 bb af 15 14 3e 4e d8 29 3d bb f6 39 bd
       -0.0032084545 0.14461397 0.04146605 -0.045401316
0003f0 88 47 ea bd ff ec 2e bd f2 40 a2 bd cb 56 94 3d
       -0.11439425 -0.042706486 -0.079225436 0.07243117

fc3.bias f4 [4]
000000 68 a8 b6 3d fc d9 d5 3d b4 d8 1f 3e 91 fb e3 3d
       0.0891884 0.10441968 0.1561001 0.11131967
