Navigation - Value based methods/checkpoint/checkpoint_dqn_1.pth (torch_old, 54445 bytes, 6 tensors)

fc1.weight f4 [128, 37]
-0.23230956 0.06414627 0.03873428 -0.013398149 -0.09922356 -0.21930124 0.11801343 0.058868553
-0.3014578 0.026969565 0.12513328 -0.51123357 -0.6636844 0.066646196 -1.0868875 -0.10409801
0.11404893 0.09852444 -0.6539472 0.10713998 -0.085391186 0.14331143 0.15261458 -0.20517892
0.0121709155 0.07004928 0.20739794 -0.6362978 -0.42574462 -0.1241895 -0.0349995 0.15981944
-0.18858913 -0.2786804 0.024321597 -0.07478752 -0.08338164 0.28103232 0.05869473 -0.15856227
-0.058641482 -0.48712936 -0.06658892 0.056141086 -0.17538029 -0.13843381 0.273921 0.211349
-0.08281728 -0.08284063 -0.060729466 0.24433392 0.22327408 -0.12095106 0.036190957 -0.29510304
-0.34292963 -0.19017479 -0.011820167 -0.062587224 -0.10816775 0.17160496 0.011226053 -0.097680375
-0.013005627 0.011146875 -0.14246108 -0.068814754 0.18334523 0.1040128 0.02589274 -0.16958684
-0.0033593555 -0.011687651 0.08520363 0.123509586 0.21565574 -0.48374763 -0.60331476 -0.41601583
-0.1278659 0.10691998 0.25691584 -0.26124787 0.108788416 -0.17810097 0.052041147 -0.24526879
-0.06661555 -0.39834335 0.053259596 0.24290954 0.14626801 -0.28089523 -0.40439406 -0.31141526
0.324678 -0.17876926 -0.32591623 0.13554597 0.1752463 -0.18176283 -0.18280011 -0.15509483
-0.19691496 -0.077303804 -0.25247368 0.07638825 0.037696693 0.0686155 -0.039863676 0.31226552
-0.33222458 0.06918091 -0.046439886 -0.7288975 0.0925278 -0.08483354 0.030971797 0.06500988
0.037658095 0.024745278 -0.0698918 0.039352994 0.0019130919 -0.1484257 -0.05219512 -0.029892575
-0.008874842 -0.12198252 -0.14474753 0.03281706 -0.09788652 0.029110698 0.13258798 0.007662757
-0.09090388 0.14370672 0.07360225 0.18268043 0.47620067 0.03723813 0.23147464 -0.020843256
-0.009270744 -0.13628191 0.04303437 0.0063319933 -0.063477494 -0.15957265 -0.09091646 -0.115703285
0.15673459 0.20951377 0.18574293 -0.24637401 -0.030924877 -0.12795135 0.05302651 0.07313412
-0.15211008 -0.03652603 -0.23360413 -0.23619942 0.06556053 0.031396057 0.12170633 0.33244354
-0.048062578 -0.1384953 0.24515545 -0.21414225 0.2680127 0.033093967 -0.01974414 0.0731561
-0.039661076 -0.104793265 0.11429223 -0.32455653 0.028432017 0.24263212 0.36716744 0.015506887
0.013265382 -0.048096023 -0.11580464 -0.09842258 -0.023943536 0.19318679 -0.0818978 -0.21867925
0.13598803 -0.44845834 -1.6666807 -0.22320782 0.02775945 0.015489405 -0.23622262 -0.3345857
-0.12295203 -0.07758373 0.023282837 -0.24445447 -0.6316259 -0.00542772 0.06018986 0.10267741
-0.29932 -0.50035006 -0.18086605 -0.13707748 0.091824055 -0.46594357 -0.3017021 -0.14519344
0.04820181 0.037114196 -0.46882513 -1.4254493 0.10399607 0.12197259 0.03259677 -0.07353057
0.020112507 -0.0057363277 -0.14108078 -0.23669593 -0.39030316 0.23493718 0.1161937 0.15363659
-0.03973834 0.115980364 0.22867522 -0.3029261 0.13432817 0.088527575 -0.32307348 -0.11130039
0.10979658 -0.06104219 -0.15646556 0.069747165 -0.018922595 0.05439918 0.016699279 -0.19556397
0.16956885 -0.08323645 -0.11180269 0.0662088 0.05207174 -0.21369298 0.056078475 -0.15161856
00000000: 8fe2 6dbe 1f5f 833d d6a7 1e3d e983 5bbc
00000010: b935 cbbd 8190 60be 06b1 f13d 2720 713d
00000020: ad58 9abe 47ef dc3c f022 003e 34e0 02bf
00000030: 39e7 29bf cd7d 883d 211f 8bbf 5631 d5bd
00000040: 7c92 e93d 2ec7 c93d 1569 27bf 356c db3d
00000050: 93e1 aebd 3bc0 123e ff46 1c3e 6c1a 52be
00000060: 8568 473c ff75 8f3d 2060 543e 6ae4 22bf
00000070: 33fb d9be 1157 febd a35b 0fbd b5a7 233e
00000080: 821d 41be 33af 8ebe 163e c73c 332a 99bd
00000090: fec3 aabd 78e3 8f3e e369 703d 265e 22be
000000a0: 0d32 70bd 0569 f9be c65f 88bd 32f4 653d
000000b0: e496 33be 98c1 0dbe 603f 8c3e df6b 583e
000000c0: 1b9c a9bd 59a8 a9bd 76bf 78bd ac32 7a3e
000000d0: f6a1 643e 30b5 f7bd f83c 143d bf17 97be
000000e0: 7994 afbe 2ebd 42be 60a9 41bc bb2d 80bd
000000f0: 0e87 ddbd 36b9 2f3e 7bed 373c a60c c8bd
00000100: 8e15 55bc 62a1 363c 51e1 11be c0ee 8cbd
00000110: dabe 3b3e aa04 d53d 031d d43c 2ca8 2dbe
00000120: a228 5cbb 907d 3fbc 3e7f ae3d 98f2 fc3d
00000130: dcd4 5c3e c5ad f7be d672 1abf 0700 d5be
00000140: 47ef 02be ddf8 da3d 798a 833e 48c2 85be
00000150: 76cc de3d 1a60 36be 1929 553d be27 7bbe
00000160: bc6d 88bd a9f3 cbbe bc26 5a3d 47bd 783e
00000170: 48c7 153e 80d1 8fbe bd0c cfbe d271 9fbe
00000180: 323c a63e 4a0f 37be 7ede a6be 90cc 0a3e
00000190: c473 333e 0920 3abe f42f 3bbe 2ed1 1ebe
000001a0: 13a4 49be 7551 9ebd 3b44 81be 7171 9c3d
000001b0: d967 1a3d 4986 8c3d 1848 23bd 44e1 9f3e
000001c0: 5719 aabe b9ae 8d3d c037 3ebd 0799 3abf
000001d0: 377f bd3d 35bd adbd 91b8 fd3c e623 853d
000001e0: 603f 1a3d 9cb6 ca3c 6f23 8fbd 9b30 213d
000001f0: b6c0 fa3a e8fc 17be 8dca 55bd 46e1 f4bc
00000200: c967 11bc f9d1 f9bd b238 14be 2e6b 063d
00000210: ba78 c8bd 8f79 ee3c 25c5 073e dd17 fb3b
00000220: d02b babd db27 133e c7bc 963d 9410 3b3e
00000230: 93d0 f33e 0287 183d b007 6d3e 7abf aabc
00000240: 52e4 17bc 7c8d 0bbe cf44 303d 9c7c cf3b
00000250: 7d00 82bd 0367 23be 6932 babd d8f5 ecbd
00000260: 087f 203e c78a 563e 6533 3e3e 7849 7cbe
00000270: 2b56 fdbc ae05 03be 5332 593d 57c7 953d
00000280: bfc2 1bbe 529c 15bd ec35 6fbe 43de 71be
00000290: 9944 863d 2799 003d 2b41 f93d 0a36 aa3e
000002a0: 44dd 44bd b6d1 0dbe 080a 7b3e 1b48 5bbe
000002b0: f638 893e 8a8d 073d 76be a1bc ded2 953d
000002c0: a773 22bd da9d d6bd 0b12 ea3d 462c a6be
000002d0: 43ea e83c 8e74 783e 5ffd bb3e 9910 7e3c
000002e0: 0b57 593c 5600 45bd fc2a edbd c791 c9bd
000002f0: 3c25 c4bc c2d2 453e 09ba a7bd 74ed 5fbe
00000300: 7240 0b3e 559c e5be cb55 d5bf 9790 64be
00000310: c967 e33c 46c7 7d3c 58e4 71be d14e abbe
00000320: 46ce fbbd 38e4 9ebd a6bb be3c 4652 7abe
00000330: 3cb2 21bf 04db b1bb a589 763d 8948 d23d
00000340: 7940 99be f116 00bf f334 39be 0a5e 0cbe
00000350: 400e bc3d 2890 eebe b378 9abe 97ad 14be
00000360: 436f 453d 0e05 183d d909 f0be 1f75 b6bf
00000370: e4fb d43d c4cc f93d 3184 053d 3297 96bd
00000380: fcc2 a43c cef7 bbbb 7b77 10be 6b60 72be
00000390: d1d5 c7be 5f93 703e f6f6 ed3d e952 1d3e
000003a0: abc4 22bd 1d87 ed3d d629 6a3e 2119 9bbe
000003b0: 538d 093e f24d b53d e369 a5be 75f1 e3bd
000003c0: 08dd e03d 6007 7abd 8238 20be 9ad7 8e3d
000003d0: 8f03 9bbc add1 5e3d edcc 883c ec41 48be
000003e0: 75a3 2d3e df77 aabd cff8 e4bd 7b98 873d
000003f0: 2d49 553d 55d2 5abe 8bb2 653d e541 1bbe

fc1.bias f4 [128]
-0.035704684 0.033807773 -0.018545263 -0.029731587 -0.00042176765 -0.13075955 0.065099865 0.091076136
-0.20348625 0.12467198 -0.18470576 0.068388894 0.044465348 0.0018021293 -0.109638974 -0.055846512
0.090912126 -0.13112791 -0.10816941 -0.045141313 -0.13982417 0.084516324 0.13870375 -0.0303406
0.118678965 0.1985807 0.18038593 -0.078277946 -0.11361498 -0.05501576 0.14283255 0.043060757
-0.11144218 -0.03744305 0.03659324 -0.23950773 0.01773826 0.06900517 0.050272837 0.025243232
-0.05122789 0.09245064 0.094630696 0.038072955 0.06658457 -0.15409598 0.060655225 -0.050673243
-0.14900918 0.058168363 -0.0679036 0.118824005 0.037138656 0.022639714 0.09117777 0.063673556
-0.0033819485 -0.12399852 0.024125598 -0.00013714407 -0.10250067 0.032823063 0.08712362 -0.09480642
0.08049777 0.02352284 -0.04243521 -0.054089285 -0.15622985 -0.12087028 0.03208549 -0.044724993
0.054743484 -0.13406725 -0.06833758 0.013411507 0.13435656 -0.11542864 0.06381103 -0.009157433
0.0080173705 0.10887728 0.010749872 -0.12152588 0.020931417 0.16924295 0.14415556 -0.14075014
-0.072809964 0.1300989 0.08501071 -0.023380615 -0.096049584 -0.18629284 -0.11109423 0.021851439
-0.020748483 -0.21774754 -0.047538444 0.105331495 -0.12249339 -0.16593537 0.13900259 0.15526558
-0.17963743 -0.22785868 -0.13335931 0.11923388 -0.14183061 -0.070271686 0.08032955 -0.032367524
-0.100833245 -0.04866411 0.0295438 0.10323708 0.1544384 0.091767736 0.15384302 -0.076855876
-0.042237956 0.03551224 -0.12859538 -0.20044579 -0.00031451395 0.01481581 0.11846626 -0.008877424
00000000: 133f 12bd 057a 0a3d 3cec 97bc a88f f3bc
00000010: b220 ddb9 d5e5 05be 1453 853d 2086 ba3d
00000020: b35e 50be 0654 ff3d 8223 3dbe 7a0f 8c3d
00000030: 4c21 363d 6d35 ec3a 668a e0bd 50bf 64bd
00000040: 2330 ba3d 6546 06be ec87 ddbd 19e6 38bd
00000050: 112e 0fbe e516 ad3d 5b08 0e3e da8c f8bc
00000060: f50d f33d bd58 4b3e 17b7 383e 3050 a0bd
00000070: f8ae e8bd 3558 61bd b242 123e 7a60 303d
00000080: cc3b e4bd e25d 19bd cbe2 153d 8441 75be
00000090: d44f 913c 9552 8d3d e4ea 4d3d e5ca ce3c
000000a0: 56d4 51bd c356 bd3d bdcd c13d 63f2 1b3d
000000b0: 7e5d 883d 56cb 1dbe 9d71 783d bf8e 4fbd
000000c0: dd95 18be f341 6e3d 0b11 8bbd 005a f33d
000000d0: b41e 183d ec76 b93c 69bb ba3d 4867 823d
000000e0: aea3 5dbb f0f2 fdbd 0ca3 c53c 55ce 0fb9
000000f0: dfeb d1bd 7a71 063d de6d b23d de29 c2bd
00000100: 04dc a43d f9b2 c03c 8bd0 2dbd ba8c 5dbd
00000110: b8fa 1fbe d68a f7bd 136c 033d 8e31 37bd
00000120: b43a 603d ed48 09be 93f4 8bbd f0bb 5b3c
00000130: c494 093e da65 ecbd 5baf 823d 0f09 16bc
00000140: 4a5b 033c 0dfb de3d 3b20 303c 90e2 f8bd
00000150: 5d78 ab3c 064e 2d3e 849d 133e ce20 10be
00000160: 641d 95bd a538 053e 181a ae3d b488 bfbc
00000170: a5b5 c4bd 8dc3 3ebe 5f85 e3bd ca01 b33c
00000180: b9f8 a9bc 36f9 5ebe acb7 42bd 0ab8 d73d
00000190: d1dd fabd f6ea 29be b256 0e3e f1fd 1e3e
000001a0: e0f2 37be c953 69be 588f 08be e430 f43d
000001b0: 0b3c 11be 9aea 8fbd d283 a43d cf93 04bd
000001c0: a981 cebd 0554 47bd d705 f23c f66d d33d
000001d0: 1a25 1e3e b9f0 bb3d 0689 1d3e 9d66 9dbd
000001e0: b501 2dbd 4875 113d 82ae 03be a941 4dbe
000001f0: 59e5 a4b9 03be 723c 709e f23d 9d72 11bc

fc2.weight f4 [64, 128]
-0.19511744 -0.10998101 -0.20519371 -0.12483579 -0.03598117 0.11854325 -0.004745156 -0.20972727
0.09686272 0.048321534 -0.13831346 0.418817 0.017551085 -0.013132173 0.03263314 -0.0853984
0.104539186 -0.07932156 -0.23673126 -0.00093187485 0.08289512 -0.07238498 0.0047160694 -0.10476052
0.008734653 0.024048978 -0.10904259 0.008787982 -0.20072734 0.24033722 -0.046394814 0.06634901
0.01706427 -0.0308404 -0.0846571 -0.14731948 0.09629453 -0.049148362 0.25982937 -0.062082287
-0.048404425 0.0060038734 -0.19834742 -0.17241558 -0.110026486 -0.063529484 -0.05488616 -0.14377713
-0.037239518 -0.055985056 -0.22394747 0.19790873 0.0067722616 -0.009868587 -0.04021191 0.13742761
0.08895248 -0.012182975 0.08753224 -0.08729782 0.056357034 -0.0974712 -0.09661532 -0.17814034
-0.0017239788 0.1405581 -0.060287625 -0.07310816 -0.059614167 -0.17913726 -0.022910189 -0.03878975
-0.07270591 0.12564309 0.043397922 -0.009012125 -0.22311148 -0.02835003 -0.004530117 0.062026616
-0.03939216 0.07444593 -0.1647983 -0.062491726 -0.0528297 -0.3722652 -0.020122077 -0.12800914
-0.23993641 0.061508916 -0.31213662 -0.06283007 -0.082141586 -0.00408487 -0.022590045 0.09342426
-0.11132861 0.0034840554 -0.13995475 -0.059802167 0.12705927 -0.13525808 -0.24351734 0.004759567
-0.022292012 0.056370456 -0.07216316 -0.0675709 -0.069615476 -0.10190816 0.095779076 -0.4406092
-0.13776967 -0.110154 -0.33931518 -0.067470595 0.10533056 -0.25208226 0.013701759 -0.011118605
0.0827078 -0.11755142 0.02491188 -0.09887321 -0.028517308 0.0049022753 -0.081992626 0.09682909
-0.051609214 -0.023919469 -0.4038887 0.06548667 -0.14366008 0.056530297 0.024111085 0.049173974
0.023519464 -0.109351605 -0.13331065 -0.05481826 -0.12341431 0.05675905 0.039438974 0.02013098
-0.0072290776 0.18408786 -0.018690577 0.027699584 0.040343024 0.07394578 -0.030001987 0.016825417
-0.22427596 -0.03208002 0.13795322 -0.13809109 -0.029421939 0.054862484 -0.13184069 -0.16542822
0.021255378 0.025103273 0.061001148 0.12790641 0.0076277303 0.10502245 0.0068370234 -0.1483553
-0.016428187 0.055650007 0.049563274 0.080263294 -0.15438287 -0.090065755 -0.05928144 -0.060423248
-0.30137652 -0.12962942 -0.19324873 -0.049922127 -0.19627434 -0.031979445 -0.07047144 -0.09737576
0.0060647014 -0.15290414 -0.08200237 -0.22068751 -0.07312386 -0.11362877 -0.03459556 0.011099434
-0.15605174 0.1408556 0.022318728 0.1283619 -0.034845587 0.00062830286 -0.049220607 0.31432706
-0.08312728 -0.014100023 0.0707713 -0.079064555 0.0012208819 -0.14017968 -0.27725592 0.18604596
-0.22246635 -0.17036618 -0.22310953 -0.042453278 -0.1898132 -0.09475877 0.06439162 -0.09973848
0.2118472 -0.19051369 -0.08162194 -0.08903652 -0.0014688548 -0.12734523 -0.2009969 -0.4500028
-0.17322841 -0.036689393 0.07074701 -0.0029600805 0.075443216 -0.021446187 0.008923487 0.28576174
-0.08192292 -0.4258015 0.25343004 0.021556346 -0.08511345 -0.30093125 0.033219267 0.052319907
0.04732965 0.073325284 -0.27477902 0.046884276 -0.31643412 0.027621053 -0.09271146 -0.019001443
-0.0924789 0.07736855 0.034534663 -0.066877514 -0.023787912 -0.051383566 -0.21291676 -0.03743963
00000000: decc 47be b93d e1bd 4d1e 52be e8a9 ffbd
00000010: fe60 13bd cec6 f23d 417d 9bbb bfc2 56be
00000020: f65f c63d cdec 453d 0ba2 0dbe 2f6f d63e
00000030: 4bc7 8f3c 5328 57bc 54aa 053d 5be5 aebd
00000040: a418 d63d 5873 a2bd ae69 72be 1049 74ba
00000050: ebc4 a93d 943e 94bd 4289 9a3b af8c d6bd
00000060: ca1b 0f3c 5d02 c53c b951 dfbd 78fb 0f3c
00000070: 788b 4dbe f61a 763e 7d08 3ebd fde1 873d
00000080: 5eca 8b3c 02a5 fcbc b460 adbd ebda 16be
00000090: 1136 c53d cb4f 49bd 5b08 853e ff49 7ebd
000000a0: b843 46bd 24bc c43b 961b 4bbe b68d 30be
000000b0: 9155 e1bd bf1b 82bd 4fd0 60bd 503a 13be
000000c0: 7788 18bd 9650 65bd 7c52 65be 96a8 4a3e
000000d0: d9e9 dd3b dbaf 21bc 3eb5 24bd d3b9 0c3e
000000e0: b82c b63d 1a9b 47bc 1a44 b33d 33c9 b2bd
000000f0: a2d6 663d fb9e c7bd 41de c5bd 6c6a 36be
00000100: 21f7 e1ba 76ee 0f3e 28f0 76bd bbb9 95bd
00000110: fc2d 74bd c26f 37be 26ae bbbc 00e2 1ebd
00000120: d6e6 94bd 95a8 003e 05c2 313d 98a7 13bc
00000130: 5677 64be 523e e8bc 6071 94bb 9f0f 7e3d
00000140: ac59 21bd 1c77 983d e3c0 28be 53f7 7fbd
00000150: f563 58bd 8b99 bebe 0ed7 a4bc d414 03be
00000160: e4b1 75be c6f0 7b3d 5fd0 9fbe 0dad 80bd
00000170: d939 a8bd 60da 85bb c20e b9bc 3855 bf3d
00000180: 4100 e4bd c054 643b 4c50 0fbe 1ef3 74bd
00000190: d31b 023e 1881 0abe 9c5c 79be 24f6 9b3b
000001a0: bd9d b6bc b5e4 663d 47ca 93bd 9d62 8abd
000001b0: 8f92 8ebd 3ab5 d0bd d227 c43d 8797 e1be
000001c0: 7e13 0dbe 6c98 e1bd b8ba adbe 062e 8abd
000001d0: 8cb7 d73d ed10 81be 587d 603c cf2a 36bc
000001e0: b562 a93d cdbe f0bd 0014 cc3c 0a7e cabd
000001f0: 219d e9bc 44a3 a03b c0eb a7bd 544e c63d
00000200: 2f64 53bd c3f2 c3bc 80ca cebe e01d 863d
00000210: a11b 13be 508c 673d 9c84 c53c a66a 493d
00000220: e4ab c03c bcf3 dfbd 9682 08be 1d89 60bd
00000230: a4c0 fcbd 2d7c 683d c38a 213d bae9 a43c
00000240: e6e1 ecbb 8781 3c3e fb1c 99bc 3dea e23c
00000250: ba3e 253d e370 973d bac6 f5bc 75d5 893c
00000260: 99a8 65be 5766 03bd 9c43 0d3e c067 0dbe
00000270: 4706 f1bc 7cb7 603d 3f01 07be 0466 29be
00000280: c21f ae3c 61a5 cd3c 57dc 793d e6f9 023e
00000290: 0af2 f93b 0316 d73d 1c09 e03b 74ea 17be
000002a0: 6894 86bc 43f1 633d dc02 4b3d 1561 a43d
000002b0: 8b16 1ebe 6574 b8bd 18d1 72bd 5e7e 77bd
000002c0: 064e 9abe 93bd 04be ffe2 45be 257b 4cbd
000002d0: 24fc 48be e1fc 02bd 5553 90bd f16c c7bd
000002e0: 67ba c63b e792 1cbe dcf0 a7bd e8fb 61be
000002f0: f6c1 95bd 33b6 e8bd 13b4 0dbd 67da 353c
00000300: 07cc 1fbe 733c 103e c4d5 b63c 4d71 033e
00000310: 3fba 0ebd b1b4 243a 8c9b 49bd 7aef a03e
00000320: a33e aabd c803 67bc 8bf0 903d 99ec a1bd
00000330: 0006 a03a 438b 0fbe 7df4 8dbe d582 3e3e
00000340: 38ce 63be 7974 2ebe d376 64be 7de3 2dbd
00000350: 645e 42be e310 c2bd c1df 833d b043 ccbd
00000360: 79ee 583e 0516 43be 6729 a7bd c758 b6bd
00000370: 9786 c0ba ca66 02be 22d2 4dbe c466 e6be
00000380: ca62 31be 9e47 16bd cfe3 903d e9fd 41bb
00000390: f981 9a3d eaaf afbc d133 123c 5d4f 923e
000003a0: 34c7 a7bd a702 dabe 95c1 813e ef96 b03c
000003b0: f64f aebd a913 9abe ed10 083d 664d 563d
000003c0: bcdc 413d 912b 963d d6af 8cbe ba09 403d
000003d0: a703 a2be 8c45 e23c 82df bdbd eaa8 9bbc
000003e0: 9465 bdbd 6773 9e3d 3874 0d3d 14f7 88bd
000003f0: dede c2bc 9377 52bd da06 5abe 4c5a 19bd

fc2.bias f4 [64]
0.12332273 -0.10717063 0.19234182 -0.022993222 -0.010853616 -0.042759154 -0.075868964 0.04257303
-0.09885623 -0.058300193 -0.03783246 0.015906593 0.018565001 -0.05457647 -0.0871603 -0.04301625
-0.010805392 0.0023616862 -0.107337296 -0.11376834 0.01359724 0.11611148 -0.029886808 0.0440757
-0.11490012 0.050148915 0.41589049 0.0055476143 -0.052615814 -0.11795955 0.014887517 0.30326897
-0.13987544 0.04671546 0.041447945 -0.15499529 -0.07917757 0.039284553 -0.022434618 0.093135
0.024966005 -0.045763496 0.044863187 0.025504299 0.3116024 0.10516341 0.010440266 -0.12386377
0.065108865 -0.07641103 -0.011840745 -0.062307373 -0.18473212 0.25264683 0.07876749 0.31081173
-0.056315288 0.31162417 0.14506342 0.09119138 0.038811736 -0.081354566 -0.10881516 -0.041383278
00000000: a190 fc3d 467c dbbd 41f5 443e 485c bcbc
00000010: 5dd3 31bc 3924 2fbd 3061 9bbd 0f61 2e3d
00000020: 2375 cabd 2fcc 6ebd 36f6 1abd 8b4e 823c
00000030: a115 983c 948b 5fbd 1981 b2bd cf31 30bd
00000040: 1909 31bc 85c6 1a3b a8d3 dbbd 60ff e8bd
00000050: f5c6 5e3c dbcb ed3d 2ed5 f4bc b988 343d
00000060: c150 ebbd f368 4d3d 99ef d43e c3c8 b53b
00000070: ae83 57bd c794 f1bd c6ea 733c 1246 9b3e
00000080: 823b 0fbe b658 3f3d 52c5 293d 16b7 1ebe
00000090: da27 a2bd d7e8 203d cec8 b7bc 90bd be3d
000000a0: 8285 cc3c 8172 3bbd 76c2 373d 64ee d03c
000000b0: 5a8a 9f3e ea5f d73d a60d 2b3c 4aac fdbd
000000c0: cc57 853d 637d 9cbd afff 41bc 0436 7fbd
000000d0: 6b2a 3dbe ed5a 813e da50 a13d b722 9f3e
000000e0: dcaa 66bd 348d 9f3e 818b 143e 8cc2 ba3d
000000f0: 0ef9 1e3d 399d a6bd 7cda debd 8381 29bd

fc3.weight f4 [4, 64]
0.15764265 0.12629284 0.10185958 0.3583575 -0.18484366 0.2961439 0.18266346 -0.052360136
-0.01582909 0.12212356 0.07264714 0.13123639 0.056955174 0.3328724 -0.087779455 -0.020220548
-0.21908495 0.08609957 -0.10168871 -0.14383976 -0.11421303 0.15085804 0.06293992 -0.021330697
-0.08018538 -0.45183358 0.19007048 0.37501934 0.030248083 -0.4767559 -0.16349736 0.16065268
-0.05808968 0.52973723 0.3676675 -0.24787657 -0.058256634 0.089289345 -0.34809247 0.23239197
0.2816129 -0.13527676 -0.0068706134 0.27909076 0.098928265 -0.03236145 0.063669674 -0.24984387
0.111450456 0.2642361 0.02019174 0.23090541 -0.17757179 0.101946644 0.16245209 0.11214749
-0.5296736 0.14016522 0.09708327 0.12378004 -0.06348746 0.086378336 0.12051396 0.26869813
0.1866923 0.33953527 0.08889047 -0.09840359 0.21073225 0.36873484 -0.2954921 0.09737967
0.07687156 0.2253732 -0.004178676 0.17886068 0.01519776 0.3048502 0.08520533 -0.3495496
-0.117717616 0.13909265 0.010743811 -0.04076447 -0.45675737 0.20625266 -0.01731825 0.03423202
-0.05291679 -0.11361192 0.20171459 0.34455663 0.11113997 -0.092685655 -0.103356875 0.05088639
-0.21438937 0.27772063 0.28206843 -0.16336627 -0.18616462 -0.32232973 -0.3558398 0.07313271
0.16925426 -0.11914216 0.004880082 0.22395217 0.12136847 0.2189121 0.29479238 0.18737358
0.1270388 -0.021059504 0.076489665 -0.06575549 -0.12662786 0.15213172 0.14666818 0.09111225
0.21050026 0.1250147 0.13024761 0.021450458 0.5295724 0.3112837 0.31556246 0.68969625
0.044036515 0.051760428 0.14318964 0.112824075 0.15127537 0.42181775 -0.2276184 0.383102
0.016672926 0.13714701 0.05681004 0.09265047 -0.48833475 0.09276485 0.16962631 0.29071492
-0.113777675 -0.21503352 -0.15251324 -0.35460415 0.11549324 0.2040633 0.088030875 0.2336399
-0.16203393 -0.20310529 0.17193711 0.20672435 -0.058742147 -0.16550413 0.19788091 0.057059128
-0.2797888 0.2670639 0.43111825 -0.018342141 -0.23478265 -0.082486674 0.09825047 0.0146925505
0.15877193 -0.18824565 0.17038055 0.013062955 0.024502646 0.21576577 -0.47116023 -0.285557
0.22546908 -0.14052212 0.25891137 0.32577178 -0.18508676 0.10503396 0.05177308 0.14390747
0.05821497 0.16568652 0.18210079 -0.03751381 -0.2455969 0.48713392 0.33023554 -0.09331226
0.11429656 -0.17417386 0.14163958 0.2809986 0.007752336 0.05446541 -0.23267052 -0.24814507
-0.07480299 -0.006067939 -0.058121465 0.1206164 -0.44403628 0.29038152 0.108228624 -0.016329827
-0.08674656 0.43214583 -0.32248887 0.07027686 0.1448457 0.17397973 -0.33415398 0.12663269
-0.0050120126 0.1672955 0.15620789 0.54583544 0.18875687 -0.12445363 -0.26056 0.12291235
-0.52585524 0.5586753 0.22441445 -0.07605698 -0.32545754 -0.3495101 -0.051392138 0.04370994
0.22929613 -0.10254127 -0.29371944 -0.022345744 0.15677686 -0.4763798 -0.12255244 -0.21140064
-0.027108602 0.22477503 0.058436036 0.4600058 0.07080675 0.047162447 0.20828922 0.15245225
-0.045298744 0.06908949 0.016159564 -0.032242954 0.09388249 0.03181495 -0.03055342 0.5058483
00000000: 136d 213e e952 013e c19b d03d a27a b73e
00000010: a847 3dbe 2ca0 973e 210c 3b3e 9577 56bd
00000020: 02ac 81bc eb1b fa3d 06c8 943d d562 063e
00000030: d449 693d 406e aa3e b7c5 b3bd 90a5 a5bc
00000040: ce57 60be f954 b03d 2c42 d0bd bb4a 13be
00000050: 85e8 e9bd 887a 1a3e a5e6 803d b7bd aebc
00000060: 3c38 a4bd bb56 e7be d6a1 423e 8902 c03e
00000070: d4ca f73c 5919 f4be da6b 27be 2382 243e
00000080: 72ef 6dbd dc9c 073f ea3e bc3e 5bd3 7dbe
00000090: 829e 6ebd 55dd b63d 2d39 b2be 29f8 6d3e
000000a0: 912f 903e fe85 0abe e222 e1bb fce4 8e3e
000000b0: e79a ca3d 718d 04bd 3f65 823d 12d7 7fbe
000000c0: 2340 e43d f449 873e 2669 a53c 7872 6c3e
000000d0: 61d5 35be 67c9 d03d d759 263e 95ad e53d
000000e0: b098 07bf 7987 0f3e 98d3 c63d 6480 fd3d
000000f0: b705 82bd 20e7 b03d 06d0 f63d cd92 893e
00000100: 442c 3f3e 91d7 ad3e 350c b63d d287 c9bd
00000110: 32ca 573e d0ca bc3e be4a 97be fe6e c73d
00000120: d66e 9d3d 3bc8 663e 46ed 88bb 4127 373e
00000130: 0700 793c 5315 9c3e 2280 ae3d 2af8 b2be
00000140: ef15 f1bd 4e6e 0e3e cf06 303c a5f8 26bd
00000150: 1adc e9be e633 533e 01df 8dbc e036 0c3d
00000160: 47bf 58bd 5ead e8bd 458e 4e3e ba69 b03e
00000170: 5a9d e33d fad1 bdbd c5ac d3bd 3f6e 503d
00000180: e388 5bbe 6631 8e3e 466b 903e 7d49 27be
00000190: f0a1 3ebe 6708 a5be a230 b6be 9ac6 953d
000001a0: fd50 2d3e ce00 f4bd 18e9 9f3b b853 653e
000001b0: 0890 f83d 7e2a 603e 07ef 963e dcde 3f3e
000001c0: 7616 023e fb84 acbc 9da6 9c3d d0aa 86bd
000001d0: bcaa 01be 6bc8 1b3e 2f30 163e 0f99 ba3d
000001e0: 618d 573e db03 003e a15f 053e dfb8 af3c
000001f0: 0f92 073f 9460 9f3e 6791 a13e ef8f 303f
00000200: a25f 343d be02 543d 4ea0 123e 4f10 e73d
00000210: eee7 1a3e 7ff8 d73e cc14 69be f225 c43e
00000220: a995 883c 4470 0c3e a5b1 683d 88bf bd3d
00000230: 0307 fabe 7ffb bd3d 85b2 2d3e 96d8 943e
00000240: 4504 e9bd bf31 5cbe 6e2c 1cbe ad8e b5be
00000250: b887 ec3d f8f5 503e 8849 b43d 4c3f 6f3e
00000260: 39ec 25be d5fa 4fbe 4810 303e 8caf 533e
00000270: 9b9b 70bd ea79 29be 4ba1 4a3e d5b6 693d
00000280: 7a40 8fbe 99bc 883e 88bb dc3e 4242 96bc
00000290: dd6a 70be c6ee a8bd 8b37 c93d 06b9 703c
000002a0: 1c95 223e 78c3 40be 3d78 2e3e 0106 563c
000002b0: c6b9 c83c b4f1 5c3e ea3b f1be 8734 92be
000002c0: 5ee1 663e 08e5 0fbe 0890 843e 8fcb a63e
000002d0: 6287 3dbe 0b1c d73d 0210 543d 7b5c 133e
000002e0: d272 6e3d baa9 293e a178 3a3e 15a8 19bd
000002f0: c17d 7bbe 9e69 f93e a214 a93e 801a bfbd
00000300: 5114 ea3d a25a 32be f709 113e 0cdf 8f3e
00000310: 4f07 fe3b 1f17 5f3d 2e41 6ebe be19 7ebe
00000320: 4f32 99bd 90d5 c6bb c610 6ebd bb05 f73d
00000330: b958 e3be e3ac 943e f8a6 dd3d 21c6 85bc
00000340: 2ea8 b1bd 3842 dd3e 431d a5be 50ed 8f3d
00000350: 6e52 143e be27 323e 3b16 abbe 00ac 013e
00000360: cf3b a4bb 834f 2b3e f6f4 1f3e dfbb 0b3f
00000370: 7b49 413e 8be1 febd 1f68 85be 78b9 fb3d
00000380: 739e 06bf 5805 0f3f e7cc 653e c3c3 9bbd
00000390: 5fa2 a6be fdf2 b2be 9080 52bd 3209 333d
000003a0: 9bcc 6a3e 2801 d2bd 6562 96be 6c0e b7bc
000003b0: 1d8a 203e 0ee8 f3be c6fc fabd 6979 58be
000003c0: dc12 debc 6d2b 663e a05a 6f3d e185 eb3e
000003d0: 2103 913d 692d 413d c549 553e 711c 1c3e
000003e0: 2d8b 39bd ca7e 8d3d 1061 843c 3011 04bd
000003f0: 7745 c03d 6550 023d 2a4b fabc 467f 013f

fc3.bias f4 [4]
0.16775882 0.2007317 0.2803446 0.2229675
00000000: f8c8 2b3e 9c8c 4d3e 5489 8f3e 9851 643e
