Navigation - Value based methods/checkpoint/checkpoint_ddqn_er_33.pth (torch_old, 54447 bytes, 6 tensors)

fc1.weight f4 [128, 37]
000000 50 58 05 bd 2b 57 2c 3e 68 3f bf bd cc fe 83 3d
       -0.032554924 0.16830127 -0.09338266 0.06445083
000010 54 29 30 3e 86 d6 df bc 0c 54 11 3e 0f f2 c4 3e
       0.17203265 -0.027323972 0.14192218 0.38465926
000020 38 d7 e5 bd 56 4a 9b 3e 75 ba 13 3e b2 cd d5 bc
       -0.1122269 0.3033015 0.14426596 -0.02609906
000030 86 2d 9f bd d3 d0 a1 bd e8 df ab be 42 57 cb bd
       -0.07772355 -0.07901158 -0.33569264 -0.099287525
000040 ad f5 2d bc 3d bc 1d 3e 44 cf 90 3e c7 61 a6 3e
       -0.010617656 0.15403838 0.2828313 0.32496473
000050 18 71 d1 3d 46 6b b6 3e d1 0c 45 be 29 c0 66 3e
       0.10226649 0.35628718 -0.1924317 0.22534241
000060 e3 46 ba 3d e1 ed 2a be 69 34 64 3d 9d ef d7 3e
       0.09095552 -0.16692306 0.055714045 0.42174998
000070 cc 8b 1e bf 58 e0 43 3f 42 18 54 3e 3d d3 ba 3e
       -0.61932063 0.76514196 0.20712379 0.36489287
000080 f6 47 24 be 67 8a be be 3f da 65 bf b3 1a 49 3d
       -0.16043076 -0.37214968 -0.8978614 0.049097728
000090 d1 71 c1 bb a4 2e b2 3e 9d 94 12 bb bf 9e 3c bb
       -0.0059034606 0.3480121 -0.0022366412 -0.0028781143
0000a0 ae 9a fc bd 78 62 e3 be a5 ba 06 3d 7f 0f 21 be
       -0.1233419 -0.44411063 0.03289284 -0.15728568
0000b0 66 f6 1b be bc 6f c5 bb 8d 20 84 bd 23 eb 3e 3e
       -0.15230712 -0.0060252827 -0.06451521 0.18644385
0000c0 a3 34 8f bc ba f2 52 be f5 2d c0 3c dd 74 29 3d
       -0.017481154 -0.20600405 0.023459414 0.041371215
0000d0 08 a7 a1 3d df c1 04 3e 59 9a 36 be 59 fd 22 3d
       0.07893187 0.12964581 -0.17832316 0.039792392
0000e0 a9 fb 18 3e 76 45 50 be 4c 2d 9f bd f9 2f 35 3c
       0.1493975 -0.20338997 -0.077723116 0.011058801
0000f0 b7 f7 05 be 6f a5 e9 3d 6f a6 43 be f7 5e 9b 3e
       -0.13082777 0.11408507 -0.19106458 0.3034589
000100 8d bd 38 be 8e f5 99 3c 63 9f 62 3e da e4 9d 3d
       -0.18041058 0.018793847 0.22131114 0.077096656
000110 c8 6a f5 3d 48 2b 65 3e 24 7d cd be 44 72 dd 3e
       0.119832575 0.22379792 -0.40134537 0.4325124
000120 e0 f4 de bd b9 0f 6b 3d 34 e9 3b 3e 4f 2f 27 3e
       -0.1088655 0.05738804 0.18350679 0.1632664
000130 4d 1e bf bd 87 97 99 bb 9d 2c 94 be ba 53 fa 3c
       -0.09331951 -0.004687253 -0.28940287 0.030557502
000140 f7 04 3f bd 00 d3 06 bd b3 45 89 3d 44 40 23 be
       -0.046635594 -0.03291607 0.06702747 -0.15942484
000150 91 e5 98 be 2a 64 83 3d fd fe 0b 3e ba 2b d6 bd
       -0.29862645 0.06415589 0.13671489 -0.10457559
000160 8d ea 87 3d 3c 94 ef be c6 7b 08 3d 78 e6 45 3e
       0.06636534 -0.4679278 0.033321165 0.19326198
000170 36 6b df 3e 90 0d 35 3f 29 eb 57 be 26 81 8f 3d
       0.43636483 0.7072382 -0.210858 0.07007055
000180 02 64 db bd b7 4c 08 3e c8 13 dc 3d 9f 0b c7 be
       -0.10712434 0.13310514 0.107459605 -0.38876054
000190 d3 6d 1c 3e a2 11 14 3e c9 46 18 3e e9 71 52 3f
       0.1527627 0.14459851 0.14870752 0.82205063
0001a0 f7 04 a8 be 02 7f 46 bd ce de f8 3d 87 2f f6 bd
       -0.32816288 -0.048460968 0.121518716 -0.12020784
0001b0 c2 55 f1 3e c9 54 6c bb 2e 40 cf bc 4c e4 b4 3e
       0.4713574 -0.0036061278 -0.025299158 0.35330427
0001c0 82 31 81 be da 0d b2 3c b5 73 aa 3e e7 b2 e0 be
       -0.25233084 0.02173512 0.33291402 -0.43886492
0001d0 2b 86 52 3d b6 a6 01 bd e8 13 00 3e 52 0f 92 3e
       0.051397484 -0.03165313 0.12507594 0.28527313
0001e0 18 4c 20 bc cc 4f ff bc 09 4b 1e bd 26 af b1 3e
       -0.009783767 -0.03116598 -0.038645778 0.3470394
0001f0 e6 42 6a bd 76 23 ce 3d ff 12 09 3e 64 aa 24 bd
       -0.057192706 0.100653574 0.13386153 -0.04020156
000200 da 8b 94 3d 2b 16 39 bc 50 80 2e 3e 77 d6 ac 3e
       0.07253237 -0.011296789 0.17041135 0.33757374
000210 7d 23 ba bd 14 84 30 3d ad 3c 3b 3e 63 df eb 3d
       -0.090888 0.04309471 0.18284865 0.11517217
000220 74 fe 10 3e f1 20 95 3e 0a e3 0d be 7e 76 98 3e
       0.14159566 0.29126695 -0.1385614 0.29777902
000230 97 69 01 3e 3c 7a b3 3e 6e e7 82 be 42 3a 92 bc
       0.12637936 0.35054195 -0.25567192 -0.017850045
000240 c5 88 35 3e bd 83 5d bf cd 26 0d 3d f6 29 3c 3c
       0.17727955 -0.8652914 0.03446083 0.011484614
000250 36 fc 06 be 96 ad 90 be b7 82 1f be d9 44 f9 bc
       -0.13182148 -0.28257436 -0.15577208 -0.030428337
000260 f6 07 6b bf 44 3d 27 3f df 25 96 be 05 7e 20 bf
       -0.9180902 0.6532786 -0.29325768 -0.6269229
000270 bf d2 e5 be 80 4d 2d bf 17 a3 93 bc e8 6d 52 bf
       -0.4488735 -0.6769638 -0.018022103 -0.82198954
000280 59 9a f7 3d 33 51 29 3e e2 76 cc 3e 23 2f 42 bd
       0.12089986 0.16534881 0.3993445 -0.047408234
000290 0d 93 93 3c a7 a5 a1 be 48 81 85 bc b6 b3 77 bd
       0.018014455 -0.31571695 -0.016296998 -0.06047412
0002a0 f6 0f 20 3c 7c e5 82 be 10 10 50 3e e2 4a 71 be
       0.00976943 -0.25565708 0.20318627 -0.23563722
0002b0 fd e4 b9 3b 00 b2 7b be a2 5d 17 be a0 f5 ea 3e
       0.0056730495 -0.2457962 -0.14781812 0.45890522
0002c0 a4 28 f8 be d2 e8 81 bf f3 ec 36 be 9e 52 9b bc
       -0.48468506 -1.0149176 -0.17863826 -0.018960293
0002d0 f8 c4 de 3e 80 20 c2 be ed b2 09 3f 8a 89 db 3d
       0.4350965 -0.3791542 0.53788644 0.10719593
0002e0 41 44 a6 3c d9 88 be 3e 04 56 8b bd b6 b9 59 be
       0.020296218 0.3721378 -0.068035156 -0.2126225
0002f0 24 76 0e be 31 07 a0 3e f8 54 7e 3e 03 bb da bc
       -0.13912255 0.31255487 0.248371 -0.026700502
000300 f3 62 22 be 58 2f b1 3e 28 80 75 bf 4e 53 ce 3d
       -0.15858059 0.34606433 -0.95898676 0.10074483
000310 6e 79 22 ba 2a 19 f7 3c 4a 3c 84 be b3 96 e8 3d
       -0.0006197904 0.030163366 -0.25827247 0.113568686
000320 0a 2e 2f be 23 d2 51 3d 03 52 e1 3c 04 fb 5c 3e
       -0.17107406 0.051225793 0.027504927 0.2158013
000330 96 90 7d 3e b7 9d 67 3e 96 fc 56 bd 72 99 98 3e
       0.24762186 0.22618757 -0.05248698 0.2980457
000340 fb 59 6d bd e6 ad 39 3e aa ca 1e 3e 74 38 d5 bd
       -0.05794714 0.18132743 0.15506998 -0.10411158
000350 b0 87 2d be 5f 88 73 3e 13 11 7d be 2a 4a 27 3e
       -0.16946292 0.2378249 -0.24713545 0.16336885
000360 04 98 1d be 93 b5 89 3d 03 73 3e 3e d3 1c 90 be
       -0.1539002 0.06724086 0.18598561 -0.2814699
000370 a4 99 0f 3d 14 a2 df 3d 74 3d b0 bd 24 1a ec bd
       0.035058632 0.10919586 -0.08605471 -0.115284234
000380 d0 cf 07 be c6 91 2e bd 3f be ab bc a3 15 b5 be
       -0.13262868 -0.04261949 -0.02096474 -0.3536807
000390 12 38 0a 3e a7 18 85 3d 8c c9 13 be b0 8b db 3e
       0.13497952 0.06498843 -0.14432353 0.4288001
0003a0 5f f5 5c bf d7 1f 42 3e 32 e3 0b 3e e6 9f 10 3e
       -0.86311907 0.18957458 0.13660887 0.14123496
0003b0 d8 31 25 3f 26 1b ea 3d 04 57 8b be 5f 37 fd 3d
       0.6452918 0.114309594 -0.27214825 0.12364077
0003c0 5f a9 a9 be 44 ea 71 3e b5 ad 0b bf 01 f0 0c 3e
       -0.33137032 0.23624521 -0.5456193 0.13763429
0003d0 58 f0 c3 3d 3f 2f 49 3c 59 91 f4 3e 9a f4 21 be
       0.09567326 0.012279331 0.4776714 -0.15815964
0003e0 74 1a 55 be 4f 75 ae bd f9 33 cc bd 78 be 6b 3c
       -0.20810872 -0.085184686 -0.099708505 0.014388673
0003f0 88 1b 08 3e a4 38 72 be 03 d3 8c 3d 0e 19 87 be
       0.13291752 -0.23654419 0.06876185 -0.26386303

fc1.bias f4 [128]
000000 88 af 81 3c 65 a4 97 bb 1c 5a e8 bd e6 43 ba 3d
       0.01583077 -0.0046277517 -0.11345312 0.09094982
000010 f2 b7 08 3d 14 c5 06 bd b1 80 bb bd 80 f1 1e 3d
       0.03337855 -0.032902792 -0.09155405 0.03880453
000020 39 5e d4 bd f7 72 35 3e 9c 64 00 be d5 1b 06 be
       -0.10369534 0.17719637 -0.1253838 -0.13096555
000030 5d 4e 0b be 8c fb 93 3d 46 d7 06 bd f3 52 d1 b9
       -0.13604112 0.07225713 -0.032920144 -0.00039925388
000040 5b f8 23 3d 09 a7 1e 3c 66 9f 8a bd fe 67 88 bc
       0.040031772 0.009683379 -0.06768684 -0.01665115
000050 0f 31 b2 bd 80 14 12 3e 79 33 48 3e 90 49 89 bd
       -0.087007634 0.14265633 0.19550885 -0.06703484
000060 1b c8 31 3e 85 e0 3d 3e 65 37 91 3e 2e d4 a8 3c
       0.1736149 0.18542679 0.28362575 0.020608988
000070 b6 1a c4 3c cd ab e4 bd 67 58 90 3c f9 3e 69 3e
       0.023938518 -0.11165581 0.017620279 0.22777928
000080 01 88 04 be dd 82 b4 3d 4a 8b 5e 3c f5 1f 38 be
       -0.12942506 0.08814023 0.013583014 -0.1798094
000090 8b 72 ea 3d d7 dd 26 3e d9 f8 e3 3d 42 e9 b2 3d
       0.114476286 0.16295563 0.11131448 0.08735897
0000a0 d2 13 07 3e af 05 14 3e 56 73 4f 3e aa d3 18 3c
       0.13191155 0.14455293 0.20258841 0.009327808
0000b0 09 0c d3 3d 05 40 27 be 45 14 41 3d 59 75 1d be
       0.1030503 -0.16333015 0.04713847 -0.15376796
0000c0 57 70 83 be 9b 05 2d 3e a4 e2 6b 3c 52 95 eb bd
       -0.25671646 0.1689667 0.014397297 -0.1150309
0000d0 45 0d 4a bc fb a3 12 3e 44 41 04 3e 05 19 9f 3d
       -0.012332265 0.14320366 0.12915522 0.07768444
0000e0 0b b9 b1 bc 6e 0f c9 bd 53 71 c2 3d 2f b6 9e bd
       -0.02169468 -0.09817396 0.09494271 -0.077495925
0000f0 09 cd e7 bd 96 8b fe 3b fa 55 df 3d 0d 03 4a bd
       -0.11318404 0.007768105 0.109050706 -0.049319316
000100 a1 38 03 3e b4 d2 97 3d f2 19 3e 3e 67 44 a5 bd
       0.12814571 0.07413235 0.18564585 -0.08069687
000110 69 2a d8 be b5 8e 25 bd 3c d9 63 3d 73 4a 97 bb
       -0.42219856 -0.0404193 0.055627093 -0.0046170293
000120 5a 59 57 3d d0 a2 00 be e2 c4 13 be 05 d4 65 3d
       0.052575447 -0.12562108 -0.14430574 0.0561104
000130 09 13 a0 3e 2b 14 3f be dc ae e8 3d c6 77 da 3c
       0.31264523 -0.18660037 0.11361477 0.02666844
000140 32 9f 62 3b 0a af f9 3d d6 a9 fb 3d a4 22 34 be
       0.003457975 0.12191589 0.12288253 -0.1759134
000150 e8 82 4c 3d 04 49 fe 3c 1a 6b 58 3e 90 b7 60 be
       0.04992953 0.031040676 0.21134606 -0.21945024
000160 9c b8 8e bc 55 af 73 3e 5b 41 12 3d 5c c1 bb bd
       -0.017422013 0.23797353 0.03570686 -0.0916774
000170 01 d7 5b bd 08 fd de bd 88 4e 03 3e 70 c0 be 3d
       -0.05367184 -0.10888106 0.12822926 0.09314048
000180 ec 73 17 bd 69 39 e8 bd 8c 83 35 bc ce f9 17 3d
       -0.036975786 -0.11339075 -0.0110787265 0.037103467
000190 f7 02 0a be e3 13 05 be e9 7c 7a 3e af 89 92 3d
       -0.13477693 -0.12995867 0.24461712 0.07155167
0001a0 08 71 51 be 1d 55 a4 be 80 c1 25 3a fb db c0 3d
       -0.20453274 -0.32096186 0.0006323084 0.09416958
0001b0 97 49 4e be c2 19 b4 bc 16 90 51 bc 1a ae 27 be
       -0.2014526 -0.021984939 -0.0127907 -0.16375008
0001c0 04 e4 42 be d8 e9 39 be 75 96 98 3d 26 75 36 3e
       -0.19032294 -0.1815561 0.074505724 0.17818126
0001d0 0f e4 02 3e 74 3b aa 3d a8 86 0b 3c 7e 2e 64 bd
       0.1278231 0.08312121 0.008515991 -0.0557084
0001e0 a2 8b 89 3d b3 f4 fa 3c ae 63 00 bc 44 a0 61 be
       0.06716086 0.03063426 -0.0078362655 -0.22033793
0001f0 9a 90 09 3d c0 fa 08 3e 14 57 e5 bc 1c 1d 0c 3e
       0.03358517 0.13376904 -0.027995624 0.1368298

fc2.weight f4 [64, 128]
000000 a8 c6 1a bd 1f 90 08 be 1a 25 01 be 8a 6b e6 3d
       -0.03778711 -0.13336228 -0.1261181 0.1125098
000010 c8 62 86 3e 00 82 05 3d 78 dd 52 3e b7 d3 18 be
       0.2624724 0.03259468 0.20592296 -0.14924513
000020 d3 03 fc 3c be cf 0c 3d 4f 8f da bd 56 64 4f 3d
       0.030763542 0.034377806 -0.10671865 0.050632797
000030 72 cd e5 bd ff 6b 4a bd 2a 31 46 3d 7f d8 04 be
       -0.11220826 -0.0494194 0.04838673 -0.12973212
000040 f5 5b ad 3b 7a 3e 0a 3e e1 c9 f5 ba 7d 82 62 be
       0.005290503 0.13500395 -0.0018752181 -0.2212009
000050 12 60 82 bd 85 cc ed 3d 73 dd 13 3d 0e b6 10 3e
       -0.0636598 0.11611275 0.036099862 0.14131948
000060 40 56 80 3d e9 bd 8d bd 7e aa 33 bd 5b 4f 6e be
       0.06266451 -0.06920988 -0.043863766 -0.23272459
000070 9f f3 f8 3c eb be 87 3d 96 93 cd be c0 a3 12 be
       0.030389605 0.066282116 -0.40151662 -0.14320278
000080 c4 82 92 bd b3 37 3d bf c1 64 35 be 30 11 4a 3e
       -0.07153848 -0.73913115 -0.17714216 0.19733119
000090 80 e6 1f 3d 53 c9 c0 3c 0d d6 72 be 2d c3 fc 3c
       0.03903818 0.023533499 -0.23714466 0.030854786
0000a0 48 58 cd 3c ac c3 f6 ba 58 eb ef 3d 6f 9f 01 3e
       0.02506651 -0.0018826625 0.1171481 0.12658475
0000b0 3c bc 12 3e 2a ea ac 3d 16 78 d0 3b 1a 3c 90 bd
       0.14329618 0.08443101 0.0063619716 -0.070427135
0000c0 ef 96 8f bd 90 2c 3f bc 6b ad 05 be 45 fa 57 bd
       -0.0701121 -0.011668339 -0.13054435 -0.05272891
0000d0 0d ac 17 be 1d ec 73 3c 32 8b 03 be 3f 67 08 3d
       -0.14811726 0.014887837 -0.12846068 0.03330159
0000e0 67 fa 0e bd e1 60 6f be 1d 23 d4 3d 82 2a 7a bd
       -0.03490677 -0.233768 0.1035826 -0.061075695
0000f0 c7 9b 81 3d 3e 00 eb bd 90 f3 cd 3c 69 63 20 be
       0.0632854 -0.114746556 0.025140554 -0.15662922
000100 f2 aa 92 3d e6 a0 42 bd e4 a6 fe 3d 05 25 14 be
       0.071615115 -0.047516726 0.124341756 -0.14467247
000110 a5 38 48 bd ec c1 de bc 50 de 25 bc b2 ef f0 bd
       -0.048882145 -0.027192079 -0.010123804 -0.11764468
000120 75 a3 d3 3d 34 91 06 bf 04 19 9d bd 98 98 b1 bb
       0.10333911 -0.5256531 -0.07670787 -0.005419802
000130 55 a0 73 bd cd e2 67 be eb a8 73 3e ea 62 07 3e
       -0.059479076 -0.22645111 0.23794906 0.13221326
000140 c3 06 57 3d 6a 59 d2 bd 7a 8c 6e bd a9 ee dc bd
       0.052496683 -0.10270961 -0.058239438 -0.10787708
000150 cc b8 8f bb 5f ac 26 be 6c 11 36 3e b3 77 d4 bc
       -0.004386043 -0.16276692 0.17780083 -0.025935983
000160 71 00 0f 3e 16 33 0d 3e e6 0a 75 be a0 0a 77 bd
       0.13965012 0.13789019 -0.23929939 -0.060312867
000170 2f 8f bc 3c 8f 43 23 3e cc e6 93 bd 78 10 66 be
       0.023017494 0.1594374 -0.072217554 -0.2246722
000180 5b 6f 00 3d 6d 5d e1 3d 38 79 83 be 41 9e 5d be
       0.031356197 0.11004148 -0.2567842 -0.216424
000190 e9 86 fd 3e 4d 62 37 bd e8 cc a0 bb 70 e9 6e be
       0.4951699 -0.04477148 -0.004907239 -0.23331237
0001a0 d4 88 d1 bd da bc 95 be 54 84 0e 3e 10 c5 10 be
       -0.10231176 -0.29245645 0.13917667 -0.14137673
0001b0 86 00 47 be 81 76 c4 be 14 4b b9 bc 66 ba b8 bd
       -0.19433793 -0.3837166 -0.022618808 -0.09019928
0001c0 26 c8 96 be 66 5a 64 3d 10 ce d8 3c 2e fb 00 be
       -0.29449576 0.055750273 0.026465446 -0.12595817
0001d0 5e 4c c1 bc 0c b4 77 bb e0 7a e8 bd e6 55 2d bd
       -0.023595985 -0.0037796525 -0.113515615 -0.042318247
0001e0 d7 3e 27 3e fb 95 77 bc 4c b0 01 be 87 c6 a7 bc
       0.16332565 -0.015111442 -0.12664908 -0.020480407
0001f0 a6 cd 0f 3d 4a 2c a5 bd 56 8b ba bc 80 f2 00 be
       0.03510823 -0.08065088 -0.022771519 -0.12592506
000200 af 94 33 be 8a ac 6a be 9e 43 3f bf f0 b6 84 be
       -0.17537187 -0.22917381 -0.7471255 -0.2592082
000210 5a ad f7 3e 0f ed 99 bd 1e f0 84 be 30 1c 45 be
       0.48374444 -0.075159185 -0.25964445 -0.19249034
000220 1a dc 60 3e 26 ab 1e 3d f4 cc 19 be ff f3 59 be
       0.21958962 0.03873744 -0.1501959 -0.21284483
000230 8c 5d 48 3e 5c 5a ae be c6 92 34 3e 36 ab 15 bf
       0.19566935 -0.34053314 0.17634115 -0.5846437
000240 28 e5 f4 bc 56 a2 4d bd 96 16 c6 be 03 0c 7b 3e
       -0.029894426 -0.050203644 -0.38689107 0.24516301
000250 16 6b a8 bb 35 34 70 bd 4d 3c 43 3e 3e be 1d bf
       -0.0051397188 -0.05864354 0.19065972 -0.6161841
000260 3b 2d c6 bd a9 06 82 be bc 6d 10 bb 35 46 17 bf
       -0.09676596 -0.25395706 -0.0022038063 -0.590915
000270 1c a2 25 3e 78 e5 ce 3e 9b af 51 bf 42 96 b9 be
       0.16175121 0.40409446 -0.8190858 -0.3624745
000280 bc 0b 63 3d d6 28 ba 3e 9d fe 1d be 1a 73 05 3f
       0.055431113 0.3635928 -0.15429159 0.52128756
000290 3c 7f 6e be ab c5 68 3d 56 c1 78 bf 4a ee 49 be
       -0.23290724 0.056829136 -0.9717001 -0.19719806
0002a0 eb 63 17 3e 0e a6 8c be 5d 88 3e be e5 3c 65 be
       0.1478421 -0.2747044 -0.18606706 -0.2238651
0002b0 20 44 8c 3d 75 52 3b 3e ab 42 6a be c6 4c 22 3e
       0.06848931 0.18293174 -0.22876994 0.15849599
0002c0 e1 a4 ec 3d d3 9b 82 bd 3d 07 4f 3e 02 66 76 be
       0.11554886 -0.06377377 0.20217605 -0.2406235
0002d0 59 c6 b5 bd 56 27 73 3d 47 6a 5a bd 40 0e 04 be
       -0.088757224 0.059363686 -0.05332401 -0.12896061
0002e0 d2 a7 57 bd 89 9f 57 3e 8c 35 8f be c7 46 dc 3d
       -0.05265028 0.21056952 -0.2797054 0.10755687
0002f0 b1 e6 0b bf 48 f5 20 be b3 a3 01 be b7 aa a4 bd
       -0.5464888 -0.15718567 -0.12660103 -0.08040374
000300 b6 09 0b 3e f3 7d 70 3c de 8e da bd f0 7e 81 3e
       0.13577923 0.014678466 -0.10671781 0.25292158
000310 37 76 52 3c ea 2f 8e 3d c9 c6 01 bf 0c 08 ba 3d
       0.012845567 0.06942733 -0.5069395 0.09083566
000320 03 11 87 bd 88 fb ca 3e c5 a4 ec 3d 8a 8a 52 3d
       -0.065950416 0.39645028 0.11554865 0.051401652
000330 ff 4b 68 bd ed 72 1b 3e 2c e9 db be 52 c6 24 be
       -0.0567131 0.1518056 -0.42951334 -0.16091278
000340 80 d4 a7 bd 3f 18 35 be c1 74 2f be bb 86 01 3d
       -0.08194828 -0.1768503 -0.17134382 0.03162263
000350 8e 20 16 3c 06 76 91 bd 3e f3 0f 3e 42 fa b5 3c
       0.009163035 -0.07102589 0.14057633 0.022214059
000360 f2 17 66 bd da 48 de 3d d5 f1 7a be 24 43 41 bf
       -0.05617518 0.10853739 -0.24506314 -0.75493073
000370 78 2b 91 3e eb 36 36 bf 75 7c 48 3d 9e c3 59 be
       0.28353477 -0.7117755 0.048946816 -0.21266028
000380 6f 61 05 3f 50 ee e9 3c f0 3f 7d bf b7 a6 6b bf
       0.52101797 0.028556019 -0.98925686 -0.9205126
000390 34 eb 47 bd 35 37 22 3f 0a c5 a5 bd 8d 2b f1 3d
       -0.04880829 0.6336549 -0.08094223 0.11775885
0003a0 27 45 a0 bf 58 eb a4 3d 54 a3 da bd 48 ef 8e 3e
       -1.2521104 0.08052701 -0.106756836 0.27916932
0003b0 32 0c 06 bd 6d 0f c4 be b6 a9 26 be 2d e7 23 be
       -0.032726474 -0.3829302 -0.16275677 -0.16006155
0003c0 8d b5 8b 3e 98 cc d9 3e 6a 33 c6 be 96 1c c5 be
       0.2728695 0.42538905 -0.387111 -0.38498372
0003d0 42 de b0 bb 76 55 bb be 09 13 98 3e 6e ce 46 bf
       -0.005397589 -0.3658864 0.29702023 -0.77658737
0003e0 6c 30 a2 bc 38 9a af 3d 82 af 0e bf 5d be 1e bf
       -0.01979848 0.08574337 -0.55736554 -0.6200922
0003f0 90 63 44 3e 69 60 f0 3c 91 b2 33 bd c0 c2 0b bf
       0.19178605 0.029342847 -0.043871466 -0.5459404

fc2.bias f4 [64]
000000 ef 19 4f 3e cf 7d a7 bd 02 c9 a5 3e d5 de b7 3c
       0.20224737 -0.08178293 0.3237992 0.022445122
000010 e2 2a 8e 3e 15 4b 11 bd 52 f4 b1 bd c4 4b 2b 3d
       0.27767092 -0.035471994 -0.086891785 0.041820303
000020 11 77 9f bd 33 bc a6 bd ff eb bf 3c ed 81 8a 3e
       -0.07786382 -0.08141365 0.023427961 0.2705225
000030 b4 83 20 be 34 77 93 bd c8 50 82 3e 85 32 1c 3d
       -0.15675241 -0.072004706 0.25452256 0.038134117
000040 9b 6e 82 3c 52 9b 12 bd 90 6e 00 be 9d 4b a7 bd
       0.015921881 -0.035792656 -0.12542176 -0.08168719
000050 5e 8c 01 3d d3 9c 36 bd 23 61 cf bd 40 ad 2b bd
       0.031628005 -0.044583153 -0.10125949 -0.04191327
000060 ac 19 42 bb f6 7d 22 3d 28 04 db 3e ea 6b 8f 3e
       -0.0029617352 0.039670907 0.42776608 0.2801202
000070 e2 e6 b6 3d 9d c1 2f bd f2 08 2c 3b 43 72 96 3e
       0.08930756 -0.042909253 0.002625045 0.2938405
000080 23 6b ea bd 41 16 8c 3d dd a4 89 3e b0 6e 8e bc
       -0.11446216 0.06840182 0.26883593 -0.017386764
000090 77 51 35 bd 89 47 5d 3e 11 f1 26 3c c2 5e 4f 3d
       -0.044267144 0.2160932 0.010189311 0.050627477
0000a0 7c 81 9b 3e bf b2 8e bb 36 1e 03 3e 98 80 5f 3c
       0.30372226 -0.0043548043 0.12804493 0.013641499
0000b0 3e 00 9e 3e 06 c5 4f 3c f4 d1 0a 3d e2 bf 8a bd
       0.3085956 0.012681251 0.033891633 -0.0677488
0000c0 ef a2 02 3c 10 16 8a bd 2b ba e6 bc 72 dc 6b 3d
       0.007973417 -0.06742489 -0.028164944 0.05758328
0000d0 93 e6 0e bd 49 e2 9d 3e 86 fa 20 3d 32 aa ab 3e
       -0.03488786 0.30836704 0.039301418 0.33528286
0000e0 5f 51 3a bb fd e7 80 3e c6 f6 bc 3e 6e da 5c 3d
       -0.0028429849 0.25176993 0.36907023 0.05391925
0000f0 4c 49 71 3c d1 23 9a bd b8 a9 f6 3d c2 5e 1b 3e
       0.014726948 -0.07526363 0.1204409 0.15172866

fc3.weight f4 [4, 64]
000000 cf a2 98 3d e6 c3 b1 3e 8f 49 d5 3d f3 c5 c2 3e
       0.07452928 0.3471977 0.10414421 0.38041648
000010 99 0d 33 3e 68 f1 86 bf 05 81 10 3d 83 cf d2 3e
       0.17485656 -1.0542421 0.035279293 0.41173944
000020 6e f5 2c ba 9b 72 8b be c9 5b 05 3e ab 76 11 3e
       -0.0006597851 -0.27235875 0.13023295 0.14205424
000030 32 09 36 be 7f 51 a8 3e 39 2c 79 3d 3f 84 10 3e
       -0.17776945 0.32874677 0.06083319 0.14112948
000040 60 31 91 3e 1d 42 85 bf 56 4d 80 3c c0 20 f6 3d
       0.28357983 -1.0410801 0.015661877 0.12017965
000050 0b 99 c2 bf 2c 2c 0b 3e 43 8c 57 3d 59 cd 88 3d
       -1.5202955 0.13591069 0.052624 0.06679792
000060 60 4a 03 bf f1 de 4b bd a9 82 1e 3e 15 80 db 3d
       -0.5128536 -0.04977316 0.1547953 0.10717789
000070 4c 97 22 3e 31 66 77 bf 72 f9 13 bf 90 80 07 3e
       0.15878028 -0.96640307 -0.578025 0.13232636
000080 d8 eb f5 3d de 41 4d 3d de 16 6f 3e 3b e5 4b bf
       0.12007874 0.050111644 0.23348567 -0.7964665
000090 06 f0 0b 3e 51 f8 55 3e d5 e1 bc bc 2f e0 a3 3e
       0.1366578 0.20895506 -0.023056904 0.32006976
0000a0 2e 59 ab 3d b6 d2 23 3e 3e be 6c 3e c4 43 d9 3d
       0.08366619 0.15998349 0.23119447 0.106086284
0000b0 dd 57 e2 bb 7e 72 00 3e 79 45 8b 3d d1 7f 4b bf
       -0.006907447 0.12543675 0.0680036 -0.7949191
0000c0 4e 3e 47 3e 63 2f 82 bf cb 98 84 bf 2e 5b 06 bf
       0.19457361 -1.0170711 -1.0359129 -0.5248288
0000d0 a7 9a 81 bf d5 a9 00 3e 16 cc 21 bd d3 08 9a 3d
       -1.0125321 0.12564786 -0.039501272 0.07521214
0000e0 61 aa 60 bf 67 64 ab 3c ee 5d ec 3d 94 53 98 3e
       -0.8775998 0.020921899 0.11541353 0.29751265
0000f0 1c c6 cd 3d 95 87 27 3e e5 89 1a 3e 15 6c 65 3d
       0.10047552 0.16360314 0.15091665 0.05601128
000100 5d 6e ad 3d b4 f0 41 3e c5 d8 16 3d cb 84 b2 3e
       0.08468316 0.18939477 0.03682782 0.34866938
000110 4f 0f 1b 3e 0f 4d a7 be c4 2c b8 bf 81 5c b2 3e
       0.15142559 -0.3267598 -1.4388661 0.348362
000120 fa 7d 98 3d fe 3f 55 3e 4f 68 14 3e 7d 17 40 3e
       0.07445903 0.20825192 0.14492916 0.1875896
000130 36 2e 81 bc df d6 06 3e bb 8e 50 3d 43 dc ad 3d
       -0.015769105 0.13167904 0.05091737 0.08489277
000140 fc 3f aa be e6 ef 98 be 8b 5f f9 3d 77 62 5c 3d
       -0.3325194 -0.29870528 0.121764265 0.05380484
000150 38 4d 08 bf 89 d5 92 bf e0 82 5b bf 97 cb 7a bf
       -0.53242826 -1.1471416 -0.85746574 -0.97966903
000160 e7 49 20 bf 17 45 12 bd 18 0a 3b 3e d4 10 42 3e
       -0.62612766 -0.03571042 0.18265569 0.18951732
000170 9e 50 3f 3d 57 be b2 be 36 23 22 bf b8 a4 32 3d
       0.046707742 -0.34910843 -0.6333498 0.04361412
000180 30 97 bb 3e c5 9a d7 bf e0 f6 0a 3e 76 97 0a 3e
       0.36638784 -1.6844107 0.13570738 0.1353434
000190 8c 71 7e bc 04 dd 35 3e b3 b8 34 bd 60 8d 6b 3e
       -0.015530001 0.17760092 -0.044121455 0.23003149
0001a0 7d 1c 59 3c 8e 40 3f bf 61 ce 15 3e d4 70 28 3d
       0.013251421 -0.7470788 0.14629509 0.041123226
0001b0 2b 9f f2 3d de 6e 01 3e 91 bb bb 3b 2d 93 c6 bd
       0.11846765 0.12639949 0.005729147 -0.0969604
0001c0 0c 0f 23 3e 15 1f 70 be 8c bd fa 3d 72 de 2f be
       0.15923709 -0.23449357 0.122431844 -0.171747
0001d0 15 8b 4a bf cf 18 15 3e 19 d1 06 3e f9 ce 1f 3d
       -0.7911847 0.14560245 0.13165702 0.039015744
0001e0 1a 73 02 3f 04 a1 e5 bb c6 df 0d 3e 1e 40 73 3e
       0.5095688 -0.00700772 0.13854894 0.23754928
0001f0 33 38 3c 3e fa ed 54 3e d0 b9 35 3e f8 1b 8b 3d
       0.18380813 0.20793906 0.17746663 0.06792444
000200 ae 58 22 3e df 49 b6 bf d7 6e 87 3d ff fe d2 3d
       0.15854141 -1.4241294 0.06612938 0.10302543
000210 95 58 66 3e ed 73 9b 3c 2d 43 ee be 21 93 b8 3e
       0.22494729 0.018976176 -0.46535626 0.3604975
000220 93 3a f5 3c fc c9 d8 3e f2 82 09 3e 18 17 e2 3d
       0.029935157 0.42341602 0.13428858 0.11039561
000230 2a 36 52 be 5a ce 8b bf 45 85 ba 3d 65 ad f2 be
       -0.20528474 -1.0922348 0.091074504 -0.47397915
000240 37 dc f0 be 55 91 8a bf 76 82 06 3d 35 06 8b bf
       -0.4704301 -1.0825602 0.03283926 -1.0861269
000250 c3 ac 8f bf 08 66 46 3e 49 85 21 3d 66 13 63 3d
       -1.1224598 0.1937486 0.03943375 0.05543842
000260 cf 32 fe bb 4d a6 b3 3c 5f 4e 3d 3e ce 32 85 3e
       -0.0077575217 0.021929884 0.18486927 0.26015323
000270 21 98 60 be 85 b0 e8 3d 11 e4 94 bd 5f 37 2c bc
       -0.21933033 0.113617934 -0.07270063 -0.010511248
000280 79 47 2e 3b ef d8 0e 3c 31 cf 70 3d c8 70 54 bf
       0.0026592894 0.008718713 0.058791343 -0.8298459
000290 86 ed 9e 3c 41 80 15 3e dc 16 a6 3b ef 87 02 3e
       0.01940037 0.14599706 0.005068643 0.12747167
0002a0 9c 87 d6 3d 4b 87 3c 3e 8d 1d f9 be d0 95 a7 bb
       0.10475084 0.18410985 -0.48655358 -0.0051142946
0002b0 18 20 8c 3d 2f 44 c9 bd d2 03 f7 bd 75 5f 92 bf
       0.06842059 -0.09827458 -0.120612755 -1.1435381
0002c0 c7 89 36 3c e1 fe 1a 3e 4c a5 61 3d ef 66 32 bc
       0.011141247 0.15136291 0.05508928 -0.010888799
0002d0 12 81 92 bf f5 64 05 3e f5 43 70 bf bd 92 ff 3d
       -1.1445639 0.13026793 -0.93853694 0.1247916
0002e0 70 60 4b 3e 89 0b 0a 3e 70 57 e3 3d 93 29 71 3d
       0.19861007 0.13480963 0.11100662 0.05887754
0002f0 86 4f 84 bd 55 63 b5 3e 2d f4 b8 3d ec 47 3b bd
       -0.064604804 0.35427347 0.09030948 -0.045722887
000300 2f 99 fa 3c 6b 83 6d 3e 50 36 03 3e 7a 3c e3 3e
       0.030590622 0.23194663 0.12813687 0.44382077
000310 16 f3 13 3e 6b ed a3 3d 37 a4 8a bf 4c 95 9f be
       0.14448199 0.08004268 -1.0831364 -0.31168592
000320 7e 17 92 bd 16 dc c8 be 6b 5b 66 bf af 58 03 3e
       -0.07133387 -0.39230412 -0.8998324 0.12826799
000330 37 52 5b bf 50 5b b2 3e aa 55 06 3e 94 5a 08 3e
       -0.85672325 0.3483529 0.13118616 0.13315803
000340 b7 a2 b9 3e b2 8d 13 3e 15 77 ba bd 5a 6e c0 bd
       0.36256954 0.14409521 -0.09104744 -0.09396048
000350 71 fe a3 3e e4 4a 46 3e c6 ef f9 be 76 e9 74 be
       0.3203006 0.19364506 -0.48815745 -0.23917183
000360 d1 cf 50 bf 70 1b 2a 3d 4e 3b 33 3e 0c 96 cb 3d
       -0.815671 0.041530073 0.17503092 0.099407285
000370 b6 3c a3 3e d6 fa b4 be 67 6c 52 3e a9 52 0d 3e
       0.31882256 -0.35347623 0.20549165 0.13801064
000380 51 cd 21 bf a3 f5 92 bc a1 d1 c9 3d d5 a1 6c bf
       -0.6320391 -0.017939394 0.09854437 -0.92434436
000390 65 0a 51 bf a9 2c 90 3d 7f b9 5c bd c2 3e 43 3d
       -0.81656486 0.07039768 -0.05388784 0.047667272
0003a0 2a e4 0d 3d c3 89 82 bf 02 11 d7 be 34 7a 33 be
       0.034641422 -1.0198292 -0.42005163 -0.17527086
0003b0 6d 47 01 3e 76 d0 4f bf dc 4b 05 bd 89 c4 c7 3c
       0.12624903 -0.8117746 -0.03254305 0.024385707
0003c0 86 3a 12 3d ef d8 de 3d 38 0a 11 3e 9d ba 44 bf
       0.035700344 0.108812205 0.14164054 -0.7684725
0003d0 10 71 29 3e 52 e9 f5 3c 08 99 63 bc 6b a1 0c 3e
       0.16547036 0.030018482 -0.013891466 0.13733451
0003e0 bd 33 70 bd d2 0e bd bc 50 f9 6f 3d d3 59 26 3e
       -0.05864309 -0.023078356 0.058587372 0.16245203
0003f0 17 54 44 bf da 40 3a 3e 8c 96 c6 3d 1f c9 0d 3e
       -0.7669081 0.18188801 0.09696683 0.13846253

fc3.bias f4 [4]
000000 ce e1 19 3e de cd c2 3d 33 cf cc 3e bd 60 bd 3e
       0.15027544 0.09511922 0.4000183 0.36987868
