Navigation - Value based methods/checkpoint/checkpoint_ddqn_er_17.pth (torch_old, 54445 bytes, 6 tensors)

fc1.weight f4 [128, 37]
00000000: 7f22 5f3e 8130 18be 05d5 acbf 4a30 83bf
00000010: 0734 14c0 0111 b1bf f2be 8ebf 4602 853e
00000020: 4845 acbf 0d47 3fbf 66f7 c5bf 809d 90bc
00000030: daeb cbbe 93a9 d7be 6eec 703e dc49 a5bf
00000040: 3d58 08bf 4f12 a1bf fa9a 45be a454 06c0
00000050: 0ef3 d1bf 82a4 5c3e 092a b8bf d594 93be
00000060: a4e2 ca3d 6630 81bf 076a 65bf 0675 e1bf
00000070: 4e41 a63e 530a 1cc0 411e 553d ab39 dabf
00000080: 9dfa dbbf c154 d7bf 9d2f e1bf 5804 2ebe
00000090: fa32 5fbd ca8b 9dbe fd79 a33d e9e2 b9be
000000a0: 4896 cfbb bd3a 02bf 3c85 babe c02b efbe
000000b0: 73e3 87be 71ef 36be 38d8 09bf f377 703d
000000c0: f7db 90be 13da f1be 590f 01bc 243d 2fbe
000000d0: 616b 6bbe 511e b0be d87c 58be 6d6c 07be
000000e0: f2e4 e5be fa5d 09bf d0eb ffbd 5f42 0dbf
000000f0: 4b0e a1be 10c7 49be 6653 48be f4ed b6be
00000100: 3528 76be 9ed5 c7be 7537 08bf 717e 15be
00000110: f0d3 88be 8ef1 18bb 478d b8be 74e9 1abf
00000120: 28d7 93bd 8c09 90bd b833 bb3d 1a0a f3bf
00000130: 9ee5 5fbf 7902 68bf 7112 39c0 065f 5fbf
00000140: 12e7 11bf 39de f4be 388f 863e 416e f3bf
00000150: af9c 2f3e 4baa 89bf cdc6 b1bf 173c 37bf
00000160: 24ea bfbe 9bde a3bf 99fc 4a3e 04e5 97bf
00000170: fc65 973c 096f aebf 99cb b8bf 3905 21bf
00000180: bfde 043e 21b7 13bf 45ee 75bc 1b0b a3be
00000190: ec20 8a3e 0c3e 9abf ec9c 25bf b30f 0dbf
000001a0: 57c6 02c0 94be 8bbd 629a 02c0 fe89 c5bf
000001b0: 3c0b 86be 57fd d33d b40b 90bd 2ca7 9dbd
000001c0: 4ea1 c5bf 4bd7 7cbf c8b1 06bf ecec 24c0
000001d0: 43e3 5dbf b25f 903e 8e51 93bf ae42 be3d
000001e0: ba5e 8fbe 4fdd 26bf b5c6 92bf 6e7f 943d
000001f0: ac87 b7bf db07 9bbf 5e9f 60be ac9c 243e
00000200: 39cd 5abf ab61 4abf 37c6 83bf d476 12be
00000210: d16e 03bf 52b7 a3bf 96e2 52bf 1e40 963d
00000220: fda6 89be 09c9 403e 892b 79bf 5ec5 2dbe
00000230: d064 84bf 7096 a2bf 91c9 48bf b543 103f
00000240: 7c00 cb3e 9898 30be 56ae d63e e8dd acbd
00000250: 838d 86bf cd01 2cbf 9464 7f3e bd81 1cc0
00000260: 3daa 17bf 9aab 43c0 74fc d1bf fc32 08bb
00000270: 2f73 5c3e b720 a9bf 8bc0 0dc0 c27b fdbf
00000280: 32db 233f ac1a b6bf a704 b3bf effa 56c0
00000290: 0d35 29bf 240c 953e 26df 433f 9c22 e53f
000002a0: defa 93bf 6bc7 c2bf 2c9e 8f3d 51b9 5cbf
000002b0: cf5b 8ebf 0580 933e 2177 ccbf cad2 5bc0
000002c0: 3a75 6ac0 7d1c b5c0 21cb d7bf 9845 1fc0
000002d0: 7aa2 113f b2a5 d5bf 5b98 53c0 91bc b9bf
000002e0: 6a7e adbd 6af8 2c3f c9f4 323f ba93 463f
000002f0: ae63 3c3f d6a4 c03d 013d e9bb fe3e 22be
00000300: 5125 a8bc 6dae 9c3e e791 fa3e 502d 053f
00000310: db58 e83e 2f39 e13e ffa9 0e3f cfcc 073e
00000320: d32e 323f 55d2 123f f21e 293f a494 013f
00000330: 07d1 22be f4cc e23e ef40 0b3f beac 083f
00000340: ca5b 523f e978 c33e 553f a73d 7abf b83d
00000350: ba68 fa3d ec47 7e3e 70ec 563e 8c50 f13f
00000360: f441 74c0 cce9 70c0 9bec 9bc0 572b 7ac1
00000370: 6ecc 00bd 4401 a23c 587a a93c 1d7b a63b
00000380: 5b0e 35bf 3ffe 09bf ff3f adbf de2c b2bf
00000390: b3f5 db3b 173a 26bd 7bd0 48bf c040 26bf
000003a0: a410 9abf 9d91 453e 67a9 81bf 56e9 4cbf
000003b0: 527d 82be 0f37 06bf ad96 72bf 99c0 ebbe
000003c0: af66 3fbd effe 25bf a264 97bf dd54 01be
000003d0: bf60 21bf 2ccd 323f 6b6f 09bf 8013 7bbf
000003e0: 631c f5be 387b d8be bf48 633d dc40 b1be
000003f0: 33c6 a53e 7a18 b9be 5a60 83be d75a 83bf
0.21790503 -0.14862253 -1.3502508 -1.0249112 -2.3156755 -1.3833314 -1.1152022 0.25978297
-1.3458643 -0.7471779 -1.5466125 -0.017653227 -0.39828378 -0.42121562 0.23527691 -1.2913165
-0.5325964 -1.2583712 -0.192974 -2.098916 -1.64023 0.2154713 -1.4387828 -0.28824487
0.099065095 -1.0092895 -0.8961491 -1.7613838 0.324717 -2.4381301 0.052030805 -1.7048849
-1.7185856 -1.682274 -1.7592655 -0.16993845 -0.054491974 -0.30770713 0.07982252 -0.3630593
-0.0063350536 -0.5087088 -0.36429775 -0.46713066 -0.26540717 -0.17864777 -0.5384555 0.058708142
-0.2829282 -0.4723669 -0.007877194 -0.17113167 -0.2299018 -0.3439813 -0.21141374 -0.13224955
-0.44901234 -0.5365902 -0.124961495 -0.551794 -0.31456217 -0.19704843 -0.19563064 -0.3572842
-0.24038775 -0.39030164 -0.5320962 -0.14599015 -0.26724195 -0.0023337337 -0.36045286 -0.6051247
-0.07218772 -0.07033071 0.09140724 -1.8987458 -0.87459743 -0.9062877 -2.8917506 -0.8725437
-0.5699321 -0.47825792 0.26281142 -1.9018022 0.17149614 -1.0755094 -1.3888794 -0.71576065
-0.37483323 -1.2802309 0.19822921 -1.1866765 0.018481247 -1.3627635 -1.4437133 -0.62898594
0.12975596 -0.5770131 -0.015010421 -0.3184441 0.26978242 -1.2050185 -0.6469257 -0.5510208
-2.0433557 -0.06823459 -2.0406728 -1.5432737 -0.26180446 0.10351055 -0.07033482 -0.07697901
-1.5439851 -0.9876601 -0.5261502 -2.5769606 -0.866749 0.2819801 -1.1509264 0.09290062
-0.28001958 -0.6518144 -1.146689 0.07250868 -1.4338279 -1.2111772 -0.21935794 0.1607539
-0.85469395 -0.7905528 -1.0294865 -0.14303142 -0.5134097 -1.279032 -0.8237699 0.07336448
-0.26885214 0.18826689 -0.97332054 -0.16969821 -1.0343266 -1.270216 -0.78432566 0.5635331
0.39648807 -0.1724571 0.41929883 -0.08440763 -1.0511936 -0.6719025 0.24940711 -2.4454186
-0.5924414 -3.0573487 -1.6405168 -0.0020782342 0.21528314 -1.3213109 -2.214877 -1.9803393
0.6400634 -1.422689 -1.3985795 -3.3590658 -0.66096574 0.29110825 0.7651237 1.7901187
-1.1560934 -1.5217108 0.07012591 -0.8622027 -1.1121768 0.2880861 -1.5973855 -3.4347405
-3.663405 -5.6597276 -1.6858865 -2.4886227 0.56888545 -1.6691191 -3.306174 -1.4510671
-0.08471377 0.6756655 0.6990476 0.7756916 0.735896 0.0940644 -0.007117868 -0.15844342
-0.020525606 0.30601826 0.4893944 0.52022266 0.4538029 0.4398894 0.55728143 0.13261722
0.696027 0.5735219 0.66062844 0.5061743 -0.1590005 0.44296992 0.54395956 0.53388584
0.8217131 0.38178185 0.081663765 0.09020896 0.12227006 0.24832124 0.20988631 1.8852706
-3.8165255 -3.7642698 -4.8726325 -15.635581 -0.03144496 0.019775994 0.02068822 0.005080594
-0.7072503 -0.53903574 -1.3535155 -1.3919942 0.0067126392 -0.040582743 -0.78443116 -0.6494255
-1.2036328 0.19293828 -1.0129822 -0.8004354 -0.25486237 -0.5242776 -0.94761163 -0.46045378
-0.046728786 -0.6484212 -1.1827586 -0.12630029 -0.6303825 0.6984432 -0.53685635 -0.9807663
-0.4787322 -0.42281508 0.055489298 -0.34619796 0.32377777 -0.36151487 -0.25659448 -1.0262097

fc1.bias f4 [128]
00000000: 6b85 1abf d8d4 d7be dfe3 56bf 50a7 48bf
00000010: a19c 00c0 6783 093f 04e4 f8be 3678 b3bf
00000020: aed3 31bf 1b8c 6dbf 37d4 4bbf 1c86 37bf
00000030: 8182 b8bf 407d eb3c 2f95 4bbf c2a0 d8bf
00000040: a4d0 fbbf 2cb7 14bf 7c73 7cbf fe28 05bf
00000050: 35b9 3fc0 439b 4dbe e6b5 56bf 990f 4fbe
00000060: e5d3 9dbf 0555 aebf 1661 1cbf 539a 3bc0
00000070: e8bc 5fbf e0f5 5abf d1f2 bcbf e29d 02bf
00000080: dbdf 40bf 0f76 46bf 7b03 abbf 8ac3 c6be
00000090: 73f1 c4bf fd45 06be 8b5f 87bf f2a9 41bf
000000a0: 5666 01c0 fac5 4c3e 4ef5 39bf 160e 37bf
000000b0: 848a d4bf 1a20 403f 9683 24bf 4a56 17bf
000000c0: cf07 f9bf 7e3a 12bf c710 d2be 4658 cebf
000000d0: f129 af3d 9a37 62bf 9903 3dbf d314 91bf
000000e0: 14d1 96be 58fe 06bf bab3 55bf 3937 75bf
000000f0: 778b 03c0 97ad a7be f16d 09bf 7049 b8bf
00000100: d017 09bf b5d4 9dbf edca 3ebf e565 a6bf
00000110: b936 b8be b588 6fbf 175c d0bf 81f7 cbbf
00000120: 004e 2dbf 7db7 23bf eed1 17bf 203b 42bf
00000130: 0422 9abf 53b4 b1bf bd49 01c0 d7d5 a7bf
00000140: 77b4 f5be 8471 3ebf 4111 85bf 9f6c b93e
00000150: 77c0 24bf 8b96 aebf 79a6 23bf f471 9dbf
00000160: 2133 4fbf 25eb a7be 8637 95bf 9bab 4ebe
00000170: 4eca e6bf 7afd a2be c60b 3dbf 2899 1abe
00000180: fbb5 d4bf 9a09 10c0 6d12 88bf 7cc4 a4be
00000190: 9889 2abf d990 f1bf a17b e7be 55a6 a8bf
000001a0: 968f bbbe 183b fdbf 2408 03bf 4c98 8e3d
000001b0: e910 02bf 06fe 5bbf cc73 00c0 3a08 91bf
000001c0: 3731 7fbf c020 10c0 53a5 93bf 15d5 83bf
000001d0: 1a48 e7be 8a53 9fbf e9b0 76bf 78d1 0fbf
000001e0: d9e7 07bf ae35 02c0 4246 51bf 6d4d 86be
000001f0: 7b50 80bf 40e3 57bf 1ffc c9be ed2d 74bf
-0.6035983 -0.42154574 -0.83941454 -0.783803 -2.0095599 0.5371613 -0.48611462 -1.402106
-0.6946362 -0.9279191 -0.7962069 -0.7168901 -1.4414827 0.028746247 -0.7952451 -1.6924059
-1.9673047 -0.58092 -0.98613715 -0.52015674 -2.9956791 -0.20078759 -0.83871305 -0.20220794
-1.233029 -1.3619696 -0.6108564 -2.9312942 -0.87397623 -0.85531425 -1.4761602 -0.5102216
-0.75341576 -0.77523893 -1.3360437 -0.3882106 -1.5386184 -0.13112636 -1.0576032 -0.7564994
-2.021871 0.19997397 -0.7263993 -0.7150587 -1.6604772 0.75048983 -0.64263284 -0.5911604
-1.9455508 -0.571205 -0.41028425 -1.6120689 0.085529216 -0.8836609 -0.73833615 -1.133448
-0.2945639 -0.5273185 -0.83477366 -0.9578739 -2.0553873 -0.32749626 -0.5368338 -1.4397411
-0.5355196 -1.2330538 -0.7452839 -1.2999846 -0.3597925 -0.93567973 -1.6278104 -1.5934907
-0.67697144 -0.63951856 -0.593047 -0.7587147 -1.2041631 -1.3883156 -2.0201256 -1.3112134
-0.47989246 -0.7439196 -1.039589 0.36215684 -0.6435618 -1.3639692 -0.6392589 -1.2300401
-0.8093739 -0.3279659 -1.165757 -0.2018265 -1.8030488 -0.31834012 -0.7384609 -0.15097487
-1.6618036 -2.250586 -1.0630623 -0.32181156 -0.666162 -1.8872329 -0.4521151 -1.317576
-0.36632985 -1.9783659 -0.51184297 0.06962642 -0.5080705 -0.85934484 -2.0070677 -1.1330636
-0.9968447 -2.251999 -1.1534828 -1.0299402 -0.45172197 -1.2447369 -0.96363693 -0.56179
-0.53088146 -2.0345263 -0.8174783 -0.26230946 -1.0024561 -0.8433113 -0.39450166 -0.9538258

fc2.weight f4 [64, 128]
00000000: 2d17 dabd a362 c1bd 5d6d 8ebd ba5b d03b
00000010: e79c 80bd 8022 d63c f977 9f3b ff01 13be
00000020: 8288 773d 1588 b23c 1753 b0be 7ebb d73b
00000030: d4a4 a3bd 4d95 38be ce54 6abd 193f 0abd
00000040: 1c08 fbbe 5923 9fbd d7c6 16be e31a 90bd
00000050: 2430 833c 4ab3 6c3d 21d7 11be 9bb4 82bc
00000060: 24ba 4abd 15b9 05be 4654 04be 960f 84bd
00000070: 21b1 44be 5fee 18bd f998 a8be cd1a c23c
00000080: fcc2 f43c 2857 95bd 9b43 f93d 04ac 81bd
00000090: e931 cf3b f575 85bd 6914 213e 60e9 ce3b
000000a0: 7a6c cdbd cbb3 72be 3307 7bbd 1756 903c
000000b0: d5fc 3cbd bdfc 2fbe 9b94 a8bd f55a b3bd
000000c0: 3337 42be 9503 c2bd 25d8 a5be 28a6 acbd
000000d0: 4c7b 6cbd ecf9 afbd 226f 8bbe 77b8 243e
000000e0: 18ed 113d b227 efbd 7d26 483c 302b 8d3c
000000f0: 9c44 803c 1cf6 b1bc 91d8 ab3c 7afa e5bd
00000100: 14b3 c03a 6e32 273d 5148 25be 5cf9 87be
00000110: f843 cbbc 8120 90bd 1fc8 ef3d 07ff 08bd
00000120: bb22 fbbd 1e30 febc aa98 2bbd 2228 ffbc
00000130: fde9 cd3b 381a 9abe 89a4 debe cbd6 273d
00000140: f174 aabe 236d 3cbe 011a 1e3d 3c74 a8bd
00000150: 63f4 91bd 7b41 acbb 5d63 18be 00c5 f0bd
00000160: c8f0 edbd 7052 133d 43f9 17be c70b 95bd
00000170: 384d 85be fb2d 38bd bd78 ae3d 1005 30bd
00000180: b6b7 0abe 4d65 efbd 44d7 b13d 2d44 a9bd
00000190: 8f6a a4bd deb4 873d 96a1 9abd 9d6a 72be
000001a0: 4521 24bd 3b7e c4bd 4fff bb3b ea40 723d
000001b0: b04e 4f3d ce1a acbd fc10 82be 7644 5ebd
000001c0: 28e3 18bd 95a3 78be befd e9bd 1aae 87bd
000001d0: 496b 1dbf 0952 41bd 5809 99bd b07a 2e3c
000001e0: 9006 4e3d 740a eebd 43ee 01bc c9d7 62bd
000001f0: 2c6d 56bc ba38 a6bd d21f 323d f4a0 a0bc
00000200: 122c c53f 0b64 6cbe 6123 3e3f 16a8 c93e
00000210: ee25 363f 231d bfbd 26c0 9b3d b382 0ebf
00000220: c6b8 6fbd 2962 d8be f3f2 173e 0290 b3bb
00000230: 33ac 37bf c863 483d 3421 36bd ba41 87bf
00000240: 5597 b3bf 314a df3d 1239 023f b67b 5a3f
00000250: 14bc c2be f888 0dbd e847 173e 2fcf 0fbd
00000260: 0eac 703e 0eb7 873d 706e d93e 8454 4fc0
00000270: 6c3e 40be dbd3 d23e b8c7 bb3e 7e83 cbbd
00000280: 5757 a9be b469 88bd 1587 f4bf 5919 1fbc
00000290: 4657 7d3e e60a 913d 1e9d eebd 84eb 12bf
000002a0: 6016 21bf f515 c83d 0e73 903c 013d c73e
000002b0: 85ae 43bf 8eea 31be a012 8f3d 2dd4 023d
000002c0: a3e0 b7be 4959 593e ac45 b6be c7dd a5bf
000002d0: 4cd3 133e efa9 08bf 5641 b5bd 0eed 19bf
000002e0: 4add 89bf b288 89bd 138f 0cbd 293a 743f
000002f0: 4ffb ac3e 87af b3bd 438a 673d 6c1e 82bf
00000300: 6f95 3d3f bec0 0cbf 9734 203e cbfa 9d3d
00000310: 4524 84bd 4550 ecbd aafb f1bd c499 513e
00000320: 7423 a5bd c465 7d3f 99d0 203e f8ca 76be
00000330: 4364 003f b162 0ebe 0bf3 0b3e 2da9 ed3e
00000340: d2cf 2b3c e622 40be 9f5a 6abf ccb9 f13e
00000350: 1bf0 08be 5c6e b3bf 5b22 83be fe0e adbd
00000360: 5908 f3be e314 f03b 54a7 91be fbd7 4dba
00000370: 2e82 c93e 5c0f 9cbb bcf3 a0bf 95b6 21bd
00000380: 65f4 ec3e c4df 5dbe d96a 69be 675f 70bd
00000390: cdcb c33e 54f1 083f e075 a43e ee0f 64bf
000003a0: 5b07 7bbd aefe 32c0 1477 14bf e609 db3e
000003b0: ee29 943e b1fc 2ebd e539 fcbf 86ca dabe
000003c0: 6e7a debe 92be 6c3f 1f2d 69be 2f39 16bf
000003d0: 78c9 6ec0 7af8 453f 690a 0fbd 3efa 14bf
000003e0: 46ff 24bf 5d3c a2bf 193e 8c3d 4bf9 c3bd
000003f0: d845 e6bb 61e2 2abe 2842 f5bc 6895 e0be
-0.10648952 -0.094426416 -0.06954453 0.006358591 -0.06279927 0.026139498 0.004866597 -0.1435623
0.06043292 0.021793405 -0.34438393 0.00658363 -0.07990423 -0.18025704 -0.057209782 -0.03375158
-0.49029624 -0.07770414 -0.14724289 -0.07036378 0.016014166 0.05778817 -0.14242221 -0.01595526
-0.049493924 -0.13058884 -0.12922773 -0.06448285 -0.19208194 -0.037336703 -0.3292921 0.02369442
0.029878132 -0.07292014 0.12171098 -0.063316375 0.0063230884 -0.06516639 0.15730442 0.0063144416
-0.10030456 -0.23701398 -0.061286163 0.017619176 -0.046139557 -0.17186256 -0.08231469 -0.08757583
-0.1896637 -0.094733395 -0.32391468 -0.08430129 -0.057734773 -0.08592591 -0.27233225 0.16085993
0.0356265 -0.11677493 0.012216208 0.017232507 0.015657715 -0.0217238 0.02097729 -0.11229415
0.0014701807 0.040819578 -0.16140868 -0.26557434 -0.024812683 -0.0703745 0.11708092 -0.033446338
-0.12262484 -0.031028803 -0.04189364 -0.031147067 0.006283997 -0.30098128 -0.43484905 0.040976327
-0.33292344 -0.18401007 0.038599018 -0.08225295 -0.07126691 -0.0052568293 -0.14881654 -0.11756325
-0.11618191 0.03596729 -0.1484118 -0.07277637 -0.26035476 -0.044965725 0.08519123 -0.042973578
-0.13546643 -0.116892435 0.08683637 -0.082649566 -0.08028137 0.066262946 -0.07550351 -0.23673482
-0.04007079 -0.09594389 0.0057372223 0.059143938 0.05061215 -0.0840355 -0.25403583 -0.05426451
-0.037326008 -0.24281152 -0.114253506 -0.06625004 -0.6149183 -0.047197375 -0.07472485 0.010649368
0.050299227 -0.116230875 -0.007930341 -0.05538157 -0.013087552 -0.081162885 0.043487377 -0.019607998
1.5404074 -0.23085038 0.74272734 0.39386052 0.71151626 -0.09331729 0.07605009 -0.5566818
-0.058525823 -0.4226239 0.14838772 -0.0054798136 -0.7174713 0.048923284 -0.04446526 -1.0566933
-1.4030558 0.10902823 0.5086833 0.8534502 -0.38034117 -0.03455445 0.14773524 -0.035109695
0.23503134 0.06626712 0.4246707 -3.2395334 -0.18773812 0.41177258 0.3667581 -0.099371895
-0.33074448 -0.06660786 -1.9103724 -0.009710633 0.24740323 0.07082157 -0.116510615 -0.5739062
-0.62924767 0.09769813 0.017632987 0.3891373 -0.7643817 -0.17374632 0.06985974 0.031940628
-0.35913572 0.21225466 -0.3560003 -1.2958306 0.14436072 -0.533843 -0.088503525 -0.6012734
-1.0770657 -0.06715526 -0.034316134 0.95401245 0.33785483 -0.087737136 0.05652834 -1.0165534
0.7405614 -0.549816 0.15645061 0.077138506 -0.0645223 -0.11538748 -0.11815579 0.20468813
-0.08063403 0.9898341 0.15704574 -0.24100864 0.5015299 -0.13904835 0.13666932 0.46418133
0.01048656 -0.18763313 -0.91544527 0.47212064 -0.13372843 -1.4018054 -0.2561215 -0.08450125
-0.47467306 0.0073267086 -0.28447974 -0.0007852313 0.39357132 -0.004762573 -1.2574382 -0.039480764
0.46280208 -0.21667391 -0.22794665 -0.058684733 0.38241425 0.5349324 0.3212118 -0.89086807
-0.06128631 -2.7967944 -0.579942 0.4278099 0.2893824 -0.042721454 -1.9705168 -0.42732638
-0.4345278 0.9247829 -0.22771119 -0.58681005 -3.7310467 0.7733227 -0.034922037 -0.5819434
-0.64452016 -1.2674671 0.06847782 -0.09569033 -0.007027369 -0.16687919 -0.029938772 -0.43863988

fc2.bias f4 [64]
00000000: 538c 1dbf e99b 7d3e af95 51bf 69c1 d2bf
00000010: 8e07 d8bf cc1c 9fbe e13e 88bf 7be6 5fbf
00000020: b2c7 59bf b47a 02bf 6191 f3bf 14c4 8fbf
00000030: fa35 83be 8cfe 8fbf 01c4 36bf d878 68bf
00000040: da9b 01bf 1dff f7be dd37 98be 5046 18bf
00000050: 40fb 08bf 4f6c 77bf 08d7 3dbe b6bc 3abf
00000060: 5b1b 20bf 07e7 dcbf 73bb ccbf e31c 8dbe
00000070: 82e2 963f 5e9a 94bf bc1b c03e 2bb1 02bf
00000080: cd59 07bf 8b8b 94be 7f5d 37bf 3009 a2be
00000090: 5eab cabf a026 6ebe 83a3 72bf d86f 7bbf
000000a0: c3bd 02bf 771c 64bf b292 52bf e6e3 16bc
000000b0: ea9c d3bf 61dd 443d c7c9 f0be 3e08 67bf
000000c0: fc42 973e ebce a2be 0585 0fbf 25ee 1fbf
000000d0: 1c05 d0bf 4b16 85be a209 4dbf dba1 96bf
000000e0: 3cca 92bf 0a53 16bf 63aa 37bf 6df2 0fc0
000000f0: be3e dcbe f793 26bf c6cf 91bf 873b 31bd
-0.6154224 0.24766506 -0.81869024 -1.6465274 -1.6877306 -0.31076658 -1.0644189 -0.8746106
-0.85070336 -0.5096848 -1.9028741 -1.1231713 -0.25627118 -1.1249557 -0.7139283 -0.9080939
-0.50628436 -0.48436823 -0.2973012 -0.5948229 -0.5350838 -0.9664964 -0.18539059 -0.729442
-0.6254174 -1.7258004 -1.5994705 -0.275611 1.1787875 -1.1609609 0.3752116 -0.51051587
-0.528714 -0.29012713 -0.7162704 -0.31647635 -1.5833547 -0.23256922 -0.9478075 -0.98217535
-0.51070803 -0.89105934 -0.8225509 -0.009209609 -1.6532261 0.048062686 -0.47028944 -0.9024695
0.29543293 -0.3179849 -0.56062347 -0.62472755 -1.6251559 -0.2599357 -0.80092824 -1.1768144
-1.1467967 -0.5872046 -0.71744365 -2.2491715 -0.43016618 -0.65069526 -1.1391532 -0.04326966

fc3.weight f4 [4, 64]
00000000: 7f00 dabc 44b8 7c3c e7d1 5b3d 4500 7ebe
00000010: 3ec2 b23d 75bf 2bbc 1379 c2bc acc2 fb3d
00000020: 3a2e 74bd d9e0 dc3d eda9 f7bb 46ee 51be
00000030: 4c56 953e edcd d03d c701 5d3d faee 033d
00000040: abef b1bc 0ebf 5bbd 4bf0 853b c846 6f3d
00000050: f7d9 a73d a13c 7bbe 2bfd 843e 1274 903e
00000060: 797d 973d 8ac3 fbbc 5bce 4f3e 648e e83c
00000070: aa80 923e 38aa c8bd 69e0 76be c233 043e
00000080: cc16 643d ad22 423d 3a26 9bbb bebb 2ebd
00000090: b57a 213e 48af f9bd 066f 5dbd e7eb 68be
000000a0: 597b 803c 50d0 a9be 4891 913d 346e b13d
000000b0: 86bf bcbd 7c48 8f3e 7bdc 21be a741 fcbb
000000c0: 9127 c2bb 7021 3eba 181e 4f3c 575a 2dbe
000000d0: 28c6 4dbd a178 463d 541d 35bd 25ac d8be
000000e0: 419d c5be 9f31 f6bc 1342 133d 098b 27be
000000f0: 5199 463d 3dc9 a2bd f64d 983d b618 063d
00000100: 673d 713e 5977 1b3c e6af c63d b341 063d
00000110: 9933 be3d 57a8 063d 0095 bcbe 22a3 2f3d
00000120: b8f0 023e 9084 9abd 2f2c e0bd 8e91 463d
00000130: 0d49 a33d 4b4b 323e e2fa 26bf e50f 41bd
00000140: 0830 cfbd 907f f63d 43f6 c2bc bf26 193e
00000150: 3396 da3c d8de 16be 20ac 833e 73f5 87bd
00000160: 0ccd cebd da42 403d 43af 05be beb9 bfbc
00000170: a722 813e 335b 2abe 4df3 06be c87a 65bd
00000180: ccb1 503d ee7b 9f3d 80b4 9a3d 2f9d f13d
00000190: 865b f3bd 9a08 a7ba ef45 acbd b70a 19be
000001a0: d98f 4bbd ea6f ed3c eb2e 59bd 0579 8a3d
000001b0: 95b5 04be 8895 873e 6a6b 3d3e 4eb6 6c3e
000001c0: f8b3 f03c d4c1 a93d 4473 813c 16db 7abd
000001d0: acfd ab3b 3413 833d 3031 d83d ccdf 913e
000001e0: 05a0 c1ba 2f8d 5bbd 5451 c63d dece 07bd
000001f0: 4dad 283d cb5a c83a 1b9e ccbd 3376 c13d
00000200: 880b 22bd 1b67 303d b0ca a53d 7311 243c
00000210: 910f 723e 662c b63d 7eaf a63d a18b b73e
00000220: 526b d2bc 09e6 6abc 7993 c93d d42b 873d
00000230: 71c4 143e 1173 03be 71fc 573d 1312 fc3c
00000240: dcf7 173e b2c3 05bb 143d 7b3d 8b0a bdbe
00000250: 3a50 94be 1be3 adbd ef8f 563e d2f2 22bd
00000260: 57fe 9dbe 3f6e 59be f72e 2c3e 38be debd
00000270: ac98 833e 8a24 0a3d 959c 31be 3771 25be
00000280: d955 333c 62d4 d1bd 39f0 a53d 97d1 6fbc
00000290: 655b 06bb 119f 873d 7760 413b 2a4f eebd
000002a0: 68dd cebc 2f4e fc3e a4c5 afbd f8e4 9a3d
000002b0: 0407 b4bc fa27 423e f573 1bbe 5399 93bd
000002c0: ba09 3e3e 5ac8 4f3d 7e20 fabd fb8f f03d
000002d0: f1a2 aabd d6f4 b4bd 3522 9f3d c69b 183f
000002e0: 93cd 13be deb2 b63d 6e5e b13d d566 13be
000002f0: 4a7b 35bd 50e4 ea3d 2f0d 843e 74fd 893e
00000300: b4df 58be 1b34 563e 8c25 cd3d 2ca8 9dba
00000310: 3f1f 173d c822 3e3c b983 05be a03a 0a3e
00000320: e318 13bd 7e8b 52bd 70d0 983d a75e 04be
00000330: b8e4 4a3e 8de9 3dbd 4c8b 4ebd a2c8 f2bc
00000340: 617c 9b3d 2a87 ddbd 9d45 7039 c09b 59bd
00000350: 37bd 4ebe 8395 13bd 2364 0f3e 9b13 75bd
00000360: 52fa ba3d 8dee 20be 058d 01be 9928 123d
00000370: 2752 5b3e 5cae c1bc d07c 1ebe 5f87 823e
00000380: 86bc 37bc d6ce d53c 2236 20be 4caa 77bd
00000390: 9fbd f7bb 5d83 a13b c7c8 0cbc 8b36 b73d
000003a0: 3586 5c3d 9b9b 17be 48af acbb ec3f 533e
000003b0: fd83 163e 3872 313e 9680 f8bc 30d6 73bd
000003c0: bac5 a8bd 9834 e93d 8a06 92bd 3e8a ef3d
000003d0: a15a c7bd 3b31 9abd dca5 abbc ff07 47bf
000003e0: 2584 a53c 3621 20be 3b1b f13e e6a2 23be
000003f0: 5506 f9bd 48e2 b4bc f045 b93d 120c 9cbb
-0.026611565 0.015424792 0.053666975 -0.2480479 0.08728455 -0.010482659 -0.023739373 0.1229299
-0.059614398 0.10785074 -0.0075580985 -0.2050105 0.29167402 0.10195527 0.053956773 0.032210328
-0.021720728 -0.053649 0.004087483 0.05841711 0.0819587 -0.24534847 0.25974402 0.28213555
0.07396979 -0.030732889 0.20293562 0.02838821 0.28613788 -0.09798092 -0.24109043 0.12910369
0.055685803 0.04739635 -0.0047347816 -0.042659514 0.15769465 -0.12191635 -0.05406096 -0.2274624
0.015683817 -0.33166742 0.07107788 0.08663598 -0.09216218 0.2798499 -0.15806763 -0.007698256
-0.005925127 -0.00072529074 0.012641452 -0.16928993 -0.050237805 0.048454884 -0.044217423 -0.42318836
-0.38596538 -0.030052958 0.035951685 -0.16361631 0.048486058 -0.079485394 0.07436745 0.03273841
0.2355858 0.009488904 0.09701519 0.0327775 0.09287185 0.032875385 -0.36832428 0.042880185
0.1278714 -0.075448155 -0.10945927 0.048478656 0.07972918 0.17411534 -0.65226567 -0.0471343
-0.10116583 0.12036049 -0.023799067 0.14956187 0.026682949 -0.14733446 0.25717258 -0.066386126
-0.10097703 0.046938755 -0.13055138 -0.023403998 0.2522175 -0.16636352 -0.1317875 -0.056025296
0.05095081 0.077873096 0.07553959 0.117975585 -0.11882691 -0.0012743652 -0.08411776 -0.14945494
-0.04969773 0.028984029 -0.05302326 0.06761364 -0.12959893 0.2648127 0.18498006 0.23116419
0.02938269 0.08288923 0.015802033 -0.061244093 0.005248746 0.06400147 0.10556257 0.28491056
-0.0014772421 -0.05360144 0.09683481 -0.03315627 0.041180898 0.0015285847 -0.09991094 0.09446373
-0.03956178 0.04306708 0.080953 0.010013926 0.2363875 0.08895187 0.08138941 0.35848716
-0.02568594 -0.014337071 0.09842581 0.066001564 0.14528061 -0.12836863 0.05273098 0.030770337
0.14840645 -0.0020410833 0.061337546 -0.36922106 -0.28967458 -0.084905826 0.20953344 -0.039782353
-0.30858108 -0.21233462 0.1681479 -0.10876125 0.25702417 0.033726253 -0.17344888 -0.1615647
0.010945761 -0.10245587 0.081024595 -0.014637372 -0.0020501253 0.066221364 0.002950696 -0.11636193
-0.02525206 0.492784 -0.08582619 0.075632036 -0.021976002 0.18960562 -0.15180953 -0.07206979
0.18558398 0.05072818 -0.12213229 0.11746212 -0.0833186 -0.08835761 0.07770196 0.5961269
-0.14433889 0.08920835 0.08660589 -0.14394696 -0.04430703 0.114693284 0.25791308 0.26951182
-0.21179086 0.20918314 0.10016927 -0.0012028269 0.036895033 0.011604972 -0.1303853 0.13498926
-0.035912406 -0.05140256 0.07461631 -0.12926732 0.19813812 -0.04636531 -0.050425813 -0.029636685
0.07592083 -0.10816796 0.00022914117 -0.05312705 -0.20189367 -0.036031257 0.14003043 -0.05983315
0.09129776 -0.15716 -0.12651451 0.03568325 0.21418057 -0.023642711 -0.154773 0.25493905
-0.011214381 0.026099604 -0.1564565 -0.060465142 -0.0075604464 0.00492899 -0.008592791 0.0894595
0.053838927 -0.14805453 -0.0052699186 0.20629853 0.14698787 0.17328727 -0.030334752 -0.059530437
-0.08240838 0.113869846 -0.071301535 0.116962895 -0.09734083 -0.07528921 -0.020953111 -0.77746576
0.020204613 -0.15637669 0.47091088 -0.1598011 -0.12159411 -0.022080556 0.09046543 -0.004762181

fc3.bias f4 [4]
00000000: 887d 0440 a039 ff3f 4615 0240 3799 0440
2.0701618 1.9939461 2.0325484 2.0718515
