Navigation - Value based methods/checkpoint/checkpoint_ddqn_er_7.pth (torch_old, 28339 bytes, 6 tensors)

fc1.weight f4 [64, 37]
-0.07324287 0.080193125 -0.12550206 -0.18497054 0.011130866 -0.2395567 0.1316621 0.2131176
-0.1925723 0.117233045 0.111575 -0.32336146 -0.17786238 -0.29870364 -0.4173165 -0.14915052
0.09562631 0.00067033916 -0.41087037 -0.14097938 -0.019160483 -0.0057744742 0.055763043 0.11194438
-0.06063938 0.15695456 0.022291824 -0.39440373 -0.53277224 -0.47924128 -0.25401527 0.06027604
0.069504306 -0.028386656 -0.33426267 -0.05346759 -0.013553426 0.06762418 0.09461377 0.13404022
0.2316794 0.054284807 0.08508346 -0.12925579 -0.19118994 0.07057948 0.07581245 0.21594866
-0.10205673 0.009875427 0.058133192 -0.0667697 0.20492704 -0.044719227 0.0032399003 0.027615495
-0.18106546 -0.04303047 -0.07762224 -0.08973104 0.05495613 0.26004574 0.13129684 0.08411331
-0.052582983 -0.0043448275 -0.15787473 0.14124589 0.17674027 0.016296852 -0.019414824 -0.02437334
-0.005725491 0.05606105 0.1461591 0.26690355 0.06685657 -0.13934928 -0.35484564 -0.30097455
-0.029512443 0.21692027 0.18894458 -0.5661901 0.04277004 0.05384804 0.054848023 -0.20442759
0.13129163 -0.11986672 0.14092533 -0.05091129 0.31227508 0.03147239 -0.26847523 0.04521568
-0.016496075 0.085184455 -0.041261327 -0.16922003 0.23228124 0.12978327 -0.035460047 -0.12602499
-0.21730651 0.058122873 -0.12549825 0.0071754176 -0.23561646 -0.011233832 -0.044771858 0.108563855
-0.027865615 0.18904099 0.13183323 -0.10530665 -0.14178334 0.06628172 0.21432541 0.032914665
-0.09271547 -0.01446117 0.08488558 0.108103395 -0.7256261 -0.68280596 0.02479108 -0.010953816
0.036529478 -0.17366007 -0.18257664 0.017873345 0.107899435 0.047099013 -0.059834 -0.6099064
0.0074352953 -0.01196471 0.16801442 0.11377147 -0.09170932 0.10202519 0.26728472 -0.00353127
-0.06982843 -0.42047936 0.030247157 9.276986e-05 -0.028591538 -0.20054963 -0.09371566 -0.19763416
-0.07073596 0.041213628 0.20478353 -0.03958013 0.031737342 0.01770347 -0.048067853 -0.0072591654
0.022985095 -0.042566508 -0.018976321 -0.20201948 0.05571153 0.10528605 -0.07930687 0.2695782
-0.10484464 0.06605537 -0.012290906 0.11080258 0.3381222 0.22836192 -0.09310779 -0.1286266
-0.18011756 -0.3728068 0.27933574 -0.11304664 -0.18688165 -0.18116695 -0.4394999 -0.041225284
0.012946973 -0.00760034 -0.049722217 0.02804459 0.06702978 0.2150199 0.2839485 0.0069318637
-0.0774808 -0.16845907 -1.2278006 -0.06617477 -0.0043359627 0.025660513 -0.028190222 0.1297852
-0.019893667 0.108086556 -0.04936887 -0.059611514 -0.0212197 0.16349737 0.06425645 -0.008016476
0.018407576 0.15597863 0.043784585 -0.08477793 0.12876143 -0.15158431 -0.36586988 0.08888887
0.122273274 -0.04706767 -0.2954607 -0.56789875 -0.015797531 0.024368435 0.3095907 -0.3344127
-0.15913549 -0.3047254 -1.7090505 -0.17411096 0.095460035 -0.0895923 0.04889828 0.21356975
-0.0031332911 0.15996915 0.11388088 0.109100975 0.03227865 -0.096838854 -0.0018064174 0.018045168
0.038517263 0.4721536 -0.08208911 -0.047698494 0.086571455 -0.017280763 0.04203344 -0.10906119
-0.09872491 0.022721414 0.123059355 0.26832026 0.0058925925 0.06240353 -0.062286384 0.018652214
00000000: 5c00 96bd 4b3c a43d 9d83 00be eb68 3dbe
00000010: 3c5e 363c 5a4e 75be 6ed2 063e 803b 5a3e
00000020: ac31 45be e117 f03d 6f81 e43d a28f a5be
00000030: 8e21 36be afef 98be 82aa d5be eaba 18be
00000040: bad7 c33d b3b9 2f3a 9a5d d2be e65c 10be
00000050: 72f6 9cbc cd37 bdbb ca67 643d 1843 e53d
00000060: 0061 78bd b2b8 203e 589d b63c 49ef c9be
00000070: c363 08bf 1d5f f5be 4a0e 82be 02e4 763d
00000080: 4658 8e3d 228b e8bc 7a24 abbe d500 5bbd
00000090: 300f 5ebc 8c7e 8a3d ddc4 c13d d741 093e
000000a0: 5d3d 6d3e bf59 5e3d 3d40 ae3d a15b 04be
000000b0: 4cc7 43be f98b 903d 8f43 9b3d a521 5d3e
000000c0: 1e03 d1bd 8bcc 213c 121d 6e3d 8dbe 88bd
000000d0: 65d8 513e 822b 37bd 8254 543b e439 e23c
000000e0: 3969 39be b840 30bd 69f8 9ebd e8c4 b7bd
000000f0: ae19 613d b724 853e ae72 063e 9943 ac3d
00000100: 4161 57bd 0e5f 8ebb eaa9 21be c3a2 103e
00000110: 67fb 343e fa80 853c d60b 9fbc 99aa c7bc
00000120: e69c bbbb 46a0 653d bbaa 153e 95a7 883e
00000130: 19ec 883d 94b1 0ebe 54ae b5be 5619 9abe
00000140: 14c4 f1bc 5920 5e3e b07a 413e d6f1 10bf
00000150: a32f 2f3d c38f 5c3d 52a8 603d 7755 51be
00000160: 5071 063e af7c f5bd bb4e 103e 5b88 50bd
00000170: 85e2 9f3e 31e9 003d 9675 89be 1434 393d
00000180: c722 87bc 3075 ae3d a301 29bd 0448 2dbe
00000190: 22db 6d3e e8e5 043e 8e3e 11bd b20c 01be
000001a0: 9985 5ebe 4012 6e3d 9d82 00be c41f eb3b
000001b0: 7145 71be 1b0e 38bc b262 37bd ba56 de3d
000001c0: 6e46 e4bc f693 413e 4aff 063e 03ab d7bd
000001d0: a72f 11be b6be 873d 1f78 5b3e 87d1 063d
000001e0: 9ce1 bdbd 8bee 6cbc 7ed8 ad3d 5065 dd3d
000001f0: a2c2 39bf 5fcc 2ebf aa16 cb3c a277 33bc
00000200: ef9f 153d f2d3 31be 5ff5 3abe 1f6b 923c
00000210: 61fa dc3d e5ea 403d 7f14 75bd d322 1cbf
00000220: c7a3 f33b a207 44bc f90b 2c3e 0401 e93d
00000230: 19d2 bbbd 95f2 d03d 8bd9 883e e16c 67bb
00000240: 3502 8fbd 1249 d7be e3c8 f73c 708d c238
00000250: cd38 eabc e25c 4dbe ffed bfbd 9c60 4abe
00000260: 04de 90bd 9fcf 283d c6b2 513e c61e 22bd
00000270: 04ff 013d de06 913c cce2 44bd 4bde edbb
00000280: 3d4b bc3c 385a 2ebd 3b74 9bbc 32de 4ebe
00000290: c631 643d 36a0 d73d a46b a2bd 2706 8a3e
000002a0: c9b8 d6bd 0a48 873d cc5f 49bc 77ec e23d
000002b0: 5a1e ad3e b5d7 693e 4caf bebd b1b6 03be
000002c0: bd70 38be 88e0 bebe 1805 8f3e ff84 e7bd
000002d0: e75d 3fbe d483 39be 2206 e1be d8db 28bd
000002e0: 8a1f 543c 460c f9bb 86a9 4bbd c5bd e53c
000002f0: e946 893d 2d2e 5c3e b361 913e b024 e33b
00000300: 41ae 9ebd 8980 2cbe 9228 9dbf a386 87bd
00000310: b114 8ebb ff35 d23c 2eef e6bc 69e6 043e
00000320: 0bf8 a2bc 7c5c dd3d 0337 4abd 342b 74bd
00000330: f0d4 adbc db6b 273e e398 833d 8a57 03bc
00000340: 7ccb 963c ddb8 1f3e 7757 333d 0da0 adbd
00000350: 09da 033e eb38 1bbe 4c53 bbbe 5e0b b63d
00000360: 696a fa3d 07ca 40bd a046 97be d061 11bf
00000370: d369 81bc 50a0 c73c ac82 9e3e 2438 abbe
00000380: 6af4 22be f804 9cbe 2bc2 dabf 254a 32be
00000390: 8d80 c33d 2b7c b7bd 9049 483d 07b2 5a3e
000003a0: e757 4dbb f4ce 233e 613a e93d 5570 df3d
000003b0: 9e36 043d 7353 c6bd 4fc5 ecba 76d3 933c
000003c0: 47c4 1d3d 1ebe f13e 561e a8bd 7f5f 43bd
000003d0: 604c b13d 6390 8dbc 422b 2c3d 795b dfbd
000003e0: 4930 cabd 4222 ba3c 8b06 fc3d 4661 893e
000003f0: a616 c13b d89a 7f3d 0220 7fbd 87cc 983c

fc1.bias f4 [64]
0.05715821 0.022248702 -0.14116763 0.018919604 0.17639756 0.010006536 -0.046330817 0.05782519
0.04333313 -0.23603317 0.12878473 0.19324261 0.1756067 -0.004752192 -0.05552922 -0.05346233
0.06239629 0.0047320416 -0.011810756 -0.18625407 -0.09446565 0.089476384 -0.068498954 -0.07085029
-0.11946866 0.14229071 -0.06315361 -0.15815301 0.1960087 0.14393738 -0.12566121 -0.13679613
0.07820584 -0.02640015 -0.20856726 0.00093395513 -0.07197559 -0.00053282385 -0.031652186 -0.16247784
-0.11157028 0.021026673 -0.110755704 0.16908489 0.042183407 -0.13048951 0.035231974 -0.17666014
-0.18039343 -0.03221526 -0.17476581 0.057819117 -0.024430493 -0.084906146 -0.24180555 0.0051508555
0.12702775 -0.11639336 -0.14728068 -0.1099512 -0.072475106 0.032553423 -0.079217754 0.04206631
00000000: ba1e 6a3d e942 b63c 3f8e 10be 49fd 9a3c
00000010: 90a1 343e 74f2 233c 62c5 3dbd 1bda 6c3d
00000020: 157e 313d aeb2 71be 25e0 033e 64e1 453e
00000030: 3ed2 333e 47b8 9bbb 9b72 63bd 51fb 5abd
00000040: 4193 7f3d 3e0f 9b3b e781 41bc 63b9 3ebe
00000050: 3577 c1bd 653f b73d 2e49 8cbd f519 91bd
00000060: fcab f4bd a8b4 113e ae56 81bd ddf2 21be
00000070: 81b6 483e 5264 133e 55ad 00be 4914 0cbe
00000080: 622a a03d 2145 d8bc a892 55be abd4 743a
00000090: f067 93bd 34ad 0bba b9a5 01bd 9760 26be
000000a0: f57e e4bd 2140 ac3c e3d3 e2bd 9724 2d3e
000000b0: 82c8 2c3d 0b9f 05be 674f 103d 65e6 34be
000000c0: 0eb9 38be 26f4 03bd cff5 32be bdd3 6c3d
000000d0: 7522 c8bc 46e3 adbd e09b 77be 82c8 a83b
000000e0: 9013 023e a45f eebd bfd0 16be 182e e1bd
000000f0: d46d 94bd bd56 053d eb3c a2bd b94d 2c3d

fc2.weight f4 [64, 64]
-0.38251683 0.09207312 -0.10953308 0.026957752 0.049061283 -0.3250651 -0.024536915 0.0015994842
-0.3582715 0.056212146 -0.06276117 -0.05616033 -0.4482851 0.017405603 -0.22062267 -0.22777939
-0.035921082 -0.25410855 -0.13665032 -0.22898936 0.10356697 0.025849026 0.07408258 -0.032045227
-0.28574723 0.12347994 0.19687536 0.05584646 -0.12082232 -0.028748075 -0.07903804 -0.38082182
-0.12860733 -0.013223634 -0.41101652 -0.09451575 -0.3695763 0.16049391 0.1815959 -0.2509194
-0.16430525 -0.33499873 -0.0027076923 -0.24130236 0.039934542 -0.15953924 -0.0060646674 0.10521941
-0.2613521 0.046694487 -0.08234289 -0.28158692 -0.4127034 0.03654734 0.2540005 -0.028296458
-0.10581508 -0.2287898 -0.027394118 0.008588206 -0.15778276 0.059229936 -0.0889354 0.17879117
0.20835212 0.083102666 -0.121124886 -0.010279966 0.15106194 0.10405795 -0.36005065 0.23516847
-0.029912064 -0.13884754 0.091164716 0.23043731 0.039441124 0.084062725 -0.34576988 0.07038181
-0.012601164 0.104900576 -0.1841773 0.049092393 -0.071749456 -0.012376004 -0.2613233 0.05884932
0.050841615 0.16286694 -0.115726195 -0.008657669 -0.025998997 0.1946187 0.17452133 -0.16608764
-0.12360872 0.22664018 0.11514779 0.07492241 -0.005374882 0.051668234 0.22663744 -0.10526417
0.05280831 0.13034786 -0.026274623 -0.022389293 -0.09722038 -0.060138777 -0.27848807 -0.17452033
0.010049637 -0.21167283 0.050524287 -0.08667891 -0.07966422 -0.10206152 -0.0034492565 0.2141555
0.12056887 -0.01728222 0.267029 0.026426684 0.17536953 0.054955117 0.12461914 -0.1412158
-0.07168491 -0.10308699 -0.034552854 -0.054211996 0.12697092 0.08090424 -0.064249046 0.3576688
-0.10235214 -0.047421947 0.1303909 0.3895874 0.0046612555 0.10585003 -0.030772535 -0.0038395408
-0.03931212 0.4073204 0.041636795 -0.007311883 -0.0744666 0.03557236 -0.00912867 0.089797474
-0.004119303 0.27620384 -0.037553538 0.14299604 0.19341105 0.33104074 0.10217539 0.072247215
-0.3786039 0.13811034 -0.06507323 0.09492965 0.03218541 0.055295438 0.26536667 -0.032825112
0.084463924 0.14771053 -0.09798155 -0.08169945 0.008018589 -0.01120364 -0.18349484 -0.028158462
0.065707505 -0.095323786 -0.0739974 -0.044445693 -0.06122292 0.011102966 -0.09382366 0.0106667355
0.12582119 0.016242051 0.364671 0.003694219 0.0058089877 0.2372551 -0.0359593 0.14394827
-0.11682872 -0.12693667 0.10257522 -0.20563802 0.12149122 0.076752596 -0.045951158 -0.060322087
0.016959276 -0.055734757 -0.09701121 0.19533549 -0.022958204 0.08002871 0.357109 -0.16534393
-0.098952666 0.15338635 -0.04845494 0.013562327 -0.009526954 0.05298916 -0.17869724 0.015134502
0.14658077 0.06641871 0.085627034 0.15608893 0.22448592 0.30939198 0.021290595 -0.38333535
-0.01698585 0.13447882 -0.06838586 -0.13203646 -0.060841523 0.20503826 0.13983056 -0.21940711
0.013492238 0.16405316 0.03182284 -0.13560651 -0.012216356 0.03171015 0.030838285 0.02705102
-0.017052595 0.042308807 -0.09968168 -0.013463787 -0.0050027976 0.16169223 -0.07947377 -0.026163049
0.097688906 -0.018117204 0.26069742 0.09997739 -0.147538 0.20144522 -0.044641033 0.0052312133
00000000: 3fd9 c3be d590 bc3d e152 e0bd 81d6 dc3c
00000010: 7cf4 483d ef6e a6be a401 c9bc c9a5 d13a
00000020: 5d6f b7be b53e 663d ee88 80bd 6008 66bd
00000030: a085 e5be 3296 8e3c e9ea 61be 003f 69be
00000040: fc21 13bd 841a 82be 10ee 0bbe 307c 6abe
00000050: eb1a d43d 56c1 d33c 9cb8 973d db41 03bd
00000060: 764d 92be 0de3 fc3d b299 493e 42bf 643d
00000070: b171 f7bd 1581 ebbc b2de a1bd 14fb c2be
00000080: a4b1 03be f1a7 58bc c270 d2be 7991 c1bd
00000090: 1b39 bdbe 8458 243e 47f4 393e 8278 80be
000000a0: a33f 28be f484 abbe 8a73 31bb f717 77be
000000b0: 6792 233d 415e 23be 1eba c6bb 467d d73d
000000c0: f1cf 85be b842 3f3d 64a3 a8bd 292c 90be
000000d0: dc4d d3be aab2 153d 5b0c 823e f9cd e7bc
000000e0: 94b5 d8bd e047 6abe a169 e0bc 8cb5 0c3c
000000f0: ce91 21be 179b 723d c323 b6bd 0815 373e
00000100: 425a 553e bb31 aa3d 5310 f8bd 4d6d 28bc
00000110: fbaf 1a3e 561c d53d 8f58 b8be 01d0 703e
00000120: 250a f5bc 0d2e 0ebe 91b4 ba3d c2f7 6b3e
00000130: 048d 213d 1429 ac3d c008 b1be 5724 903d
00000140: 1d75 4ebc 1dd6 d63d f998 3cbe 1b15 493d
00000150: 61f1 92bd b9c4 4abc 2bcc 85be fc0b 713d
00000160: 4c3f 503d 97c6 263e db01 edbd e5d8 0dbc
00000170: d9fb d4bc 204a 473e b8b5 323e e112 2abe
00000180: 9226 fdbd 5d14 683e 9bd2 eb3d ec70 993d
00000190: c71f b0bb 12a2 533d a513 683e be94 d7bd
000001a0: 874d 583d e979 053e e13d d7bc c069 b7bc
000001b0: 7b1b c7bd 1454 76bd fd95 8ebe 75b5 32be
000001c0: 3ca7 243c c3c0 58be 8ef2 4e3d b684 b1bd
000001d0: ff26 a3bd a105 d1bd ec0c 62bb 944b 5b3e
000001e0: d0ec f63d 7193 8dbc 06b8 883e c67c d83c
000001f0: 1294 333e 9e18 613d 5238 ff3d e09a 10be
00000200: 8acf 92bd 461f d3bd 4b87 0dbd 660d 5ebd
00000210: aa04 023e 1fb1 a53d 0195 83bd 5d20 b73e
00000220: 009e d1bd 843d 42bd 3185 053e 0078 c73e
00000230: 72bd 983b e7c7 d83d af16 fcbc cea0 7bbb
00000240: bf05 21bd 4d8c d03e 588b 2a3d 8598 efbb
00000250: f281 98bd 53b4 113d 6b90 15bc bde7 b73d
00000260: 38fb 86bb 976a 8d3e bdd1 19bd 8e6d 123e
00000270: 8c0d 463e 2c7e a93e 5541 d13d 59f6 933d
00000280: 5fd8 c1be cc6c 0d3e 1d45 85bd 7a6a c23d
00000290: d9d4 033d 787d 623d 24de 873e a073 06bd
000002a0: 6cfb ac3d 6e41 173e 8daa c8bd 0b52 a7bd
000002b0: 6660 033c 798f 37bc 12e6 3bbe 93ac e6bc
000002c0: a891 863d 1e39 c3bd f38b 97bd b00c 36bd
000002d0: e2c4 7abd 37e9 353c 9e26 c0bd 88c3 2e3c
000002e0: 45d7 003e 0d0e 853c 28b6 ba3e b61a 723b
000002f0: 5259 be3b 00f3 723e 0f4a 13bd 2d67 133e
00000300: e543 efbd b0fb 01be f512 d23d c692 52be
00000310: 64d0 f83d 7730 9d3d 4837 3cbd 4b14 77bd
00000320: 2eee 8a3c 214a 64bd d0ad c6bd 0706 483e
00000330: d812 bcbc 18e6 a33d fed6 b63e eb4f 29be
00000340: b2a7 cabd 5011 1d3e b078 46bd 8634 5e3c
00000350: f116 1cbc 290b 593d 69fc 36be b4f6 773c
00000360: 4519 163e 8806 883d 3a5d af3d c7d5 1f3e
00000370: a3df 653e a068 9e3e 9d69 ae3c 8844 c4be
00000380: e925 8bbc d1b4 093e e30d 8cbd 9134 07be
00000390: f634 79bd 8df5 513e be2f 0f3e 42ac 60be
000003a0: 8c0e 5d3c 8dfd 273e ab58 023d 6fdc 0abe
000003b0: 1c27 48bc 81e2 013d 92a0 fc3c 1a9a dd3c
000003c0: e2b1 8bbc 004c 2d3d e925 ccbd 3797 5cbc
000003d0: 82ee a3bb a692 253e 25c3 a2bd e453 d6bc
000003e0: 1f11 c83d 886a 94bc 227a 853e f2c0 cc3d
000003f0: 3414 17be a847 4e3e 84d9 36bd 996a ab3b

fc2.bias f4 [64]
-0.045607805 0.016276937 0.17910866 -0.08401031 0.16971959 -0.13592696 -0.14092219 -0.0021163006
0.3274359 0.35846734 -0.011470368 0.1621919 0.24458547 -0.046110135 -0.09190928 0.04465188
-0.0008029072 -0.09278479 0.010809545 0.16905256 0.02585032 0.5056599 -0.14470606 -0.073415674
0.014695165 -0.1449822 0.17600702 -0.16658726 0.0082576 0.115149744 0.012055916 -0.039425567
-0.011292179 0.108506516 0.07320092 -0.14680128 -0.23395813 -0.12327602 0.3458176 -0.0013001476
-0.16034928 0.4949599 0.30886394 -0.047370788 0.096653506 -0.10316313 0.08365222 -0.077471346
0.14382064 -0.011655195 -0.17225417 0.35084584 -0.045123674 -0.17805283 0.106953114 0.093643546
-0.18135805 -0.2069373 -0.021847494 -0.09574662 -0.093343176 0.006336777 -0.06193405 -0.14666593
00000000: 40cf 3abd 3657 853c 4368 373e 990d acbd
00000010: f9ca 2d3e 7030 0bbe e84d 10be a2b1 0abb
00000020: aea5 a73e 0889 b73e 36ee 3bbc a215 263e
00000030: 9d74 7a3e fbdd 3cbd ef3a bcbd e4e4 363d
00000040: 317a 52ba f405 bebd 851a 313c 1d1c 2d3e
00000050: 0dc4 d33c ed72 013f d32d 14be f55a 96bd
00000060: fdc3 703c 3776 14be 2f3b 343e da95 2abe
00000070: e24a 073c a1d3 eb3d 2d86 453c b47c 21bd
00000080: d502 39bc aa38 de3d 5dea 953d 1353 16be
00000090: b892 6fbe 2378 fcbd 010f b13e b769 aaba
000000a0: 9a32 24be 626b fd3e 6a23 9e3e df07 42bd
000000b0: 46f2 c53d 3147 d3bd db51 ab3d 4ca9 9ebd
000000c0: b845 133e 6ef5 3ebc 6663 30be 11a2 b33e
000000d0: 9ad3 38bd 7b53 36be 3c0a db3d 30c8 bf3d
000000e0: edb5 39be 5fe7 53be 84f9 b2bc ce16 c4bd
000000f0: b52a bfbd bda4 cf3b 8fae 7dbd 982f 16be

fc3.weight f4 [4, 64]
0.110120356 0.12155399 0.24851064 -0.27785566 0.27541208 -0.34911332 0.10291159 -0.03455877
0.16776644 0.104266375 -0.005651423 0.33512443 0.15604216 -0.016298305 -0.02354537 -0.36360648
0.55858314 -0.0891839 0.59245557 0.23097299 0.01697939 0.17678308 -0.0921134 0.21632212
0.04122717 -0.5211997 0.0997544 -0.31329232 0.6118162 0.1792684 -0.6047575 0.2362054
-0.48826638 0.24851415 0.12199635 -0.11303943 0.03474049 -0.26856986 0.1924828 0.22565748
0.06127501 0.16498058 0.14364304 0.27264893 0.03739433 -0.08034928 0.17132771 0.19918677
0.32595062 0.07950065 -0.122965425 0.14119597 0.18466784 -0.24288483 0.38456908 0.2939743
-0.14669332 -0.12833108 0.3209275 0.5128509 -0.2251611 0.164889 -0.043736883 0.01879395
0.16938402 0.10797943 0.19252948 -0.2800592 0.22348922 -0.19982693 -0.026616413 -0.044317972
0.059680264 0.11463792 0.18533358 0.32600886 0.08293912 -0.13791409 -0.020247638 -0.011673472
-0.22585702 -0.14781916 0.36626008 0.12942131 0.16195446 0.23075487 -0.107992284 0.6523298
0.13386694 -0.2755537 0.17417306 -0.03593594 0.43156025 0.30646455 0.08112169 0.28862986
0.11822018 0.22978248 0.268395 -0.16059859 0.08868097 0.054713447 0.21309428 0.12270514
0.10845568 0.15036026 0.10111386 0.32710877 0.09751684 0.030824427 0.12449329 -0.17177157
0.23675722 0.16953576 -0.09819068 0.14941096 0.4707631 -0.15252087 0.43827212 0.25122803
-0.09396075 -0.14580789 0.36246642 -0.060875412 -0.055991154 -0.20356067 -0.16451862 0.5213264
-0.31500515 0.1387926 0.114411086 -0.009821355 0.26268673 -0.10992987 0.08771304 0.20902596
0.11864681 0.1701307 -0.13447098 0.24584793 0.26864335 -0.4955513 -0.059884876 0.06872386
0.29909799 0.3192418 0.70309305 0.030901214 0.04439278 0.25867277 -0.004363483 -0.071233526
0.016552405 -0.33765972 0.005317833 -0.051063336 0.35367092 0.22218229 -0.206903 0.030050358
-0.39148563 0.012562939 0.44517764 0.26770648 0.00015092661 -0.21246788 0.19131544 0.29709995
0.058591977 0.17457339 0.11966053 0.6037347 0.17427671 0.03112927 0.10297246 -0.39042705
0.26824936 -0.1552713 -0.4371648 0.21868725 0.577691 -0.31664395 0.27533293 0.21781166
-0.044538233 -0.16431083 0.060622845 -0.08797426 -0.105975956 0.033835065 -0.37762886 0.20216468
0.23713543 0.20291765 0.0554183 -0.102591395 0.1162605 0.032123767 -0.04478177 0.1502007
0.09956345 0.17028804 0.09999631 0.23985033 0.22244069 0.37309948 0.05926323 -0.10599207
-0.1394354 0.055292845 0.2749892 0.15138893 0.10009219 0.16488045 -0.2999723 0.5669022
0.27467856 -0.5029669 0.1746453 0.0037287937 0.4206637 0.0063432488 -0.20870647 0.12807502
-0.65971553 0.37647793 -0.011074317 -0.33245164 -0.34727162 0.43970105 0.11116479 0.34290138
-0.09722179 0.21100645 0.29846898 0.26055932 0.31074664 -0.17939402 0.010636042 0.17975424
0.2881698 0.022905108 0.08962179 0.21737716 -0.13418254 -0.036126025 0.47247484 0.38916937
-0.30981615 -0.17732239 0.48561782 -0.4077161 -0.10926139 -0.13466635 -0.09000433 -0.38418794
00000000: c886 e13d 4cf1 f83d 9379 7e3e 1943 8ebe
00000010: d002 8d3e fbbe b2be 50c3 d23d 7f8d 0dbd
00000020: f7ca 2b3e 9c89 d53d 922f b9bb 6e95 ab3e
00000030: 84c9 1f3e 0684 85bc 38e2 c0bc a12a babe
00000040: 4eff 0e3f 0ca6 b6bd 2bab 173f 2f84 6c3e
00000050: 5d18 8b3c a006 353e f3a5 bcbd 8c83 5d3e
00000060: d2dd 283d 586d 05bf 094c cc3d da67 a0be
00000070: fd9f 1c3f 2392 373e 63d1 1abf d4df 713e
00000080: 0dfe f9be 7e7a 7e3e 39d9 f93d 3781 e7bd
00000090: 0b4c 0e3d fd81 89be 361a 453e c112 673e
000000a0: 81fb 7a3d abf0 283e 2917 133e a498 8b3e
000000b0: cc2a 193d 2a8e a4bd 8870 2f3e 9ef7 4b3e
000000c0: 00e3 a63e 3dd1 a23d 4cd5 fbbd ad95 103e
000000d0: 9119 3d3e cdb6 78be 3de6 c43e cd83 963e
000000e0: c636 16be 3969 03be 9c50 a43e 324a 033f
000000f0: a290 66be a9d8 283e 7225 33bd c5f5 993c
00000100: 0173 2d3e 5224 dd3d 7326 453e eb63 8fbe
00000110: 5cda 643e 6e9f 4cbe aa0a dabc c386 35bd
00000120: 4b73 743d 49c7 ea3d 16c8 3d3e a2ea a63e
00000130: fcdb a93d 5a39 0dbe 60de a5bc 1742 3fbc
00000140: 1047 67be e85d 17be 7186 bb3e 0587 043e
00000150: 64d7 253e 014b 6c3e 0f2b ddbd 16ff 263f
00000160: 6a14 093e 6015 8dbe 6c5a 323e 9031 13bd
00000170: 77f5 dc3e ece8 9c3e 2123 a63d 4bc7 933e
00000180: 6c1d f23d 194c 6b3e 126b 893e f573 24be
00000190: 5e9e b53d 351b 603d 6335 5a3e d54c fb3d
000001a0: 031e de3d 0af8 193e c914 cf3d cd7a a73e
000001b0: e9b6 c73d 8283 fc3c 57f6 fe3d e3e4 2fbe
000001c0: 7c70 723e c89a 2d3e 3218 c9bd 30ff 183e
000001d0: dc07 f13e 6e2e 1cbe 3465 e03e f6a0 803e
000001e0: 7e6e c0bd aa4e 15be 3395 b93e 7f58 79bd
000001f0: fb56 65bd 3572 50be 9277 28be a675 053f
00000200: 5b48 a1be a61f 0e3e 5c50 ea3d c0e9 20bc
00000210: e07e 863e e922 e1bd e5a2 b33d e70a 563e
00000220: 19fd f23d be36 2e3e c3b2 09be 8fbf 7b3e
00000230: 9f8b 893e e6b8 fdbe d849 75bd 18bf 8c3d
00000240: 5f23 993e a973 a33e e8fd 333f 8b24 fd3c
00000250: 34d5 353d c270 843e 8cfb 8ebb e2e2 91bd
00000260: e998 873c bce1 acbe 3741 ae3b ca27 51bd
00000270: 5b14 b53e c183 633e 61de 53be 2b2c f63c
00000280: ce70 c8be c9d4 4d3c 53ee e33e d310 893e
00000290: 0e42 1e39 2e91 59be 32e8 433e 7c1d 983e
000002a0: 24fe 6f3d 5ec3 323e 9410 f53d 5b8e 1a3f
000002b0: 9875 323e d002 ff3c 3ae3 d23d 0ee6 c7be
000002c0: fb57 893e 71ff 1ebe 11d4 dfbe 8def 5f3e
000002d0: 8fe3 133f 281f a2be 70f8 8c3e 050a 5f3e
000002e0: b96d 36bd 1941 28be a94f 783d d92b b4bd
000002f0: ec09 d9bd a396 0a3d 9258 c1be 4204 4f3e
00000300: a1d3 723e a5c9 4f3e 4dfe 623d 701b d2bd
00000310: fc19 ee3d 3694 033d 176d 37bd 36ce 193e
00000320: ece7 cb3d fd5f 2e3e deca cc3d 539b 753e
00000330: 7ec7 633e e506 bf3e 00be 723d 5f12 d9bd
00000340: 27c8 0ebe c07a 623d 62cb 8c3e b305 1b3e
00000350: 22fd cc3d 6cd6 283e f895 99be 8120 113f
00000360: aba2 8c3e 70c2 00bf 38d6 323e c75e 743b
00000370: 3c61 d73e 07db cf3b 26b7 55be 1926 033e
00000380: 1ee3 28bf b7c1 c03e 0d71 35bc 1a37 aabe
00000390: 96cd b1be 7f20 e13e 5eaa e33d c590 af3e
000003a0: 381c c7bd 1312 583e edd0 983e 0868 853e
000003b0: 2f1a 9f3e 11b3 37be cb42 2e3c 7f11 383e
000003c0: fe8a 933e 7ea3 bb3c a18b b73d 1e98 5e3e
000003d0: 2667 09be e2f8 13bd 39e8 f13e 3541 c73e
000003e0: 39a0 9ebe 0094 35be e6a2 f83e 2ac0 d0be
000003f0: 70c4 dfbd fae5 09be 3154 b8bd 48b4 c4be

fc3.bias f4 [4]
0.2938762 0.2840535 0.21707702 0.18351784
00000000: f176 963e 766f 913e 7049 5e3e 1aec 3b3e
