Navigation - Value based methods/checkpoint/checkpoint_ddqn_er_1.pth (torch_old, 54445 bytes, 6 tensors)

fc1.weight f4 [128, 37]
00000000: fad4 e2be 5eda 753e 0eba 1abd ac1c 12be
00000010: cb44 a7be 0403 443e 7c8c 3bbd 19ed e2bd
00000020: 5bec b33d 1fe3 b73e a02b d83d 9c62 7fbe
00000030: a04f 88bd 582a cebe ec84 c6be e9ba 4ebe
00000040: 1380 d43d 6305 3e3e 3a47 c83c a6ae 4abd
00000050: 6952 5ebd e017 5c3e afe2 86bd 1f83 ce3d
00000060: cc72 a93d 200d 39be aa1a 0d3e 2b28 77be
00000070: 84e7 6c3e e67b 75bb 891a 1abe 75e2 f03c
00000080: 4364 76be 7a43 ab3e ed7a fe3d 127c a7bd
00000090: 6109 7e3a eb38 113e ae5d c1bd 567a 0e3e
000000a0: 6257 8ebd 1f8e d1be 0340 98bd 3b14 06be
000000b0: c3bb 15be 0aba 4abd e67d 913d 2d61 583d
000000c0: e913 70bd 811f 9b3d 4422 a9bd 98f6 b43d
000000d0: 6395 c93d 41ba 65bc 1eb4 253d 8db0 b1bd
000000e0: 75cf 1f3e 7fee 55bd cb8d 19be 78e7 00be
000000f0: eb2c 8dbb 5967 373c e2fc 6dbd 0c09 b63d
00000100: 37a7 063e 3094 efbe 2144 8cbe 601c 8ebd
00000110: b899 983d 4660 5b3e 1e8b d2bd e04f 623c
00000120: 4aaf dbbd 05cc cc3c b294 c73c 3222 443e
00000130: ab8e 5d3e 69e5 acbe 5931 de3d 77db c6be
00000140: c7ab c5bd 20f7 103e ea2b 973e ac9c 25be
00000150: 41e8 2cbe f62d bf3d 4e13 f3bd 9d3f 893e
00000160: a3c8 693e d540 26be 029e 2c3d 445d 5e3e
00000170: e360 113d 3176 a53e 880a ccbe 413d 0fbd
00000180: cf8f 3f3e e331 f63d 8dd5 26be a611 91be
00000190: d97b 833e b188 e93d 1bbe a53b fc30 81bd
000001a0: 9abf 15be dbd5 d53d 3969 69be 140b 57be
000001b0: 1c13 993e a0a1 76bd b7f2 14bd 369b f4bc
000001c0: daaf e93c 4c24 5c3e 8831 c03d 61b0 b03b
000001d0: 3151 0dbd 83c8 04bd 0006 ae3d 6e28 963d
000001e0: ab92 623d d116 073c c13f 0e3d 1f0d 8cbd
000001f0: 54c5 3f3c a3df f6bd 3658 28bd 0332 b43c
00000200: b92b c7bd 5343 53be f405 0cbe 1151 b53e
00000210: 4cf6 29bf 0f4c c8be 3dfb ecbd 7ca3 b9bf
00000220: f710 103d 75d9 27bd 2278 833d bb76 003e
00000230: 9f8d b53d 7a9c 46bd 7f7c b23e 14c8 683e
00000240: 71dc 1cbf 3046 2a3e 8096 62bc b1f2 deba
00000250: 630c 38bd b308 11be 2818 73bd a007 57be
00000260: bed4 0ebe aa67 713e b838 80bd 44a6 59be
00000270: ef96 383e 0055 88be 00bb 7d3d 85dd 663d
00000280: b054 bbbd b03e 44be 2d31 5cbd e6e8 44be
00000290: d01d ddbc f236 de3d a770 9e3d 07b0 0f3f
000002a0: 3eb8 0dbe 8a7e 80bd 625e 5a3e b199 003d
000002b0: 3b62 733e 9a8c 833e 9437 90be db7c 0fbd
000002c0: 38bd dbbd 6c6a b4be 18df 2f3e e973 103d
000002d0: 94df 0bbd 08e0 8bbd 9b97 d53e bbbb 403d
000002e0: 8615 033d 250c 6d3c b842 21bd 4884 083c
000002f0: 79eb 6bbd a055 763d 7aa8 593e 64dc 463e
00000300: 485c b4be b417 923d 170e 9dbf 422f 793d
00000310: 804d 46be ba18 1bbe 301e c23d 5528 81be
00000320: f772 abbc 4765 cd3d 2f7e d4bd f117 f0bd
00000330: b6f4 363d 2756 4d3e 12b4 053d 24f9 143c
00000340: 7add 7e3d 60e3 a03d 54e6 afbd 7949 7ebd
00000350: ca06 1e3d 9a42 393e 936c 81bc 0482 2b3e
00000360: d98a 043e 70b8 3cbe 6cd1 08be b6ce c5be
00000370: e36c d73d a5dd 113d 7c54 a03e 6c07 dfbd
00000380: f853 2cbe 0944 3cbe eefc 73bf fc77 51bd
00000390: d486 5cbd bbf0 14bd 308d 923d aea4 783e
000003a0: f8c3 b93c 7177 193e 7633 163d 5e81 503c
000003b0: be74 b63d a176 ebbd 8b53 43be 27c1 e03d
000003c0: 1f05 5b3e 7f41 673e f883 26be 964d d63c
000003d0: b3a4 553e 0563 7dbe 3d0a 823e 6427 1fbe
000003e0: b926 b93d b018 9abd ea84 86bd 2b60 283e
000003f0: ccfc 643e 8ab7 a5bd 4706 c4bd 6157 3fbe
-0.44303113 0.24009082 -0.03777509 -0.1426875 -0.32669672 0.19141775 -0.045788273 -0.11080379
0.087853156 0.35915467 0.10555196 -0.2493996 -0.06655812 -0.4026668 -0.38773286 -0.20188488
0.10375991 0.18556742 0.024448026 -0.049482964 -0.05427781 0.21493483 -0.06586205 0.10083603
0.08273849 -0.18071413 0.13779703 -0.24136417 0.23135191 -0.0037457882 -0.15049185 0.029404858
-0.24061684 0.33449918 0.1242579 -0.081779614 0.00096907286 0.14181869 -0.09441696 0.13913855
-0.06950261 -0.40928742 -0.07434084 -0.13093655 -0.14622407 -0.049493827 0.07104091 0.05282705
-0.058612738 0.07574368 -0.08258489 0.088360965 0.098429464 -0.014021457 0.040454976 -0.086762525
0.15606482 -0.0522294 -0.14995496 -0.12588298 -0.004308333 0.011194074 -0.058102496 0.08888444
0.13149725 -0.46792746 -0.27395728 -0.06939006 0.074511945 0.21423444 -0.10280441 0.013812989
-0.10726793 0.024999628 0.024362896 0.1915367 0.21636455 -0.33768776 0.10849256 -0.38839313
-0.096519046 0.1415677 0.2952569 -0.16173047 -0.16885473 0.09334938 -0.118689165 0.26806346
0.22830443 -0.16235669 0.042142875 0.21715266 0.03549279 0.32316735 -0.39851785 -0.034970526
0.18707202 0.12021234 -0.162924 -0.28333777 0.25680426 0.11403025 0.0050580627 -0.06308171
-0.14623871 0.1044118 -0.22794046 -0.2100032 0.29897392 -0.06021273 -0.036364283 -0.029859167
0.028526235 0.21498221 0.09384447 0.0053921198 -0.03450126 -0.032417785 0.08497238 0.0733193
0.055315655 0.008245186 0.03472877 -0.0683844 0.011704762 -0.12054374 -0.04109975 0.021996504
-0.09725136 -0.20631151 -0.13674146 0.3541341 -0.66391444 -0.39120528 -0.115713574 -1.4503016
0.03517243 -0.040978868 0.06419398 0.12545292 0.08864903 -0.04848907 0.34860608 0.22732574
-0.61273867 0.16628337 -0.013829827 -0.0017009584 -0.044933688 -0.14163475 -0.05934921 -0.20999002
-0.13948342 0.23574701 -0.06260818 -0.21254832 0.18026327 -0.2662735 0.061945915 0.0563636
-0.09147012 -0.19164538 -0.053757835 -0.19229469 -0.026991755 0.10850324 0.077363305 0.5612797
-0.13839814 -0.062741354 0.21325067 0.03139657 0.2376794 0.25693208 -0.28167403 -0.03503118
-0.1072945 -0.35237443 0.17174947 0.03526679 -0.034148768 -0.0682984 0.41717228 0.047054034
0.03200295 0.0144682275 -0.03937027 0.00833232 -0.05759761 0.060140252 0.21255675 0.1942001
-0.35226655 0.07133427 -1.2269925 0.060836084 -0.19365501 -0.15146151 0.09478414 -0.25226083
-0.020928843 0.10029083 -0.1037563 -0.117233165 0.04466697 0.20052396 0.03264243 0.009092603
0.062222935 0.07855868 -0.085888535 -0.062081788 0.038580693 0.18091813 -0.015798843 0.16748816
0.12943591 -0.18429732 -0.13361138 -0.3863427 0.10518815 0.035611767 0.31314456 -0.108900875
-0.16828907 -0.18385328 -0.95307815 -0.051139817 -0.05383952 -0.03636239 0.07155836 0.2428157
0.022676453 0.1498697 0.03667017 0.012726156 0.089089856 -0.11497236 -0.19074838 0.10974341
0.21388672 0.22583579 -0.1626128 0.026160043 0.20863609 -0.24744804 0.25398436 -0.1554237
0.09040589 -0.0752424 -0.0656832 0.16442935 0.2236206 -0.08091648 -0.0957151 -0.18685676

fc1.bias f4 [128]
00000000: e317 1ebd c13d 2c3b d4b6 abbd 7dc5 3cbd
00000010: 3b1f d03c 1f7f 98bd ecc5 bc3d 7bb7 b23d
00000020: 8cff 5dbe 7424 e13d a861 45bd 67c9 58bd
00000030: 30c1 febc a872 2abe da99 5abd 4ba7 59bd
00000040: 1464 4d3d d8a5 a1bc 1a8b 76bd 8168 0e3d
00000050: 5611 0cbe 64b0 06bc 134f 193e 043f 0d3c
00000060: c40a b53d eba8 3c3e 7c53 523e a876 18bd
00000070: fce8 253c 530f 61bd f605 da3d 556f 123e
00000080: f87e 11be 4d71 b23c f70b acba 9a57 c9bd
00000090: 1a6a 343d 97b0 ba3d 6608 33bd b215 463d
000000a0: 5e37 62ba 95e8 9b3d 1fe4 333e e634 c2bd
000000b0: 119c 1f3d 0867 c8bd 7329 393d f4f4 a4bd
000000c0: 823b 92bd d155 3ebc 6889 90bc 6a14 903d
000000d0: d1ee ca3d 46ab 8f3d 327a 273d 110f 1b3e
000000e0: 7953 b8bd e79b 89bd e9e3 22bd 5e12 3fbd
000000f0: cdd9 cbbd 2671 9f3d c3d6 ab3d 3367 94bc
00000100: 1219 253e 8cb6 22bc 1044 5d3d 0cbc 1abe
00000110: c80e 49be c4c0 ebbd b4ba 54bd e6ea f9bd
00000120: 09d8 a23d 0814 1fbe 2138 dcbd 9d50 43ba
00000130: f59c 163e b412 1cbe 0ff2 2a3e 88e6 593d
00000140: a05e c53b c6ab 263d 75e6 e83d eac6 94bd
00000150: 4371 4a3d 8390 fd3d afe9 093e 4ee0 fcbd
00000160: 5b06 8c3c 7869 8c3d b51a bb3d e182 33bd
00000170: 8d7a f4bd e711 2bbe f274 4cbc 02bb 153e
00000180: 6cb8 74bc 6608 26be 53fb 53bd 0bef a23d
00000190: 7324 9cbd e28e 12be 2959 e43d b83b bf3d
000001a0: 0c5e 13be e7b3 57be a430 8dbd bb87 0e3e
000001b0: e0fd 27bd 0ee9 54bb 48b4 ef3d ae5f 65bd
000001c0: 0baa 9fbd 3f62 86bd 2ec3 a43c dd7c 1f3e
000001d0: d284 983d d1c4 563e b292 ad3d 616f b0bd
000001e0: 9a0b 993d eb2d 163c eea3 c7bd 1a86 2cbe
000001f0: 3fac a6bc 590d f33c c049 713d f5a7 1bbd
-0.038597 0.0026281925 -0.08384481 -0.046086777 0.025405517 -0.074461214 0.09217438 0.08726402
-0.21679515 0.10993281 -0.048188835 -0.052926447 -0.031097978 -0.166453 -0.05336938 -0.05313806
0.05014427 -0.0197324 -0.06019125 0.03476763 -0.13678488 -0.008220766 0.1497157 0.008620981
0.08839944 0.18423812 0.2053966 -0.037222534 0.010126349 -0.054946255 0.10645668 0.14300282
-0.14208591 0.021782542 -0.0013126124 -0.09831162 0.0440465 0.09115713 -0.04370918 0.048360534
-0.0008629466 0.07612721 0.1756749 -0.09482746 0.038967196 -0.09785277 0.045205545 -0.080545336
-0.071402565 -0.01161714 -0.017643645 0.07035144 0.09908832 0.0701509 0.04088802 0.15142466
-0.09000296 -0.06719189 -0.039768133 -0.046648376 -0.099536516 0.07785253 0.08390572 -0.018115615
0.16122845 -0.009931218 0.054019988 -0.15110797 -0.19634545 -0.115113765 -0.051935866 -0.122030064
0.07951362 -0.15534985 -0.10752893 -0.0007450672 0.14708312 -0.1524151 0.166939 0.053198367
0.006023243 0.04069116 0.11372081 -0.07264502 0.04942442 0.12381079 0.1346805 -0.1234747
0.017092874 0.06856054 0.09135953 -0.043825988 -0.11937437 -0.16706048 -0.012479054 0.14622119
-0.014936548 -0.16214141 -0.051753353 0.0795575 -0.0762414 -0.14312318 0.111498185 0.09337562
-0.14391345 -0.21064721 -0.06894043 0.13918965 -0.0410136 -0.0032487544 0.11704308 -0.05599945
-0.07796105 -0.06561708 0.0201126 0.15574975 0.074472085 0.20973517 0.084752455 -0.08614994
0.07472916 0.009166221 -0.09748064 -0.1684803 -0.020345805 0.02966945 0.058908224 -0.038001973

fc2.weight f4 [64, 128]
00000000: 01b5 09be 53e0 6a3d 14fe 09bd d38c 71bd
00000010: b5bc 6dbd 03b1 55be 1533 5abe 58e5 66bd
00000020: 9aea 12be 3cb8 2c3d 28fb 4fbd 8894 8dbc
00000030: b0f2 acbe 7c45 b6bd 8c00 383e a905 aabd
00000040: b25f debd e35f 4abd 4b14 01be ed7e 9dbe
00000050: 7e19 0e3e 0af4 4abe 1202 b6bc aad3 fe3d
00000060: a202 063d 5862 953d 91ee 87bd 4d0c 53bc
00000070: 9826 11be e133 bc3d fae8 8bbe 6c2e c53e
00000080: 4dc5 213e 4f30 b4bd 757e a9bd 0900 0abf
00000090: 3b89 2ebd 1171 953c 5217 5bbe ca8a 31be
000000a0: fda1 2b3d 20e5 22be ba06 4a3d 85b3 38be
000000b0: de85 a8bd c95a 8e3e 5e05 5dbe 9e79 9abe
000000c0: b787 61bd 8b8f abbd fc31 8bbe 1232 aabd
000000d0: 69de f2bd c7be e9be c4e7 ddbd efdd be3c
000000e0: abd1 e63d 129b 49be b342 9e3d 2148 dabd
000000f0: 72b3 8c3c fc48 3a3e 037a fa3d f10a 54be
00000100: 9b35 e53d 194d 9cbe e594 bfbd a2a6 59be
00000110: 8ae6 b33b 112a 96be c86c 943d 30a8 483e
00000120: 8b00 14be 0c07 03be 7629 28bd 33fb babd
00000130: 5285 b7be cd60 863d 5b9f 2b3d 7063 47bd
00000140: 1a2a 59be e274 103d 48c1 343e 48cf 883d
00000150: 066f e53c 1ab6 543d c522 843d 05e8 a5be
00000160: 1cf3 52be 17f7 b3be f847 02bf d2cd 5abe
00000170: c404 4bbe 85b8 8ebe 3a42 083d c03b 0e3d
00000180: f1e1 3dbe 9686 a1bd 1913 6fbe e4c6 a1be
00000190: abac 00bc 1c4e 16be 78ed c0be 2261 053e
000001a0: dc8b 3c3d c9b6 153e d63a 903b de5e 5ebe
000001b0: 4afb 183d cda2 babe c23d 2ebd d9c9 75be
000001c0: 82bb 7bbe 0450 103e df1a 9dbb 93a5 843e
000001d0: 91e7 bf3d 0c76 c03d 09d5 0fbe 7716 11be
000001e0: 8fb3 cd3d c2c1 45be 69eb cb3c ff52 a9be
000001f0: 9a99 843d 8cea 0a3b bbbd 29be 92f0 89be
00000200: c66a 993e 6fcc d4bb 9d02 7fbd dbb9 4dbe
00000210: 1f65 e1bd 5827 dfbd 33e7 d23d 7722 d1bd
00000220: de20 a7bd fade bdbd 9570 99bc eb31 5dbd
00000230: 79f2 2e3d cde8 3dbd b164 fdbd 729f a4bd
00000240: 3972 b33c dcab f53d d666 2e3e bfb1 0d3e
00000250: 63cb e3bb 1fbc 74bd f196 113e e8f2 e53b
00000260: 4998 c9bd 87ac 9fbd 070f 00bd 47bf eb3d
00000270: 5712 ab3d 0dfa b9bc 5242 c7bd 30d5 f6be
00000280: 0517 9f3d 4a0a d3bd 3681 1f3d 7bc7 52bd
00000290: 9423 2d3c 775b 7d3d c75a 15be 809b 2e3d
000002a0: d7f1 463e 5fda af3c 1fa9 04be 8cd0 d53b
000002b0: 84aa 18be 5104 bebe 3f3f a0bc 0b54 46bd
000002c0: 9176 54bd f254 113e f71d 623b 19e6 583d
000002d0: a589 15bd d074 0b3e e15b 14be 047e d3bd
000002e0: 4ad4 3abe 6524 3dbe 1d93 47bc a558 a13b
000002f0: a9e9 493e eed2 153e 8a5b 6a3c e111 bfbd
00000300: b78c 163d 6e4e e9bd dc40 943e bd39 253e
00000310: db43 27be 1306 733e e8d5 92bd 8259 5b3e
00000320: 1595 abbc 2c6d c6be 56eb 023d 6383 863e
00000330: a3fc 993e e0ca a73c 651e 02be 4677 c2bd
00000340: bc96 1c3d 2d54 3abd c45c bebd c931 273c
00000350: 2ed6 afbc 1be2 6ebe 75c2 f73d 6c6d 14be
00000360: 1d6d 4b3e b77d 81bd 9f20 e93b b1c4 78be
00000370: 3e74 32bd 89fa 95be f98d 46be 19bf a03d
00000380: 094c fa3d 8c7e 2cbe 272f 9ebd fe52 36bb
00000390: 048d a23d 3436 9a3d 6eb5 9b3e 3c83 53bd
000003a0: ccec c4bd b984 673a 322d 0cbe d35d fe3d
000003b0: 6479 8abd 9721 c9be 5d91 e33c 35f4 fcbd
000003c0: 5d7e 48bc 12b1 dbbd 56ae e73d 94e3 69bd
000003d0: 1c3d 933d ceb2 783e a138 debd be87 37be
000003e0: ef92 86bd 31dd ab3c 2d18 ab3d 87d9 9bbd
000003f0: 9763 2bbc 1aa4 13be 078d e03e 8231 953c
-0.13447954 0.05734284 -0.033689573 -0.05897219 -0.058041293 -0.20868306 -0.21308549 -0.056371063
-0.14347306 0.042167887 -0.05077663 -0.01728274 -0.33778906 -0.08899972 0.17968959 -0.08301861
-0.10858096 -0.04940785 -0.12605397 -0.307609 0.13876912 -0.19819656 -0.022217784 0.124427155
0.032717355 0.07294148 -0.066373 -0.012881351 -0.14174879 0.091895826 -0.27326185 0.3851198
0.1579792 -0.08798277 -0.08276073 -0.53906304 -0.042611342 0.01824239 -0.21395615 -0.173381
0.04190253 -0.15907717 0.04932282 -0.18037231 -0.08228658 0.2780364 -0.21584079 -0.30170912
-0.05506107 -0.08376988 -0.27186573 -0.083103314 -0.118588276 -0.45653364 -0.108352214 0.023299186
0.1127046 -0.19688061 0.077275656 -0.10658289 0.01717541 0.18191904 0.12230303 -0.20707299
0.11191865 -0.3052757 -0.09354571 -0.21254972 0.005490129 -0.2932897 0.07247311 0.19595408
-0.14453332 -0.12795657 -0.041055165 -0.09129944 -0.35843903 0.06561432 0.04190002 -0.048678815
-0.21207467 0.035267718 0.17651856 0.06680161 0.028007042 0.051931478 0.06451944 -0.3240358
-0.20600551 -0.35149452 -0.50891066 -0.21367577 -0.19826037 -0.27875152 0.033266284 0.03472495
-0.18543221 -0.07886998 -0.23347129 -0.31597054 -0.007853667 -0.14678234 -0.37681174 0.13025334
0.046031818 0.14620508 0.004401545 -0.21715876 0.037349023 -0.36452332 -0.042539366 -0.2400278
-0.24583247 0.14093024 -0.004794463 0.25907573 0.0937034 0.09397516 -0.1404611 -0.14168726
0.10044014 -0.19312194 0.024892526 -0.33071133 0.0647461 0.002119693 -0.16576283 -0.26941353
0.29964274 -0.006494097 -0.06225835 -0.2009043 -0.110056154 -0.10896176 0.10298004 -0.10211652
-0.08160566 -0.09271045 -0.018730441 -0.054002684 0.04271171 -0.046364594 -0.12372721 -0.08038224
0.021905052 0.1199567 0.17031416 0.13837336 -0.006951736 -0.05974972 0.14217736 0.007017482
-0.09843499 -0.07796579 -0.03126433 0.11511093 0.083531074 -0.022702241 -0.097294465 -0.48209524
0.077680625 -0.10304697 0.038941585 -0.05145977 0.0105675645 0.061854806 -0.1458541 0.042628765
0.19428192 0.021466432 -0.1295514 0.006525105 -0.14908797 -0.37112668 -0.019561408 -0.048419993
-0.051870886 0.1419256 0.0034502724 0.052953813 -0.03650822 0.13618779 -0.14488174 -0.1032677
-0.18245044 -0.18470915 -0.012181071 0.0049238973 0.1971804 0.14631245 0.014304051 -0.09329582
0.03675529 -0.113919124 0.28955734 0.16135307 -0.16334479 0.23732786 -0.07169706 0.21420863
-0.020945111 -0.38755167 0.031962715 0.26272115 0.3007556 0.02048248 -0.12706907 -0.09495406
0.03822969 -0.045490433 -0.092950374 0.010204741 -0.021464434 -0.2332844 0.120976366 -0.14494866
0.19865842 -0.06322806 0.0071144844 -0.24293782 -0.04356789 -0.29292706 -0.19390096 0.07848949
0.12221534 -0.16845149 -0.07723837 -0.0027820463 0.07937053 0.0752987 0.30411857 -0.051638827
-0.09615478 0.0008831728 -0.13689116 0.12420239 -0.06761435 -0.3928344 0.027779276 -0.12351266
-0.012237159 -0.10727133 0.11312549 -0.0571018 0.0718939 0.24286959 -0.10850645 -0.17922875
-0.06570994 0.020979496 0.083542205 -0.076098494 -0.010460756 -0.14418069 0.43857595 0.018212084

fc2.bias f4 [64]
00000000: bf28 d2bb 6022 c2bd be25 52bc 887c bdbd
00000010: 8b9e 3bbd 66e4 07bd 0baa acbd 38ff 5a3d
00000020: 8cf3 9ebd 987d 23be d64f 36bc 70d4 9cbd
00000030: 939b c7bd ad78 95bd ac5c 63bd a342 e8bd
00000040: 7fce 5fbd a42d 86bd f59a ccbd 1316 a4bc
00000050: cea7 5fbd f31d 4c3d 22a3 15bd 380a 9a3d
00000060: c5ae f9bc 1807 303d da3c eb3e 2275 003c
00000070: fb04 9c3c 8b7d 69bc 1bd9 debb e531 403d
00000080: bb5a c9bc 1359 b13b e72b e03c 6cef f8bd
00000090: 3925 c6bd e109 083d 607a 5f3c c911 c53c
000000a0: d099 573c fe94 d2bd 02e2 ccbc d754 d93d
000000b0: 08cd cc3e 4153 b93d f5a1 a3bd f505 49be
000000c0: 9b7f d53d 119c 223e b0e3 1dbd 3726 b8bd
000000d0: 84c0 36be e741 d63c 9c0f 323e 14be 5d3d
000000e0: 0e44 a6bd 8647 bc3e a8bd aa3d 0063 013e
000000f0: 5689 7ebc 6e2a 413b 78e4 81bd 14f3 debd
-0.0064135487 -0.09479213 -0.012826381 -0.09252268 -0.045805495 -0.033176802 -0.084308706 0.05346605
-0.07761297 -0.15965879 -0.011127433 -0.07657707 -0.0974647 -0.07298408 -0.0555083 -0.11340835
-0.05464029 -0.06551674 -0.09990493 -0.020030057 -0.05460339 0.04983325 -0.03653253 0.0752148
-0.030478844 0.042975515 0.45944864 0.007840427 0.019045344 -0.014251123 -0.0068007833 0.046922583
-0.024579396 0.00541223 0.027364684 -0.12155041 -0.096750684 0.033212546 0.013640016 0.024056332
0.01315923 -0.10282324 -0.025010113 0.10611885 0.40000176 0.090490825 -0.07989875 -0.19631179
0.104247294 0.15879847 -0.038547218 -0.08991664 -0.17846876 0.026154472 0.17388767 0.05413635
-0.08118449 0.36773318 0.08336955 0.12635422 -0.015535673 0.0029474753 -0.06342405 -0.10886207

fc3.weight f4 [4, 64]
00000000: b40a f23d 637d f5bd 23fb bf3e aca3 dbbc
00000010: 3c0e e2bd 5b9c d53e 7731 5dbe 0c3c de3d
00000020: 1f23 05bd 935a b53d 143d ae3d 6221 2d3d
00000030: f49e 333e fe8a ab3e b07f 973e 5a3e 8abe
00000040: 062c e23d 3a9f 373e c454 863e 1e53 e53e
00000050: 74d5 94bd 490a 1bbd a7e1 2b3e aa28 963e
00000060: 5a72 34bc 3eed 5abf e82c 633e c552 b23e
00000070: 5cb1 313d 3e42 1fbf e124 f73d 0a5a 803e
00000080: c0c6 f53d 1840 8d3d f819 e83d a0a4 99bd
00000090: 6477 afbc 662a b93e f9ea 53bf 0dc9 033e
000000a0: 2f6a 753e 309d fdbd bfa1 7abf 6ba7 d73d
000000b0: f662 9b3d 565b 553e 9cf6 3bbe 366f 5bbe
000000c0: 8327 0e3e b5c9 903d 30f1 0b3e e9e7 993c
000000d0: 1956 92be 4f9d c03e 590e 123e 0cd4 ef3d
000000e0: 6d2b 9ebe aa42 0f3e 0923 153e 5c31 f03d
000000f0: 9d8f f93d 0a96 973e 059e 103f edf9 bdbe
00000100: 74ab 6f3e 8368 38bd 30a7 b93e 1cd2 0f3e
00000110: d472 053d 3e46 b73e 5edf 01be 3254 d73e
00000120: d9ff b33d 2651 703f 28df e3bc 78b0 973d
00000130: 5be2 153f 0634 0fbe a96d 143f 8878 43be
00000140: f5b1 24be 6e31 f13e b80f 513e 950c c33e
00000150: fbe7 f33d f4ed 42bf c0ad 56bf d3b9 1b3e
00000160: 4dc5 8bbe e1b2 0cbe e941 3b3e d43b 9e3e
00000170: 6e8b 3c3d 3b00 023e a182 9bbe 489b 6c3e
00000180: acf8 e03c e72f 2cbe 765e c23d 3300 93bd
00000190: 3bb3 31bd ceb6 e43e 55b9 d0be 0a60 8e3d
000001a0: 9fb5 aa3e d277 fabd 6d70 4ebe 89b8 043e
000001b0: e92f 233e 0d42 5f3e fcad a03c 309f 55be
000001c0: 5e88 053e 324f db3c c9a2 e63e 7405 83bf
000001d0: 8697 62be ec97 263f 8a47 a73d 450b f23d
000001e0: 12e9 0f3e 4082 d83d 82b6 873e 7db5 b83d
000001f0: b2fd 153f bcac 8f3e 2b89 083f 4550 0e3f
00000200: 5f60 9b3e 5077 34be b28e 353e 46c4 433f
00000210: f50d 853e 0a00 0a3f 4f5f 8fbe 2639 243f
00000220: eca8 1d3c bfdf eebe 50d7 e2bc 5171 913e
00000230: 4864 2ebf 09b0 253d 85d8 873e 7b3a 5ebd
00000240: a489 57bf b122 86be 386c 293f 318d 193e
00000250: 18dd 33be ffc1 22be e066 373e 2c97 a73e
00000260: 29be 21bc fe4e d5bc 5751 153e 94b3 973e
00000270: 2290 a23d b2fb 68be 8bae 0e3f b192 663e
00000280: 1b63 cabd e989 25bf 8adc ab3e 7b69 adbd
00000290: 84dc 323e 7b42 0e3f 40b6 463e a443 f63d
000002a0: 077d a63e 66ab e2bd d52e 0bbf 8d67 d53d
000002b0: 3f07 f53d b18a 123d 92b2 99be 35a8 a5be
000002c0: a7f6 863d 0fbe be3d fecb 1d3f d8cf c83e
000002d0: df86 adbc 8338 e73e 9ba0 26bc 5d61 693e
000002e0: 6ff0 013e ce5d 2c3e be3b c83e 4222 d0bc
000002f0: 3814 5ebe f75d e13d d025 293f efb4 1dbf
00000300: 2a50 1bbf 048d 90be 9178 f63e de13 023f
00000310: 4226 d43b 7f08 bb3e 0bf8 b4be 0777 04bf
00000320: 0acb 85bd 7ff4 993d 3cd5 b9bd 4ff9 533e
00000330: fcd6 f6bd e125 db3e 00c0 bc3e d9ae 49be
00000340: 11d7 6cbd 60b0 323f 68b1 76be 5dd5 c63e
00000350: e918 553e 31d0 0c3e b7cb 2ebf e096 d53e
00000360: 4682 39bf a360 15be e201 343e 88d3 fd3e
00000370: 77a1 223e a818 02be 7ee1 c83d 72f4 8c3e
00000380: 16cb c3bb 61d6 d0bd 1036 c73e 86ba 04be
00000390: 8918 97bd 7686 543d aa7e 9abe 0fe4 903d
000003a0: 6a71 da3e efbe 2bbe b299 283e 0588 6fbc
000003b0: ff78 193e daaf 45bc 7827 053e cbcd 46be
000003c0: c1c4 683d 74d9 c23d c46d 05bd ee18 0b3d
000003d0: 336f 443d 6f99 4bbe d3ad b33d 67aa 0f3e
000003e0: 3ad1 913d 69ff e73d 676f 4f3e df72 1ebd
000003f0: 5257 a33e cd44 363d 1faa 613e a622 f93e
0.11818448 -0.11986806 0.3749629 -0.026811443 -0.11037871 0.41720852 -0.216009 0.10851297
-0.032504197 0.08855166 0.085077435 0.042268164 0.17541105 0.3350448 0.29589605 -0.27000695
0.11043553 0.17931834 0.26236546 0.44789976 -0.072672755 -0.037851606 0.16785298 0.293279
-0.011013592 -0.8551825 0.22185099 0.34828773 0.043382034 -0.6221045 0.12067581 0.25068694
0.12000799 0.068969905 0.11333078 -0.07502103 -0.021419235 0.3616516 -0.82780415 0.12869664
0.23966287 -0.12383497 -0.97903055 0.10529979 0.07587235 0.20835623 -0.18355793 -0.21429142
0.1388226 0.070697226 0.13666224 0.018787341 -0.28581312 0.37620017 0.14263286 0.117103666
-0.30892506 0.13990274 0.14564146 0.117281646 0.12185595 0.29606658 0.5649112 -0.3710474
0.23405248 -0.045021545 0.36260366 0.14044994 0.03258021 0.35795778 -0.12682864 0.42056423
0.087890334 0.9387382 -0.02781637 0.074067056 0.58548516 -0.13984689 0.5797983 -0.19088948
-0.1608351 0.47108024 0.20416152 0.38095537 0.11909481 -0.7614434 -0.8385887 0.15207605
-0.27298966 -0.13740112 0.18286861 0.3090502 0.046031408 0.126954 -0.303731 0.2310611
0.027462326 -0.16815148 0.09490673 -0.071777724 -0.043383818 0.4467072 -0.40766397 0.06951912
0.3334169 -0.12229885 -0.20160075 0.1296102 0.15936245 0.2180254 0.019614212 -0.20861506
0.13040301 0.026771162 0.4504607 -1.0236039 -0.22128114 0.65075564 0.08167942 0.11818556
0.14053753 0.10571718 0.2650643 0.09018991 0.58590233 0.28061473 0.533343 0.5559123
0.30346963 -0.17623639 0.17730215 0.76471364 0.2598721 0.5390631 -0.28002402 0.641497
0.009622794 -0.4665508 -0.02769056 0.28406766 -0.6812177 0.040451083 0.2653238 -0.05425499
-0.841944 -0.26198342 0.66180754 0.14995266 -0.1756481 -0.15894316 0.17910337 0.32732522
-0.009871998 -0.026038643 0.1458181 0.29629195 0.079376474 -0.22752264 0.5573508 0.22516896
-0.09882184 -0.6466356 0.33566695 -0.084673844 0.17466933 0.5557019 0.1940546 0.1202462
0.32517263 -0.11067848 -0.54368335 0.10420141 0.11964273 0.035776798 -0.3001905 -0.32354894
0.06590014 0.093135945 0.6163939 0.39221072 -0.021182476 0.45160303 -0.010170127 0.22791047
0.12689374 0.16832659 0.3910808 -0.02540696 -0.216874 0.110042505 0.6607332 -0.6160421
-0.60669196 -0.28232586 0.4813886 0.50811565 0.0064742872 0.3652992 -0.35345492 -0.5174412
-0.06532867 0.07517337 -0.09073874 0.20700572 -0.12052724 0.42802337 0.36865234 -0.19695605
-0.05782229 0.69800377 -0.24091113 0.38834658 0.20810284 0.13751294 -0.68279594 0.4171667
-0.72464406 -0.14587645 0.17578843 0.49575448 0.15881906 -0.12704718 0.09808634 0.27530247
-0.0059751375 -0.101971395 0.38908434 -0.12961778 -0.073777266 0.051886044 -0.30174762 0.07074749
0.42664653 -0.16772054 0.1646488 -0.014619832 0.14987563 -0.012065852 0.13003337 -0.19414441
0.056828264 0.09514132 -0.032575384 0.03395932 0.04795761 -0.19882749 0.08773389 0.14029847
0.07119985 0.113280125 0.2025734 -0.03868377 0.31902558 0.044499207 0.22037552 0.48659247

fc3.bias f4 [4]
00000000: 7b32 703e 9751 4b3e b4b0 823e 127a 873e
0.23456757 0.19855343 0.2552544 0.2646032
