Navigation - Value based methods/checkpoint/checkpoint_ddqn_er_9.pth (torch_old, 28333 bytes, 6 tensors)

fc1.weight f4 [64, 37]
0.019117456 -0.006331385 -0.038591973 -0.05101548 -0.07342951 0.046753 0.030968817 0.10452877
0.11430375 0.1334288 0.24827825 -0.63580966 -0.636209 -0.29553932 -1.485674 0.08138262
0.025860311 0.11241855 0.0587202 0.040626723 -0.0008125466 0.2345607 0.090616904 0.068981074
-0.044460557 -0.04665099 -0.007350684 -0.019104226 -0.017596921 -0.028143696 -0.053616565 -0.06202454
0.04939476 0.070668064 0.02276204 -0.051884312 -3.696685e-05 0.120748244 0.16226529 0.07384878
-0.030226639 -0.259625 -0.00943542 -0.16054064 -0.06380416 -0.038342293 0.45563674 -0.05243101
-0.05143708 0.08151396 0.13887994 0.10359853 0.018366888 -0.03925289 0.19548193 -0.060036864
-0.25765383 -0.1908754 -0.08756067 -0.024463931 0.024749331 0.20720476 -0.032325897 -0.0812168
0.02331504 0.04705689 0.16935949 0.12231899 0.14191224 0.04528281 -0.11898166 -0.48310292
0.016692307 0.0021494683 -0.1898173 0.3065931 0.19173495 -0.16389084 -0.20603813 -0.22777829
-0.039034747 0.15915851 0.16290808 0.09002422 0.2220693 -0.08364973 0.014000913 -0.102776915
-0.45117295 -0.37905273 0.133523 0.18716067 0.07745291 -0.102878675 -0.19440056 -0.0039156475
0.08663284 0.13410556 0.20226878 -0.5314659 0.19847171 0.14383152 0.082813285 -0.26942036
-0.2398758 0.04556134 -0.08268667 -0.00757917 0.080046214 0.013995531 -0.017204165 0.09091602
0.093234606 0.11048383 0.06872582 -0.10726698 0.010641737 0.020412797 0.054395672 0.15422148
0.20065907 0.10412028 0.00489324 0.0013142736 -0.06194987 -0.28903162 -0.035691533 -0.075239256
-0.06459901 -0.0677156 -0.033192452 0.33625966 -0.44925785 -0.41620743 -0.2556557 -1.5671536
0.04402405 0.07030303 0.06705269 0.22688122 0.20248684 0.13161178 0.1590488 0.14801306
0.06118742 -0.05823664 0.0052338718 -0.0003004592 -0.044596188 -0.1984675 -0.14943357 -0.12221449
-0.26156 0.0008765336 0.33293876 -0.1476425 -0.3104761 -0.19679588 -0.19843851 0.036822453
0.06439512 -0.009991188 -0.072296895 0.11559144 -0.39369455 -0.37995607 -0.22728492 -0.26586926
-0.12025112 0.06054326 0.03493798 -0.07241251 0.05579267 0.11306853 -0.204013 -0.04067968
0.022544175 0.06569852 -0.06732692 0.077039234 -0.033784088 -0.05437411 0.013899866 0.017363723
0.015333779 0.04609963 0.04675457 -0.0012093964 -0.00700183 0.04360855 0.3855159 -0.37120834
-0.5878443 -0.33926 -1.7717649 -0.023091286 0.013188088 0.011799972 -0.02916029 0.048474655
0.04659273 -0.027001802 0.032834258 0.011067737 -0.0016056375 0.14998294 0.08833271 0.12721929
0.16292998 0.050677296 0.007106446 0.1137088 0.10552543 0.16310619 0.07405941 0.07524571
-0.0055750217 0.08175294 0.12686524 0.030127617 -0.0019091815 0.004065355 0.2029604 -0.13550828
-0.13026112 0.06981706 -0.20822252 -0.1389726 0.08308773 0.013123101 0.017832741 0.21050291
-0.004074707 0.12154904 -0.0008864858 0.06677499 0.010922099 -0.045585405 -0.2345351 0.020893164
0.13521162 0.18142001 -0.14907908 0.0115052555 0.10536319 -0.13137287 0.17783296 -0.22833009
0.13140203 -0.037586108 -0.07802475 0.254708 -0.02124554 -0.10147743 0.066472776 -0.023471514
00000000: 369c 9c3c 8277 cfbb 9e12 1ebd 9cf5 50bd
00000010: 3662 96bd 1380 3f3d 51b2 fd3c 2e13 d63d
00000020: 1618 ea3d 8fa1 083e a73c 7e3e 6cc4 22bf
00000030: 98de 22bf ee50 97be 912a bebf eeab a63d
00000040: 01d9 d33c b23b e63d 9884 703d 3568 263d
00000050: 1401 55ba ae30 703e 5b95 b93d f345 8d3d
00000060: 461c 36bd 1c15 3fbd 02de f0bb 7780 9cbc
00000070: 6b27 90bc 9c8d e6bc 0b9d 5bbd 720d 7ebd
00000080: 2952 4a3d 6bba 903d 7577 ba3c a584 54bd
00000090: da0c 1bb8 db4a f73d df28 263e 073e 973d
000000a0: db9d f7bc 91ed 84be 0597 1abc c464 24be
000000b0: c1ab 82bd cf0c 1dbd 3849 e93e e6c1 56bd
000000c0: b0af 52bd cbf0 a63d 8b36 0e3e 772b d43d
000000d0: 2876 963c a3c7 20bd 6a2c 483e 37e9 75bd
000000e0: 34eb 83be d774 43be 0253 b3bd 9568 c8bc
000000f0: 1cbf ca3c 7c2d 543e 2968 04bd fe54 a6bd
00000100: 2fff be3c babe 403d 936c 2d3e 6182 fa3d
00000110: 7151 113e 787a 393d a8ac f3bd 4459 f7be
00000120: 4ebe 883c 18de 0c3b 775f 42be c5f9 9c3e
00000130: 2b56 443e 00d3 27be a9fb 52be b63e 69be
00000140: e6e2 1fbd 73fa 223e 60d1 263e 9e5e b83d
00000150: 2266 633e 8d50 abbd 1664 653c b47c d2bd
00000160: 2400 e7be 3313 c2be 41ba 083e 0ca7 3f3e
00000170: a29f 9e3d 0eb2 d2bd f110 47be d54e 80bb
00000180: 8f6c b13d f852 093e 8c1f 4f3e 260e 08bf
00000190: 2b3c 4b3e 9248 133e 039a a93d 77f1 89be
000001a0: 00a2 75be 879e 3a3d a157 a9bd b05a f8bb
000001b0: 45ef a33d 834d 653c c0ef 8cbc 2e32 ba3d
000001c0: c9f1 be3d 5945 e23d 1fc0 8c3d caae dbbd
000001d0: ae5a 2e3c bd38 a73c ffcd 5e3d 3cec 1d3e
000001e0: 9279 4d3e 033d d53d 7957 a03b b443 ac3a
000001f0: 26bf 7dbd f4fb 93be 4931 12bd 0a17 9abd
00000200: 7c4c 84bd 7aae 8abd cff4 07bd 3a2a ac3e
00000210: 2005 e6be 2419 d5be 4ee5 82be 7d98 c8bf
00000220: 9052 343d 09fb 8f3d ec52 893d 8d53 683e
00000230: b658 4f3e 3dc5 063e b0dd 223e bc90 173e
00000240: a99f 7a3d 8b89 6ebd e680 ab3b f486 9db9
00000250: 7eaa 36bd 103b 4bbe 1d05 19be 974b fabd
00000260: 31eb 85be 2dc7 653a f376 aa3e 982f 17be
00000270: b9f6 9ebe dc84 49be 7733 4bbe 24d3 163d
00000280: 97e1 833d 14b2 23bc 6510 94bd 34bb ec3d
00000290: 5592 c9be 9a89 c2be 61bd 68be 0420 88be
000002a0: 3846 f6bd 36fc 773d 211b 0f3d 034d 94bd
000002b0: db86 643d 7990 e73d c9e8 50be bc9f 26bd
000002c0: 90ae b83c f28c 863d b2e2 89bd bfc6 9d3d
000002d0: 2f61 0abd 63b7 5ebd 43bc 633c 5e3e 8e3c
000002e0: 883a 7b3c f7d2 3c3d b881 3f3d 9c84 9eba
000002f0: 9b6f e5bb e19e 323d 5762 c53e 050f bebe
00000300: f77c 16bf 7db3 adbe 31c9 e2bf f029 bdbc
00000310: da12 583c ab54 413c 8fe1 eebc 5c8d 463d
00000320: 05d8 3e3d e232 ddbc 377d 063d 7455 353c
00000330: 4174 d2ba 2195 193e c8e7 b43d c645 023e
00000340: 1ed7 263e ff92 4f3d 31dd e83b 29e0 e83d
00000350: b71d d83d 4f05 273e 76ac 973d 6c1a 9a3d
00000360: acae b6bb 166e a73d f6e8 013e 31ce f63c
00000370: 803d faba ab36 853b dad4 4f3e afc2 0abe
00000380: 2c63 05be 3ffc 8e3d 4938 55be d54e 0ebe
00000390: e629 aa3d 4602 573c f815 923c 138e 573e
000003a0: 1f85 85bb b4ee f83d 0e63 68ba 53c1 883d
000003b0: 9bf2 323c c3b7 3abd f829 70be 2428 ab3c
000003c0: ea74 0a3e 2bc6 393e 30a8 18be 8a80 3c3c
000003d0: a8c8 d73d 9c86 06be d819 363e 5dcf 69be
000003e0: 418e 063e e4f3 19bd 71cb 9fbd 1669 823e
000003f0: 200b aebc 66d3 cfbd e122 883d 5547 c0bc

fc1.bias f4 [64]
0.14214817 -0.04411105 -0.14190917 -0.012810242 0.11639262 0.034094147 -0.055584833 0.075386345
0.03787546 -0.22625625 0.09288278 0.16422547 0.03861162 0.11676815 -0.06629196 -0.10478004
0.047132526 -0.0033173873 -0.019148832 -0.20576127 -0.1587545 0.054551687 0.0712349 -0.07100864
-0.08276913 0.21122417 -0.074352495 -0.013260055 0.06667456 0.043263733 -0.17332299 -0.18618247
0.15737744 -0.018771034 -0.071064785 -0.043987256 -0.08585073 0.03634556 0.007847651 -0.0851166
-0.14406385 -0.09829558 -0.07588784 0.15624176 -0.014979009 -0.1382167 0.042691063 -0.17877954
-0.14938863 0.086705804 -0.13281772 0.016138114 0.01218377 -0.11161173 -0.1767013 -0.0019174082
0.08383575 0.08368119 -0.16690494 -0.16283508 0.060591143 -0.00061947625 -0.008834785 0.0932069
00000000: 4a8f 113e caad 34bd a350 11be 0de2 51bc
00000010: 415f ee3d 4ea6 0b3d ecac 63bd 2864 9a3d
00000020: 4c23 1b3d b8af 67be 5439 be3d b92a 283e
00000030: 3827 1e3d 2424 ef3d 14c4 87bd eb96 d6bd
00000040: 090e 413d 8668 59bb 03de 9cbc 15b3 52be
00000050: 8a90 22be 9771 5f3d 9ae3 913d fa6c 91bd
00000060: dd82 a9bd 264b 583e 1f46 98bd b440 59bc
00000070: ac8c 883d 5035 313d 957b 31be 9ea6 3ebe
00000080: 8d27 213e b6c5 99bc 6a8a 91bd fb2b 34bd
00000090: 82d2 afbd 15df 143d 6f93 003c 9d51 aebd
000000a0: 7985 13be 314f c9bd 156b 9bbd d7fd 1f3e
000000b0: 846a 75bc ae88 0dbe d3dc 2e3d fc11 37be
000000c0: 55f9 18be d092 b13d 5e01 08be 1434 843c
000000d0: 6f9e 473c b194 e4bd 30f1 34be 8b51 fbba
000000e0: 14b2 ab3d 0b61 ab3d 21e9 2abe 3dbe 26be
000000f0: 6b2e 783d 5964 22ba c6bf 10bc 42e3 be3d

fc2.weight f4 [64, 64]
-0.28277424 0.35806614 0.20483132 0.20854782 -0.0824411 -0.24668114 -0.1396343 -0.22047965
-0.094761655 -0.27364013 0.17817755 0.00642859 -0.15211713 -0.1850585 -0.043731656 -0.20909053
-0.12894547 -0.27835667 -0.11231865 -0.057002895 0.12605244 -0.004948665 -0.18706602 -0.17708795
-0.20720722 -0.2420313 0.19591033 0.0068663876 -0.061210856 -0.00020332348 0.387135 -0.27351958
0.23047827 0.023327282 -0.037774317 0.008245304 -0.14991963 0.10050892 0.3095922 -0.22983524
-0.4293057 -0.026571445 -0.037829466 -0.47529343 0.045113377 -0.25540453 -0.3503614 -0.21527605
-0.30991396 -0.17508465 -0.079558685 -0.04721554 -0.29806596 -0.13742544 0.22222036 -0.07266946
0.23651308 -0.07748814 -0.1433132 -0.072938636 -0.19235839 0.16819483 -0.02923148 -0.23871762
0.09001638 0.20217238 -0.16700228 0.007879495 -0.055416655 0.052814115 -0.051206753 0.11015099
0.01232334 -0.09611804 0.061550397 0.14692843 -0.022619246 0.10933165 -0.08836043 0.028289529
0.0013038351 -0.006123219 0.038825747 0.018551344 0.056108925 -0.20789962 0.07720045 -0.07922632
-0.1153478 0.28292447 -0.15369569 0.07539233 0.15232292 -0.050142787 0.39202985 -0.05682177
0.092488766 0.07844777 0.11973215 -0.0867231 -0.048478924 0.032001927 0.40057185 -0.14634569
0.030872652 0.059525874 -0.0056112474 -0.06798259 -0.058153275 -0.024075247 -0.1127164 -0.09032141
-0.12191615 -0.43289408 0.06639582 0.020226708 -0.06214219 0.16378647 -0.076996036 0.12192363
-0.23118162 -0.10255855 0.2977348 0.16619216 -0.12930416 0.07653798 -0.09856586 -0.014597243
-0.14518158 -0.03391273 0.21652526 0.06867821 0.1527684 -0.079502404 -0.302974 -0.15030685
-0.029856894 0.0022184986 0.092008136 -0.24519892 0.15715954 0.14292492 -0.067480616 0.046645343
-0.184466 0.17285818 -0.1488799 -0.057443395 -0.32883632 0.1084695 -0.019478694 0.27433348
0.04745071 0.13447611 0.13343456 -0.0017897794 -0.078484416 0.0660424 0.07835207 -0.20112441
-0.18302438 -0.045620564 -0.097365364 0.24448134 0.07924993 0.046471275 0.060588565 0.05458731
0.02705985 -0.15789193 -0.4423345 0.19656222 -0.06981305 -0.1487001 -0.07104237 -0.30189696
-0.02662814 0.0064325007 -0.040167462 -0.1067099 -0.33211118 0.18610549 -0.078507006 -0.18130419
-0.24060765 0.005826123 -0.11942636 0.2286605 -0.044690274 0.13001125 0.11632521 0.03159589
-0.14073002 -0.008245011 -0.20501357 -0.15115526 -0.09049927 0.04685094 0.08842302 -0.20977636
0.04693157 -0.08621007 -0.010935485 0.2258574 -0.034247633 0.10215668 -0.21446383 0.15208702
0.030127292 0.028374145 -0.12532406 -0.024475593 0.09242081 0.22838004 0.01711964 0.29112628
0.08529867 0.14923379 -0.102439426 0.19584207 0.005234246 -0.059715774 0.2521535 -0.12251073
-0.018425439 -0.03263051 0.031706933 0.062491044 -0.15499593 0.12990177 0.2564026 0.076075934
0.040228684 0.1743102 0.17202911 -0.04051129 -0.10036498 -0.09291474 0.011508021 0.04023638
0.012265 0.24131928 0.0566012 -0.008277639 -0.120851934 0.28640977 -0.1140124 0.088789076
0.11790539 -0.20723888 0.065928474 0.17745608 -0.13704556 -0.00053150917 -0.21794541 -0.022132693
00000000: c9c7 90be 7254 b73e 4dbf 513e 8f8d 553e
00000010: e1d6 a8bd fb99 7cbe 4bfc 0ebe 6bc5 61be
00000020: 6612 c2bd 8f1a 8cbe 2d74 363e eca6 d23b
00000030: 98c4 1bbe fa7f 3dbe f71f 33bd d41b 56be
00000040: 480a 04be c484 8ebe 5207 e6bd de7b 69bd
00000050: e413 013e 6928 a2bb 3c8e 3fbe 8b56 35be
00000060: 212e 54be 0ed7 77be b89c 483e 6fff e03b
00000070: 3cb8 7abd 3b33 55b9 8f36 c63e c20a 8cbe
00000080: 7f02 6c3e db18 bf3c 3eb9 1abd 5017 073c
00000090: 8884 19be 9fd7 cd3d de82 9e3e ee59 6bbe
000000a0: f5cd dbbe 5cac d9bc 12f3 1abd a959 f3be
000000b0: cec8 383d 62c4 82be 9262 b3be 5371 5cbe
000000c0: 0bad 9ebe 6449 33be aaef a2bd 1565 41bd
000000d0: 1a9c 98be 41b9 0cbe bc8d 633e bad3 94bd
000000e0: 7c30 723e 1ab2 9ebd b2c0 12be da60 95bd
000000f0: 99f9 44be 443b 2c3e db76 efbc 6472 74be
00000100: 825a b83d 4706 4f3e a502 2bbe ff18 013c
00000110: 93fc 62bd 9d53 583d 2cbe 51bd d896 e13d
00000120: d6e7 493c 89d9 c4bd 451c 7c3d 6874 163e
00000130: ff4b b9bc 46e9 df3d 50f6 b4bd 71bf e73c
00000140: 72e5 aa3a 49a5 c8bb bf07 1f3d fdf8 973c
00000150: 79d2 653d a3e3 54be 451b 9e3d 6941 a2bd
00000160: 783b ecbd 7adb 903e 6762 1dbe 4b67 9a3d
00000170: 8afa 1b3e 8662 4dbd 23b8 c83e f2bd 68bd
00000180: c06a bd3d 39a9 a03d 2136 f53d e19b b1bd
00000190: d691 46bd 7414 033d c117 cd3e a5db 15be
000001a0: a5e8 fc3c 67d1 733d 8ede b7bb 753a 8bbd
000001b0: 2132 6ebd 7439 c5bc dbd7 e6bd 6efa b8bd
000001c0: 2daf f9bd 4ba4 ddbe 88fa 873d 7bb2 a53c
000001d0: cf88 7ebd a4b7 273e 19b0 9dbd 19b3 f93d
000001e0: e0ba 6cbe 380a d2bd b270 983e 472e 2a3e
000001f0: 4f68 04be f2bf 9c3d e6dc c9bd 4629 6fbc
00000200: 7baa 14be 13e8 0abd ccb8 5d3e 29a7 8c3d
00000210: 526f 1c3e 28d2 a2bd 681f 9bbe 0aea 19be
00000220: 7296 f4bc 3b64 113b c36e bc3d 6d15 7bbe
00000230: 6eee 203e e95a 123e 4733 8abd 300f 3f3d
00000240: a8e4 3cbe bc01 313e f973 18be c449 6bbd
00000250: 3c5d a8be 4225 de3d c891 9fbc 7075 8c3e
00000260: ad5b 423d 1bb4 093e 12a3 083e 0897 eaba
00000270: 70bc a0bd 3d41 873d 0d77 a03d 8ff3 4dbe
00000280: be6a 3bbe a1dc 3abd 7e67 c7bd 5159 7a3e
00000290: ca4d a23d aa58 3e3d b72b 783d f196 5f3d
000002a0: 9eac dd3c 6cae 21be ab79 e2be 9b47 493e
000002b0: 25fa 8ebd d744 18be a97e 91bd 3d92 9abe
000002c0: 4223 dabc bac7 d23b a386 24bd b88a dabd
000002d0: 7a0a aabe 7092 3e3e 48c8 a0bd cea7 39be
000002e0: da61 76be 10e9 be3b cf95 f4bd fa25 6a3e
000002f0: 260d 37bd ab21 053e e93b ee3d b16a 013d
00000300: 881b 10be 1516 07bc 14ef 51be 72c8 1abe
00000310: ae57 b9bd c5e6 3f3d 2117 b53d 9dcf 56be
00000320: 513b 403d e88e b0bd c02a 33bc 2a47 673e
00000330: 3f47 0cbd 8537 d13d 689c 5bbe b3bc 1b3e
00000340: 83cd f63c e570 e83c f354 00be 0a81 c8bc
00000350: 1f47 bd3d 75dc 693e 7d3e 8c3c 810e 953e
00000360: 12b1 ae3d bed0 183e c3cb d1bd d38a 483e
00000370: 0a84 ab3b 8798 74bd 431a 813e e8e6 fabd
00000380: f2f0 96bc 92a7 05bd 21df 013d 9cf6 7f3d
00000390: 41b7 1ebe f804 053e 3447 833e b3cd 9b3d
000003a0: d5c6 243d 607e 323e 6628 303e 2bef 25bd
000003b0: 288c cdbd 154a bebd 238c 3c3c e7ce 243d
000003c0: 23f3 483c 671c 773e a9d6 673d ef9e 07bc
000003d0: 3881 f7bd 4da4 923e 557f e9bd 0cd7 b53d
000003e0: 6278 f13d 6e36 54be 8205 873d 0cb7 353e
000003f0: ac55 0cbe fa54 0bba 152d 5fbe 9f4f b5bc

fc2.bias f4 [64]
-0.05142879 -0.048463788 0.10295428 -0.066852584 0.11109507 -0.06987283 -0.06154366 0.032847803
0.028359875 0.3922254 -0.09610149 0.14802599 0.31985933 -0.17377311 -0.13351592 0.020206077
0.07506177 -0.08070399 -0.17373244 0.1653094 -0.08404578 0.29299113 -0.043278854 -0.1403993
-0.042223424 -0.07967523 0.10783053 -0.09724903 -0.117982924 0.21564202 -0.039702576 -0.06005417
-0.018523028 0.049084082 -0.03945741 -0.18857971 -0.14129412 -0.1996254 0.16977116 -0.16853763
-0.22724736 0.4513578 0.21602839 0.01931036 0.13673869 -0.06611858 -0.060451847 -0.11148689
-0.062596865 -0.08628226 -0.16376047 0.4124017 -0.1468325 -0.0111948885 0.10883536 -0.1032272
-0.08914164 -0.22352284 0.014349992 -0.1253075 0.015564247 0.14871234 0.09196897 -0.2145474
00000000: ffa6 52bd f781 46bd b2d9 d23d 02ea 88bd
00000010: d085 e33d 7c19 8fbd 3415 7cbd 6b8b 063d
00000020: f852 e83c c5d1 c83e dcd0 c4bd 2094 173e
00000030: 9ac4 a33e 94f1 31be 66b8 08be 3787 a53c
00000040: fcb9 993d 2248 a5bd ebe6 31be de46 293e
00000050: 3220 acbd ef02 963e 2b45 31bd d6c4 0fbe
00000060: 78f2 2cbd c42c a3bd 41d6 dc3d 802a c7bd
00000070: 08a1 f1bd 43d1 5c3e 2b9f 22bd 5dfb 75bd
00000080: 9bbd 97bc 640c 493d 189e 21bd 0a1b 41be
00000090: 68af 10be 9a6a 4cbe 7ed8 2d3e 2195 2cbe
000000a0: 88b3 68be 5f18 e73e 8c36 5d3e c330 9e3c
000000b0: 3a05 0c3e 2e69 87bd 5b9c 77bd 3d53 e4bd
000000c0: c932 80bd c1b4 b0bd d3b0 27be 5126 d33e
000000d0: 425b 16be c46a 37bc 13e5 de3d c868 d3bd
000000e0: e48f b6bd 2ce3 64be 3b1c 6b3c 9c50 00be
000000f0: 2f01 7f3c 0c48 183e 3a5a bc3d 50b2 5bbe

fc3.weight f4 [4, 64]
0.71315956 0.12554204 0.07509315 -0.10434231 0.21617988 0.2008569 0.20443693 -0.24780694
0.37531438 0.14114057 -0.09305109 0.3034566 0.12682049 -0.11200992 -0.18447456 -0.042858444
0.35896567 0.09341284 -0.27839985 0.18052532 -0.04030964 0.12940955 0.19713965 -0.36346063
-0.01737601 -0.14018385 0.1357334 -0.5508692 0.11718324 0.10195741 -0.49385366 0.23250519
0.056771126 0.2719493 0.10863168 0.023083113 0.52292055 -0.13254851 0.064450875 -0.033762135
-0.16988623 0.18833831 -0.1790023 0.1453211 0.16461375 -0.052713018 0.23808864 0.39266485
-0.18574268 -0.004677875 -0.5459971 0.1362005 -0.122441866 0.12592211 0.16732854 0.12306324
-0.10111284 0.13345431 0.5572499 0.07724055 -0.21702425 0.28008235 0.0075841276 -0.008863218
0.100540005 0.0827576 0.065778576 -0.025666676 0.25145152 0.33308575 0.16119596 -0.091882825
0.27441022 0.12284294 0.09946153 0.19032216 0.071230836 0.15705037 -0.008426414 0.095078714
0.2705714 -0.0050471416 -0.27458158 0.15326403 0.46501595 0.13177916 0.20253423 -0.115609586
0.026104541 -0.11406493 0.18213983 -0.10488923 -0.20595004 0.120506324 -0.04904151 0.12380032
0.21755432 0.23414923 0.3790929 -0.33358157 0.4178291 -0.06792226 0.086409286 -0.09052706
0.051441982 0.19503103 0.0340383 0.15650786 0.09594176 -0.09937592 0.21090345 -0.25751323
-0.24704467 0.019789165 -0.06302516 0.10112242 -0.10064235 0.24998556 0.1334578 0.22045304
-0.059793036 -0.4460711 0.31858304 -0.066012844 -0.015400665 0.21117981 -0.14765263 -0.031893466
-0.26718256 0.24148138 0.19320868 0.212022 0.32743984 0.017787058 0.42874658 0.20475389
0.14499274 0.14211108 -0.006833287 0.5655654 0.14815526 -0.7183389 -0.12713027 -0.08066257
0.11636193 0.05256954 -0.2539799 0.08503598 -0.041499287 0.18781923 -0.06448111 0.19361024
0.103472814 -0.090865344 0.33840454 -0.30742595 0.10695662 0.16311236 -0.45556775 -0.0836278
0.042229082 0.26255468 0.203753 0.25777635 0.5854885 -0.034556087 -0.021850731 -0.44649816
-0.014502911 0.16344014 0.18336694 0.0021297308 0.040381044 -0.03153902 0.27532357 0.7331874
-0.1278773 -0.076961175 -0.50682 0.17537919 -0.6700943 -0.027687473 0.17085665 0.18067718
-0.21654224 -0.012655874 0.24326311 -0.033583526 -0.047243465 0.09005217 -0.56099886 0.36057356
-0.14924622 0.15349026 0.08811153 -0.044540454 0.07134715 0.43627965 0.1543422 0.08183399
0.37974152 0.16126591 0.058136612 0.19903572 0.16379403 0.15635498 0.18887244 -0.2280649
0.4583911 0.03015004 -0.14117329 0.17538062 -0.30779982 0.16744305 -0.017234106 0.07940394
0.17641546 -0.106338486 0.040471032 0.02726826 0.4887453 0.0039348104 -0.6090919 0.1267827
0.09107605 0.22776064 0.04106326 0.1722469 0.33929867 0.1752645 0.15757224 0.18766095
-0.35824028 0.16447662 0.14445412 -0.03923073 0.051186528 -0.13974555 0.39830497 -0.35255128
0.03304749 -0.7986543 0.013231767 0.1555288 0.031684157 0.38290074 0.13923639 0.42749974
-0.18562615 -0.37951225 0.10905452 -0.021238433 -0.20674577 0.04882743 0.03973874 0.3042994
00000000: a091 363f 188e 003e 70ca 993d 6cb1 d5bd
00000010: 425e 5d3e 6ead 4d3e ea57 513e 1ac1 7dbe
00000020: 3529 c03e 2787 103e 9291 bebd aa5e 9b3e
00000030: 3bdd 013e 7565 e5bd e6e6 3cbe 568c 2fbd
00000040: 59ca b73e 3b4f bf3d 6d8a 8ebe a1db 383e
00000050: b91b 25bd f083 043e fade 493e 8317 babe
00000060: 2258 8ebc 5b8c 0fbe b2fd 0a3e c405 0dbf
00000070: c4fd ef3d 0ccf d03d 63da fcbe d715 6e3e
00000080: d788 683d f03c 8b3e 497a de3d cc18 bd3c
00000090: 1fde 053f ccba 07be d2fe 833d 2a4a 0abd
000000a0: a8f6 2dbe c2db 403e 614c 37be 0ecf 143e
000000b0: 8290 283e 9be9 57bd 82cd 733e 5e0b c93e
000000c0: 5433 3ebe dc48 99bb 77c6 0bbf 2578 0b3e
000000d0: cdc2 fabd baf1 003e 2c58 2b3e 9408 fc3d
000000e0: 4014 cfbd 3fa8 083e eea7 0e3f 4b30 9e3d
000000f0: 9b3b 5ebe f466 8f3e 4684 f83b 0837 11bc
00000100: ebe7 cd3d d17c a93d ebb6 863d ec42 d2bc
00000110: 41be 803e 378a aa3e 8e10 253e 102d bcbd
00000120: 7f7f 8c3e 1495 fb3d 7db2 cb3d d0e3 423e
00000130: 79e1 913d d0d1 203e f10e 0abc a1b8 c23d
00000140: 5688 8a3e 7e62 a5bb f595 8cbe 3ff1 1c3e
00000150: 9216 ee3e 1ef1 063e 2265 4f3e b8c4 ecbd
00000160: 31d9 d53c e09a e9bd dd82 3a3e 2ad0 d6bd
00000170: 91e4 52be 05cc f63d c0df 48bd 068b fd3d
00000180: 8fc6 5e3e d1c4 6f3e 7718 c23e 34cb aabe
00000190: b2ed d53e d31a 8bbd 5af7 b03d 4066 b9bd
000001a0: d4b4 523d 37b6 473e bf6b 0b3d 9943 203e
000001b0: 1d7d c43d 9a85 cbbd 13f7 573e c6d8 83be
000001c0: 47f9 7cbe e31c a23c 5613 81bd 4519 cf3d
000001d0: 941d cebd 37fc 7f3e 29a9 083e 71be 613e
000001e0: 8be9 74bd 6e63 e4be 511d a33e be31 87bd
000001f0: 1253 7cbc 853f 583e 4032 17be b9a2 02bd
00000200: 27cc 88be e546 773e 7fd8 453e 4c1c 593e
00000210: 32a6 a73e 2ab6 913c ac84 db3e 01ab 513e
00000220: fa78 143e 9185 113e c4e9 dfbb e5c8 103f
00000230: 03b6 173e 0fe5 37bf 702e 02be 6b32 a5bd
00000240: 2a4f ee3d 2853 573d a709 82be 5827 ae3d
00000250: 28fb 29bd af53 403e ac0e 84bd c341 463e
00000260: 8ee9 d33d 9c17 babd 5c43 ad3e ef66 9dbe
00000270: 130c db3d ed06 273e 2d40 e9be 0d45 abbd
00000280: 67f8 2c3d 916d 863e a0a4 503e 43fb 833e
00000290: 93e2 153f af8a 0dbd 4e00 b3bc 689b e4be
000002a0: 9e9d 6dbc da5c 273e 8bc4 3b3e f492 0b3b
000002b0: 9866 253d 0f2f 01bd 36f7 8c3e 2bb2 3b3f
000002c0: 44f2 02be d29d 9dbd f5be 01bf 9a96 333e
000002d0: 4d8b 2bbf d7d0 e2bc 0cf5 2e3e 7003 393e
000002e0: 40bd 5dbe 955a 4fbc f719 793e e18e 09bd
000002f0: 5d82 41bd 466d b83d 9f9d 0fbf 199d b83e
00000300: 00d4 18be 8d2c 1d3e d173 b43d 0d70 36bd
00000310: 741e 923d 0c60 df3e e20b 1e3e 9498 a73d
00000320: 7b6d c23e e422 253e a820 6e3d 05d0 4b3e
00000330: 9fb9 273e 851b 203e c767 413e d889 69be
00000340: 3db2 ea3e 37fd f63c bb8f 10be fa96 333e
00000350: f097 9dbe 3176 2b3e 8a2e 8dbc 889e a23d
00000360: 41a6 343e fec7 d9bd f4c4 253d b061 df3c
00000370: d33c fa3e 95ef 803b 72ed 1bbf 53d3 013e
00000380: 1586 ba3d 163a 693e f331 283d 7e61 303e
00000390: 8eb8 ad3e 8978 333e 9e5a 213e 312a 403e
000003a0: 456b b7be 8f6c 283e c8eb 133e 67b0 20bd
000003b0: f7a8 513d 7519 0fbe a1ee cb3e 9a81 b4be
000003c0: ce5c 073d 9c74 4cbf 0eca 583c f142 1f3e
000003d0: 3fc7 013d 910b c43e fc93 0e3e 3fe1 da3e
000003e0: c814 3ebe 6e4f c2be fa57 df3d 39fc adbc
000003f0: 2ab5 53be 45ff 473d 17c5 223d 22cd 9b3e

fc3.bias f4 [4]
0.24527013 0.22037406 0.13148989 0.1737301
00000000: 1828 7b3e bda9 613e 49a5 063e 4ee6 313e
