Navigation - Value based methods/checkpoint/checkpoint_ddqn_1.pth (torch_old, 54445 bytes, 6 tensors)

fc1.weight f4 [128, 37]
00000000: 741f d0be f3fb d63d bc7a 9fbd 30bd 3abe
00000010: cf2e a5bd 4d0d 313d e016 debd 2f52 f23c
00000020: 405f 04be 9335 033d ba34 45be a614 27bd
00000030: d99e 84be edec b2bd 79fb 07bf 1c57 13bd
00000040: 76a1 753d 884e e7bc e98e 24be 5201 0abe
00000050: 32bc 5d3d 2ba6 2cbe 31a4 cabd 087e 03bd
00000060: cefd 9abe 590e 443e 2969 0bbd efab 22bf
00000070: 0494 dbbd b6cb 3a3c 9aeb 543d d378 cebc
00000080: b5ea d7be 59e4 8cbe 84b9 193d 9c30 56be
00000090: 8845 22bd bf2c 633c 9c5c 903e 1259 40bd
000000a0: c2b5 1ebe 4667 ddbe fbe9 86bd 57bf 34be
000000b0: 8f94 89bc 3c5a 6cbe 5e73 11bd d482 d23d
000000c0: 8a08 5bbe b7f4 d3bc 10ff 1b3e a80e b83e
000000d0: f3d6 59bd a93a 643c 674e 883e c0b7 46be
000000e0: 08ac bdbe 22e8 20be 6cb1 97be 8451 df3c
000000f0: ebf6 a2bd 2a3c 6d3e 53df 03bd ac64 08bb
00000100: 7709 16bd eb3f b5bd 59ec ffbe fc18 a8bb
00000110: e99e 343d 7cd8 443e 82f9 06be 5114 2cbc
00000120: e431 4fbc 84ed fbba 224c d23d 481e e03d
00000130: 1178 d63d f09f b7be 23ea 82be a415 353e
00000140: fbe0 8fbe e60c 5e3d 31ff babd 922d 13bf
00000150: 71bb 903d 56d1 c6be fe48 333d 603b 62be
00000160: 9421 e7be 250a 1bbe 4cdc c03d 75f8 073e
00000170: 9adf 58be 17ef ce3d f66f 9dbe d60d 25be
00000180: 4a0b 763e 78d4 82be 82f0 7abe b244 8cbd
00000190: d390 1c3e 2b50 a53d 8adc 00be 7b98 c83d
000001a0: c9ec f7bd 0b65 0f3d 59ba edbd 15fd 95be
000001b0: 1df9 3b3e 5bae 9ebc a030 a1bc 3293 b13e
000001c0: e740 b2be b66c b8bd be57 e8bd e9f7 c5bf
000001d0: 0bae 0a3d 8c07 72bd 8c1b f4bb f310 8f3d
000001e0: eceb 9a3d 656e 9e3b 1ead 8cbd 8433 c4bc
000001f0: c10e 0dbd 81c2 75bd 491a 7fbd 4de8 ddbd
00000200: 6b5c aa3d f277 3bbd f851 4e3c 3db6 b9bc
00000210: f374 e2bb 1abe e0bc d288 793d 9d88 143d
00000220: db62 76bd b333 a43d 4b17 2b3d 8cb7 da3d
00000230: 2edb a23e 1cdf d93d 2e47 973a 2ce6 6b3d
00000240: 5600 01bd 2bd0 153d a1b3 3e3d 150a 72bc
00000250: fa8a afbe e303 9dbe c536 e53c 6220 34bd
00000260: 1468 56bd a34e 43be 54f1 0bbe 59ed c13d
00000270: 2595 933c fd2b 4bbf f9d2 d4be ff0f f0bd
00000280: 8eae 013e 7a10 20be d17c 47bf dcc5 f4bd
00000290: fc4b 55be 65ee 363c 2d06 33be 2478 44be
000002a0: 5190 35be e0e1 bf3d 70fd 203c 5c5c eebd
000002b0: 1eb3 b1ba e198 84bd 6661 8fbe 5173 0b3e
000002c0: aca7 94be 6235 4ebe e24e 5b3e 3f2e d9be
000002d0: c8fa 87bd d155 cdbe 35f1 2bbe 1488 7d3d
000002e0: d684 6f3d ddca 2cbb 0881 363d 3262 0ebd
000002f0: eb16 6ebc efbf 983d 1d99 013e 37ff 4b3e
00000300: 1930 6fbc 0229 b5be 49c9 89bf 2729 a0bd
00000310: b94d b83d 7f74 5dbd b506 f7bd 45bd 673d
00000320: 954e 863d 0041 d9bc b7ae 1b3d 87a1 50be
00000330: 5804 0ebe 663b b9bc 082f 133e 24bd 223e
00000340: e7a1 1a3e 14c1 243d 9e92 ca3c 5f40 973d
00000350: f45d 85bd 747e 6abd 0bbd 15bf 3a41 3d3d
00000360: 56b0 b6bc e984 e5bc 9347 a73c f3f0 acbe
00000370: 0847 c13c 224a 573d 90ad 29bb ce4a da38
00000380: 09e2 07bd 89fe ef3d c238 2dbd 58eb c0bc
00000390: 622b a1bd e780 04be 4eba 5e3e 2efc 3d3e
000003a0: 1804 2a3d 3132 2f3e 6b1e d13d da3b 9abd
000003b0: 01fe 8a3e b56b 09be 2eb4 a8bd 6a41 1b3e
000003c0: 0e8a 683d 7c8e 8a3e f730 7c3d 6a8f 3e3d
000003d0: 85ae 55bd ddd4 c6bd a413 73be 2e8a 80be
000003e0: 5c81 ab3d b993 dbbc 8044 d0bc f72d ea3c
000003f0: 31ee 153e cc57 24bd 823d 4ebd 6d74 32be
-0.40648997 0.10497274 -0.077870816 -0.18236232 -0.08065569 0.043225575 -0.10844207 0.029580204
-0.1292696 0.032033514 -0.19258395 -0.040791176 -0.2590244 -0.08736596 -0.5311809 -0.035971746
0.059968434 -0.028235689 -0.16070141 -0.13477066 0.054134555 -0.16860263 -0.09894598 -0.032102615
-0.30271763 0.19146098 -0.034035835 -0.635436 -0.10721591 0.011401108 0.0519825 -0.025204098
-0.42171255 -0.27517965 0.037530437 -0.2091698 -0.03961709 0.013865649 0.28195655 -0.046959944
-0.15499023 -0.43242854 -0.06587597 -0.17651115 -0.016794471 -0.23081297 -0.035510413 0.1027886
-0.21389976 -0.025873525 0.15234017 0.35948682 -0.053183507 0.013930001 0.26622316 -0.19406033
-0.37045312 -0.15713552 -0.2962755 0.02726055 -0.07957252 0.23167482 -0.0321954 -0.0020811958
-0.03663012 -0.08850082 -0.49985006 -0.0051299315 0.04409686 0.19223207 -0.13181117 -0.010502891
-0.012646172 -0.0019220565 0.102684274 0.10943276 0.104721196 -0.3586421 -0.25569257 0.17684036
-0.28101334 0.05421152 -0.09130705 -0.5749141 0.070670016 -0.38831586 0.043770783 -0.22092962
-0.45142806 -0.15140589 0.09417018 0.13278373 -0.21179047 0.101041965 -0.30749482 -0.16118559
0.24027744 -0.25552726 -0.24505809 -0.0684904 0.15289621 0.080719315 -0.12584129 0.09794708
-0.1210571 0.03500847 -0.116078086 -0.2929465 0.18356748 -0.019370249 -0.019676507 0.34682614
-0.34815142 -0.0900511 -0.113448605 -1.5466281 0.033857387 -0.05908923 -0.007449573 0.06985655
0.0756453 0.0048349374 -0.06868957 -0.023950346 -0.0344379 -0.059999947 -0.062280927 -0.108353235
0.083184086 -0.045768686 0.012592785 -0.022669906 -0.006910914 -0.027434397 0.060921498 0.036263097
-0.06015287 0.08017673 0.04177026 0.1067954 0.31807846 0.10638258 0.0011541599 0.057592556
-0.03149446 0.036575478 0.046558026 -0.014772912 -0.34285718 -0.30667028 0.027980218 -0.043976195
-0.05234535 -0.19072966 -0.13666278 0.094690986 0.018015454 -0.79363996 -0.4156721 -0.11721801
0.12664244 -0.15631285 -0.7792483 -0.11951801 -0.20829767 0.011165236 -0.17482825 -0.19186455
-0.17730834 0.09369254 0.009826049 -0.1163871 -0.0013557409 -0.06474472 -0.28003997 0.13618208
-0.29034173 -0.20137551 0.2141681 -0.42418095 -0.066396296 -0.40104535 -0.16791232 0.061897352
0.05847629 -0.0026366033 0.044556648 -0.034761615 -0.014531831 0.074584834 0.12656064 0.19921575
-0.01459887 -0.3538285 -1.0764552 -0.07820349 0.089991994 -0.054066177 -0.12061826 0.056576986
0.06557957 -0.026520252 0.038008418 -0.20374118 -0.13868845 -0.022611331 0.1437341 0.15892464
0.15100823 0.040223196 0.024728116 0.07385325 -0.06512061 -0.0572495 -0.5849158 0.046204783
-0.02230088 -0.028017478 0.020419871 -0.3377758 0.02359344 0.052560933 -0.0025890805 0.000104089835
-0.03317455 0.117184706 -0.042290457 -0.02354972 -0.07869603 -0.12939797 0.21750757 0.1855323
0.04150781 0.1710899 0.1021088 -0.07530947 0.27146915 -0.13419993 -0.082374915 0.15161672
0.056772284 0.27061832 0.061570134 0.04652349 -0.052168388 -0.09708569 -0.23737961 -0.25105423
0.08374283 -0.026803838 -0.025423288 0.02858637 0.14641644 -0.040122792 -0.050351627 -0.17427225

fc1.bias f4 [128]
00000000: 0155 b6bd d711 933c b31b aebd 6167 6bbd
00000010: 99da 6bbd 44b9 04bd 671b dc3d d642 a83d
00000020: b9d4 52be 8012 6f3d da3d 49be 1803 e9ba
00000030: d0bd b8bc d87e f5bc 4c4a b2bd b511 d3bd
00000040: 326e aabc 3122 823c bf73 49bd c400 47bd
00000050: 7e43 1cbe 8d4b 013d 1835 2a3e 5fe3 bcbd
00000060: d0c4 4f3d 5477 5c3e e1ab 303e ace2 1abe
00000070: 2b09 2a3d acd6 10be 132a 043e 53c3 263d
00000080: 4109 d6bd 135e 5d3d 2bf0 68bc 2dc0 73be
00000090: fba0 61bd 9568 fa3c 8662 f4b9 5718 c0bc
000000a0: 944a 6c3d 734d 6b3d e1db 3c3e 1472 783d
000000b0: 8cb1 063d c083 66bd 32c8 0abd dc9c 96bd
000000c0: 3ad0 20be cd7a 16bb 090e 2c3d b0c4 043e
000000d0: ed9c 983d 9487 173d 916b a33b ea72 553d
000000e0: a9d5 c1bd 332b 23bd 2726 d0bd 09ec 91bd
000000f0: 8658 b8bd ea15 a83d 5bab a13d 57aa 07be
00000100: 7078 0a3e 60a8 833c 222d c0bc ced3 cfbd
00000110: 0e0b 3bbe c62c 863a d3c8 4b3d c908 9dbd
00000120: a712 a43a 3b9a d5bd e29b c8bd 2788 73bc
00000130: fed6 483e dc8a 863c 6e40 053e d9d8 ec3c
00000140: 599c 2a3d e11b e93d 5dca af3d 17b6 9ebc
00000150: e36f 363c 9159 403e 0c62 fc3d 056c 3bbe
00000160: 49a9 f4bc 364e a43d 04ac a93d adb2 4ebd
00000170: f05c 53be 16be 65be acc8 05bd f5eb ba3d
00000180: f5e7 07bd 4c90 5abe 6de7 2cbe eaa1 193e
00000190: 1498 10be 74da 43be 4ea4 db3d 7ae6 883e
000001a0: 9e70 79be 679f 5bbe 680c 0cbe b04b af3d
000001b0: c61f e8bd 6ed6 2abd 06d2 683d fffe 3cbd
000001c0: cf09 16be b5af 9cbd b939 fabb 9f57 ba3d
000001d0: 98e1 2f3d 2857 b23d 316d 283e b8bf 4cbd
000001e0: 8664 0b3c 5a2c 8e3d dc50 6bbd 1c4e 23be
000001f0: aadd a4bd 9f81 a73d ff43 0c3e bc55 343c
-0.08902932 0.017952843 -0.08501377 -0.057471637 -0.057581518 -0.032403246 0.10747414 0.08215873
-0.2058896 0.058367252 -0.19652501 -0.0017777411 -0.022551447 -0.02996771 -0.08705577 -0.10306112
-0.020804498 0.015885444 -0.04918265 -0.048584715 -0.15260121 0.03156619 0.16621816 -0.09223055
0.050724804 0.21529895 0.17253067 -0.15125531 0.04151265 -0.14144391 0.12906675 0.04071362
-0.10450984 0.054044794 -0.014217417 -0.23803778 -0.055085164 0.030567447 -0.00046612712 -0.023449106
0.05768831 0.05744691 0.18443252 0.06065567 0.032884166 -0.05627799 -0.033882327 -0.07354137
-0.15704432 -0.0022961379 0.042005572 0.12965655 0.07451806 0.03699453 0.004987188 0.052111544
-0.094645806 -0.03983612 -0.10163527 -0.07125098 -0.090012595 0.08207305 0.078940116 -0.13248573
0.13522506 0.016071498 -0.023459021 -0.101478204 -0.18265936 0.0010236732 0.049752068 -0.07667691
0.0012517766 -0.10429808 -0.09795357 -0.014864004 0.19613263 0.016423635 0.13012859 0.028911995
0.04165301 0.113822706 0.085835196 -0.019373937 0.011135074 0.18784167 0.123233885 -0.18302925
-0.029865878 0.0802273 0.082847625 -0.050463367 -0.20640922 -0.22435793 -0.03266208 0.091270365
-0.033180196 -0.21344107 -0.16885157 0.15003172 -0.14120513 -0.19126302 0.10724698 0.2673834
-0.24359366 -0.21447526 -0.13676608 0.08559358 -0.11334185 -0.041708402 0.05684092 -0.04614162
-0.14652179 -0.07650701 -0.0076362756 0.09098744 0.042939752 0.0870803 0.16447903 -0.049987525
0.008507853 0.06942053 -0.05745016 -0.15947765 -0.080500916 0.0817902 0.13697813 0.011006769

fc2.weight f4 [64, 128]
00000000: 67f3 d63d 3f8f 64bd 1d3c 20be 65eb 2c3e
00000010: 9da2 4c3d f3ae 50be e108 16bc cb11 e1be
00000020: d3c2 39be 1a0f 3e3e 5459 9b3b cc3b a0bd
00000030: ab96 883e a8a4 1a3d 6166 a6bd dc8d 743d
00000040: 5e0f 24bc 9713 8e3e ca93 4cbd 7d8e bdbc
00000050: 9c24 e93d 387c 063e 19cd a2bc d5af 733d
00000060: a984 77bd d76b 78bd 620d c43a efd2 ffbd
00000070: 44b4 8c3d b5dc 103e 971a 073e 15ab 08be
00000080: beb1 243e b951 f9be 3037 27be 4591 c53c
00000090: e07e 9c3d 15b6 a6bd 656f e73d a42b 203d
000000a0: fd63 cbbe 2b79 8dbc 005b 59be a557 4c3c
000000b0: beb8 6f3d f7be 5bbe 7621 b33c a53c 21be
000000c0: b3a3 d43b e3b7 11be a2d5 b4bc 3029 083c
000000d0: 8323 113d c1b5 81be 80af db3c c33a c03e
000000e0: 2a98 f13d 6027 07be 77d2 9c3b e693 4fbe
000000f0: e37d 053e bceb 2fbe 9d19 2bbe e4e9 f8bd
00000100: c97c a7bd a1f1 3abe 95a8 403e f718 ba3c
00000110: 00e0 37bd 74ab 77bd 1657 f13d 770c c3bd
00000120: f819 d0bd 3e60 afbd 2eb3 9ebd 5d41 173e
00000130: 50bb 5abd 0cba b9bc 6597 8a3d e0b2 ac3d
00000140: b952 353e 71bf 01bc cbfd bf3d ff5f 093d
00000150: 2fde 9abd 80a0 8abd a4a4 a73e e95e 113d
00000160: 1d1b 4e3e 8dbb 993d 4353 89be cfe2 833d
00000170: 1b71 e5bc 9072 423e 606f 4a3d d5a6 873e
00000180: f7b1 d73b 2c9a 9a3e ff3f 513e 22dc 0a3d
00000190: 040b d43d 92ff e9bc 19a9 12be 7fb3 38bd
000001a0: 49c5 8b3c e94d fa3d d324 d8bd 634b b7bd
000001b0: 0d2a ae3d f347 33be 8b52 6b3d cc8f 7bbd
000001c0: efd2 91bd 6228 f0bd 338e f93d a227 dfbc
000001d0: 32c9 2cbc 3082 693d 82ac dabe 9bb9 4fbc
000001e0: 382f 973c 0acf 78bd 1c17 d2bd c850 293b
000001f0: d0c4 81bd c233 233d 7bc7 6ebd c2aa f8bd
00000200: c29a 2abe eee0 1abe 83db d3be 94e3 f53d
00000210: 5c2c 25be de73 93bd 4627 4bbe 7daf 32be
00000220: 2a35 6b3e 839a d6bd fc9c 46bd d44d 2abc
00000230: 548c 4bbd eb7d edbd e72b d2be fc06 75be
00000240: 86c5 47be b352 743d 9c4e ca3d 85ca fbbb
00000250: aba7 7d3d 3dbb 4abe 1398 1ebc 57ef 94be
00000260: af3f a7bd c468 143e 11dc b33d d6f7 10be
00000270: 39bd a53d 0333 04be 0bb0 463d 653d 83be
00000280: 6cd7 08bd 613b 383c 6cbf 463d c3ca 9ebd
00000290: 063d acbd a005 ba3d 78ec ecbd 364d d1be
000002a0: 0056 923d 9f4b c73c 1b3d 053e 3198 593c
000002b0: eea6 28bb 9d47 debd a310 dfbd 6a98 553d
000002c0: 4b45 22be 96b6 2abd 0357 26be 1bd0 e13b
000002d0: c760 6ebe 877b d7bd c4a0 ffbd 6e07 8abd
000002e0: 238c bbbc 7467 e6bd aad5 0bbe c0fe 23bc
000002f0: a88b 4e3d a06d a7bd e933 693e 3a88 f53d
00000300: 4bd1 3c3d 1dba 9cbc 49fe 55be f62f 793e
00000310: 248e be3d 796e 87bc fb04 383e db2b 1c3e
00000320: b1b7 cc3c b83e d7bd b706 e3bd 3067 b3bc
00000330: d3f3 093e 9dff 10be 3f29 4ebe 605a abbd
00000340: 7ce4 053d 0fce cabd fa2f dcbc e8e0 ecbc
00000350: f316 24bd 6988 57be 0626 0a3e c78c 57be
00000360: 90fa 893e cf94 dcbd 999c 403e c29e f0bd
00000370: 14fa e8bd 0c31 27be 7a98 aebd 38df 173e
00000380: 08fa edbd 2de2 6e3e 5de6 c8bd cec2 89be
00000390: 8311 02bd d437 e2bd 83d3 a1bd 46ba d93d
000003a0: e0c9 233d 4d4e b0bd 2afd ffbd a137 90bd
000003b0: 255a 31be 9475 f9bd 40fa 15bd a0ec 38be
000003c0: b897 01be f663 813d 359a 0c3e 4959 f33d
000003d0: 0a53 4abd e57c 58bc cc7f cf3d 5f18 a1be
000003e0: f395 96bc 062e d7bd 21ef 883d ddb1 51be
000003f0: c357 9cbd ff8f 253d eb5e eabc 8001 8f3c
0.10495644 -0.055800673 -0.15647931 0.16886671 0.049959768 -0.20379238 -0.00915739 -0.43958887
-0.18140726 0.18560448 0.0047408734 -0.07823905 0.2667745 0.037754685 -0.08124996 0.0597056
-0.010013429 0.2774932 -0.04994563 -0.023139233 0.11383936 0.13133323 -0.019873189 0.05949386
-0.06042925 -0.06064972 0.0014957602 -0.12491404 0.068703204 0.14146693 0.13193737 -0.13346513
0.16083428 -0.48695162 -0.16329646 0.024117121 0.07641387 -0.08140198 0.11300544 0.03910412
-0.39724723 -0.017269691 -0.2122612 0.012472068 0.058525793 -0.21459566 0.021866541 -0.1574579
0.006489241 -0.14230303 -0.022074524 0.008310601 0.035434257 -0.2533398 0.026817083 0.37544832
0.11796601 -0.13198614 0.0047858316 -0.20271263 0.13036303 -0.1717977 -0.1670899 -0.12153986
-0.08178098 -0.18256237 0.18814309 0.022716982 -0.044891357 -0.060466245 0.117841884 -0.09523862
-0.10161203 -0.085632786 -0.077490196 0.14771028 -0.05340129 -0.022671722 0.067671575 0.08432555
0.17707337 -0.007919178 0.09374579 0.033538815 -0.075619094 -0.06768894 0.32742798 0.035490904
0.2012753 0.075064756 -0.26821336 0.06439745 -0.028008034 0.18989015 0.04942262 0.2649447
0.0065824944 0.3019575 0.20434569 0.03390134 0.103536636 -0.028564248 -0.14322318 -0.045093056
0.017061846 0.122218914 -0.10553899 -0.08949926 0.08504114 -0.17507915 0.057451766 -0.061416432
-0.071203105 -0.117264524 0.121853255 -0.027240578 -0.010546016 0.057008922 -0.42709738 -0.012678529
0.018455133 -0.060744323 -0.10258314 0.0025835503 -0.06336367 0.039844282 -0.05829571 -0.121419445
-0.16660598 -0.15124866 -0.41378412 0.12006298 -0.16130203 -0.07199834 -0.198392 -0.17449756
0.22969499 -0.104786895 -0.048489556 -0.010394532 -0.049694374 -0.115962826 -0.4104912 -0.23928446
-0.19508943 0.05964918 0.09878275 -0.0076840543 0.06192748 -0.19797988 -0.009679812 -0.29088852
-0.081664436 0.1449309 0.08782209 -0.14157042 0.08092732 -0.12910084 0.04850773 -0.25632778
-0.033408567 0.011244626 0.048522398 -0.077535175 -0.08410077 0.09083104 -0.1156854 -0.4087922
0.071453094 0.024328051 0.13011591 0.013280914 -0.0025734263 -0.10853503 -0.10891845 0.052147307
-0.15846746 -0.041678034 -0.1624413 0.006891263 -0.23279105 -0.10521608 -0.124818355 -0.06739698
-0.02289397 -0.11250201 -0.13655725 -0.010009468 0.050426155 -0.08175206 0.22773708 0.11988874
0.046098035 -0.019131714 -0.20897783 0.24334702 0.09304455 -0.01653217 0.1797065 0.15251105
0.024989935 -0.105100095 -0.11085265 -0.02189979 0.13471918 -0.14160009 -0.20132922 -0.08366847
0.032688603 -0.09902584 -0.026878346 -0.028915837 -0.04006095 -0.2104813 0.13491067 -0.21049796
0.26948977 -0.107705705 0.18809737 -0.11749031 -0.113758236 -0.16327304 -0.08525176 0.14831245
-0.11619955 0.23328467 -0.09809563 -0.26906437 -0.03175498 -0.110458046 -0.07901671 0.10631232
0.039987445 -0.08608685 -0.12499459 -0.0704186 -0.17319544 -0.121806294 -0.03661561 -0.18059015
-0.12655532 0.06317894 0.137307 0.11882264 -0.0493956 -0.013213371 0.10131797 -0.31463906
-0.018382048 -0.10506825 0.06686235 -0.20478006 -0.07633927 0.04042053 -0.028609714 0.01745677

fc2.bias f4 [64]
00000000: 2892 2c3e b87f 70bd b3b7 ac3e dc22 ac3c
00000010: 722f 913d 24fc 55bd 9c17 30bd e24b b23c
00000020: 029c f3bd 12da 8bbd 62d8 5abb 46cb e4bc
00000030: f006 b2bc 067e d2bd 8264 213e 3254 273d
00000040: 196e 3abd 60c7 86bd 63ed 1c3c 43e5 33bc
00000050: 9e92 51bd 5cff 8e3d b3f1 febb 4f9e 853d
00000060: d1d6 d5bb 06c1 26bd eb7d 9c3e 55e2 8fbc
00000070: 4487 e03d 37c9 a5bd 6837 8e3d b1b2 ce3d
00000080: abbb 1abe c08b a13d 16cb e13b cad9 01be
00000090: 293d a8bc 088b 27bd 96d6 323d 432d 033d
000000a0: dd7b 09bd 83a2 a3bd f989 d6bd 17b3 303d
000000b0: 08e7 cd3e d2a4 223d 800c adbd bd70 22be
000000c0: d1ac 2e3c 3784 9a3d e0ec 3dbd 6031 e5bd
000000d0: 9f25 13be a6cc 943e 005e 923e 8755 343d
000000e0: ec77 3a3d 4599 463e ee5b c33e 1f64 903c
000000f0: f2ec 0f3d a987 d0bd 524e 193d ae6a 97bd
0.16852629 -0.058715552 0.337339 0.021012716 0.070891276 -0.052242413 -0.042991266 0.0217647
-0.118949905 -0.06828703 -0.0033393134 -0.02792896 -0.021731824 -0.10277943 0.15760997 0.04085178
-0.045515154 -0.065809965 0.009578082 -0.010979953 -0.051165216 0.069823 -0.0077802776 0.065243356
-0.0065258523 -0.040711425 0.30564818 -0.017563978 0.109633 -0.08095019 0.06944162 0.100926764
-0.15110652 0.07887983 0.006890665 -0.12680736 -0.020536976 -0.040904075 0.043661676 0.032025587
-0.03356539 -0.07989981 -0.10475535 0.043139543 0.40215325 0.039707966 -0.0844965 -0.15863319
0.01066132 0.07544749 -0.04636848 -0.11191058 -0.1436982 0.29062384 0.2858734 0.044026878
0.045524523 0.19394405 0.38156074 0.017625866 0.035138078 -0.10182125 0.037428208 -0.073933944

fc3.weight f4 [4, 64]
00000000: 594b 563d fb72 613e 116a 133e 481d 8c3e
00000010: 0abb 8e3e 78d6 d8b9 c4ad 1bbd 3f28 03be
00000020: 6ddc d6bd dffc ea3d 7c08 b53e 32a4 213e
00000030: d21e be3d 189e b33c c9c5 283e 4358 083e
00000040: e5e6 1cbc d275 af3c ee44 a53e 02df ba3d
00000050: dedb 65be bf6a 273e a978 283d b1b9 fb3c
00000060: 4cd6 03bf 6e8a 3fbe fc78 983e bf82 a7bd
00000070: 12e3 853d a36d aebe 620e 613e dd7d 943e
00000080: 9dc3 e5bd 1abe 2b3c e7a0 5d3d 48de 63be
00000090: 8561 97be ce12 9c3d 4f9b 2abf 3ff3 a43d
000000a0: 81b7 903e d22d f33c e336 92bd a2b0 bc3d
000000b0: 673f 9c3d f7b3 a73d 669b ebbd 4bcd 07be
000000c0: dd53 113e 39d3 f43d 2b5d 1cbd 72fc 8d3e
000000d0: 0844 96be 4a30 0c3e 1609 0e3e 011f 7a3d
000000e0: c5e3 873e 2522 083e ae07 0f3e 70d4 cb3d
000000f0: 2bea 4e3e 72dc 73be 19d8 f13d b924 e0bc
00000100: eb89 203e f47e 143e 16e6 843d 181b 333e
00000110: 5375 633e e576 053e 5bb6 20bc 83bb 1c3e
00000120: 875f 3ebc 7a9b e73e 35e1 923e 6d4b 403e
00000130: a87c a93e 85f0 883e 552d 023e 2376 eebe
00000140: 4ebc e1bd 1dfb 2fbe 23c5 973e 5275 4b3e
00000150: 3523 14be 5cea 07bf 992b 433d ca10 0f3c
00000160: ec90 25bd eac3 47be 848c 403e a773 91bd
00000170: 29b3 013e 6fae 56be bfd2 9e3e fc70 4d3e
00000180: 9d81 d1be 2ad9 e0bd b229 aabe 1e78 65bd
00000190: 3d37 77be 9222 1c3e 9b86 933d de57 16bd
000001a0: e304 3e3e efa0 0cbe 2c67 4fbe fd70 023e
000001b0: 0ad0 353e a9a5 833e 2608 37bd 6d4a a2bd
000001c0: d903 223e 42b2 503d 3541 2d3e 41f8 983e
000001d0: d833 2ebe 9d89 993d 3c45 013e 5766 923d
000001e0: 5868 703e 4b53 e03d be7c c43d a03e ab3d
000001f0: 232a 9c3e 039e b6bd 4d1d 0e3e d4d8 133e
00000200: d7aa 1d3e 16d6 23bc 175f c53d 5629 9f3e
00000210: e4d7 263e cfb9 503e babf d5be 5f46 9e3e
00000220: 5c0a 013e 917f 4e3c 2cee a53e 4e58 333e
00000230: fb8b 6b3e 4943 d4be 80bb 1a3e 779f 03be
00000240: c9ef dabe cd1b 51be c46b 9f3e 6e6a bb3b
00000250: f35a 6d3e 4a6f c63d 6569 553e 0169 1b3e
00000260: 4427 fa3c 890f 7ebd 68a2 553e 5e08 853e
00000270: c5b8 d03c f2b9 b7bd 4ecf 0e3f 70a4 20bd
00000280: ed95 dcbe 9220 15bf 656e 23bd c8b9 90be
00000290: 3fbe 4a3d 6db5 9f3e 4d1c a7bd 4b9c 8a3e
000002a0: 28bc e7ba aa7d c3bd 7432 cbbd 42a8 593d
000002b0: f471 183e 7fe3 b4be ff6e a13d 3da9 58be
000002c0: 6736 453e 00e0 6b3d d391 f93d 7a0d 053f
000002d0: 97da 83be 9b12 063e 3340 353c a382 d43d
000002e0: 2146 5e3d e3df a53d a2f1 003e e1c4 30be
000002f0: e952 343e 007b cebc 092c 833e 5dd1 adbe
00000300: 41ca ad3d fbaf 88be 210a 173e b1fa 1d3e
00000310: 3dca e43e 726a aa3b 72b5 f4be 8f01 b0bd
00000320: a14e 5fbe c24d 013f b58c ee3d d9a9 823e
00000330: f4f4 60be 24d7 2e3e 4d2b 2c3e 3644 833e
00000340: 255e 473e 9fbd 583e 414c 623e 6872 a13e
00000350: ef73 53be 4177 013e 9df2 0f3d d00e 283e
00000360: 5e19 9bbd 72da 0b3d 985c 603e d0aa 383d
00000370: 32ce 9d3d 3e37 9ebd 8ad9 9b3d da63 173d
00000380: 41d8 a0be 7a42 8d3d a22f ad3d 2dba 71be
00000390: 1878 efbe 19c8 e13d 9538 9ebe 0edc ec3d
000003a0: 0b91 843e f347 06be 3bde 86be f23d 38bd
000003b0: 74d2 183e e41b b3be abd9 3a3e b5f3 503d
000003c0: fcbf b73d e658 b83d 9496 fb3d 1887 7b3e
000003d0: aded 1d3e 16bb 173d ce78 a93d a9e8 073e
000003e0: 363e d93e 1cb2 3e3d b3a2 d73d e875 fbbd
000003f0: 62ef 9abd 9566 59be fbc0 bd3d 5be0 ab3e
0.05231795 0.22016518 0.1439593 0.2736609 0.27877074 -0.00041358522 -0.038007513 -0.12808321
-0.10491262 0.114740126 0.35358036 0.15785292 0.09283222 0.02192597 0.16481699 0.13314919
-0.009576534 0.021418486 0.32279152 0.091245666 -0.22447154 0.16349314 0.041130695 0.030728193
-0.51498866 -0.1870515 0.29779804 -0.08179235 0.06537451 -0.3406802 0.21978143 0.29002276
-0.11218951 0.010482335 0.054108527 -0.22252762 -0.2956659 0.07620774 -0.6664323 0.08054208
0.28265002 0.029684935 -0.07139375 0.092133775 0.076292805 0.081886224 -0.11504249 -0.13261907
0.14192148 0.1195435 -0.03817479 0.27731663 -0.2934878 0.13690296 0.13870654 0.061064724
0.26540962 0.13294275 0.13967773 0.099526286 0.20206515 -0.23814562 0.118087955 -0.02736126
0.15677612 0.14501554 0.06489198 0.17490804 0.22212724 0.13033636 -0.009809102 0.15305905
-0.011619455 0.45235807 0.28687444 0.18778773 0.33102918 0.26746002 0.12712605 -0.46574506
-0.110222444 -0.17185636 0.2964259 0.19868973 -0.14466555 -0.5309198 0.047649 0.00873203
-0.04042141 -0.19508329 0.18803602 -0.07102137 0.12666 -0.20964979 0.31020162 0.20062631
-0.409192 -0.10978921 -0.33234936 -0.056022756 -0.24142165 0.15247563 0.07203408 -0.03670489
0.18556552 -0.13733266 -0.202542 0.12738414 0.17755142 0.25712326 -0.044685505 -0.07924352
0.1582178 0.05095125 0.16919406 0.29876903 -0.17011964 0.07496951 0.12624067 0.07148426
0.23477304 0.10953387 0.09594105 0.08361554 0.30500898 -0.08916857 0.13878365 0.14438182
0.15397201 -0.0099997725 0.096372776 0.31086224 0.16293293 0.2038338 -0.41747838 0.30913064
0.12601608 0.012603656 0.32408273 0.17514154 0.23002617 -0.41457585 0.15110588 -0.128538
-0.42761067 -0.20420761 0.31136906 0.0057194745 0.23179226 0.096891955 0.20840986 0.15176775
0.030536301 -0.062026534 0.20862734 0.25982946 0.02547873 -0.08971013 0.5578507 -0.03921932
-0.43083134 -0.58252823 -0.039900202 -0.2826674 0.04949784 0.31193104 -0.08159695 0.27072367
-0.0017679976 -0.09545453 -0.099217325 0.05313898 0.1488722 -0.35329816 0.07882499 -0.2115831
0.19259034 0.05758667 0.12186017 0.5197369 -0.25752708 0.13093035 0.01106267 0.103764795
0.0542661 0.08099344 0.12592176 -0.17262603 0.17609753 -0.025205135 0.25619534 -0.33948794
0.084858425 -0.26696762 0.14749958 0.15427662 0.44685546 0.0052006776 -0.47794682 -0.08594047
-0.21807338 0.50509274 0.116479315 0.25520208 -0.21968442 0.17074257 0.16813393 0.25637978
0.19469507 0.21166085 0.22099401 0.31532598 -0.20649694 0.12643148 0.035143483 0.164119
-0.07573198 0.034143873 0.21910322 0.045084774 0.07705344 -0.0772538 0.07609852 0.03696046
-0.3141499 0.06897445 0.08456351 -0.23606177 -0.46771312 0.11024494 -0.30902544 0.115654096
0.2589191 -0.13113384 -0.26341423 -0.04498095 0.14924031 -0.34982216 0.18247096 0.051013667
0.08972165 0.09001331 0.1228458 0.24563253 0.15422697 0.037043653 0.08274995 0.13272347
0.42430276 0.046556577 0.10529079 -0.12278348 -0.0756519 -0.21230538 0.09265324 0.33569607

fc3.bias f4 [4]
00000000: d4ca 463e 4cb7 663e 716c 853e 3ad3 813e
0.1941331 0.2253086 0.26059297 0.25356466
