Navigation - Value based methods/checkpoint/checkpoint_ddqn_er_34.pth (torch_old, 54449 bytes, 6 tensors)

fc1.weight f4 [128, 37]
000000 17 fb 09 3e fa fc c9 bd 37 55 c8 bd 44 97 13 be
       0.1347469 -0.098627046 -0.097818784 -0.14413172
000010 e4 c2 be be 04 2c a8 bd 5b 25 99 3d 0b ad 0c 3e
       -0.37258065 -0.0821152 0.07477828 0.13737886
000020 59 f8 f7 3c 4a 33 9f 3d 5b 1a 8d bd 2f 5b 42 bb
       0.030269789 0.077734545 -0.068897925 -0.00296564
000030 3b d0 f1 bd d9 31 df bd 22 ef 5e be b7 12 67 3c
       -0.11807295 -0.108981796 -0.2177091 0.014103583
000040 66 e9 23 3e e6 f5 cd 3c 0e 11 6d be 26 19 89 be
       0.16007003 0.025141668 -0.23151037 -0.26777
000050 af a5 81 bd cd 69 78 3e 2f 43 99 3b a1 e6 0e 3d
       -0.0633043 0.2425911 0.0046771984 0.034887914
000060 57 5b a0 bb 97 e1 34 be 71 8d 90 3e 7c 98 aa 3c
       -0.004893701 -0.1766418 0.2823291 0.020824663
000070 0c 63 d4 be 3e 39 2e bd d6 c6 ed bd 1d fc 83 3d
       -0.41481817 -0.04253506 -0.116101906 0.06444571
000080 cc 1e 3d bb d2 46 b3 3d 62 a4 8b be cf 35 9f 3c
       -0.0028857468 0.08753742 -0.27273852 0.019434838
000090 83 5d 1c 3c 1c 41 db 3d fa c3 8f 3c 74 48 7e 3c
       0.009543779 0.10705778 0.017549504 0.015520204
0000a0 39 e8 a7 3c f2 2e be be e7 de 64 be 0a 45 65 bd
       0.020496475 -0.3714519 -0.22350655 -0.055974044
0000b0 b9 ef 12 bd fc a0 44 be a5 a3 33 3e 49 06 20 3e
       -0.03587315 -0.19202036 0.17542894 0.15627398
0000c0 9b 54 95 be 8a 59 f2 bd 45 49 13 3e 67 a4 c2 3e
       -0.2916611 -0.118334845 0.14383419 0.38016054
0000d0 33 fc 82 bc 4c 4c 4f bd 6d 24 b5 3d 1f f2 a5 bc
       -0.015989399 -0.05060987 0.08844838 -0.020257054
0000e0 d9 00 9a be c7 3c cb bd a0 8e 8f be 20 82 17 be
       -0.30078772 -0.09923702 -0.28038502 -0.14795732
0000f0 c5 86 56 3d 93 2d b4 3e 46 c4 56 be 1d 96 1d 3d
       0.05237462 0.3519102 -0.2097331 0.038473237
000100 72 51 8d 3d 7c d5 7c bc b1 8c 17 bd f8 96 9d 3c
       0.069003 -0.015431758 -0.03699941 0.019237027
000110 9f fc 08 3e 0d ae 86 bc 79 16 b6 bc f4 39 73 bd
       0.13377617 -0.016440416 -0.022227513 -0.05938144
000120 b3 0f db bc 67 e9 4b ba 40 a9 c6 3d 4c fe 41 3e
       -0.026740884 -0.0007778615 0.097002506 0.18944663
000130 27 ec 81 3d dd c3 7e bb 80 b6 f2 bc 36 1b 15 bf
       0.063438706 -0.0038874068 -0.029628038 -0.58244646
000140 24 89 26 3e e3 db 86 3e a1 c3 9f bd c9 d0 27 bf
       0.16263252 0.26339635 -0.07800985 -0.65552956
000150 33 ad 99 bc 98 f5 1d 3e dd b8 ab 3b 11 68 05 be
       -0.018759346 0.15425718 0.0052405433 -0.1302798
000160 66 00 2d be b5 57 77 3d d8 2e 6e 3d 0a af 6a 3d
       -0.16894683 0.06038638 0.058150142 0.057295837
000170 20 13 e3 3d 8b b1 a4 bd 0d 63 47 be 51 ad 1b 3e
       0.11087632 -0.08041676 -0.19471379 0.15202834
000180 3d b5 3a 3e 79 f6 09 be 2a 13 1f bf 05 75 1b be
       0.182332 -0.13472928 -0.6213862 -0.15181358
000190 22 41 00 3e 88 ec 4f 3e a3 a9 cc bd 86 e1 c2 be
       0.12524846 0.20305073 -0.09993293 -0.38062686
0001a0 c6 91 41 be 3b 9b b3 3a 0e 2f 84 3c 67 76 a0 be
       -0.18903264 0.0013702878 0.016135719 -0.31340334
0001b0 06 b7 c8 be b2 ed 8d bc fa 3d 81 bb 00 8a c3 3e
       -0.39202136 -0.017325256 -0.0039441558 0.38191223
0001c0 83 95 bc be 50 2c 6e bd f2 cb d6 3c 96 4b 9f bf
       -0.36832818 -0.05814773 0.026220296 -1.2444942
0001d0 92 0b 55 3c 21 7d 7c bd 10 93 90 3b 22 eb fa 3d
       0.013003247 -0.06164277 0.0044120625 0.12251879
0001e0 22 9a cf 3d a0 fc fc bc d9 60 9e 3c e9 55 b9 3b
       0.101368204 -0.03088218 0.01933329 0.0056559932
0001f0 b0 e0 01 bd b4 4d aa 3c e7 7f c3 bd 78 19 9c 3d
       -0.03170842 0.020789005 -0.0954588 0.07622045
000200 64 77 88 bc b7 22 12 be 21 a6 82 bd 01 8f b4 3c
       -0.016658492 -0.14271055 -0.06379343 0.022040846
000210 32 90 f2 bb 19 3f 7b 3c c4 7b 41 3d 62 06 1e bd
       -0.0074024433 0.015334868 0.047237173 -0.038580306
000220 62 f1 77 bd 52 5b 8f 3c d7 fa 9c 3d 42 5d 38 3e
       -0.060532935 0.0174996 0.076650314 0.18004325
000230 e3 0f 66 3e c2 65 a2 3d 69 65 dc 3d d0 f0 4b 3d
       0.22466998 0.07929565 0.1076153 0.049790204
000240 4c b3 2f bc 9c a5 4e be dd b2 95 bb e6 d8 09 bc
       -0.0107239 -0.20180362 -0.0045684413 -0.008413529
000250 d3 ab 1c be d4 f0 60 bd ef cd 6d be df 2f b4 bd
       -0.1529992 -0.05491717 -0.23223089 -0.08798193
000260 02 e3 4c bd e9 04 b5 3d 7d 4a 35 3e e2 9c 84 be
       -0.05002118 0.08838827 0.17704196 -0.25900942
000270 79 76 50 3d e7 d0 77 bd 7f 8a b8 3d 49 89 03 be
       0.050894234 -0.06050196 0.09010791 -0.12845339
000280 03 2b 3e bc 46 ec 83 be 81 38 26 be e2 0e 5d 3d
       -0.0116069345 -0.257662 -0.16232492 0.05396927
000290 55 45 c9 be 62 a0 ba bc cd e5 dd bc 66 08 91 3e
       -0.3931071 -0.022781555 -0.027087117 0.2832672
0002a0 a4 16 2a be c8 f9 0d 3e bd 76 cc bd 19 9e 20 3c
       -0.16610199 0.13864815 -0.09983585 0.009803318
0002b0 48 fe a8 3d fd a6 37 3d 35 b1 c2 be eb f2 16 3e
       0.08251625 0.044836987 -0.38025823 0.14741103
0002c0 6d 51 df bc d3 98 22 3e 6f 1f b0 bc 86 d3 0a bc
       -0.027260507 0.1587861 -0.021499364 -0.008473283
0002d0 8a db d8 3c 22 d2 45 3d 68 25 63 3e f6 14 a0 3d
       0.026471872 0.0482961 0.22182238 0.07816498
0002e0 77 e3 9d 3b 99 15 fb bc 0a df 88 bd 01 17 fa bd
       0.0048183757 -0.030649947 -0.06683166 -0.12211419
0002f0 96 ad b9 bd e1 0b ac bd f7 76 25 3d c4 ed d0 3d
       -0.09066312 -0.08400703 0.040396657 0.102016
000300 1c c1 1e be a0 2a 44 be 7b 43 11 bf 12 88 f5 bd
       -0.15503353 -0.19156885 -0.5674359 -0.11988844
000310 db 86 5e 3b 22 4a 2e be d7 a1 ea bd 7b f7 d5 3d
       0.0033954892 -0.17020467 -0.1145665 0.10447594
000320 82 7a 19 be 1a 4b e8 3d 47 55 f7 bd 8c c4 95 bd
       -0.1498814 0.113424495 -0.12076812 -0.07312879
000330 6a b6 4d 3b ba c9 72 3d a2 eb 83 ba 5b db cb 3d
       0.0031389245 0.059274413 -0.0010064731 0.09953948
000340 40 a0 41 3d 09 de d1 3d f2 e6 c5 be 39 13 15 3e
       0.047271967 0.10247428 -0.3865276 0.14558114
000350 92 85 e0 bb 28 bb 59 bd 71 42 67 3d 09 55 1f be
       -0.0068518603 -0.053157 0.056459848 -0.15559782
000360 bb 03 97 bd af a3 77 be 36 d7 40 3e ae 1f f7 be
       -0.073737584 -0.24183534 0.18832096 -0.48266357
000370 94 95 37 3e 49 9e 43 3d 33 eb 76 3d c4 0d c1 bd
       0.17928153 0.047758374 0.060282897 -0.09426454
000380 d4 90 14 be 84 16 a9 3d 31 56 7e be 26 9a bd bc
       -0.14508373 0.08256248 -0.24837567 -0.023144793
000390 fc a4 ca bd e8 7a 5d bc 63 81 fc 3c af 5f db bb
       -0.098947495 -0.013518073 0.030823415 -0.006694756
0003a0 b6 2b b6 bd b3 30 18 3e 9e 68 9a 3d bd 52 04 bd
       -0.08895056 0.14862327 0.075394854 -0.032305468
0003b0 00 9c 4e 3d f6 e6 17 bc 7f ce 1a be 05 2b 39 3d
       0.050441742 -0.009271374 -0.15117835 0.045207042
0003c0 b0 c3 28 3d de 82 ee 3d ef 8a 52 be 1b 28 44 3c
       0.041202247 0.11646055 -0.20560811 0.0119724525
0003d0 6e a9 bd 3d 23 67 0b bd 4c b3 3f 3e de 98 00 be
       0.09260832 -0.034033906 0.1872074 -0.12558314
0003e0 33 58 a9 bc ba 95 e2 bd 2e 21 0b bd e5 4f a0 bd
       -0.02067194 -0.11063714 -0.03396719 -0.07827739
0003f0 de 02 11 3e 1d 50 ae bd f7 fb da bd e0 32 60 bd
       0.1416125 -0.08511374 -0.1069259 -0.05473602

fc1.bias f4 [128]
000000 5a 60 0e bd 87 41 2d bc 3a 78 3e bd a3 b5 5b bd
       -0.034759857 -0.010574705 -0.046501376 -0.05364002
000010 aa 90 77 bd 3b d9 3b be 17 c5 79 3d 1b f0 82 3d
       -0.060440697 -0.18344586 0.060978975 0.06393453
000020 f1 c7 7c be 20 9d 5b 3e 84 10 c0 bd 0e 71 5e bd
       -0.24685647 0.21446657 -0.0937815 -0.054307036
000030 f7 bd 3c bd d1 d8 d7 3c c8 e4 99 bd c5 68 b6 bc
       -0.046079602 0.026348503 -0.0751434 -0.022266755
000040 71 43 a9 3d 96 ba dd bd fc 1b e2 bd 06 40 85 3d
       0.082648166 -0.10826604 -0.11040494 0.06506352
000050 49 25 80 bd c2 24 40 3d 6f c6 95 3e de 2e 44 bd
       -0.062571116 0.046910055 0.29252955 -0.04789626
000060 41 34 3e 3e 5c a4 43 3e 61 5c 8f 3e 87 0a 14 bd
       0.18574621 0.19105667 0.28000167 -0.036142852
000070 e1 f5 9c bd 03 a7 e5 bd 99 bd 18 3e 71 e9 f3 3d
       -0.07664085 -0.112134956 0.14916076 0.1190976
000080 b0 56 03 be e0 bc 75 3c 4e f1 58 3e 97 67 82 be
       -0.12826037 0.014998645 0.211858 -0.25469658
000090 f6 c8 0e 3e c5 9e 59 3e 1e ab 84 3d 81 03 37 3d
       0.13943848 0.21251972 0.064779505 0.044681076
0000a0 13 c4 15 3e 41 36 7f 3e 08 1f 28 3e 27 99 a6 3b
       0.14625578 0.2492304 0.16418087 0.005084175
0000b0 8e e2 47 bd 02 72 39 be 39 12 9d 3d 70 5c 14 be
       -0.048800044 -0.18109897 0.07669491 -0.14488387
0000c0 a6 e3 38 be d8 2c 20 3e ee 14 1c be 5d f7 b4 3c
       -0.18055591 0.15642107 -0.15242359 0.022090608
0000d0 a3 d4 98 3c 2a 9e 3a 3d da 83 37 3e 92 09 37 3e
       0.01865608 0.045560993 0.17921391 0.17874745
0000e0 33 d3 31 be 0c 13 12 bd 5f 15 01 bd 33 8b c9 bd
       -0.17365722 -0.035662696 -0.03151452 -0.09841003
0000f0 68 9a 1b be 48 83 37 3e f1 54 dc 3d 7a df e4 bc
       -0.1519562 0.17921174 0.10758389 -0.027938593
000100 4a 50 00 3e c9 55 3c bd 3a ba c7 3d 8d d1 53 bd
       0.12530628 -0.04598025 0.09752317 -0.051713515
000110 cb cc 60 be 43 2a e1 bd 3a 99 5e 3d 40 5e 6f bd
       -0.21953122 -0.10994389 0.054345347 -0.058439493
000120 20 86 ea 3d a5 3f 61 be ed fa 05 be 1d 6c c0 3d
       0.114513636 -0.21996935 -0.13084002 0.09395621
000130 b5 e1 9c 3e 4f c2 29 be cb 5c e7 3d f3 da 99 3d
       0.3064095 -0.16578029 0.11296996 0.075124644
000140 33 92 7a 3d 75 22 62 3e 8b c1 54 3e 54 95 9b bd
       0.061174583 0.22083457 0.20776956 -0.075968415
000150 15 2f c9 3d 21 c3 df 3d fb d9 0b 3e 67 70 64 be
       0.09823433 0.1092589 0.13657372 -0.22308503
000160 53 b8 cd bd e6 0c 4c 3e 72 32 fb 3d 65 79 22 be
       -0.10044923 0.19926795 0.12265481 -0.15866621
000170 12 40 7a 3c 0c 1d 5c be a0 d6 10 bd 4a 1e ae 3d
       0.015274065 -0.21495456 -0.035360932 0.08501871
000180 c8 d6 fe bd 03 d8 66 be 1f f3 88 3c 3c 2d 12 3e
       -0.1244331 -0.2254334 0.016717492 0.14275068
000190 64 24 a6 bd 33 13 2e be dd c9 6f 3e 12 4f 90 3d
       -0.0811241 -0.16999511 0.23416848 0.070463315
0001a0 0c a2 50 be b0 20 65 be 9a b0 31 bc 4f 6a 2d 3e
       -0.20374316 -0.2237575 -0.010845328 0.16935085
0001b0 02 fc 58 be 38 5b ad 3d 8f ee d8 3d f8 83 b9 bd
       -0.21189883 0.08464664 0.105923764 -0.09058374
0001c0 42 f2 07 be 79 5a 12 bd d7 39 29 3e 9e 38 40 3e
       -0.13276008 -0.035730813 0.1652597 0.18771598
0001d0 d3 d5 fd 3d c9 56 45 3e 1e 1b 77 3c 85 b8 21 bd
       0.12394299 0.19271387 0.015082149 -0.039482612
0001e0 f2 0b cf 3d 5a 2c 4d 3d cb 98 33 bc a6 62 76 be
       0.101097 0.050091125 -0.010961722 -0.24061069
0001f0 f7 6d e4 3d 42 0f 1e 3e f8 8b 3a 3d 4e 15 06 bc
       0.11153787 0.15435508 0.04554364 -0.00818379

fc2.weight f4 [64, 128]
000000 31 f9 29 be e6 0a 5e be 95 95 95 be 25 32 7e 3d
       -0.16598965 -0.21683845 -0.29215685 0.06205954
000010 53 b5 03 be 09 6f 45 bd 12 36 8b bd 94 1e 1c be
       -0.12862138 -0.048201595 -0.067974225 -0.1524604
000020 dc 7a fb 3c 3c f8 70 3d e4 c9 fd bc a5 ec ed bd
       0.030698232 0.058830485 -0.030980058 -0.11617402
000030 15 8a ca 3d 7a bc 4f 3d cf f3 13 bd 9c 41 98 bd
       0.09889618 0.050716855 -0.036121186 -0.07434389
000040 c3 64 0a bc 80 20 93 3d f7 b9 20 be 58 07 ae bd
       -0.008446875 0.07183933 -0.1569594 -0.084974945
000050 8b a4 df bc 21 44 c3 3e 70 41 08 bd 74 ae cc bc
       -0.02730014 0.38137916 -0.03326553 -0.02498553
000060 4d 79 cc bc 38 23 78 3e 7f 57 03 3d 6c 5b 9f be
       -0.024960184 0.24232185 0.032065865 -0.31124437
000070 3f d5 fc 3c a5 2f 9f 3e f9 d0 d2 3c a2 d3 e5 3d
       0.030863402 0.31091037 0.025734412 0.112220064
000080 b3 49 02 3d 6b 30 af 3d 18 5f bc bc 46 63 32 bc
       0.031808566 0.08554157 -0.022994563 -0.010887926
000090 cc 28 21 3d ab f6 b5 bd d9 38 fd 3e 54 3c e0 3d
       0.039345548 -0.08884939 0.49457434 0.10949007
0000a0 c5 58 d7 3c d8 b5 30 bd c9 60 4d be 47 c2 02 bf
       0.026287446 -0.04314217 -0.20056452 -0.51077694
0000b0 f7 5e 75 be 3d 13 13 3e 79 ed 20 be 05 15 57 bb
       -0.23962007 0.14362808 -0.15715589 -0.0032818925
0000c0 2e 0b 1c be 90 32 43 be e6 54 59 3d e8 f2 7a be
       -0.1523864 -0.19062257 0.05305948 -0.24506724
0000d0 2d 87 b7 be a7 06 e3 be b2 df d1 bb be 1d 63 3c
       -0.35845318 -0.44341013 -0.0064048404 0.013862072
0000e0 0b 09 a0 bd 74 b0 0a be 5d 2b 48 3e cd 9c ac bd
       -0.07814225 -0.13543874 0.19547792 -0.08428345
0000f0 a7 b7 11 be 66 23 7b bc 3b 75 87 3d 19 3f 25 bc
       -0.14230214 -0.015328264 0.06614157 -0.010085844
000100 88 10 73 be 4c 9e 24 be 63 6b c6 3d 70 58 cc bd
       -0.23736775 -0.1607601 0.09688451 -0.099778056
000110 00 fc b6 3c 74 b8 79 bb e4 ee a4 3d 97 23 4e bb
       0.02233696 -0.0038104327 0.08053377 -0.0031454319
000120 60 39 63 be cf 47 05 3d d8 7b 97 be f7 bf cd 3d
       -0.22189856 0.032539185 -0.29586673 0.1004638
000130 1f 87 b7 bc 6e 37 f0 bd 41 8a b0 3e 9b f7 aa 3e
       -0.022403298 -0.117293224 0.3448048 0.33392033
000140 7d b3 80 3d 4d c9 4e bb 0d 21 a6 3d e5 81 37 3d
       0.06284235 -0.003155309 0.08111773 0.04480161
000150 99 9d 33 bd b7 67 d5 3d 4f 11 77 3d 6e 29 19 b9
       -0.04385147 0.10420173 0.06031924 -0.00014606651
000160 e9 a6 0a 3e be 53 7e 3d 9e 9a 4b 3d aa 9e 78 3d
       0.13540234 0.06209158 0.049708 0.06069819
000170 10 ff 3a bd 25 cf a8 3d 51 80 0d be f9 92 ab be
       -0.045653403 0.08242635 -0.1381848 -0.3351057
000180 ae 86 85 bd e9 2a 69 3d c6 eb d4 bd 81 ec 93 be
       -0.06519829 0.056925688 -0.10396533 -0.28891376
000190 7b 31 dd 3e e4 ed f7 3c f3 b4 a5 bd 52 10 77 3e
       0.43201813 0.030264802 -0.08091154 0.2412732
0001a0 2b b9 2f be d4 1b 02 3e be 9c 5f 3e 8d e6 ab be
       -0.1716048 0.12705928 0.21837136 -0.33574334
0001b0 6b 06 c1 3d eb c3 37 be 5d 8d fc 3d 05 52 83 be
       0.09425052 -0.1794583 0.123316504 -0.25648513
0001c0 3f 2e 8c bd 76 4c a1 bd 76 92 e2 bd 32 06 51 3c
       -0.06844758 -0.07875912 -0.110630915 0.012757825
0001d0 54 c6 61 3d b8 3b 3e bd 41 fe bb bd 84 88 8f bd
       0.05512078 -0.04644367 -0.091793545 -0.0700846
0001e0 28 57 bc 3d f3 35 90 bd d3 9a 1f 3e c8 d7 47 bd
       0.09196311 -0.0704154 0.15586405 -0.04878977
0001f0 03 e3 a2 bc 5b 2e 1f be 26 a8 13 be 96 f0 fb bd
       -0.019883638 -0.15545027 -0.14419612 -0.123017475
000200 a0 68 34 3e e6 93 7d 3e 51 6c 8a bc 90 7f b0 3d
       0.17618036 0.2476345 -0.016897352 0.086180806
000210 e6 ea 09 be ff 45 f5 3c 9a 4b be bd 1c ed 2d be
       -0.13468513 0.029940603 -0.092917636 -0.16984981
000220 9a e3 cc 3c e4 41 ec bd 32 ba 3a 3d 3b 3b 81 bd
       0.025010873 -0.11536005 0.045587726 -0.063101254
000230 3f 0e d8 bd cb fe 39 be 99 05 16 bd 2b f1 24 be
       -0.10549592 -0.18163602 -0.036626432 -0.16107623
000240 35 99 e8 bd a1 d2 6c be a2 96 2b bb 18 9d fb 3c
       -0.11357347 -0.23127224 -0.0026182313 0.030714557
000250 05 e2 c7 bd 3b bb d5 3d 98 8a 2b 3d fb f9 ee bd
       -0.09759907 0.10436102 0.04188022 -0.11668774
000260 16 3a a3 bd 9b ea e0 3d ef 4d c3 3d c5 de 4c 3e
       -0.079700634 0.109822474 0.09536349 0.20006855
000270 ad 4a 13 3e c4 bd b2 3d 9c 7e 08 3e a7 33 22 be
       0.14383955 0.08727601 0.13329548 -0.15840016
000280 f5 5b 5b be c5 89 a3 bd 06 cb f2 3b 2f 98 57 be
       -0.21421798 -0.07985262 0.007409456 -0.21054147
000290 84 e9 8a 3d 8c 1f 0e 3d 2d 91 5c be a9 cd 7d be
       0.06782821 0.034698054 -0.21539755 -0.24785484
0002a0 14 c1 5c bc 50 33 4e 3d 6e 10 79 3e 75 42 82 3e
       -0.013473768 0.050341904 0.24322674 0.25441328
0002b0 a5 29 ab be 50 62 b1 be 56 9e 6f bd 98 5e 78 3e
       -0.3343021 -0.3464532 -0.05850061 0.24254835
0002c0 54 56 36 3e cf 07 57 be 98 c2 9a 3c aa 95 a2 bd
       0.17806369 -0.20999072 0.018891618 -0.079387024
0002d0 49 13 2d bd 40 1b 10 3e ba 91 ab bc 9c 32 39 bd
       -0.04225472 0.14072895 -0.020943511 -0.04521428
0002e0 32 0f 03 3e 28 b2 62 3e 6f 35 af be e6 91 22 3c
       0.12798765 0.22138274 -0.34220454 0.00992248
0002f0 98 f6 0d 3e a3 ca 0f be 58 a7 a2 3d 77 69 9e 3c
       0.138636 -0.14042144 0.079420745 0.019337399
000300 68 7e 2f 3e 36 06 8c 3c 6c 1c 7f bd 16 75 33 3d
       0.17138064 0.017092805 -0.062282965 0.043812834
000310 10 b4 b8 3d 00 43 56 3e 01 78 ea b9 e1 71 45 3c
       0.09018719 0.20923996 -0.00044721368 0.012051077
000320 57 b7 89 3d 6d 46 ff 3d 0e a7 55 3e 32 5d 87 3d
       0.067244224 0.124646045 0.20864508 0.066095725
000330 b9 3b 72 3d 4d 9d 0c 3e 7d c9 06 3e 77 65 84 3c
       0.059138987 0.1373188 0.13162799 0.016161663
000340 40 f5 7a bd 32 b1 eb bc 70 93 ce bd 53 f4 30 3d
       -0.061269045 -0.028771017 -0.10086715 0.043201756
000350 d0 97 26 bd f0 4c ce be e9 38 b7 3c b0 fe f6 bd
       -0.040672123 -0.40293074 0.022366004 -0.120602965
000360 90 3f c8 bc 39 49 74 bc 40 8b c8 3d 67 56 ce bd
       -0.024444371 -0.014910036 0.09792185 -0.10075074
000370 b3 a2 50 3d f8 82 b5 be 72 d9 0d bc cc a2 4a 3d
       0.050936412 -0.35451484 -0.0086578 0.04947166
000380 7a b9 52 be 16 27 c4 be 2e a5 b6 bd bf 11 76 3c
       -0.20578566 -0.3831107 -0.08918224 0.015018879
000390 cd fe 2e 3e f4 a6 b4 3c 93 67 22 3d bd 77 11 3e
       0.17089386 0.022052266 0.039649557 0.14205833
0003a0 75 2a 90 3b c5 4f a5 bd db 75 5e 3d 03 9e 23 3d
       0.0043995925 -0.080718555 0.054311614 0.039945614
0003b0 41 4c 01 bc 89 62 34 be d4 23 47 3e 70 4b 3d 3e
       -0.0078917155 -0.17615713 0.19447261 0.18485808
0003c0 5b 51 ab bd 9a c2 05 be 2d 0d 03 3d 22 f7 c0 bd
       -0.08365127 -0.13062516 0.031994987 -0.09422137
0003d0 a3 33 d7 bd 41 25 87 3d 54 7f 25 3e 60 d3 a7 be
       -0.10507896 0.065989025 0.16161853 -0.32778454
0003e0 5a 76 7a bd 15 01 39 3d 8b 35 4a bc 3f 83 97 3d
       -0.061148025 0.045167048 -0.012341867 0.0739808
0003f0 03 6d 0c bd 2d 5a 76 3c 74 4c 32 bc 19 07 c0 3d
       -0.03428365 0.015036148 -0.010882486 0.09376354

fc2.bias f4 [64]
000000 a8 bf f4 bb 85 de 9c bd 92 5d 49 3e 52 28 37 bd
       -0.0074691363 -0.0765963 0.196646 -0.044716187
000010 c9 ee f6 3d 46 e3 c1 bd a0 5a 55 bd ae e7 22 3d
       0.120572634 -0.09467177 -0.05208838 0.03977173
000020 ca 38 59 bd 2e 28 08 be 12 30 86 bc 76 48 05 3e
       -0.053032674 -0.13296577 -0.016380344 0.13015923
000030 58 8b 3c bd 6c 8c 82 3d b6 3e 03 3e 2e 29 c5 bc
       -0.046031326 0.063744396 0.12816891 -0.024067488
000040 10 67 a1 3b 0f f7 71 bd da c7 c4 bd c9 bf 35 bd
       0.004925616 -0.059073504 -0.09608431 -0.044372354
000050 fb 57 e8 bc e3 43 05 3d 04 a9 4b 3b aa 5b 70 3c
       -0.028362265 0.032535445 0.0031076083 0.014670292
000060 53 e9 cb bb 2d 3b 53 3d 7d 27 82 3e 76 aa 2a 3d
       -0.006222883 0.051570106 0.25420752 0.04166647
000070 44 af 9c 3c b4 a7 79 bd 87 b7 7a 3d c4 99 41 3e
       0.019126542 -0.06095095 0.06121018 0.18906313
000080 ec f7 f1 bd 78 8e 08 3d a5 95 f3 bb 93 de 66 bd
       -0.118148655 0.033338994 -0.0074336105 -0.056364607
000090 16 51 15 bd 64 7d 43 3d 25 a4 9f 3c de d9 b4 3d
       -0.036454283 0.047727004 0.01948745 0.08830617
0000a0 dd 47 2d 3e bb ea 65 bb 12 bc 2d bd 08 67 44 3d
       0.16921945 -0.0035082537 -0.042415686 0.04794982
0000b0 3e 88 73 3e 19 18 2d 3d 0c 52 cb 3c 30 3c ec bd
       0.23782441 0.04225931 0.024819396 -0.11534917
0000c0 ea f8 53 3d c2 f1 87 3d a8 c8 80 bd e9 d5 36 3d
       0.051751055 0.066379085 -0.06288272 0.044637594
0000d0 5b 2f d4 bd 8c 9f 5a 3e 68 6b f0 3d 0e f4 35 3e
       -0.10360595 0.21349925 0.11739236 0.1776888
0000e0 36 25 9f bc 6f 8c 4d 3e d2 4a 82 3e 40 20 86 3b
       -0.019426923 0.20073102 0.25447708 0.0040932
0000f0 74 03 36 bd 21 35 32 bd af 62 0b bd c5 c7 b2 3d
       -0.044436887 -0.0435077 -0.03402966 0.08729509

fc3.weight f4 [4, 64]
000000 9b 1d 4b 3e 77 88 a1 3c 9a 9b fc 3d cd 34 7e 3d
       0.19835512 0.019718392 0.12334366 0.062062073
000010 dd c7 8f bd 72 49 96 be 6d 5e 21 3e 37 f5 3b bd
       -0.07020543 -0.2935291 0.15758677 -0.045888152
000020 46 51 3e 3d 2a 8a 52 be 16 13 44 be 42 9e 27 3e
       0.046464227 -0.20560518 -0.19147906 0.16368964
000030 a2 02 ef bc 11 c5 e4 3d 1b 7a fe 3d c8 86 24 3d
       -0.02917606 0.111704 0.124256335 0.0401676
000040 2d f5 1d bd 30 32 b7 bd 5f 0c a1 ba 23 a7 94 3e
       -0.038563896 -0.089451194 -0.0012287012 0.29033765
000050 2c 74 a1 bd 0f 42 cd 3d 59 98 a5 3e 8c 42 0c 3e
       -0.07883486 0.10022365 0.32342795 0.1369726
000060 e7 64 86 bd b3 77 9f bd 3a f0 27 3e 86 2e 76 3d
       -0.06562214 -0.07786503 0.16400233 0.060102962
000070 9f 17 3f 3d 61 f7 2c be 01 e6 43 bd 4e 74 24 3e
       0.046653386 -0.16891243 -0.04782677 0.16059992
000080 a1 f4 75 3d fe 88 48 3c e9 40 cc 3d de 96 89 bd
       0.06004775 0.012239693 0.09973318 -0.06718229
000090 ad 93 e6 bc 26 1e 98 3e 47 23 ad bd f0 6d 6f 3d
       -0.02814659 0.297105 -0.08453994 0.058454454
0000a0 23 e8 14 3e 08 39 83 bd ab 3d 63 be 8e fe d6 3d
       0.14541678 -0.06407362 -0.22191493 0.10497771
0000b0 cf a1 7e 3d 4e 0e db 3d b4 95 a1 3e 4d e5 2f bc
       0.06216603 0.10696088 0.31559527 -0.010735822
0000c0 49 cb c6 3d 9e dc 74 3d d3 37 d1 bd 98 b5 4a 3d
       0.09706742 0.05978071 -0.10215726 0.049489588
0000d0 8f 28 14 be 2a 04 22 3e 9f 52 da 3d 21 56 c7 3d
       -0.14468597 0.15821901 0.1066029 0.09733225
0000e0 0a 42 20 be b5 99 ef 3d 2a c9 11 3e 13 93 e5 3d
       -0.15650192 0.11699239 0.14236894 0.11209693
0000f0 0b 6e 3a be 7b 25 00 3e 1b 52 2e 3e 02 30 bc 3d
       -0.1820604 0.12514298 0.17023508 0.09188844
000100 c3 87 9f 3e a6 c2 98 3c aa 67 b4 3d 49 4a 29 bd
       0.31158265 0.018647503 0.08808835 -0.04133061
000110 57 d6 f6 3d 1f a8 28 be d6 3d d1 bc 06 a9 b0 ba
       0.12052601 -0.16470383 -0.025542181 -0.0013478107
000120 1c d1 da 3c eb c0 61 be b4 df 04 be 1c 70 24 3e
       0.02671104 -0.22046249 -0.12975961 0.16058391
000130 51 68 d9 3d 28 20 c4 3d e6 5a fc 3d fe b7 bb bd
       0.106156 0.09576446 0.12322025 -0.09165953
000140 04 28 98 bd f2 83 2c bd 27 54 f7 3d 5d 14 b1 3e
       -0.074295074 -0.04211802 0.12076598 0.34585848
000150 5a 63 a2 bd 56 a6 78 be 12 5c 8b 3e c6 5f 65 be
       -0.07929106 -0.24282202 0.27218682 -0.22399816
000160 9c 07 a7 bb fc c1 6d bd 32 f9 2a 3e 30 f5 a7 3d
       -0.0050973427 -0.058046326 0.16696623 0.08201063
000170 ae 9b c9 3d 96 47 21 be 58 3c c2 bd 6c b7 37 3d
       0.09844147 -0.15749964 -0.09484166 0.04485266
000180 f0 7d fd bc bb 86 f1 bc 3c d7 9d bf 64 09 0b 3c
       -0.03094384 -0.02948319 -1.2331309 0.008486126
000190 91 dc 80 bc db c1 9b 3e 64 a9 c2 bc db 4d c5 3c
       -0.015730174 0.30421337 -0.023762412 0.024084976
0001a0 7d 0d 93 3d d7 4b bc 3c 29 6a 24 3d 41 65 00 3e
       0.07180307 0.022985382 0.040140305 0.12538625
0001b0 95 e0 26 3e 89 35 f7 3d cf de b5 3e 57 92 28 3d
       0.16296609 0.12070758 0.35521552 0.041155186
0001c0 e0 11 b7 3d 38 50 0e 3d 8a 1e e3 bd 65 f0 3a 3d
       0.08938956 0.03474447 -0.11089809 0.045639414
0001d0 89 ff d9 bd 20 b4 35 3e 7e 7a ef 3d d9 d0 a4 3d
       -0.106444426 0.17744493 0.116932854 0.08047647
0001e0 d2 8c a0 3d cd d9 bc 3d 3d 30 13 3e 17 b5 87 3d
       0.07839359 0.0922123 0.1437387 0.06626337
0001f0 b1 18 55 be c5 10 eb 3d e1 4c 21 3e 11 4d 01 3e
       -0.208102 0.11477808 0.15751983 0.12627055
000200 1a be 9b 3e 5a cc 8c bb 5f 67 de 3d 18 d7 ef 3d
       0.30418473 -0.0042968215 0.1085956 0.11710948
000210 14 ab 03 3e 54 c8 77 bd 20 a1 a6 3c 72 e8 48 3e
       0.1285823 -0.060493782 0.020340502 0.19619921
000220 1d 86 94 bd bf ff c8 bc 12 9d 07 be 7a 0b 12 3e
       -0.072521426 -0.024536012 -0.13243511 0.1426219
000230 be db c7 be e9 ce bf 3c 8d 99 09 3e da 90 de bc
       -0.39034837 0.023414092 0.13437481 -0.02716868
000240 4b 0f 64 bd 9d 1e 11 bd c7 34 53 3c 0e 97 da 3d
       -0.055678647 -0.035429586 0.012891001 0.10673343
000250 fd e4 d5 3b b7 64 5a 3d e7 ee 2d 3e 1f 14 ed 3c
       0.0065275417 0.053318705 0.16985665 0.028940259
000260 e6 7d 96 3d a3 75 62 3c 0f 0f 21 3e 9f fd 6c 3e
       0.07348232 0.013821992 0.157284 0.23143624
000270 2f 84 27 bc 52 ed 98 3d 2d 16 ba 3d 0c 66 62 3d
       -0.010224386 0.0746714 0.09086261 0.0552731
000280 0a 39 0b bd 44 23 2b bc 06 b5 6f be c7 28 13 bd
       -0.033989944 -0.01044542 -0.23408899 -0.03592756
000290 27 0b 14 bc 8c 12 cc 3e 3c c4 18 3c 6d c8 33 3d
       -0.009035862 0.398579 0.00932413 0.043892313
0002a0 39 9a 02 3e 3d 9f a8 bd 19 79 b2 be 7a 75 53 3d
       0.12754144 -0.08233497 -0.34858015 0.051625706
0002b0 f3 be be 3d 44 50 39 bd fc 1e a6 3c 28 1f b1 bd
       0.093137644 -0.045242563 0.020278446 -0.08648521
0002c0 b9 56 0f 3d 29 a9 cb 3d 9a 1c fe bd ed e3 c3 3d
       0.034994815 0.09944374 -0.12407799 0.09564958
0002d0 c4 70 85 bd 3b 47 2c 3e 1e 1a 5c 3b 09 81 1b 3e
       -0.06515649 0.16824047 0.0033584903 0.15185942
0002e0 90 b0 ea 3c b6 73 1b 3e df bd 1d 3e 97 b5 aa 3d
       0.028648645 0.15180859 0.15404461 0.08335417
0002f0 ae bf a6 be bd 13 f1 3d f7 67 8a 3e 0a e1 11 3d
       -0.32568115 0.11771343 0.27032444 0.035615005
000300 02 31 a1 3e d5 ed 03 be 41 71 13 3e 63 f0 c0 3d
       0.31482702 -0.12883694 0.14398672 0.0942085
000310 03 5f 81 3d 75 6c c6 bd 31 94 05 3d 07 fb 5a bf
       0.0631695 -0.09688655 0.03261203 -0.8553929
000320 8b 70 85 bf fe 60 b8 be eb ed 0b bf 7c be 0f 3e
       -1.042497 -0.360115 -0.5465991 0.14037508
000330 af db 0e bf 9e 0c ba 3d 02 b3 07 3e a1 b3 c2 3b
       -0.5580396 0.09084438 0.1325188 0.0059418236
000340 d7 d0 f3 3a ba 2c 16 3d 66 04 fd bd 9a 89 ca 3e
       0.0018601668 0.03666375 -0.123543546 0.39558107
000350 56 7e a6 3d 96 55 10 3e cb 68 ac 3d f2 39 1b 3e
       0.081295654 0.14095148 0.08418425 0.15158823
000360 3b 7f 40 3d fa 29 44 3d b0 41 2d 3e d7 cd 1e 3e
       0.046996336 0.047891594 0.16919589 0.15508209
000370 f1 7f a2 3d 96 61 c8 bd 41 8a 32 bd 99 24 29 3e
       0.07934559 -0.09784238 -0.04358888 0.16517867
000380 31 98 13 3c 1f b9 b0 3c f8 2b 88 3e ca 55 e8 bc
       0.009008453 0.021572648 0.26596045 -0.02836122
000390 8a 77 79 bd 7f 03 bd bd 2f ea 66 bd c6 11 3f 3d
       -0.060905017 -0.092291825 -0.05637568 0.04664781
0003a0 d7 56 af 3d 56 ae f6 bd f5 70 0a bf 66 9a e0 bb
       0.08561485 -0.12044971 -0.5407861 -0.006854343
0003b0 7b e4 1b 3e 9f 12 97 bf 1f ac 94 3d 4d 7e 13 bd
       0.15223877 -1.1802558 0.07259392 -0.03600912
0003c0 80 93 ab 3b e8 08 e1 3d 79 5f 60 bb f2 11 94 3d
       0.005236089 0.10988027 -0.0034236594 0.07229985
0003d0 b9 2d 3a 3b 85 75 44 3d a9 4b d8 3d 82 3c 1e 3e
       0.00284086 0.047963638 0.10561306 0.1545277
0003e0 91 10 48 3a 71 49 89 3d e8 68 be 3d 70 36 5b bd
       0.0007631863 0.06703461 0.09297353 -0.053518713
0003f0 e7 ed e1 bd 97 77 51 3e 1a d1 ae 3d df d7 10 3e
       -0.110317044 0.20455776 0.08535977 0.14144848

fc3.bias f4 [4]
000000 62 4f 0e 3d b6 a8 8f 3d bb 53 53 3e 24 7b 28 3e
       0.034743674 0.07014601 0.2063741 0.16453224
