Navigation - Value based methods/checkpoint/checkpoint_ddqn_er_28.pth (torch_old, 54447 bytes, 6 tensors)

fc1.weight f4 [128, 37]
000000 18 f4 0d 3c 6d b1 6d 3e 81 f7 5b 3d 07 66 bf be
       0.0086641535 0.23212214 0.053702835 -0.37382528
000010 dc eb 9d bf 17 19 82 3e 34 97 a9 bd 3d 57 06 3e
       -1.2337604 0.25409767 -0.08280793 0.13119216
000020 12 1f 6d bf f6 5b cc 3c 77 d8 45 3e de 9d 30 3e
       -0.92625535 0.024946194 0.19320856 0.17247722
000030 de fc a6 be a2 92 34 bf 27 74 1b bf 8e 17 5c 3e
       -0.32614797 -0.70536244 -0.6072411 0.2149336
000040 6a 74 99 3e 57 da 21 bf 9a 3b a0 be b5 61 21 be
       0.2997163 -0.63223785 -0.31295472 -0.15759929
000050 4d c9 00 3e b9 e3 b6 3e 08 dc b7 bd 41 9a 93 be
       0.1257679 0.35720614 -0.089775145 -0.28828624
000060 f5 43 13 3e 94 3a 98 3d ed 8e c7 3d 22 e8 90 3d
       0.14381392 0.07433048 0.09744058 0.07075526
000070 07 09 21 be 94 03 13 bf 48 47 91 be e1 02 e4 bc
       -0.157261 -0.57427335 -0.28374696 -0.027833404
000080 41 90 8f 3e 11 94 e1 3e 8f b6 4f bf 0d f0 cb 3c
       0.28039744 0.44058278 -0.8113794 0.024894739
000090 7a b3 c9 3b 81 d3 ca 3e 40 ea 8d be a7 dc b1 3e
       0.0061554285 0.3961449 -0.2771778 0.34738657
0000a0 af 26 1f bf 73 1c 80 bf 9c e5 06 bd f0 bf 78 be
       -0.621684 -1.0008682 -0.032933816 -0.24291968
0000b0 90 02 12 bf 1f 65 d9 3e 03 4e 63 3d 18 d2 86 be
       -0.5703516 0.42459962 0.05549432 -0.26332164
0000c0 a9 94 75 bd ac ee 8f 3d f0 19 b4 3e bb 82 49 3e
       -0.059956226 0.07027945 0.3517604 0.19678776
0000d0 84 11 48 be 94 a9 10 3e b0 6c 9f 3e 79 05 d7 bd
       -0.19537932 0.14127189 0.3113761 -0.10499091
0000e0 18 82 cc 3d 0a 7d 37 3c 82 fd 2e be 33 ff 23 be
       0.09985751 0.011199245 -0.17088893 -0.1601532
0000f0 62 84 12 3e af 73 09 bc c3 c5 e4 bd da 9f a9 3e
       0.14308313 -0.0083893975 -0.111705326 0.3312977
000100 c0 be 8c be 14 29 15 3c d2 e0 96 3e 31 f1 03 be
       -0.2748928 0.009104032 0.294684 -0.12884976
000110 70 34 5e 3d 24 3d db 3e 32 cf f3 be c2 9b 3b 3e
       0.054249227 0.42820084 -0.47619015 0.18321136
000120 9f 60 0d 3e 84 c5 c3 bb b3 7c 6b be 7d 7d 3a 3d
       0.1380639 -0.0059744734 -0.22996788 0.04552983
000130 a7 18 b2 3e 77 d5 1f bf 17 1b 85 bc 8e fe 43 bf
       0.34784433 -0.62435097 -0.016248269 -0.76560295
000140 75 95 6b be 21 dd f7 3e 9b b9 aa 3e e6 2a 52 bf
       -0.23006232 0.48410895 0.3334473 -0.8209671
000150 a1 4a b1 3c d2 67 d9 bc 98 6d 16 3e df 9a 28 bf
       0.021642031 -0.026538763 0.14690244 -0.65861315
000160 45 11 81 bd 7e fc 76 3e 12 fd 2a bf f4 02 4f 3e
       -0.06302122 0.24119756 -0.66792405 0.2021597
000170 db d0 d4 bd d4 a8 f2 be 89 34 24 bf 60 d1 36 be
       -0.103913985 -0.4739443 -0.6414266 -0.17853308
000180 1f 3d 2b 3e c0 10 57 3e fc 2b d1 be 2b 50 97 be
       0.16722535 0.21002483 -0.4085387 -0.2955335
000190 05 b3 c9 3e 3b cd ab 3e 87 7d e5 be c9 d0 cd bc
       0.39394394 0.33555016 -0.44822332 -0.02512397
0001a0 76 bd ec be 30 8c db 3e c3 11 db bd 2c 9c 9f be
       -0.46238297 0.42880392 -0.10696747 -0.31173837
0001b0 c6 e7 f4 39 6b 0d 83 bd 83 e1 cb bd f7 12 ef 3e
       0.0004671199 -0.06399044 -0.09955122 0.46694157
0001c0 fc 46 08 bf d1 27 cb b9 c1 5c 14 3e 17 b5 c8 bd
       -0.53233314 -0.00038748843 0.14488508 -0.09800165
0001d0 01 d4 fd 3c b4 48 ef bd 51 3c 63 bd aa 0c ab 3d
       0.03098488 -0.11683789 -0.055477444 0.08352025
0001e0 45 c8 0c 3f f2 f7 d6 be ae e9 38 3e 8e 7b 04 3e
       0.5499309 -0.41986042 0.18057892 0.12937757
0001f0 89 20 fe bb 82 17 f5 bd 9f 4a f3 3c 4a d5 91 be
       -0.0077553433 -0.119673744 0.029698668 -0.2848304
000200 e5 d3 0f bc 82 93 1d be 13 5f 83 3d df 3c 29 be
       -0.008778547 -0.15388301 0.06414618 -0.16527127
000210 84 8d 95 bd d8 fc 83 3e ed 3e d9 3d b2 25 18 3e
       -0.073023826 0.25778842 0.10607705 0.1485813
000220 6b af 90 be a3 14 c1 3e 30 1e 41 be 2d 76 f3 3e
       -0.28258833 0.37711057 -0.18859172 0.47551098
000230 53 18 ce 3e 7e 0e f0 3e ec 26 8f bd 84 01 33 be
       0.40252933 0.46886057 -0.06989846 -0.17481047
000240 7f 8e 02 bf 75 d0 5c be 49 c4 45 bc 0c ee e7 bc
       -0.5099868 -0.21563895 -0.012070724 -0.028311752
000250 07 8f 75 be ad 70 00 bf 80 10 b3 3d ad 3e ac 3d
       -0.23980342 -0.5017193 0.087433815 0.08410392
000260 cc 15 33 be 84 0f d1 bd c0 b6 ab 3e 8d 42 a4 be
       -0.17488784 -0.102080375 0.33537865 -0.32082024
000270 47 42 cc 3e c8 39 a2 3e 55 f3 b3 be 4b ba 27 3e
       0.39894316 0.3168471 -0.35146585 0.16379659
000280 ca 10 fe bd 19 f3 0f 3e 39 cf 75 be 9e c4 c2 be
       -0.12405546 0.14057578 -0.2400483 -0.38040632
000290 0f 5e 49 be 57 e1 c6 3e b0 2e 1a bd ea 72 32 3f
       -0.19664787 0.38843796 -0.03764218 0.69706595
0002a0 03 ce 6b bd 7b a1 47 bd 49 e8 88 3e 92 c2 1e bf
       -0.057569515 -0.048737984 0.2673972 -0.6201564
0002b0 11 22 b2 3e cb a3 70 3e 6e cd a1 be fb 0b 21 be
       0.34791616 0.23499982 -0.31602043 -0.15727226
0002c0 cc 00 73 3e fa 3d d3 3e 3c 2f 86 3e 96 97 4c be
       0.23730773 0.41258222 0.26207912 -0.199797
0002d0 57 61 b5 bd a7 08 71 bc f8 45 59 be 72 84 c4 bc
       -0.08856457 -0.014711536 -0.21218097 -0.023988936
0002e0 ee af 39 3d 8b 6b 55 3e 2e 28 e6 3d f6 e6 5d be
       0.045333795 0.20841806 0.112381324 -0.21670136
0002f0 5c 3e 40 bf 91 20 0e 3e 17 55 3e 3e 1a 6b 95 bc
       -0.7509515 0.1387961 0.18587147 -0.018239547
000300 9b b8 84 3e 47 29 12 bf e0 19 af be 49 1f 81 be
       0.25922093 -0.57094234 -0.3419943 -0.2521918
000310 b5 ef 6b bd 51 74 7c be 18 d6 c5 3e 90 ac 3b 3d
       -0.05760165 -0.24653746 0.38639903 0.045818865
000320 c0 34 fa be 94 23 8b 3e 07 b5 2c bd e1 6a 00 3e
       -0.4886837 0.2717558 -0.04216483 0.12540771
000330 57 46 83 3e 80 c3 98 3e 90 c3 05 bf dd 76 44 3e
       0.25639603 0.29836655 -0.5225153 0.19185968
000340 c8 91 63 bd 45 f4 fa be d8 2c 37 be 1a 26 21 be
       -0.05555895 -0.49014488 -0.178882 -0.15737191
000350 98 0d 38 3e 9d 58 c9 3d 09 82 84 3e cf 99 e0 3a
       0.17973936 0.09831355 0.2588046 0.0017135682
000360 c6 c0 d9 be e6 a4 71 bd e1 49 85 3e 4b ab 26 be
       -0.42529887 -0.05899515 0.26032928 -0.1627628
000370 87 ec 38 bd ee 85 9c 3d a2 45 7d be dd ba 50 3e
       -0.045147445 0.076427326 -0.24733594 0.20383783
000380 5c 81 cc 3a 9a 45 27 3d a5 cc 60 bd 36 91 8b be
       0.0015602517 0.04083786 -0.054882664 -0.27259225
000390 37 7c d3 bd ab fb 6d 3e 8a 65 87 3e 2c b6 85 3e
       -0.103264265 0.23240535 0.26444656 0.2611555
0003a0 e6 a4 23 be 70 8c 8a 3e 6b 9c ce 3e 1b b7 b2 be
       -0.15980873 0.2706027 0.40353712 -0.34905323
0003b0 6b 3f 89 3e ae 47 33 be 46 d7 f8 bd af 90 6b 3e
       0.26806197 -0.17507812 -0.12150435 0.23004411
0003c0 d5 ba b3 3c 87 d6 57 3e c3 cd 41 3e 05 8d ab bc
       0.021939674 0.2107793 0.18926148 -0.020941267
0003d0 f3 31 50 3d 8a c3 40 be cf 14 88 3e e2 2d db be
       0.050828885 -0.18824592 0.26578376 -0.42808443
0003e0 d1 7e ca bb 6b ee 5a 3e 92 bf 38 3e 8c 4a c3 3d
       -0.0061796685 0.21380012 0.18041828 0.09535703
0003f0 80 7c 84 3e 69 a3 ad bb d3 fb 8b be 80 25 1c bc
       0.25876236 -0.005299021 -0.27340564 -0.009530425

fc1.bias f4 [128]
000000 6b 0f a1 3d 8a f5 70 bd 86 4b b1 bd 68 c2 88 bd
       0.07864269 -0.058827914 -0.08656983 -0.06677705
000010 2a b0 a0 bd ba fe 26 be fa a5 f9 3d 19 db 9a 3d
       -0.07846101 -0.16308108 0.12189861 0.07561321
000020 3a 75 b1 be c3 cf e4 3d 2a 1c 93 3a ec bc 63 bd
       -0.3465975 0.1117244 0.0011223604 -0.05560009
000030 df 26 76 bc 64 29 d2 3b 0e 8c ca bd f4 1f 00 bd
       -0.015023916 0.0064136256 -0.098899946 -0.031280473
000040 86 3e 3d 3d 35 4e 97 bc 2d 6a 92 bd ba 82 33 3d
       0.046202205 -0.01846991 -0.07149158 0.043825842
000050 1a de c0 bb 1e d2 78 3d af fe 94 3e 99 78 d7 bc
       -0.0058858516 0.06074726 0.29100558 -0.026302623
000060 60 34 15 3e 6c 64 57 3e 27 f7 95 3e 24 10 c3 bd
       0.1457076 0.21034402 0.29290125 -0.09524563
000070 84 e8 da bc ef e7 a5 bd 08 0c 08 3e 27 39 1e 3e
       -0.0267222 -0.081008784 0.1328584 0.1545149
000080 f1 b4 1a be 59 c7 98 3d ff c0 e8 3d 00 d6 7f be
       -0.15108086 0.074598975 0.11364936 -0.24983978
000090 e3 ce 9d 3e 44 2f 82 3e 5b df 0c 3e ed 44 67 3d
       0.30821905 0.25426686 0.13757078 0.056462217
0000a0 50 82 26 3e 4f 58 56 3e 8b 29 95 3e 2c fd 24 bd
       0.16260648 0.20932125 0.29133257 -0.040280506
0000b0 a3 69 a4 3c 10 2c bd bd 59 06 4b 3c 25 a7 9b be
       0.020069903 -0.0923692 0.01239165 -0.3040096
0000c0 7d 90 bf bd e2 00 00 3e 46 82 40 bc f8 5b 0e bc
       -0.09353731 0.12500337 -0.01174981 -0.008688919
0000d0 27 fa 05 3d 2b 00 8a 3d 2b 98 92 3d 6a 41 bb 3d
       0.032709267 0.06738313 0.0715793 0.09143336
0000e0 e5 13 15 3d 32 df 19 be 07 ea eb 3b 09 d8 4d bc
       0.036395926 -0.15026549 0.007199529 -0.012563714
0000f0 f5 c7 39 be 6a 8d 1a 3c 8f d5 4c bd 3b 7e ec bd
       -0.18142684 0.00943313 -0.050008353 -0.11547514
000100 18 ad 9a 3e 94 9c 1f ba 35 db bb 3d 5b 31 31 bd
       0.30210185 -0.00060887006 0.0917267 -0.04325996
000110 d3 29 81 be 69 24 13 be 54 d8 98 3d e1 77 e0 bc
       -0.25227222 -0.14369358 0.07463136 -0.027400913
000120 6c 79 f5 3d d7 6c 0f be a7 49 18 be 46 90 b9 bd
       0.1198605 -0.14006363 -0.14871846 -0.09060721
000130 0d 77 46 3e 62 2e 53 be 51 de a7 3d 38 85 4d 3c
       0.19381352 -0.20623162 0.081967 0.012543969
000140 8c 45 92 bd 17 7c 80 3e 6b ed 90 3d 8c 8b 1b be
       -0.07142171 0.25094673 0.07076534 -0.15189952
000150 1b ae 46 bc 52 d7 fa 3d 54 c5 ef 3d f8 d0 61 be
       -0.012126471 0.122481 0.11707559 -0.22052372
000160 d2 43 41 bc e4 cf fe 3c 2a 56 2a 3d c8 b0 a7 bd
       -0.011795955 0.03110499 0.04158608 -0.08188015
000170 1e 65 9b 3c 16 0b b2 be 70 6c a0 bd 85 2b 89 3e
       0.018969115 -0.34774083 -0.07833183 0.26791015
000180 8a 99 16 be 94 2f 71 be 0c 95 e6 bd 9d 04 cd 3d
       -0.14707008 -0.23553306 -0.11258897 0.100106455
000190 00 23 9d bd 90 ef 90 be 99 4e f2 3d bc 27 af 3d
       -0.07672691 -0.28307772 0.118313976 0.085525006
0001a0 b4 21 67 be 8e 39 36 be 0b 01 dc bc 28 78 81 3d
       -0.2257145 -0.17795393 -0.026855966 0.06321746
0001b0 c0 e3 5c be cf af ae bd 89 0f 2c bd 7c c6 1f bd
       -0.21571255 -0.085296266 -0.042007003 -0.03900765
0001c0 f5 7b 95 bd 56 af a2 be 43 ef 57 bb 3c d7 42 3e
       -0.072990336 -0.31774396 -0.0032949008 0.19027418
0001d0 4a 0d 57 3d 70 49 2c 3e e0 4b 67 bd b4 e2 05 be
       0.052502908 0.16824889 -0.056468844 -0.13074762
0001e0 cd bc 2e 3d eb c9 b5 3d 93 aa 0d be 52 24 7f be
       0.042660523 0.088764034 -0.138346 -0.24916199
0001f0 7e 3b b9 bd cb de de 3d 1f 08 83 3e 7c a6 8c bd
       -0.0904455 0.10882338 0.25592133 -0.06867692

fc2.weight f4 [64, 128]
000000 a1 35 c2 be 98 ff db 3d 41 dd 82 be b0 b6 95 3e
       -0.3793154 0.1074211 -0.25559428 0.29240942
000010 f2 8b e9 3d 93 5d fd bd 81 ca 97 3d 80 96 a5 3d
       0.114036456 -0.123713635 0.074116714 0.08085346
000020 2c f2 49 bc 8e 1c 8c bd 63 10 14 bd 94 c0 17 be
       -0.012325805 -0.06841384 -0.03614844 -0.14819556
000030 67 ec f7 3e d5 be b3 bd dd 1c ec 3b d6 80 ba bc
       0.48422548 -0.08776633 0.007205589 -0.022766512
000040 bf 34 09 bd f3 a1 9b 3e 65 cd a5 be 3b 7c a6 3d
       -0.03349757 0.30396995 -0.32383266 0.08129164
000050 04 6e a0 3d 3e 6b b6 3d 32 20 dc bc 21 3b 12 3e
       0.07833484 0.089071736 -0.02687082 0.14280368
000060 ee 5a c5 3d c0 e1 10 3d 3d a1 76 3d a0 99 15 bf
       0.09636484 0.035371542 0.060212363 -0.5843754
000070 da 4d 65 be df 90 8f 3f 5d 25 8f 3c 8c d5 c0 bb
       -0.2239298 1.1216086 0.01747387 -0.005884832
000080 75 a3 6b 3d 76 20 2e be 7e 62 8e bd 2a 47 1e be
       0.05752893 -0.1700457 -0.0695238 -0.15456834
000090 c8 d8 ed 3c 6d 3f 05 be 3b f3 99 be ae 10 3d 3e
       0.029034033 -0.13012476 -0.30068383 0.18463394
0000a0 27 22 8c bc 9a a6 87 3d f1 4a d4 be cd 96 40 3e
       -0.017106129 0.066235736 -0.41463426 0.18807526
0000b0 f7 d0 18 3e de 09 98 bc f8 e3 16 be b2 94 c4 3d
       0.14923464 -0.018559393 -0.147354 0.09598674
0000c0 23 2e a2 bc 14 86 e0 bd 63 82 c6 3d 63 bd 91 bd
       -0.01979739 -0.109630734 0.09692838 -0.07116201
0000d0 4c 61 d3 3d 6c 68 cf be 91 fb 2f bd 25 b3 5e be
       0.10321292 -0.40509355 -0.04296452 -0.21748026
0000e0 80 f3 df 3e 44 76 88 bd 5b aa 61 3d 1c f0 a9 be
       0.43740463 -0.066631824 0.055094104 -0.33191
0000f0 7c 46 8a 3e 3e 31 f8 bd c0 4c 1d be 8a 0f 0b 3d
       0.270069 -0.12118767 -0.15361309 0.033950366
000100 24 f1 6d 3e 44 f7 4a 3d b0 4e b3 bd 35 02 16 3d
       0.23236519 0.049552217 -0.08755243 0.0366232
000110 2c 60 75 bd 69 0a e1 bd d4 d8 9c bd 3b e1 1b 3e
       -0.05990617 -0.10988314 -0.07658544 0.15222637
000120 e0 ce 84 be cd dd 80 be 19 9b 17 be 03 3a 92 3e
       -0.25939083 -0.2516922 -0.14805259 0.28559884
000130 03 bd 22 be f1 ab 31 3d fa c2 43 3d c6 e5 79 bd
       -0.15892415 0.043376867 0.047793366 -0.061010145
000140 ba 70 c1 be 72 a6 1f 3b a5 0b 15 be 23 76 c5 3d
       -0.37781316 0.0024360684 -0.14555223 0.096416734
000150 78 78 9c be bb e4 e3 bd 56 c2 f5 bc cc 45 7f 3b
       -0.3056066 -0.11127611 -0.029999893 0.0038951514
000160 6b b5 bc 3d de 35 28 be 46 3d 91 3d 88 0d 64 3c
       0.0921429 -0.16426799 0.07091765 0.013919242
000170 f0 d6 82 bc 2b e1 27 3c 2b 8a 72 be e5 bf b6 be
       -0.01597163 0.010246555 -0.2368552 -0.3569328
000180 51 32 9c bd 90 81 b6 3e b5 0f bb 3d ce bb 14 3e
       -0.076267846 0.35645723 0.09133855 0.14524767
000190 a5 52 87 3b 89 1a 92 3e 6e 99 be bb 4c c8 64 3e
       0.004129725 0.2853587 -0.00581663 0.22342032
0001a0 d7 27 e2 bd d9 fe ae 3d 9c 7a 7f bc da e0 d6 bd
       -0.11042755 0.08544702 -0.015593197 -0.10492106
0001b0 46 22 87 3d a8 7e fe 3d ab 48 ac bd 6e 9f 25 3e
       0.06598334 0.124265015 -0.08412298 0.16174099
0001c0 11 43 58 3d cb 38 c9 3e 19 a4 b9 bb b0 4f 61 3e
       0.052798335 0.39301142 -0.005665314 0.22003055
0001d0 1a c3 f8 3d a7 99 51 3e a6 c3 94 be ae 70 96 3e
       0.12146588 0.2046877 -0.29055518 0.29382843
0001e0 b6 d0 4e 3e 24 e3 9f be bd 1d 93 3e ce 28 7b be
       0.20196804 -0.31227982 0.28733626 -0.24527285
0001f0 0e 85 d3 bc ca 22 0c be 69 b4 99 be 4d 16 b0 bd
       -0.025820281 -0.13685146 -0.30020455 -0.085980035
000200 55 8d 49 be 4e 0e f4 3d 6d a7 c1 3e a9 56 30 bd
       -0.1968282 0.11916791 0.37823048 -0.043051396
000210 c2 fd d6 be 41 ba 22 be e8 81 8a 3d 5f 8f fe be
       -0.41990477 -0.15891363 0.06763059 -0.49718758
000220 c3 49 7c be 8b 0d 2e bf c6 69 57 be 61 5e f0 be
       -0.24637513 -0.67989415 -0.21036443 -0.46947005
000230 dd c6 8b bf cc 80 a1 3d e1 07 14 bf ef 50 56 bf
       -1.0920063 0.07885894 -0.5782452 -0.83717245
000240 6f 40 ac bd 8e 02 e9 3e f5 c4 93 3e 9d 9d 8e 3e
       -0.08410727 0.45509762 0.28861204 0.27854624
000250 26 4f 24 3d e2 e6 50 bf 1d 1b 2b bc de 14 90 3d
       0.040114544 -0.816023 -0.010443476 0.0703523
000260 dc b6 ba 3d ba 9c c0 be e6 72 93 3d c7 26 77 bf
       0.09116909 -0.37619573 0.071996495 -0.96543545
000270 45 0a 84 3e ba b8 08 bf 8f 9f 01 bf 50 e6 97 bf
       0.25789085 -0.5340687 -0.5063409 -1.1867161
000280 e1 5a ca 3e 78 b9 98 3c 1b d9 33 3d fc 06 02 bf
       0.3952246 0.018643126 0.04390822 -0.5079191
000290 67 ba 93 3d 70 f3 5e be 26 e3 82 3e a5 9c 9b 3d
       0.07213288 -0.21772552 0.25563926 0.07598237
0002a0 ce 5d c4 bd 1e 85 79 3d 5c 34 0e be d0 42 f0 be
       -0.09588204 0.060917966 -0.13887161 -0.46925974
0002b0 2c b8 e3 be 73 d7 1c bf 79 f3 c5 be da d4 c6 3d
       -0.4447645 -0.6126625 -0.38662317 0.09708567
0002c0 ed 09 17 bf fd d0 fc 3d ad 71 0c bf 20 1a 42 3e
       -0.5899952 0.12344549 -0.54860955 0.18955278
0002d0 9b 64 d1 3d 1d 03 8f 3e 1c fe c0 bd 28 a8 a8 bd
       0.10224267 0.27932063 -0.094234675 -0.08235198
0002e0 65 7f a3 be 9a 8a 53 bf 85 24 6d bf 11 37 42 bf
       -0.31933132 -0.82633364 -0.9263385 -0.75865275
0002f0 e9 56 a0 bc 56 cb 47 3e ee 39 43 3d d8 62 49 bf
       -0.019572692 0.1951116 0.047662668 -0.7866645
000300 a2 9c 25 3f fb 2a 83 3e 66 8f cc bc 18 d3 55 3d
       0.6469213 0.2561873 -0.024970721 0.052203268
000310 de d1 82 3d b4 c6 d8 be ce 9d ca 3c 0f 73 27 bf
       0.06387685 -0.42339098 0.02473345 -0.6540994
000320 79 08 74 3e 76 b3 92 3d 4c 2f 1a 3e 26 52 5e bf
       0.23831357 0.07163136 0.15057105 -0.868441
000330 f5 bd 85 3e 97 43 8e 3c 9e b4 9d be 13 25 4f 3e
       0.26121488 0.017366214 -0.30801862 0.20228986
000340 06 b9 24 bf 65 33 8a 3d 45 84 8e bf 90 1c d5 bb
       -0.64344823 0.06748084 -1.1134115 -0.006503649
000350 71 9d 2e 3e 61 83 07 bf a5 77 82 be 11 f4 3c 3e
       0.17052247 -0.52934843 -0.25481907 0.18452479
000360 99 64 f3 be fb bb 5a bf 87 19 03 bf 50 18 83 be
       -0.47537687 -0.85443085 -0.51210827 -0.25604486
000370 74 84 02 3c fb 19 93 3c db 13 64 3e 58 34 2a 3f
       0.00796615 0.017956724 0.222732 0.6648612
000380 dd 64 e4 be 03 21 f0 be b9 44 bb be 5b a1 71 be
       -0.44608203 -0.46900186 -0.3657587 -0.23596708
000390 1a 44 82 3e 07 73 80 bf e0 b2 84 3d 4e d8 8e 3e
       0.25442582 -1.0035104 0.0647943 0.27899402
0003a0 0f 05 c1 be ff 7e 71 be db af ae 3d c9 cd 32 3e
       -0.37699172 -0.23583601 0.085296355 0.17461313
0003b0 bb a3 39 bf e6 11 b0 be 68 16 8f ba 7c a3 07 be
       -0.7251546 -0.34388655 -0.0010916712 -0.13245958
0003c0 d9 31 6e 3d cf 21 a0 be 8b 71 02 be 92 0f 4b be
       0.058153007 -0.31275794 -0.12738626 -0.19830158
0003d0 17 9e 93 be 55 16 18 3e 18 8c d6 bd 8b 8f 48 3e
       -0.2883155 0.14852269 -0.104759395 0.19586007
0003e0 db 68 a9 be 71 5f 96 be 18 9a 8f be 5c b1 8d bf
       -0.3308781 -0.2936969 -0.28047252 -1.1069751
0003f0 35 56 91 be 78 14 88 bc 38 89 31 3e cd bb ae bd
       -0.28386083 -0.016611323 0.17337501 -0.08531914

fc2.bias f4 [64]
000000 a2 2f 37 3e 81 4d 77 bd f3 23 dc 3e cc 7d 28 3e
       0.17889264 -0.060376648 0.42996177 0.16454238
000010 e3 d8 af 3d d5 d2 9f 3c 14 c9 b0 bd de 49 33 3e
       0.0858629 0.019509712 -0.086321026 0.17508647
000020 97 49 26 be 32 4e 14 be 33 45 7f 3d 1e ce 36 3e
       -0.1623901 -0.14482954 0.062321853 0.17852065
000030 82 9d bd bd f7 2a c1 3d 41 60 b0 3e 4f 96 92 bd
       -0.09258558 0.09432023 0.34448436 -0.07157575
000040 45 26 44 3d bf 74 08 be 27 c9 f6 bd 37 8f e3 3b
       0.04788806 -0.13325785 -0.120500855 0.006944563
000050 df 18 8f bd 76 ad 5e 3d e2 58 0a bd 3c 3e 8d 3e
       -0.06987166 0.054364644 -0.03377617 0.27586544
000060 81 9b 49 bd c0 29 45 3d df 7c 07 3f 58 f2 d5 3d
       -0.049220566 0.04813552 0.52924913 0.10446614
000070 fc d1 df 3d 57 26 72 bd 3f ab 3e 3d 04 ed b8 3e
       0.10928723 -0.059118595 0.04655003 0.3611833
000080 b3 d4 13 be 44 ec 9a 3e 4b ed 59 3e 7b 7f ef bd
       -0.14436607 0.3025838 0.21281926 -0.11694237
000090 67 76 5f 3c c6 40 a4 3d 7f bd 86 3c 68 df f1 3d
       0.013639069 0.08020167 0.01644778 0.118101895
0000a0 0d 8f b5 3d 49 35 c3 bd 59 ec c9 bd 05 30 af 3c
       0.088651754 -0.09531648 -0.09859533 0.021385202
0000b0 37 00 fd 3e 8c 8a 10 bc 06 95 b8 bd 33 60 39 be
       0.49414226 -0.008822095 -0.09012799 -0.18103103
0000c0 10 24 0f 3e d4 88 cb 3c c1 69 9a bd d5 54 c8 3c
       0.139786 0.024845518 -0.07539702 0.024454514
0000d0 f8 96 d8 bd 11 8c e9 3e bb c0 3f 3e 5c 67 dd 3e
       -0.1057567 0.45614675 0.18725865 0.4324292
0000e0 c2 cb 79 bc 2d dd 9e 3e 35 ca 00 3f be 41 66 3d
       -0.015246334 0.3102812 0.50308543 0.05621504
0000f0 b9 a4 60 bc 17 22 5c be e1 21 c0 bd f3 24 a6 3d
       -0.013711148 -0.21497379 -0.09381462 0.08112516

fc3.weight f4 [4, 64]
000000 97 5d 65 3e ce 0f 6f bd c7 d4 d6 3d 34 5d 33 3e
       0.22398983 -0.058364682 0.10489803 0.17516023
000010 2c fc e7 3e 56 5b 4d bf 17 29 2c 3e 11 4c 3f 3e
       0.4530958 -0.8021749 0.1681255 0.18681361
000020 a8 f7 48 bf 60 78 a7 bf d7 ce 03 3f 98 4a 0e 3e
       -0.78502893 -1.308361 0.5148749 0.13895643
000030 fb 5e 98 3e 42 bf 22 3e 67 0d c6 3d 98 a3 39 3b
       0.29759964 0.15893272 0.09670525 0.002832627
000040 c6 18 42 be a3 8e cd bf 6d e4 bd 3c c2 dc 1f 3e
       -0.18954763 -1.6059154 0.023180211 0.15611556
000050 0a c2 80 bf 24 c4 94 3e 93 7d ae bf 53 9d 03 3d
       -1.0059216 0.29055893 -1.3632072 0.032132458
000060 b3 47 81 bf 99 35 ae bf c5 10 52 3e e4 50 9a 3e
       -1.0100006 -1.3610107 0.2051421 0.3013984
000070 0b d3 1c 3c ea 81 82 bf 74 2b a2 bf 8c f1 ec 3d
       0.009571801 -1.0195897 -1.2669511 0.11569509
000080 d4 93 24 bf a8 94 0a 3e 7b a1 82 3e 0e ba 96 bf
       -0.6428807 0.1353327 0.25513825 -1.1775529
000090 fe 4d 8b 3d bf 75 63 3e 17 38 87 bd 4e d8 46 3e
       0.06801985 0.22212885 -0.06602495 0.19418451
0000a0 8d d9 7e 3e 62 90 68 bf f4 88 4b bf e5 5c 87 3e
       0.24887677 -0.9084531 -0.7950585 0.2643806
0000b0 fe ba b2 3d 99 fa 6f 3e c0 7b b8 3e ae a6 6f 3e
       0.08727072 0.23435439 0.36031914 0.23403427
0000c0 5e cb 4c 3d 52 d1 35 bf a9 7c 47 bf 14 b2 60 3e
       0.049998634 -0.7102252 -0.7792459 0.21942931
0000d0 7a 37 91 be 6a f9 3a 3e 98 c2 ce 3d c4 be d8 3d
       -0.28362638 0.18259206 0.100957096 0.10583261
0000e0 52 0a c1 bf 58 f1 20 3e 9f 1f 2b 3e 12 b1 83 3e
       -1.5081275 0.15717065 0.16711281 0.2572103
0000f0 8c 38 81 bf 71 a1 7d 3e d1 b3 13 3e 6f 45 5c 3e
       -1.0095382 0.24768616 0.14424063 0.21510862
000100 35 c4 08 3e 0b bc 03 3e 2b 63 86 3d 41 c8 fe 3d
       0.13356097 0.12864701 0.065618835 0.12440539
000110 3e dc 88 3e 58 a8 09 be 88 db d7 3e 7d e6 6c 3e
       0.2673053 -0.13443124 0.42159677 0.231348
000120 d8 91 96 3c d1 1b ef bb 84 3d ed 3e 91 c3 07 3e
       0.01838009 -0.007297017 0.46335995 0.13258196
000130 55 7d e7 3d cc c5 d1 3d ae 99 ba 3d df f9 24 bf
       0.11303202 0.10242805 0.09111343 -0.64443773
000140 65 62 36 be 00 55 7f be 25 e2 19 3e a6 b9 19 3e
       -0.17810972 -0.24934769 0.15027674 0.15012226
000150 63 63 9b bf 8d 19 ab bf 6c 5a 97 bf 99 07 dc bd
       -1.2139705 -1.3367172 -1.182447 -0.10743637
000160 b9 4f 0f bf af 65 a4 bf c8 d7 21 3e ab e2 54 3e
       -0.5598102 -1.2843531 0.1580497 0.20789592
000170 bf c0 07 3e ab 76 ca bd 84 38 5f bf a1 73 24 3d
       0.1325712 -0.09885915 -0.8719561 0.040149335
000180 48 bc aa bf 67 1a 13 3e a3 02 76 3e 56 f9 bc 3e
       -1.3338709 0.1436554 0.24024443 0.36908978
000190 2d 48 70 bf 16 01 b9 bf 52 3a 93 bc e1 9d f2 3d
       -0.9386013 -1.4453456 -0.017972145 0.11846519
0001a0 ad 47 81 3e e6 fe d5 be 1d 88 6a bc 8a b2 c0 3d
       0.25249997 -0.41796035 -0.0143146785 0.094090536
0001b0 6a db 84 3e bd d1 f8 be 0a d1 57 bc 07 d0 ae 3e
       0.2594865 -0.48597518 -0.013172397 0.34143087
0001c0 51 35 65 3d c4 09 7b bf 75 8b 33 bf b9 89 b8 3e
       0.05595905 -0.98061776 -0.7013467 0.36042574
0001d0 3f 33 13 bf d8 72 46 3e 07 c1 ae 3d a7 03 a0 3d
       -0.5750007 0.19379747 0.08532911 0.07813197
0001e0 1c 35 21 be 32 69 28 3e 55 db 08 3e 59 f2 2f 3e
       -0.15742916 0.16446379 0.13364919 0.17182292
0001f0 6d 92 6d 3e e9 b4 96 3e d3 88 11 3e 0f ea 32 3e
       0.23200388 0.29434898 0.1421235 0.17472099
000200 a1 c0 0d 3e 5e 89 83 bf 08 9d de 3d a5 59 80 3d
       0.13843013 -1.0276296 0.10869795 0.06267098
000210 8e 19 25 3f 70 a5 c0 3d 47 f0 a5 3e d4 58 64 3e
       0.6449212 0.09406555 0.3240988 0.2229951
000220 ff 57 cb 3e f6 fe 3e be d0 a0 d0 3e 9e 9a 00 3e
       0.39715573 -0.18651947 0.4074769 0.12558982
000230 2f 26 57 bf 0c 7c f5 3c b8 01 d0 3d 1c ad c8 bf
       -0.8404264 0.029966377 0.10156578 -1.5677829
000240 73 16 a6 3d eb bc 13 bf 65 fb 31 3d 2b 4d 7e bf
       0.081097506 -0.5771014 0.04345264 -0.993365
000250 f2 0d 92 bd cf bc 82 3e 53 86 3d 3d 1e 48 8d 3d
       -0.07131566 0.25534675 0.04627068 0.06898521
000260 fa d7 12 3e d8 12 35 3e 37 94 27 3e 99 b5 39 3e
       0.14340201 0.1768297 0.16365133 0.1813568
000270 4e 9e a9 bd 2d e2 e7 3e 3e bc e9 3c 0b a0 78 bd
       -0.08282147 0.45289746 0.028532144 -0.060699504
000280 3c e8 a1 3e 9c 5b b8 3d d3 a0 f2 3d 97 04 17 3d
       0.31622493 0.09001848 0.11847081 0.03686961
000290 46 e2 25 bf 3a 9c ec 3d 6a b2 03 3d a9 83 88 3d
       -0.6479839 0.11553235 0.03215257 0.06665737
0002a0 79 fd 8b 3e 67 cd c1 3e a9 57 1b bf a5 c1 a7 3e
       0.27341822 0.37852022 -0.60680634 0.32764927
0002b0 8a c5 be 3d 68 b3 bb 3e 48 d1 b8 bf 4d 68 98 bf
       0.09315021 0.36660314 -1.4438868 -1.190683
0002c0 f9 51 e9 bd 82 d8 fd bd f9 3c b4 3e 9c 1e 55 3e
       -0.11392588 -0.12394811 0.35202768 0.20812458
0002d0 e6 df 86 bf bd 6e 4c 3e e1 cd 7a be c8 88 19 3e
       -1.0537078 0.19964118 -0.24492599 0.14993584
0002e0 0f 9b 14 3d 06 e7 46 3e 52 6c 33 3e 9c d1 04 3e
       0.036280688 0.19424066 0.1752179 0.12970585
0002f0 89 f1 86 bf 21 85 7a bf 4f af 0f 3e 3f bb 2f 3e
       -1.0542461 -0.9785939 0.14031719 0.17161272
000300 be 31 66 3d 3d 18 41 bf 07 4d 11 3e ca 47 fc 3d
       0.05619978 -0.7542761 0.1418954 0.1231838
000310 99 5a 18 3e bf bb 89 3d 10 2b 5e bf 03 49 db 3d
       0.1487831 0.06725263 -0.8678446 0.10707285
000320 de f0 78 bf 32 7c 0f bf 79 fd 19 bf 51 12 1a 3e
       -0.97242534 -0.5604888 -0.60152394 0.1504605
000330 b1 d0 14 bf 2f e1 e0 3d 6e 73 df 3d 7d fe 84 3e
       -0.5813094 0.1098045 0.10910688 0.2597541
000340 f3 5a ee 3d 4f 06 4e 3d 50 e2 41 bd 93 d5 db 3d
       0.11638441 0.050298985 -0.04733497 0.107340954
000350 66 da 11 3f 8a a3 91 3e ec a3 41 bc 86 b1 76 3e
       0.56973875 0.28445083 -0.011818867 0.24091157
000360 1d 87 af bf cd 8b 5e 3e e4 00 45 3e 15 5f 57 3e
       -1.3713108 0.21733017 0.19238621 0.21032365
000370 ef a5 24 3e 17 a2 3c bf b8 84 c0 be 9d 9e a8 3d
       0.16078924 -0.7368483 -0.37601256 0.08233378
000380 55 7f 4d bf 91 69 4d 3e b8 d8 46 3e 93 2e 78 3e
       -0.8027242 0.20059802 0.19418609 0.24236517
000390 68 36 88 bf 43 ff 4b be f4 ab aa bd c0 78 d7 3d
       -1.0641603 -0.19921593 -0.08333579 0.10521078
0003a0 df 44 2f 3e d2 48 80 bf f4 52 10 bf 61 3c 6a bf
       0.17116116 -1.0022223 -0.56376576 -0.9149838
0003b0 7e 28 37 3e 9a 54 96 bf df 02 96 bf d8 05 de 3e
       0.1788654 -1.1744568 -1.1719626 0.43363833
0003c0 c6 f9 8b bd b5 35 e7 3d 14 bb ba be e3 42 ff 3e
       -0.0683475 0.11289541 -0.36470854 0.49855718
0003d0 3a 63 76 3d d4 6d 6e 3d 17 9a e0 3d 29 19 1a 3e
       0.060153224 0.05821021 0.1096689 0.1504866
0003e0 1c 8b 1b be e6 0b 61 3c fa 56 a3 3d b8 09 d7 3b
       -0.15189785 0.013735747 0.07975574 0.006562438
0003f0 48 28 73 3e 25 96 a9 3e af a9 b4 bf c9 03 3a 3e
       0.23745835 0.33122364 -1.4114283 0.18165506

fc3.bias f4 [4]
000000 a0 48 78 3e b8 6c 2a 3e 75 8f de 3e bf dd bf 3e
       0.24246454 0.16643035 0.43468824 0.37473866
