Navigation - Value based methods/checkpoint/checkpoint_ddqn_er_8.pth (torch_old, 28339 bytes, 6 tensors)

fc1.weight f4 [64, 37]
000000 84 c0 a9 3d 37 56 48 be 71 9b f6 bd ef 46 b7 bc
       0.082886726 -0.19564138 -0.12041367 -0.022372691
000010 04 a8 0a 3e d5 60 34 be 39 06 31 3c 37 62 f9 3d
       0.13540655 -0.17615063 0.010804706 0.12176936
000020 04 1b 32 3e bd 71 0d be 19 d9 db bd 2b 9b a2 3c
       0.17393118 -0.13812919 -0.107347675 0.01984938
000030 b2 c4 10 bd b4 d6 02 bf cf 99 e6 be 38 99 36 be
       -0.035343833 -0.5110886 -0.45039222 -0.17831886
000040 a6 aa 5d 3d de c2 19 3d 4f 3d 68 3e b5 c7 12 3e
       0.05411782 0.037539355 0.22679637 0.14333995
000050 bd 0b 14 bf a7 be b5 3e fd 3c 63 3e 79 71 b6 bd
       -0.5783041 0.3549702 0.22191234 -0.08908362
000060 c7 6a 75 bf 9b 69 ed bd 5d d7 af bd 4b a4 ec 3d
       -0.95866054 -0.11592408 -0.08585999 0.11554774
000070 1b ba 32 3d 8a 4e 77 3e c1 e9 9f be f6 d7 55 3d
       0.043634515 0.24151054 -0.31233028 0.05220791
000080 e4 0e fd 3d 9e 71 00 be f5 f3 a6 be 5b 62 bb bd
       0.12356356 -0.12543342 -0.32608 -0.09149619
000090 0c 7a e4 3b 02 9e db 3d 87 1e 86 bd a8 68 1b 3e
       0.006972557 0.10723497 -0.065487914 0.15176642
0000a0 93 d9 42 3c d0 6e bc 3c 87 47 32 3e 01 94 58 bc
       0.011892694 0.023002058 0.17410098 -0.013218881
0000b0 38 1d 64 be f6 3b 06 bf 5b a9 2e be 50 d8 2a 3e
       -0.22276771 -0.52435243 -0.17056791 0.16684079
0000c0 9c 68 36 be fb 31 47 bd fb c2 43 3e e0 5e 3d 3e
       -0.17813343 -0.04863165 0.19117348 0.18493223
0000d0 fe 2a 00 3e 80 bb 76 be f8 e7 23 3e 08 b6 b4 bd
       0.125164 -0.24094963 0.16006458 -0.08823782
0000e0 5f b4 02 be 77 ea 37 bd de d4 a6 bd 61 fd f2 bd
       -0.12764119 -0.044901337 -0.0814607 -0.118647344
0000f0 aa bd 3f be f0 da 69 bb 53 4b 97 bd 9f 4a bb 3d
       -0.18724695 -0.0035683475 -0.07387414 0.09145092
000100 42 d3 a8 3b 00 1a 92 bd 42 78 1f bd c7 08 ed 3d
       0.005152137 -0.07133865 -0.038933046 0.1157394
000110 30 6f 27 bd d3 ef 18 3e e8 be 07 be 38 15 63 3e
       -0.04087752 0.14935236 -0.13256419 0.22176063
000120 2d a8 4e 3e 41 58 17 3d cb 73 5f 3d 2f b3 8d 3e
       0.20181341 0.0369494 0.05455379 0.2767577
000130 10 fa 8a 3c c7 da 9f bd a7 3b a1 3d 69 7f de 3d
       0.016964942 -0.078054 0.07872706 0.10864145
000140 9c 5d 8f bd 1b 7a a5 3e 25 de 9c be bf 36 9c be
       -0.070002764 0.32319722 -0.30638233 -0.30510518
000150 43 44 3d be 81 b2 1c bd 51 ff 78 be d9 f1 49 3e
       -0.18483071 -0.038256172 -0.24316145 0.19721164
000160 11 52 9e 3e e0 58 80 3d e6 04 5f be fc 91 53 3e
       0.30921987 0.062669516 -0.21779212 0.20661157
000170 09 8d 1b be ed e8 06 bf c0 08 fa be c1 8b 56 be
       -0.1519052 -0.52699167 -0.488348 -0.2095175
000180 58 c8 07 3e d5 ac 44 3e 19 b6 ea bd 5b 86 f9 be
       0.13260019 0.19206555 -0.114605136 -0.48735318
000190 4b 83 f4 3d 67 b3 cb 3e e4 2b db bd 2c 72 36 bf
       0.11939105 0.3978531 -0.10701731 -0.7126796
0001a0 76 7a 1b be 93 c2 ca 3d 18 25 e0 bd ac 22 fd be
       -0.15183434 0.09900393 -0.10944575 -0.49440515
0001b0 75 f1 50 3e c5 9e 40 bc 16 8e ba bc c6 8f 45 3d
       0.20404609 -0.011756604 -0.02277283 0.048232816
0001c0 fa 18 27 bd 8a 0d 06 3e 91 13 33 3e bb b6 d3 3c
       -0.040795304 0.13091102 0.17487933 0.025843969
0001d0 d3 e8 38 bb 83 1a 47 be 14 c1 86 3e 29 df 00 3d
       -0.0028214946 -0.19443707 0.26319182 0.031462822
0001e0 6c db 8e 3e e1 22 86 3d b1 7a f1 bd fe 93 90 bc
       0.2790178 0.065496214 -0.1179098 -0.017648693
0001f0 65 46 52 3d c4 91 9d bd 43 aa 13 bc ab 33 87 3d
       0.051336665 -0.07693818 -0.0090127615 0.06601652
000200 a7 cb a1 bd 03 22 69 be 32 50 83 3d ed e0 28 3e
       -0.07900172 -0.2276688 0.064117804 0.16492052
000210 ba dc db bc 14 5f 31 be 59 8a 08 be a1 47 91 be
       -0.026838649 -0.17321426 -0.13334025 -0.2837496
000220 87 f9 11 bc e2 e6 41 bd 3d c2 b7 3b 46 46 75 3e
       -0.00890959 -0.047339328 0.005607872 0.23952588
000230 ce 45 e4 3d ab 22 40 3e 9a dc ae 3e 09 56 85 be
       0.11146127 0.18763225 0.3415268 -0.26042202
000240 c2 9b 3a be ad 75 a3 be c6 f5 7e 3d 17 44 ce bb
       -0.1822348 -0.31925717 0.062246107 -0.006294738
000250 13 dd aa bb a7 74 df be 4e 5f 22 be 38 44 1d be
       -0.0052143424 -0.43643686 -0.15856668 -0.15358055
000260 d5 3a 78 3e 2d 6d c1 bd f5 d4 e2 3d f5 ec 88 bd
       0.24241193 -0.09444652 0.110757746 -0.06685821
000270 4a 5b 2a ba 51 a5 d5 3e aa 11 73 bd 09 1d 25 be
       -0.00064985885 0.4172769 -0.059343018 -0.16124357
000280 e1 ae 1f bd be 52 a2 bd ab 89 82 be 93 9c a2 3d
       -0.038985137 -0.07925938 -0.25495657 0.079400204
000290 84 42 12 bf b8 f8 af bd 49 fb 8a be a5 74 8e 3e
       -0.57132745 -0.08592361 -0.2714484 0.27823368
0002a0 80 8d 40 be 23 3c 1b be 4d 78 06 3e ee cc f5 bd
       -0.18803978 -0.15159659 0.13131829 -0.12001978
0002b0 cd 0f bc 3e 61 47 14 3e e6 90 0a bf cb 19 93 bc
       0.36730805 0.14480354 -0.5412735 -0.017956635
0002c0 3d 98 60 3c f8 9d 35 be f0 a2 d4 bd 3d ca b6 bb
       0.013708171 -0.17736042 -0.1038264 -0.005578308
0002d0 ee 79 a1 3b 03 bc 9d 3c 44 3f f6 3d c0 78 d2 3c
       0.004927865 0.01925469 0.12023786 0.025692344
0002e0 69 4c 50 3d f3 18 b4 3c 82 38 e3 bd 45 cd 6d 3d
       0.05085412 0.021984553 -0.110947624 0.05805709
0002f0 66 a8 d9 3d 5c eb 82 3d df 93 ce 3d 3e d5 1c 3e
       0.106278226 0.063925475 0.10086798 0.1531572
000300 c9 ef 36 bd 42 ef 95 3e 08 3e 93 3e f9 1f d3 bc
       -0.04466227 0.29284102 0.28758264 -0.025772082
000310 ed e0 55 bd 4d 12 15 3d 2a b6 25 bd 0f 21 9e 3d
       -0.05221646 0.036394406 -0.04045693 0.07721149
000320 c1 9d a8 bd 0b 38 ad 3c 3c 0f 27 3d d5 4d 14 3d
       -0.08233214 0.021144887 0.040786013 0.03620704
000330 94 e6 3c bd 4d 08 0c 3d 2a a8 ec 3d 0b d7 cc 3d
       -0.046118334 0.034187604 0.11555512 0.10001954
000340 75 f9 79 3e 6b df 42 3e cf cd 29 bc 56 6c cf bb
       0.24411567 0.1903054 -0.01036401 -0.0063300533
000350 ed 69 32 3c 1b 44 8e 3d bc 9b 12 bd 19 c1 a6 3e
       0.0108895125 0.06946584 -0.03579305 0.32569197
000360 fc 47 40 bf d7 e3 01 bc c4 42 1b bf 3c d3 00 c0
       -0.7510984 -0.007927856 -0.6064875 -2.0128927
000370 30 e4 13 bb c8 9c 45 3a 2b f5 80 3b 44 9c 10 3e
       -0.002256643 0.0007538316 0.0039354763 0.1412211
000380 3a b1 e2 bc ec 1a 3a bd d5 74 ca bd 14 1c 3b be
       -0.027672399 -0.04543583 -0.09885565 -0.1827243
000390 7a af 1c 3c d5 b7 d8 3d 64 22 d2 3c d3 40 c2 3d
       0.009563321 0.10581938 0.025651164 0.094850205
0003a0 e7 32 c1 3c 9f 84 55 3e dd cf aa 3d 96 09 e7 bc
       0.023583842 0.20851372 0.08340428 -0.028202813
0003b0 47 05 d0 bd fa 5f 72 3c 6b ff 94 bd 2c 58 a5 3d
       -0.101572566 0.01479339 -0.072752796 0.08073458
0003c0 cc 5e b2 3c f4 06 c7 3d 8b a3 ce bb cb 42 3e be
       0.021773718 0.09718123 -0.006306117 -0.18580167
0003d0 ac 65 d9 3d e8 04 15 3e 5a 29 05 3f e3 10 86 be
       0.106150955 0.14552653 0.5201622 -0.2618476
0003e0 a1 fe 8d 3d 7c 53 b3 3d d3 97 fd 3b cf f8 29 be
       0.06933332 0.08756158 0.007739046 -0.16598819
0003f0 a7 3e a9 3e e0 7d b3 bc f0 9b bb be 8b a2 16 be
       0.33055612 -0.021910608 -0.36642408 -0.14710443

fc1.bias f4 [64]
000000 54 58 99 3d 47 ed 40 bd 3c f5 ec bd f3 5f 61 bd
       0.074875504 -0.047101285 -0.11570212 -0.055023145
000010 97 ce 40 3d f9 c4 c0 bb d1 41 7b bd 51 40 f8 3d
       0.04707202 -0.005882856 -0.061342064 0.121216424
000020 45 a1 0d 3b cb 7b 32 be 44 c9 b3 3d 58 1d 68 3e
       0.0021611017 -0.17430036 0.08778623 0.22667444
000030 13 12 8e 3d d4 e1 c4 3d 6c 57 cc bb b2 33 9a bc
       0.06937041 0.09613386 -0.0062360074 -0.018823478
000040 19 1b 07 3e 97 3e 61 bc 0e 95 c1 bc 4a 39 a8 bd
       0.1319393 -0.013747833 -0.023630645 -0.08214052
000050 01 bf 18 be df af b7 3d 06 52 9c 3d df 0f db bd
       -0.14916612 0.089690916 0.07632832 -0.106963865
000060 1d 70 31 bd 6f f4 a4 3d ab 3c 2a bd 06 e7 2e be
       -0.04331981 0.080544345 -0.041561764 -0.17080316
000070 e6 24 2f 3e 46 33 12 3e 99 ac d5 bd 5f d6 eb bd
       0.1710392 0.14277372 -0.10433311 -0.115154974
000080 78 08 46 3e fd ba 1d 3d 44 bc b7 bd 07 67 8a 3d
       0.19339168 0.038508404 -0.08971456 0.06757932
000090 35 6b 07 bd 87 5b 39 3d 89 d8 86 bd db fa 00 be
       -0.033061225 0.045253303 -0.065842696 -0.12595694
0000a0 08 14 a4 bd 70 9c 0f 3c 93 c0 e4 bd 34 b7 27 3e
       -0.08011633 0.008765325 -0.11169543 0.1637848
0000b0 f8 ba 91 bd 08 53 e6 bd de c0 57 3d 9d b9 b4 bd
       -0.071157396 -0.11246306 0.052674167 -0.088244654
0000c0 0c 31 9b bd cf 55 0d 3d c0 62 cb bd 21 dd a1 3d
       -0.07577714 0.03450566 -0.099309444 0.07903505
0000d0 09 0b 3a bd 80 ef 21 bd 8e fd 3e be 61 a3 8d 3c
       -0.04542068 -0.039535046 -0.18651411 0.01728982
0000e0 8c de ef 3d 6c a6 0a 3e 12 4c 35 bd 81 45 2c be
       0.11712369 0.13540047 -0.044262 -0.16823389
0000f0 0b 0a a9 3d 69 97 6b 3d 26 0f d9 3d 1c a7 b4 3c
       0.08253869 0.057517443 0.105985925 0.02205234

fc2.weight f4 [64, 64]
000000 a5 c8 26 3e 49 cc 3b 3e 8d 91 92 3e 93 de 45 3e
       0.16287477 0.18339647 0.2862667 0.19323187
000010 64 ae 53 3e bc 58 77 be dd d5 ad 3e 8a 07 c5 3d
       0.20671993 -0.24154943 0.33952227 0.096205786
000020 1b 59 6f be ed ce 4b 3c 3e e3 ab 3e ce 7d 30 bd
       -0.23373835 0.012439472 0.3357181 -0.043088727
000030 d5 96 45 be 9a 30 59 3e e8 5f d8 3d 42 2f 1b be
       -0.19295819 0.21209946 0.10565168 -0.15154746
000040 d5 a1 45 be c2 37 8a be f5 b1 43 3e 23 37 21 3e
       -0.19300015 -0.26995665 0.19110854 0.15743689
000050 27 26 97 be 4b 47 9a be 50 54 8b bd ad f0 f7 be
       -0.29521295 -0.30132517 -0.06803191 -0.4842581
000060 36 dd b0 bd ee d1 f9 bd 49 3d 26 3e 1f fb e5 bd
       -0.08635943 -0.12198244 0.16234316 -0.11229538
000070 7c b8 8d bd 4f d8 d6 be b8 8b 99 3d a7 9a c0 bc
       -0.06919953 -0.41961905 0.07497352 -0.023511244
000080 5c fb 19 3d 4f fa 78 bb 85 d0 fd 3c c0 02 b0 3d
       0.03759323 -0.0037990992 0.030983219 0.085942745
000090 0d c7 0b be bf 76 db bd 26 58 82 3e 50 6c ae bd
       -0.1365015 -0.107160084 0.25457877 -0.08516753
0000a0 75 d3 4b 3d a1 01 d9 3a bb fc 41 be 22 75 63 be
       0.049762208 0.0016556272 -0.18944065 -0.22212651
0000b0 62 11 09 bd 14 12 89 bc 21 92 e4 be 77 80 a3 be
       -0.033463843 -0.016732253 -0.44642738 -0.31933948
0000c0 71 79 0c be 07 a1 ee bd b8 c6 e6 bd 5a 73 06 3b
       -0.13718201 -0.11651807 -0.11268371 0.0020515532
0000d0 85 90 65 be df ef 04 be 8f ae 90 3e 4d 5a d5 bb
       -0.22418411 -0.12982129 0.28258178 -0.006511009
0000e0 92 02 ef 3d b6 4f 98 bd cc 45 62 be 09 fd 24 3e
       0.11670412 -0.07437079 -0.22096938 0.1611215
0000f0 f6 89 a3 3d 9b 55 54 3e b9 14 de 3c 14 29 e8 be
       0.07985298 0.20735781 0.02710949 -0.4534384
000100 aa a1 35 be 38 3d c7 3c 49 1f e9 be d8 d8 03 be
       -0.17737451 0.024321184 -0.4553168 -0.12875688
000110 5e a3 71 be 34 62 2d 3e 6b 7f 54 3e bf 0d 43 be
       -0.23597476 0.16931993 0.20751731 -0.19048212
000120 72 3d 70 bd e9 3c 43 be 89 7b 42 3e 63 3a e5 3e
       -0.05865235 -0.19066204 0.18992437 0.44771108
000130 8f 62 6f bd bf 95 03 be 62 b1 57 3e 22 db 83 bd
       -0.058443602 -0.12850092 0.2106376 -0.06438281
000140 21 35 7e 3d c4 02 09 be 6f 37 1e bc 6d e1 a0 3c
       0.062062386 -0.13379961 -0.009656771 0.019638741
000150 4c 02 f8 3d 58 7a 5d be 8b ed 4c 3d 5c 6f 99 be
       0.12109813 -0.21628702 0.050031226 -0.29967773
000160 66 c1 83 bc e9 eb 4f be 15 fa aa bb 27 7f 48 be
       -0.01608343 -0.20304836 -0.0052178004 -0.19579755
000170 54 69 2f bc 53 11 6c bc 63 f5 77 3e 6e 3c 89 be
       -0.0107062645 -0.014408427 0.24214701 -0.26803917
000180 dc d0 0a bd 02 b9 0c be 9c 9d 67 3e c9 68 63 be
       -0.03389059 -0.1374245 0.22618717 -0.22207941
000190 83 42 8f bc 1c 2a 6c be 13 4a 41 bd 2b 1f 05 be
       -0.01748777 -0.23062938 -0.047189783 -0.13000171
0001a0 e1 cf 3e 3c 9b 64 0a 3d bb ad a3 bd 74 6a 86 be
       0.011646242 0.03378735 -0.07992121 -0.26253092
0001b0 88 3f d5 bd b0 bb 36 be 32 4d 9b 3a b6 3d ac bd
       -0.10412508 -0.17845035 0.0011848568 -0.08410208
0001c0 a4 62 49 bd 3e 68 99 be 0c 91 a1 3d ce 16 c8 3c
       -0.049166337 -0.29962343 0.078889936 0.024424937
0001d0 e8 03 34 be e9 ad 31 be c5 2e cd 3d 2e bd 29 bc
       -0.17579615 -0.17351498 0.10018686 -0.010360045
0001e0 cb 85 3a 3c 39 b3 8d 3b 47 32 ae 3e 60 35 68 3d
       0.011384438 0.0043243435 0.34022734 0.056691527
0001f0 df 2b be bd 4b 0c 38 3e b6 38 dd be 8a 49 cf bd
       -0.092857115 0.1797344 -0.4320733 -0.10121448
000200 04 21 c1 be fe e3 a1 3d cf a5 3a be 45 0d 8c bd
       -0.377205 0.07904814 -0.18227313 -0.068384685
000210 cb 64 06 bd 61 3e 6b be b7 9b bf be 2b 21 83 3d
       -0.032810967 -0.22973014 -0.37423488 0.06402811
000220 f5 f6 93 bc ef f2 0d bd 27 4d 41 be 99 1e b6 3e
       -0.018062094 -0.034655508 -0.18877088 0.3557022
000230 54 79 8c 3d 52 f5 a2 3d 2d 4b 5d 3d 43 3e a1 3e
       0.06859079 0.079569474 0.05402677 0.31492814
000240 ae 64 2d be 3f af c1 3d 71 94 2b be 0c e8 c3 bd
       -0.16932938 0.09457254 -0.16755845 -0.09565744
000250 37 c4 1b be 4b ac 1d 3e 63 f1 28 3d 2c 91 82 3d
       -0.15211569 0.15397756 0.04124583 0.063753456
000260 39 4b 29 3e 13 f9 63 3e e7 c4 7c 3d 54 57 19 3e
       0.16532601 0.22262983 0.06171122 0.1497472
000270 ed 57 11 3e 72 36 3c 3e 60 5f 13 be 60 6e 3f 3d
       0.14193697 0.18380144 -0.14391851 0.04673612
000280 9b f2 66 3c 2f 55 d3 3c ce a5 07 bd ad 21 14 3e
       0.014095928 0.025797455 -0.033117108 0.14465971
000290 05 02 de 3c 4b 9b aa 3e 6d 99 05 be 08 dc 88 bb
       0.027100572 0.33321604 -0.13046809 -0.0041766204
0002a0 25 30 dc 3b bd 2e f7 3b f6 87 21 be bb 9b c4 3a
       0.0067196065 0.0075434134 -0.15774521 0.0015000025
0002b0 8c d0 27 be c4 18 f9 bd 5d 5d f9 3d c6 56 f3 bd
       -0.16388148 -0.12162927 0.12176011 -0.11881785
0002c0 3b 5e 2f bc b1 2c bb 3d 57 9c 24 be 4e a9 5f 3d
       -0.010703619 0.091393836 -0.16075264 0.05460482
0002d0 47 5b c1 bd 20 cd bc bd 2d ce 01 bf 40 81 23 bd
       -0.09441238 -0.09218812 -0.50705224 -0.039918184
0002e0 62 d4 de bc cb 78 4f be d3 2f 1d 3e a4 95 0e bd
       -0.027200881 -0.20260923 0.15350275 -0.034810677
0002f0 a3 b5 f3 3c 4c ce 9c 3e 5b 63 44 3d 10 2b 13 3c
       0.029749697 0.30626142 0.047946315 0.008982435
000300 9a 28 63 3d 3f 70 27 be 2e 1e 82 3e cf 4d 00 bf
       0.055458643 -0.16351412 0.2541365 -0.50118726
000310 1a 23 05 be ed 31 80 3c a3 70 17 be 04 8f 8e be
       -0.13001671 0.015648806 -0.14789061 -0.27843487
000320 f3 39 7a 3e 79 38 51 be 12 bb 1f be ee 78 d0 3d
       0.24436168 -0.20431699 -0.15598705 0.101793155
000330 90 15 71 3d 84 38 4e 3e 66 09 8f 3e f6 6e 1d be
       0.058858454 0.20138747 0.27936858 -0.1537436
000340 14 e2 ac 3d 1e 0f 92 3c 4c 8f 08 be f3 37 3a be
       0.084415585 0.017829474 -0.13335913 -0.18185405
000350 b2 e3 35 bd ce 43 67 3e 16 01 37 be b9 26 b2 3d
       -0.0444066 0.22584459 -0.17871508 0.08698792
000360 1e 13 1c 3e 7a 40 7d 3c 00 ac aa 3e ca 1f da be
       0.15241668 0.015457267 0.3333435 -0.42602378
000370 b8 1b a4 bc bd e9 f8 be 9f f5 91 be 92 6d 56 3e
       -0.020032749 -0.48615828 -0.28507707 0.20940235
000380 7f 99 de bc a0 3d e4 bc b6 15 51 3e 3b a0 c5 3e
       -0.027172802 -0.027861416 0.20418438 0.3859881
000390 53 89 40 be 87 f3 0a bd c1 c9 fb 3e b4 09 40 be
       -0.18802385 -0.033923652 0.49177364 -0.18753701
0003a0 ed c4 f8 be 4b d6 85 bc 80 39 78 3d 78 13 fb bd
       -0.48587742 -0.016337534 0.06060171 -0.12259573
0003b0 ea 9d 9b be a0 96 31 bd 8f 29 9b 3d 35 97 d0 3d
       -0.30393916 -0.043356538 0.07576286 0.101850905
0003c0 1b 23 db 3d b8 f5 2e be 9e d0 01 bf d6 15 10 3b
       0.10700055 -0.17085922 -0.5070895 0.0021985671
0003d0 6c 1d 12 bb 9b 4a cb bd 81 ee ad be 49 f5 36 3e
       -0.0022295369 -0.09926339 -0.33971027 0.17867006
0003e0 cd cf 0b 3d 92 19 9b be 8d 86 20 be ef c3 c7 be
       0.03413372 -0.30292946 -0.15676327 -0.39016673
0003f0 7c bf b0 bd 17 f2 ae 3c a7 25 cf be 52 c7 db bd
       -0.08630273 0.021355672 -0.40458414 -0.10731377

fc2.bias f4 [64]
000000 9f a2 d7 bd 68 dc 95 bd a5 e9 93 3d 14 a5 34 bd
       -0.105290644 -0.0731743 0.072222985 -0.044102743
000010 bf d6 37 3d fc 8e f5 bd 0e df 0e bd 24 1d 51 3d
       0.044882532 -0.11990163 -0.03488069 0.05105318
000020 46 16 cf 3b 6e f9 ad 3e 21 0b ef bc 09 6a 75 3e
       0.006319794 0.33979362 -0.029180111 0.2396623
000030 9c 36 c3 3e f8 4d 15 be ca fd 0a be 35 f3 2d bd
       0.381276 -0.14580524 -0.13573375 -0.04246827
000040 00 79 15 bd d7 98 97 bd 31 ba 02 be 05 35 ed 3c
       -0.036492348 -0.07402199 -0.12766339 0.028955946
000050 1d 51 ce 3c 63 00 1d 3f 3a f1 59 be fd b7 05 be
       0.025185162 0.61328715 -0.21283427 -0.13058467
000060 a2 8b 4c be 15 f7 a9 bd 76 29 19 bc c5 e9 2c bd
       -0.1997514 -0.0829908 -0.009348264 -0.042215127
000070 e0 f0 c2 3b 7e 36 e8 ba 29 2e a6 3d 5a 91 ba bd
       0.0059491247 -0.0017716435 0.08114273 -0.09109755
000080 28 ff f9 bd 13 21 c5 3d 51 92 20 bd eb 7a 27 bd
       -0.1220687 0.09625449 -0.03920204 -0.040888708
000090 7d 33 87 3d 38 df 21 be 32 1a a7 3d 08 61 04 be
       0.066016175 -0.15807807 0.08159293 -0.1292764
0000a0 ee b0 f1 bd df eb f8 3e 53 19 a8 3e f1 00 45 be
       -0.11801325 0.48617455 0.3283182 -0.1923864
0000b0 49 1c 6f bd 5b cb 6a bd b7 c0 b2 3b 44 f4 82 bd
       -0.058376584 -0.05732284 0.0054551023 -0.06394246
0000c0 23 ae 11 3e 44 b9 f2 bd 0b f7 1b be 40 48 0f 3f
       0.14226584 -0.11851743 -0.15230958 0.5596962
0000d0 13 b6 eb bd 4d 72 1c bd ad cd e2 3c f4 30 c7 bd
       -0.11509337 -0.038194943 0.027685964 -0.09726134
0000e0 73 72 37 be c1 40 7a be 30 f4 6f 3d 45 f7 a5 bd
       -0.17914753 -0.24438764 0.058582485 -0.081038035
0000f0 05 63 18 be 2f c8 a1 3e c6 ab 7a 3d 81 6e 03 be
       -0.14881523 0.3159804 0.061198972 -0.12835123

fc3.weight f4 [4, 64]
000000 31 cb 01 bf 1d 26 26 be 4a fd c7 3d ff 28 26 bf
       -0.5070067 -0.16225477 0.09765108 -0.64906305
000010 48 93 ad 3e b9 63 65 be 37 4b d5 3e da 15 17 be
       0.3390143 -0.22401322 0.41658947 -0.1475443
000020 e6 de f7 3e c0 ba b4 3d 87 14 3c bf e5 52 e6 3e
       0.48412246 0.08824682 -0.7346882 0.44985119
000030 75 d1 75 3e e9 7b f2 3c a5 ea 81 be 67 56 49 be
       0.24005683 0.0296001 -0.25374332 -0.19661866
000040 c6 a4 1d 3f f4 46 95 3e 6f cb 86 3e 89 59 0c be
       0.6157955 0.29155695 0.26327083 -0.1370603
000050 72 4d 12 bd 31 93 22 3e 35 60 f7 3e cd f3 6c bd
       -0.03571839 0.15876462 0.48315588 -0.057849694
000060 89 7e e8 be a5 39 fd bb 86 6d 45 be 2f 7e fc be
       -0.4540904 -0.007727819 -0.19280061 -0.4931502
000070 21 ce 38 3e 9f 5c e9 3d 24 aa 84 bf cd 0a c7 3e
       0.18047382 0.11394619 -1.0364423 0.38875428
000080 3f db eb 3d 16 c0 85 3e e8 ca da 3d d2 a3 c5 be
       0.11516427 0.26123112 0.106832325 -0.38601547
000090 f2 aa 8d 3e 44 eb a3 ba 95 1a 88 bd 7a d1 52 be
       0.27669483 -0.0012506028 -0.06645695 -0.20587721
0000a0 df c2 2a 3f ed 77 2c 3e 75 8d 49 3e dd 10 91 be
       0.667036 0.16842623 0.19682868 -0.28333178
0000b0 33 b7 bd 3e 29 08 31 bd 30 85 36 3e 50 43 19 3f
       0.37053832 -0.043220673 0.17824244 0.59868336
0000c0 55 37 ee 3d b2 12 46 3e ab 13 09 3e 18 5f 84 3e
       0.116316475 0.19343069 0.13386409 0.258538
0000d0 96 fc 96 3e 64 73 13 bf ae 32 bd 3d ea f1 04 3f
       0.29489583 -0.5759795 0.09238182 0.5193163
0000e0 cb ed 6b bf 07 1b c8 be 2c 0c cf 3e 2b 73 08 3f
       -0.9215972 -0.3908312 0.40438974 0.5330073
0000f0 69 88 63 be b0 62 65 3e ed a9 d2 bd 8e 57 2a 3d
       -0.22220005 0.22400928 -0.10286317 0.041587405
000100 c7 c9 15 bd 66 09 5c 3d d6 36 21 3e 24 24 d2 be
       -0.036569383 0.0537199 0.15743575 -0.41043198
000110 65 8b 31 3f 78 82 09 bf 21 73 bc 3e 94 05 8d 3d
       0.69353324 -0.53714705 0.36806586 0.068858296
000120 fd 54 da 3e 13 fd d8 3d 22 68 8b 3e 11 f3 b3 3e
       0.42642966 0.10595145 0.27227885 0.35146382
000130 1b ad 36 3e 1e ca 91 3e 15 76 36 bd a2 9e 6d 3e
       0.17839472 0.28474516 -0.044546206 0.23205045
000140 06 31 10 3f b5 ed 5b 3e af 13 b7 be 9f df be bd
       0.56324804 0.21477397 -0.35757205 -0.09319996
000150 49 b0 96 3e 99 89 6d 3e 5d 05 28 3e fd d3 85 3d
       0.2943137 0.2319702 0.16408296 0.06534574
000160 b2 41 b7 be 18 f6 fd be de 9b c5 bd 2d 9c f7 bc
       -0.3579231 -0.49601817 -0.0964887 -0.030225838
000170 4c fb f9 be f1 19 36 3f 08 10 99 3d 87 ae b9 3e
       -0.48824537 0.71133333 0.07473761 0.36265966
000180 a8 61 83 bd 4a e3 39 3e 13 1c 5c 3e 9f 82 a8 3d
       -0.06415111 0.1815311 0.21495084 0.08228039
000190 c2 b5 70 3e 79 53 3b be 93 d8 36 3f 43 d0 10 bf
       0.23506835 -0.18293561 0.71424216 -0.5656778
0001a0 48 c3 94 3f 05 86 47 3e 3b fe 14 3e b5 c2 7b 3d
       1.1622095 0.19484718 0.14550106 0.061464984
0001b0 4b 6a 06 3f a6 52 1e be 34 05 34 3e 50 66 8c 3e
       0.5250594 -0.15461215 0.1758011 0.27421808
0001c0 c0 cf e7 3d 87 03 0a be 06 0b b6 bd 9b fc 01 3e
       0.11318922 -0.13477908 -0.08888821 0.12694018
0001d0 07 4a 2f 3f cd b6 80 be 0a ac 21 3e 3d 94 01 3f
       0.6847233 -0.25139466 0.15788284 0.5061682
0001e0 db d6 3d bc cb 14 74 be b1 ce ef 3e 89 15 2c bf
       -0.01158687 -0.23836057 0.4683738 -0.6722036
0001f0 99 82 4c be 15 cb 2c 3e c4 7d f8 be a2 1e 50 3d
       -0.19971694 0.16874345 -0.48533452 0.050810464
000200 1d cf 45 be a6 d7 53 3e 4b 9a b1 3e 87 f4 a0 be
       -0.19317289 0.20687732 0.3468803 -0.3143656
000210 f4 cd 42 3f f6 31 43 be f4 75 0a 3f b7 74 6c 3e
       0.7609551 -0.19062027 0.5408623 0.23091398
000220 ee d3 e4 3d 7c 0f 30 3d 95 02 0a be a7 06 74 3e
       0.11173235 0.042983517 -0.13477547 0.23830663
000230 f4 40 1d 3e 81 60 1f bf 88 8b 84 be 34 84 ae 3d
       0.15356809 -0.6225663 -0.25887704 0.085213095
000240 2e e4 d0 3e 9e aa d2 be 16 38 12 3f fe 52 14 be
       0.40799087 -0.41145796 0.5711683 -0.14484784
000250 72 19 08 3d 5d 43 72 3e a3 d7 51 be c6 d6 a9 3c
       0.03322739 0.2365851 -0.20492415 0.020732295
000260 04 87 c6 bd e1 8b 1c bf d4 05 91 bd ab 6d 46 be
       -0.09693721 -0.6115094 -0.0708119 -0.19377773
000270 3e e8 0e 3f f6 cb fe 3d de 62 4e bd 23 21 7b 3e
       0.55823123 0.12441246 -0.050387256 0.2452436
000280 3a a7 cb bc 6f c8 2f 3b 7d c5 b7 3e c9 6c e5 3e
       -0.024860013 0.0026822349 0.3589286 0.4480956
000290 b7 8c f7 3c 92 1b 40 3e 0c 3c 91 3e e6 b4 54 bf
       0.030218465 0.18760517 0.28366125 -0.8308853
0002a0 5f 32 be 3c 39 e4 2b 3e 28 cf 41 3e 9f 63 8f bd
       0.023217378 0.16786279 0.1892668 -0.07001423
0002b0 48 3f 60 3e f8 bb aa 3d 0f b8 ef 3e 6b b7 ef 3e
       0.2189914 0.083366334 0.46820113 0.46819624
0002c0 ea 83 29 3e da d5 09 3e b7 a3 08 be 77 d6 2a 3e
       0.16554227 0.13460484 -0.13343702 0.16683374
0002d0 45 ad f5 3c 24 e5 b1 3a 3e 2e df 3d bb 5c 4d 3f
       0.029989848 0.0013572318 0.10897492 0.8021962
0002e0 d0 b5 0a bf 0b c7 59 bf e3 83 d2 3e ac 68 a8 3e
       -0.54183674 -0.8506934 0.41116247 0.32892358
0002f0 4a 9d 8c be d5 47 52 3e 12 8c ff 3d 2d 43 5b be
       -0.27463752 0.20535214 0.12477888 -0.21412344
000300 b9 19 06 3f 8a 33 8c 3e 6f 53 9f 3e 14 23 71 be
       0.52383 0.2738307 0.31118342 -0.23548537
000310 24 c5 e9 bd 1d 14 ad be 64 28 bc 3e fa 15 64 3e
       -0.11414555 -0.33804408 0.36749566 0.22274008
000320 89 fc 62 3f 28 29 81 3e 4f f5 3d 3e 99 52 d9 3d
       0.8866659 0.25226712 0.18550609 0.106114574
000330 fa 94 61 3e 03 ba 5f 3d 7d 23 a1 bd 19 3f a9 bc
       0.22029486 0.054620754 -0.07868097 -0.02065997
000340 67 34 3b 3f b1 fc 14 3f 29 f5 a1 3e e0 0f 3e 3d
       0.73126835 0.58198076 0.31632355 0.04640186
000350 11 40 14 be 91 ee 69 3e d3 a5 36 bf 76 25 95 3d
       -0.14477564 0.22844912 -0.7134678 0.07282536
000360 1f af 60 bd 01 4e 09 bf c5 91 26 be f4 b2 60 bd
       -0.05485451 -0.5363465 -0.16266544 -0.054858163
000370 87 2f 40 3f d0 8a bb be c9 1d b0 be bc a3 f3 3e
       0.7507252 -0.36629343 -0.34397724 0.47585857
000380 5d 55 12 bf 45 49 26 3e 8e 7a 51 3a 79 90 42 bf
       -0.57161504 0.16238888 0.00079909794 -0.760017
000390 c7 03 97 3d 48 a1 32 bf 68 b0 31 3f 71 c1 9a be
       0.07373767 -0.69777346 0.694098 -0.3022571
0003a0 38 2b e0 bb 43 11 4d 3e 55 b3 01 3e b8 68 69 bf
       -0.0068410896 0.20026116 0.12666066 -0.91175413
0003b0 70 7f 27 3f fd 79 d4 bd 86 f4 b5 3e a6 2e 0a 3e
       0.6542883 -0.1037483 0.3553812 0.13494357
0003c0 d4 bb 26 3d 60 d7 0b be fd 90 29 be 59 20 33 3e
       0.04070647 -0.13656378 -0.16559215 0.17492808
0003d0 c9 1e 1e 3e 17 1d bf 3d 0b 9b 85 3e e7 a9 b4 3e
       0.15441431 0.0933172 0.2609485 0.35285875
0003e0 53 a2 0d bf 96 32 53 bf 27 eb 5c 3e e0 b0 8f be
       -0.5532581 -0.82499063 0.21574079 -0.28064632
0003f0 a3 05 4f bd 09 31 a8 3d 20 f5 a2 be 71 41 8d 3d
       -0.050542485 0.08212478 -0.3182764 0.068972476

fc3.bias f4 [4]
000000 61 bb 9d 3e a4 af a1 3e e3 bc 98 3e da ad 88 3e
       0.3080702 0.31579316 0.2983161 0.26695138
