Navigation - Value based methods/checkpoint/checkpoint_ddqn_er_26.pth (torch_old, 54455 bytes, 6 tensors)

fc1.weight f4 [128, 37]
0	0xbd8bb230	-0.06821096
1	0x3e829a92	0.25508553
2	0xbe9cdd40	-0.3063755
3	0xbee4e205	-0.4470369
4	0x3e83710e	0.2567219
5	0x3d6ff66b	0.058584612
6	0xbd62bc2f	-0.055355247
7	0x3dba5086	0.0909739
8	0xbf290245	-0.6601909
9	0x3e8c99d7	0.2746112
10	0xbde3a6b2	-0.11115779
11	0x3d70ffce	0.058837704
12	0xbeb68a78	-0.35652518
13	0xbd9eeec8	-0.07760388
14	0xbe6b09ac	-0.22952908
15	0xbdb158dc	-0.08659527
16	0x3d4fb910	0.0507136
17	0x3c7bca35	0.015368034
18	0x3dcc0bcd	0.09963188
19	0x3e8bf25f	0.27333352
20	0xbd116d56	-0.03550466
21	0x3e5c7065	0.2152725
22	0xbe3a1751	-0.18172957
23	0x3e35159d	0.17684026
24	0xbd84def8	-0.064878404
25	0xbd3b5fca	-0.04574565
26	0x3e889061	0.26672652
27	0xbe8773a5	-0.26455417
28	0xbe13ead9	-0.14445056
29	0x3e821b79	0.25411585
30	0xbe838f14	-0.25695097
31	0x3e347378	0.17622173
32	0xbe4913ee	-0.19636509
33	0xbd5b4831	-0.053535644
34	0xbebe608c	-0.37183034
35	0xbe8222fa	-0.2541731
36	0xbb90de7c	-0.0044210535
37	0x3dbb5044	0.09146169
38	0x3e5b910d	0.21442051
39	0xbd8caeed	-0.06869302
40	0xbc9f839a	-0.019471932
41	0xbc8f3ea2	-0.01748592
42	0x3c8759d2	0.016522322
43	0xbea08cf1	-0.3135753
44	0xbe0d733a	-0.13813487
45	0x3d384dfe	0.044996254
46	0xbd369feb	-0.044586103
47	0x3cb88a8a	0.022526998
48	0xbd891dc1	-0.06695128
49	0x3ba538e4	0.0050421823
50	0xbdf96071	-0.12176598
51	0x3e10805c	0.14111465
52	0xbd6edff2	-0.05831904
53	0x3c691403	0.014225963
54	0x3eabf5c5	0.33585945
55	0xbf0b2533	-0.54353637
56	0x3da2c2b0	0.0794729
57	0xbe012abf	-0.12613963
58	0xbd708ab5	-0.05872603
59	0xbe8e56c5	-0.27800575
60	0x3cb49032	0.022041414
61	0xbe0a738a	-0.13520637
62	0x3db8b6c2	0.09019233
63	0x3de50f87	0.11184602
64	0xbe6c1b8a	-0.2305738
65	0xbeaf4121	-0.34229377
66	0xbe6dd7f8	-0.23226917
67	0xbd8a4f07	-0.067533545
68	0x3e267017	0.16253696
69	0x3d11edf4	0.03562732
70	0x3d513cce	0.05108338
71	0x3e311095	0.17291482
72	0x3e05a29d	0.13050313
73	0x3dc7df61	0.09759403
74	0x3e9a0f78	0.30089927
75	0x3d4e0ce1	0.05030525
76	0xbda69379	-0.08133597
77	0xbeb3a451	-0.350863
78	0xbe3e91e5	-0.18610342
79	0xbe635c08	-0.22203076
80	0xbdc2c51f	-0.09510254
81	0x3e145af7	0.14487825
82	0x3e2d2969	0.16910328
83	0xbe1d82d2	-0.15381935
84	0xbe1fe3fd	-0.15614314
85	0x3e4f887e	0.20266911
86	0xbe9ad4bf	-0.30240437
87	0x3d86d5db	0.065837584
88	0x3cd99cf3	0.026564097
89	0xbdc25164	-0.0948818
90	0xbd536796	-0.05161246
91	0x3e92c08f	0.28662536
92	0xbd37f539	-0.044911597
93	0xbe09ccdb	-0.13457052
94	0xbc2d78c2	-0.010587873
95	0xbec2b3db	-0.38027844
96	0x3dd97e74	0.10619822
97	0x3bf787a4	0.0075540114
98	0xbe48f1d5	-0.19623502
99	0xbf72f4d4	-0.9490483
100	0x3ed46b29	0.41488007
101	0x3e23382c	0.15939397
102	0xbe1a1390	-0.15046525
103	0x3d82e3bb	0.063910924
104	0xbf195ae4	-0.59904313
105	0x3e258afc	0.161663
106	0x3e273a57	0.16330849
107	0xbf26c9c1	-0.651516
108	0x3e70fdae	0.23534271
109	0x3e26dc1f	0.16294907
110	0xbc03367b	-0.008008595
111	0x3f0e1aae	0.5550946
112	0xbe79372e	-0.24337456
113	0xbe890e10	-0.2676854
114	0xbea46efd	-0.32115927
115	0xc00e27a8	-2.2211704
116	0xbd1bb9e5	-0.03801908
117	0x3bab5a7f	0.005229294
118	0x3be0c7bd	0.006859748
119	0x3d861be1	0.06548286
120	0x3d9645ac	0.073375076
121	0xbd89a822	-0.06721522
122	0x3d00916a	0.031388678
123	0x3c574077	0.013137928
124	0xbd43f2f3	-0.047839116
125	0xbc8dff1d	-0.017333562
126	0xbe599da0	-0.21251535
127	0xbda296ad	-0.079388954
128	0xbce8cc33	-0.028417682
129	0x3d257f11	0.040404383
130	0x3de73a72	0.112904444
131	0xbd6eab2f	-0.058268722
132	0x3c943d4e	0.018095639
133	0xbc1ad65c	-0.009450521
134	0x3d8d8cef	0.069116466
135	0x3da1bf1e	0.07897781
136	0x3c250606	0.010072237
137	0xbca60c35	-0.020269493
138	0x3d22e32c	0.03976743
139	0x3e0eda2e	0.13950416
140	0x3dbfae7e	0.093594536
141	0x3d2f6ace	0.042826466
142	0x3d5f41f7	0.05450627
143	0x3d55dd29	0.052212868
144	0x3e250282	0.16114238
145	0x3d6720c4	0.056427732
146	0xbab663c1	-0.0013915227
147	0xbbc2e128	-0.005947251
148	0xbd233261	-0.039842967
149	0xbe511f10	-0.20422006
150	0xbe0c83dd	-0.13722177
151	0xbe9d57bd	-0.30731001
152	0xbeea7ffe	-0.45800775
153	0x3da62c61	0.08113933
154	0xbd441f9e	-0.047881715
155	0x3c613ece	0.013747884
156	0xbb9e7d1d	-0.004836692
157	0x3e045add	0.12925287
158	0x3d1e58da	0.038658954
159	0x3cad654c	0.021166466
160	0xbedb389e	-0.42816633
161	0x3ddfea23	0.1093333
162	0xbe59cec3	-0.2127028
163	0xbe1740b9	-0.14770783
164	0xbdfc1e27	-0.123104386
165	0xbe08fb1f	-0.13377045
166	0xbd1a7419	-0.037708376
167	0xbeee77d2	-0.4657579
168	0xbe23910f	-0.15973304
169	0xbd948c1c	-0.07253286
170	0x3db4db34	0.08830872
171	0x3df8d3c1	0.12149764
172	0x3e26a45b	0.16273634
173	0xbb7c5b80	-0.0038506687
174	0xbe28d671	-0.16488053
175	0x3e75d9f3	0.24008922
176	0xbe71164d	-0.23543663
177	0xbeb99280	-0.36244583
178	0x3e5c28fc	0.2150001
179	0xbea76722	-0.32695872
180	0x3dc59207	0.09646993
181	0xbf03f608	-0.5154729
182	0xbc4a80ae	-0.012359781
183	0x3d9ba065	0.07598952
184	0x3d8d119e	0.06888126
185	0xbe1efb45	-0.15525539
186	0xbb448234	-0.0029984834
187	0x3e520398	0.20509183
188	0xbd1fbff9	-0.03900144
189	0x3d23c2a2	0.03998054
190	0xbd7692c9	-0.06019858
191	0x3e88243d	0.26590148
192	0x3e4becc7	0.19914542
193	0x3d82ec72	0.063927546
194	0xbe55c6f4	-0.20876676
195	0xbdb731c0	-0.08945036
196	0x3daf8e60	0.08572078
197	0xbc2b7566	-0.010465002
198	0xbdb9a0e1	-0.09063888
199	0x3e7e2f72	0.24822786
200	0x3c36a786	0.011148339
201	0x3d5f2d0b	0.054486316
202	0xbdf5f962	-0.120104566
203	0x3dd97f2e	0.10619961
204	0xbd135cd4	-0.0359772
205	0x3e1ee346	0.15516385
206	0x3d93405a	0.071900085
207	0x3e468829	0.19387878
208	0xbd9e508b	-0.07730206
209	0xbd8989c0	-0.06715727
210	0xbd1d5694	-0.038412645
211	0x3e141847	0.14462386
212	0x3e2594fc	0.16170114
213	0xbe161736	-0.14657292
214	0xbd01fd74	-0.031735852
215	0x3ebc9987	0.36835882
216	0xbe3cd91b	-0.18442194
217	0xbe314426	-0.17311153
218	0xbeba0400	-0.36331177
219	0xc00158c1	-2.021042
220	0xbd836eca	-0.06417616
221	0x3cf0d610	0.029398948
222	0x3dad75ac	0.0846971
223	0x3d6b98d4	0.057518795
224	0xbdb3ac61	-0.08773113
225	0x3e223adb	0.15842764
226	0xbe52d204	-0.20587927
227	0x3dbf0887	0.09327798
228	0xbe59c70b	-0.21267335
229	0x3d072e18	0.033002943
230	0x3e1a84fc	0.15089792
231	0xbde793cf	-0.11307489
232	0xb9968aec	-0.00028713734
233	0x3e874795	0.264218
234	0x3dfc16ad	0.123090126
235	0xbb72fef1	-0.0037078226
236	0x3ccace3d	0.024756545
237	0xbe858514	-0.26078093
238	0x3d7eb9a5	0.062188763
239	0x3e1e611d	0.15466733
240	0x3e588fc9	0.211486
241	0x3e71955b	0.23592131
242	0xbd8009f5	-0.06251899
243	0x3e19c693	0.15017156
244	0x3e700a51	0.23441435
245	0xbec67626	-0.38762015
246	0x3d6fe946	0.058572076
247	0xbe7e495e	-0.24832675
248	0x3e29061a	0.16506234
249	0xbd84061c	-0.06446478
250	0x3e2a9d73	0.16661625
251	0x3e15d5c7	0.14632331
252	0x3e5fede5	0.21868093
253	0x3e576b4a	0.21037021
254	0xbe1284fe	-0.14308545
255	0xbe457cb2	-0.19285849

fc1.bias f4 [128]
0	0xbd77dea2	-0.060515054
1	0xbccc553d	-0.024942989
2	0xbdbed318	-0.09317607
3	0xbd75fe44	-0.06005694
4	0xbd78d279	-0.060747597
5	0xbd0fe0e8	-0.035126597
6	0x3e3a8fd3	0.18218927
7	0x3e31625a	0.17322674
8	0xbe2621d2	-0.16223839
9	0x3e474c68	0.1946274
10	0xbd97e7d7	-0.07417267
11	0xbdf42a57	-0.11922138
12	0xbda5b043	-0.0809026
13	0x3cf4153b	0.02979528
14	0xbd2fc7b6	-0.04291507
15	0xbd91105f	-0.07083201
16	0x3df9a5a5	0.12189797
17	0xbe0d5099	-0.13800277
18	0x3c32f032	0.010921525
19	0x3c2dbe7a	0.010604495
20	0xbda9f968	-0.082995236
21	0x3d4e0d1d	0.050305475
22	0x3e85fa2d	0.2616743
23	0xbc133626	-0.008985078
24	0xbd5cbf73	-0.053893518
25	0x3ca07e8a	0.019591589
26	0x3e8c01b2	0.27345043
27	0xbc58a358	-0.013222538
28	0xbc96423c	-0.01834213
29	0xbdd863df	-0.10565924
30	0x3d000a5c	0.03125988
31	0x3de7ff9f	0.11328053
32	0xbd84c610	-0.0648309
33	0xba0f13ba	-0.00054579566
34	0x3dd452a9	0.10367329
35	0xbe26b764	-0.16280895
36	0x3e83f848	0.2577536
37	0x3e638f8f	0.22222732
38	0xbce174aa	-0.02752145
39	0x3e1083e7	0.14112817
40	0x3e1965f9	0.14980306
41	0x3e5c40c5	0.21509083
42	0x3e0a342f	0.13496469
43	0x3d7d0f42	0.06178213
44	0x3d8886e2	0.06666352
45	0xbe17ecfb	-0.14836495
46	0x3bb76b8b	0.005597537
47	0xbcedd9b1	-0.029034467
48	0xbdc314bc	-0.09525439
49	0x3e3fa76e	0.18716213
50	0xbd114d8c	-0.035474345
51	0x3dc55713	0.09635749
52	0x3d9273f6	0.07151024
53	0x3d9d30fb	0.07675358
54	0x3dc7ea51	0.09761489
55	0x3e716951	0.23575331
56	0xbde28b00	-0.110616684
57	0x3cb566d7	0.022143764
58	0x3d9c175b	0.07621642
59	0xbd946d06	-0.07247357
60	0xbd3ee8ec	-0.04660885
61	0x3decf89e	0.115708575
62	0x3df41385	0.119177856
63	0xbd60c701	-0.054877285
64	0x3e453cb3	0.19261436
65	0x3d287dd3	0.04113562
66	0x3dfdd135	0.12393419
67	0xbd87c49a	-0.06629296
68	0xbe365329	-0.1780516
69	0xbb3fa8b6	-0.0029244847
70	0xbcc90606	-0.024539005
71	0xbc3b87f9	-0.011445993
72	0x3e152a89	0.14567007
73	0xbe256b15	-0.1615413
74	0xbcff87ff	-0.031192778
75	0xbc3aea73	-0.011408436
76	0x3ebc8288	0.36818337
77	0xbe294921	-0.16531803
78	0x3c8c0008	0.017089859
79	0xbca743ff	-0.020418165
80	0xbb60e7d3	-0.0034317866
81	0x3e08d253	0.13361482
82	0x3e36619f	0.17810677
83	0xbd3d5669	-0.046224985
84	0x3d97b921	0.074083574
85	0x3e502901	0.20328142
86	0x3e284caf	0.16435502
87	0xbdb5acf7	-0.08870881
88	0x3c2df901	0.010618449
89	0x3e0c62aa	0.13709512
90	0x3da860de	0.08221601
91	0xbd42f7d0	-0.047599614
92	0xbd0c6067	-0.034271624
93	0xbe80e35d	-0.25173464
94	0x3ce6edff	0.028189657
95	0x3da2e7f1	0.079543956
96	0x3cd22673	0.0256531
97	0xbdd63686	-0.10459618
98	0x3daf4c13	0.08559432
99	0x3e71c376	0.23609719
100	0xbe19d15a	-0.15021268
101	0xbe2ee86e	-0.17080852
102	0x3e12c020	0.14331102
103	0x3dcf80bf	0.10131978
104	0xbe8c7b3d	-0.27437773
105	0xbe4cd724	-0.20003945
106	0xbdbc7bde	-0.09203313
107	0x3de9b762	0.114119306
108	0xbe79533a	-0.24348155
109	0xbd3b9d7c	-0.045804486
110	0x3de2b434	0.11069527
111	0xbe1c54c9	-0.15266718
112	0xbd5c8631	-0.053838912
113	0xbd4439bd	-0.047906626
114	0xbbb8a531	-0.0056349267
115	0x3e3a5ca3	0.181994
116	0x3e11de09	0.14244856
117	0x3e2d617f	0.16931723
118	0x3d426dc1	0.04746795
119	0xbd3496cb	-0.04408912
120	0x3e101a62	0.14072564
121	0x3aab0f1f	0.0013050771
122	0xbd76100d	-0.0600739
123	0xbe07b22f	-0.13251565
124	0xbc908d9a	-0.017645646
125	0x3e4fc06b	0.20288245
126	0x3de1614f	0.11004888
127	0x3bb6cf5c	0.0055789184

fc2.weight f4 [64, 128]
0	0xbe227568	-0.158651
1	0xbdb8303b	-0.08993574
2	0xbdafe128	-0.08587867
3	0x3e1d86e4	0.15383488
4	0x3d15f654	0.03661187
5	0x3d0ce6bb	0.03439973
6	0xb863f184	-5.4345946e-05
7	0x3c71b4c0	0.014752567
8	0x3c9f2a99	0.019429492
9	0x3e0ef3c1	0.13960172
10	0x3d8c02a2	0.0683644
11	0x3ddad747	0.10685592
12	0xbd7104fb	-0.05884264
13	0x3d16ee3a	0.036848284
14	0x3e0dc73b	0.13845532
15	0xbe1c966e	-0.1529176
16	0xbca538c5	-0.020168671
17	0xbde5828d	-0.11206541
18	0x3cb3e29e	0.021958645
19	0xbd781bc5	-0.060573358
20	0x3e1f77e4	0.15573078
21	0xbe1a23e4	-0.15052754
22	0x3cf6d074	0.030128695
23	0xbdc536bb	-0.0962958
24	0xbd332d75	-0.043744523
25	0xbca05b33	-0.019574737
26	0x3d217afd	0.03942393
27	0x3e41c556	0.18922934
28	0x3d7cae9a	0.06168995
29	0xbe0ee9af	-0.1395633
30	0xbe867ea8	-0.26268506
31	0xbdf99971	-0.1218747
32	0xbe97552a	-0.29557163
33	0xbc345698	-0.011006974
34	0xbd370e60	-0.044691443
35	0xbe15afbd	-0.1461782
36	0x3e0ffd04	0.14061362
37	0x3e0ca8e5	0.13736303
38	0x3eb622fb	0.35573563
39	0xbddd8092	-0.108155385
40	0xbc503c0f	-0.012709632
41	0xbda0111c	-0.07815763
42	0x3db353f6	0.08756249
43	0x3d61f7b0	0.055167854
44	0xbc8ae7c9	-0.016956227
45	0x3c93e157	0.018051786
46	0xbe3352da	-0.17512074
47	0xbd2790d9	-0.040909622
48	0xbd83318d	-0.064059354
49	0xbe13f6c3	-0.14449601
50	0xbe288ec7	-0.16460715
51	0x3d7cebcf	0.061748322
52	0xbc87d6a9	-0.01658185
53	0xbdccb9c9	-0.09996373
54	0xbbd23e27	-0.0064161005
55	0x3dbf5bb8	0.09343666
56	0x3c1f165e	0.009709923
57	0xbe3bd70d	-0.18343754
58	0x3d658eb6	0.056044303
59	0xbcf35629	-0.02970417
60	0x3db57eaa	0.0886205
61	0x3bb5abdb	0.0055441684
62	0x3d8e4f02	0.06948663
63	0x3c1153b5	0.008870055
64	0x3d774ec4	0.06037785
65	0x3d507f27	0.050902512
66	0xbd21bfa0	-0.03948939
67	0xbbdb079f	-0.006684258
68	0xbe036ca7	-0.12834416
69	0xbcf73cd7	-0.030180378
70	0xbcaa96dd	-0.02082389
71	0xbb3266c7	-0.0027221905
72	0x3ca40e56	0.020026367
73	0xbdb39c1d	-0.087700106
74	0xbd585dc4	-0.052823797
75	0xbd23abbc	-0.0399587
76	0x3d002e54	0.031294182
77	0xbda335af	-0.07969224
78	0x3d8017aa	0.062545136
79	0xbda74a49	-0.08168466
80	0x3b2ec398	0.0026666876
81	0x3c7e1f92	0.015510457
82	0x3db23a53	0.08702531
83	0xbd3d8d7d	-0.046277512
84	0xbd6a8036	-0.057251178
85	0xbe868587	-0.26273748
86	0x3d0aebdd	0.033916343
87	0xbd35317a	-0.044236638
88	0xbe0564f8	-0.13026798
89	0x3c6f270f	0.014596715
90	0xbe308fef	-0.17242406
91	0xbc9f86c5	-0.019473443
92	0xbd8aaa7f	-0.06770801
93	0xbce04620	-0.027377188
94	0x3df0e556	0.11762492
95	0xbe3232eb	-0.17402236
96	0xbd4ce552	-0.050023384
97	0xbd57ba28	-0.052667767
98	0xbddf26ff	-0.1089611
99	0xbdd5214b	-0.10406741
100	0x3e0b3aa7	0.13596593
101	0xbd51fa3f	-0.051264044
102	0xbd334a54	-0.043772057
103	0xbc8d3c1f	-0.017240582
104	0xbd4afed3	-0.049559426
105	0x3dbc8fc5	0.09207109
106	0xbca38035	-0.019958595
107	0xbd336e42	-0.043806322
108	0x3d8ca63c	0.06867644
109	0xbe4711b0	-0.19440341
110	0x3cffff98	0.031249806
111	0xbcbd506a	-0.023109633
112	0xbd339e4a	-0.043852128
113	0x3e1c5226	0.15265712
114	0xbced9f5b	-0.02900665
115	0xbd10dafe	-0.035365097
116	0x3dca7955	0.098864235
117	0x3dd05017	0.10171526
118	0x3ec209ab	0.37898
119	0x3d961b35	0.07329408
120	0x3e036d1c	0.1283459
121	0xbde50716	-0.11182992
122	0xbd69dbab	-0.057094257
123	0xbe1b7a6a	-0.15183416
124	0x3c9f582d	0.019451225
125	0xbbcf4175	-0.0063249418
126	0xbe2642c6	-0.1623641
127	0xbd1c87e9	-0.03821555
128	0xbf2bb122	-0.6706716
129	0xbea94cc5	-0.33066383
130	0xbf148d18	-0.5802779
131	0x3f04d674	0.5188973
132	0xbecb35ba	-0.39689428
133	0x3e0eb645	0.13936718
134	0x3e7322f6	0.23743805
135	0xbe542abb	-0.20719425
136	0x3e6838cd	0.22677918
137	0xbd9e52ae	-0.07730614
138	0x3e429df2	0.19005564
139	0xbdefc517	-0.11707514
140	0xbf11540f	-0.5676889
141	0xbe1b7bbe	-0.15183923
142	0x3e1205d4	0.14260036
143	0xbe1661fc	-0.14685816
144	0x3d811a7c	0.063038796
145	0x3d9d3edd	0.07678006
146	0xbdda7d31	-0.106684096
147	0x3d0b62a2	0.03402961
148	0xbe2e80c7	-0.17041312
149	0xbe971d2e	-0.2951445
150	0x3db25f2c	0.08709559
151	0xbe7696d6	-0.24080977
152	0xbd040392	-0.032229967
153	0x3d512466	0.051060103
154	0x3d21a355	0.039462406
155	0x3d283c35	0.041073043
156	0xbe18785b	-0.14889662
157	0xbe3982c4	-0.1811629
158	0xbe825ec5	-0.25462928
159	0xbf6f1796	-0.93395364
160	0x3e5dfad4	0.21677715
161	0xbf5181bf	-0.818386
162	0x3d918af1	0.07106579
163	0xbe89b63c	-0.26896846
164	0x3de68e8f	0.1125766
165	0xbe1f6ccb	-0.15568845
166	0x3d7c84bb	0.06165002
167	0xbe5d4e68	-0.21611941
168	0xbe2b3efa	-0.16723242
169	0xbc3cea0b	-0.01153041
170	0x3d86db57	0.065848045
171	0xbe90b265	-0.28261104
172	0x3e0a438a	0.13502327
173	0x3e45a2d7	0.193004
174	0xbe38d1fb	-0.18048851
175	0xbdc60363	-0.09668615
176	0xbe2bd686	-0.16781053
177	0xbf0f9a4f	-0.5609483
178	0x3dcb46b0	0.09925592
179	0xbe1942a7	-0.14966832
180	0x3df6c2bd	0.12048862
181	0xbe8aa360	-0.2707777
182	0xbe342ced	-0.17595263
183	0xbcc35e62	-0.023848716
184	0xbf0fd2e0	-0.56181145
185	0x3df64ea6	0.1202672
186	0xbeaa7799	-0.3329437
187	0x3eea4655	0.45756784
188	0x3ee871ba	0.45399266
189	0xbe0a1bb5	-0.13487132
190	0x3e452b76	0.1925486
191	0x3e1fd1c3	0.15607361
192	0x3e0d1e6e	0.13781139
193	0x3e6a13e1	0.22859146
194	0x3e324760	0.1741004
195	0x3d2e8d3e	0.042615168
196	0xbe6e40df	-0.23266934
197	0xbe25d686	-0.16195115
198	0xbe75060c	-0.23928088
199	0xbd3a294f	-0.04544955
200	0x3df15b41	0.117849834
201	0x3e8764ef	0.26444194
202	0xbed0d014	-0.4078375
203	0xbe0492ea	-0.12946668
204	0x3d9b9d5f	0.075983755
205	0xbdba6ac2	-0.09102394
206	0xbee6e0ff	-0.45093533
207	0x3def212c	0.11676249
208	0xbebcde2d	-0.36888257
209	0x3e8382f6	0.25685853
210	0xbd3f103f	-0.046646353
211	0x3e17d326	0.1482664
212	0x3d9835af	0.07432114
213	0xbf72352c	-0.94612384
214	0x3de22177	0.11041539
215	0xbd84c30d	-0.064825155
216	0x3e4055da	0.1878275
217	0xbe4fe177	-0.20300852
218	0x3e8d2906	0.2757036
219	0x3c19db42	0.009390654
220	0xbbfbbe9d	-0.007682635
221	0xbebafff2	-0.36523396
222	0xbdc0ec91	-0.094201215
223	0xbf4de83d	-0.8043249
224	0xbbd5828f	-0.006515808
225	0xbe2a4fe8	-0.16632044
226	0xbec61be8	-0.38693166
227	0x3e793a51	0.24338652
228	0xbd0315cc	-0.03200321
229	0x3db12afb	0.08650776
230	0x3c31ccab	0.010852019
231	0xbd1c5e50	-0.03817588
232	0xbe5f4d0b	-0.21806733
233	0x3d9fddff	0.07806014
234	0xbeeae381	-0.45876697
235	0xbdea357b	-0.11435982
236	0x3da2814c	0.07934818
237	0x3de9d5d0	0.114177346
238	0x3da648a6	0.08119325
239	0xbdf9ff77	-0.12206929
240	0x3e292361	0.16517402
241	0x3eb6c3ca	0.3569625
242	0x3e846695	0.25859514
243	0xbe98dfb9	-0.29858187
244	0xbdb02b3f	-0.086019985
245	0xbe2f63cd	-0.17127915
246	0x3e9cf1f6	0.30653352
247	0xbf097fd2	-0.53710663
248	0x3c8a61ed	0.016892398
249	0xbe27ff93	-0.16406088
250	0x3de79541	0.11307765
251	0xbdb644b0	-0.0889982
252	0x3e6a7708	0.2289697
253	0xbb152a6f	-0.0022760888
254	0x3ec014a1	0.3751574
255	0x3e92024d	0.2851738

fc2.bias f4 [64]
0	0x3e2ecaeb	0.17069595
1	0xbd1a32e7	-0.0376462
2	0x3ea32b9e	0.31869215
3	0x3cee5408	0.029092804
4	0x3e1d2088	0.15344441
5	0xbaa09b0a	-0.0012253236
6	0xbda58f12	-0.08083929
7	0x3e222fd6	0.1583856
8	0xbdeb4592	-0.11487879
9	0xbdef8052	-0.11694397
10	0xbd48d3ca	-0.049030103
11	0x3e73b97e	0.23801228
12	0xbdb63b4c	-0.08898029
13	0x3d6e16fa	0.05812738
14	0x3d9a1bd2	0.075248376
15	0xbc965dfb	-0.01835536
16	0x3c846ff9	0.016166674
17	0xbda8fd6f	-0.082514636
18	0xbdcd418b	-0.10022267
19	0xbdfc743f	-0.1232686
20	0xbb8efbc6	-0.00436351
21	0xbc3277b0	-0.010892794
22	0x3d3b7533	0.045766067
23	0x3c32349b	0.0108768
24	0xbd57e7f0	-0.052711427
25	0x3daaf885	0.083481826
26	0x3ebcb22f	0.36854693
27	0x3e35cb3b	0.17753308
28	0x3d2d9a6a	0.04238359
29	0xbd708506	-0.05872061
30	0x3d49c229	0.04925743
31	0x3e48ad96	0.19597468
32	0xbe0ee3e9	-0.13954128
33	0xba19e13b	-0.0005870049
34	0xbcc47700	-0.023982525
35	0xbdf45508	-0.11930281
36	0xbc4f7960	-0.012663215
37	0x3d2a9d72	0.041654058
38	0x3ce323d2	0.027727041
39	0x3e15f8ca	0.14645687
40	0xbc0563ce	-0.008141471
41	0xbcb79262	-0.022408668
42	0xbddb96e0	-0.107221365
43	0x3cc2d49e	0.023783024
44	0x3eac0e4a	0.33604652
45	0x3d6f9ef5	0.058501203
46	0xbd067129	-0.03282276
47	0xbe0979e7	-0.13425408
48	0x3d87f320	0.06638169
49	0x3d70d217	0.058794107
50	0xbd1956e1	-0.03743637
51	0xbd5bbeb7	-0.053648677
52	0xbdd2bdf2	-0.102901354
53	0x3e93985b	0.28827175
54	0x3e1ad499	0.15120162
55	0x3e9a8590	0.30180025
56	0x3e00543b	0.12532131
57	0x3e9b5cdb	0.3034428
58	0x3e3844d9	0.17995013
59	0xbc33915b	-0.010959948
60	0x3e0eb9c5	0.13938053
61	0x37d162f0	2.4960813e-05
62	0xbd6b5fb2	-0.05746431
63	0x3b307932	0.0026927707

fc3.weight f4 [4, 64]
0	0x3dd57e61	0.104244955
1	0x3db94bb1	0.0904764
2	0x3e181fee	0.1485593
3	0x3f105ccd	0.563916
4	0x3e0eabee	0.13932773
5	0x3ea55055	0.3228785
6	0x3d993e78	0.07482618
7	0xbc582598	-0.013192557
8	0xbd001013	-0.03126533
9	0xbf7d1e04	-0.98873925
10	0x3cab5964	0.020916648
11	0x3e4d0ebb	0.2002515
12	0xbeca06a4	-0.3945819
13	0x3e426cc4	0.18986803
14	0x3df1e4cb	0.11811217
15	0x3c962f0a	0.018332977
16	0xbfab48d5	-1.3381602
17	0xbfbc44ef	-1.4708537
18	0xbf5622a8	-0.8364663
19	0x3e283f21	0.16430332
20	0xbf089c44	-0.5336344
21	0x3d9a3379	0.07529349
22	0x3ea4e6dc	0.32207382
23	0xbe6c3843	-0.23068337
24	0xbe3becd3	-0.1835206
25	0x3e80e993	0.25178203
26	0x3e52b88d	0.20578213
27	0x3d7d1343	0.061785948
28	0xbb3f5478	-0.0029194634
29	0x3d93c7de	0.07215856
30	0x3e44a18f	0.19202255
31	0x3e0cad15	0.137379
32	0xbcf55d85	-0.02995182
33	0x3d940cbd	0.07228992
34	0x3da24a6d	0.07924352
35	0xbf89167e	-1.0709989
36	0x3d46d0cd	0.04853897
37	0x3d2823e7	0.041049864
38	0xbdacac9a	-0.08431359
39	0x3db26e7a	0.08712478
40	0x3df20c66	0.11818771
41	0xbf5b2c73	-0.856147
42	0xbea16c96	-0.31528157
43	0x3de86590	0.113474965
44	0x3db0ba3d	0.08629272
45	0x3d6cce51	0.057813946
46	0x3e03ee9b	0.1288399
47	0xbed97269	-0.424701
48	0x3d2d7f98	0.04235801
49	0x3e407ea3	0.18798308
50	0xbe22358b	-0.15840738
51	0x3f0e8e07	0.55685467
52	0xbf170e56	-0.5900625
53	0x3e2a3b5d	0.16624208
54	0x3d92c238	0.071659505
55	0x3e085858	0.1331495
56	0xbdaa2765	-0.08308295
57	0x3e14c83d	0.1452951
58	0x3d9aed11	0.07564748
59	0x3d7c521e	0.06160175
60	0x3bf1b3e2	0.00737618
61	0x3dcf5032	0.10122718
62	0x3e1f0c46	0.15532026
63	0x3e0cb319	0.13740195
64	0x3d956a64	0.07295683
65	0xbc4e57c0	-0.012594163
66	0x3dc284d4	0.09497991
67	0x3f097c5c	0.5370538
68	0x3e208680	0.15676308
69	0x3e8a30d6	0.26990384
70	0xbeb06220	-0.34449863
71	0x3b23c8f3	0.0024991601
72	0xbdd34618	-0.10316104
73	0x3d686a01	0.05674172
74	0xbd010f55	-0.031508762
75	0x3e32032f	0.17384027
76	0x3db9b6fb	0.09068104
77	0x3e23f681	0.16012003
78	0x3e1b3c8f	0.1515982
79	0xbd9e6865	-0.077347554
80	0x3da338af	0.07969796
81	0xbd5b4107	-0.05352881
82	0x3d7c6c69	0.061626825
83	0xbe2bd073	-0.16778736
84	0xbeaafe30	-0.33397055
85	0xbf4b84d5	-0.7949956
86	0x3ec98f7e	0.39367288
87	0xbde61a99	-0.11235542
88	0xbdd7e024	-0.10540798
89	0xbf088f7a	-0.5334393
90	0x3e3907f0	0.18069434
91	0xbc8e2ec4	-0.017356284
92	0x3ddd6991	0.10811151
93	0xbe890f4d	-0.26769486
94	0xbf4000b9	-0.750011
95	0x3dc98572	0.09839906
96	0xbee5ae48	-0.4485953
97	0xbf934f54	-1.1508584
98	0xbf4a2a25	-0.7897056
99	0x3d189255	0.037248928
100	0xbd981ade	-0.074269995
101	0x3e4201fa	0.18946066
102	0xbccda6e2	-0.02510399
103	0xbd864be5	-0.065574445
104	0x3e130272	0.14356402
105	0xbe325550	-0.17415357
106	0xbdd40e88	-0.10354334
107	0x3e0d655c	0.13808197
108	0x3e43885a	0.19094983
109	0x3b0b2009	0.0021228811
110	0x3e65b171	0.2243097
111	0xbe0d1323	-0.13776831
112	0x3e146653	0.14492159
113	0x3d8b7c5e	0.068108305
114	0xbd2ed29b	-0.042681318
115	0x3ef68d65	0.4815475
116	0xbe208475	-0.15675528
117	0x3e51dfee	0.20495579
118	0x3d98d16b	0.07461818
119	0x3dcd44f2	0.10022916
120	0x3df95096	0.12173574
121	0x3ded1ff0	0.11578357
122	0x3e0eb73b	0.13937084
123	0x3ca7deaa	0.020491917
124	0x3d988a04	0.074481994
125	0x3e59e2b8	0.21277893
126	0x3de7cb62	0.11318089
127	0x3da0dda8	0.078547776
128	0x3cfd552f	0.030924408
129	0xbf8c05e7	-1.0939301
130	0x3e11a9bb	0.14224903
131	0x3ea0a71b	0.3137749
132	0x3e2e6234	0.17029649
133	0x3ed4ad9a	0.41538697
134	0xbedba3a1	-0.42898276
135	0x3e679c36	0.22618183
136	0xbf1ddf70	-0.61669064
137	0xbf31704d	-0.6931198
138	0xbe60a417	-0.21937595
139	0x3e156e03	0.14592747
140	0xbf6a3360	-0.9148464
141	0x3c82d4c9	0.015970604
142	0x3d881ef3	0.06646528
143	0xbcd57a88	-0.026059404
144	0xbf0418f1	-0.5160056
145	0xbcf2f039	-0.029655563
146	0xbe3b88bc	-0.18313879
147	0xbf660c5c	-0.8986261
148	0x3e55e26b	0.20887153
149	0x3df4f032	0.11959876
150	0x3e90ea1d	0.28303614
151	0xbe08c3ed	-0.1335599
152	0x3d1c8545	0.038213033
153	0x3dc2c8af	0.095109336
154	0x3e2fef32	0.1718109
155	0x3dc458a8	0.09587222
156	0x3d05ef6c	0.032699034
157	0xbfb1d53c	-1.3893199
158	0xbb6f469a	-0.0036510588
159	0x3dbc9de6	0.09209804
160	0xbe310459	-0.17286815
161	0x3e2489d0	0.16068196
162	0xbf67048f	-0.9024133
163	0xbef6019d	-0.48048106
164	0x3e3bcf38	0.18340766
165	0x3e26f411	0.16304041
166	0x3ce972a8	0.028497055
167	0x3d1f48df	0.038887855
168	0x3e4406c5	0.19143207
169	0x3cd661f7	0.02616976
170	0xbd072935	-0.032998282
171	0xbd044c0e	-0.032299094
172	0x3dcd7347	0.10031753
173	0x3da7968a	0.0818301
174	0xbf01b0c2	-0.50660336
175	0xbe86f588	-0.263592
176	0x3ddc3f43	0.10754254
177	0x3e0d2fc2	0.1378775
178	0x3cbc2741	0.022967936
179	0x3f11a44c	0.5689132
180	0xbf0132f5	-0.5046838
181	0x3e275548	0.16341126
182	0xbd1ad77e	-0.037803166
183	0x3e2379cd	0.15964432
184	0x3e652c49	0.22380175
185	0x3e2339a8	0.15939963
186	0x3e03685d	0.1283278
187	0xbe28cb81	-0.1648388
188	0x3e11241a	0.14173928
189	0xbed346e1	-0.41265014
190	0x3da36ee2	0.079801336
191	0xbcfdfd4a	-0.031004567
192	0x3caee222	0.021348063
193	0x3d76b8ba	0.060234763
194	0x3e19cdd0	0.15019917
195	0x3f049aae	0.5179852
196	0x3e16f9d5	0.14743741
197	0x3e48fe26	0.196282
198	0xbf39f881	-0.7264481
199	0xbe320600	-0.17385101
200	0xbf3a9bcb	-0.7289397
201	0x3d929e82	0.07159139
202	0xbea4ae16	-0.32164067
203	0x3e1d2e22	0.1534963
204	0xbf0aa126	-0.54152143
205	0x3e884b03	0.2661973
206	0x3dd381d2	0.10327496
207	0x3c736da9	0.014857688
208	0x3ea3506f	0.31897303
209	0xbdf1a90d	-0.11799822
210	0xbf6174f0	-0.8806906
211	0x3e865945	0.26239982
212	0x3e2c7c24	0.16844231
213	0x3e137bda	0.14402714
214	0x3e151185	0.14557464
215	0x3d29c2d1	0.041445557
216	0xbe2063dc	-0.15663093
217	0x3ed13ed6	0.40868253
218	0x3e44d297	0.19220959
219	0x3d9ead7a	0.07747932
220	0x3dcd1057	0.10012882
221	0xbec5bf07	-0.38622305
222	0xbf46d9f2	-0.7767631
223	0x3dba28c4	0.09089807
224	0xbfd8672f	-1.6906489
225	0x3e1e93aa	0.15486017
226	0xbefa168e	-0.48845333
227	0xbf85605c	-1.0420032
228	0xbfa052d4	-1.2525277
229	0xbfc33a44	-1.5252156
230	0xbdd7dfe2	-0.10540749
231	0x3dc2bc54	0.09508577
232	0x3e582221	0.21106769
233	0xbf45eac9	-0.7731138
234	0xbe8b7207	-0.27235433
235	0xbcd9192c	-0.02650126
236	0x3e3b0e7e	0.18267247
237	0xbfcbbe4a	-1.5917447
238	0x3e273ee8	0.1633259
239	0xbdcd6bc0	-0.10030317
240	0x3d05e8ab	0.032692593
241	0x3e04aa10	0.12955499
242	0x3cba7d2b	0.022764763
243	0x3ea9e449	0.3318198
244	0x3e61cabc	0.22049993
245	0x3d88c354	0.06677881
246	0x3dd1e845	0.1024938
247	0x3e2fe9e2	0.17179063
248	0x3ddf0868	0.10890275
249	0x3d9d3554	0.07676187
250	0x3d84e294	0.06488529
251	0xbe854fe5	-0.26037517
252	0x3e02f445	0.12788494
253	0x3ea0f91c	0.31440055
254	0xbd5a2cb1	-0.053265277
255	0x3e2bf778	0.1679362

fc3.bias f4 [4]
0	0x3dec8b9a	0.115500644
1	0x3de4fe49	0.111813135
2	0x3e925b1c	0.28585136
3	0x3e7fe173	0.24988346
