Navigation - Value based methods/checkpoint/checkpoint_ddqn_er_13.pth (torch_old, 54445 bytes, 6 tensors)

fc1.weight f4 [128, 37]
0	0x3d4c0955	0.049813587
1	0xbc1c4936	-0.009538939
2	0xbe563780	-0.20919609
3	0xbe61825f	-0.22022389
4	0xbe742ec0	-0.23845959
5	0xbdad191d	-0.084520556
6	0xbd200c5e	-0.039074294
7	0x3df5a465	0.119942464
8	0xbbe94488	-0.0071187653
9	0xbd1a0e94	-0.03761156
10	0xbe186493	-0.14882116
11	0xbdee9dba	-0.11651178
12	0xbd2728dd	-0.040810455
13	0xbe96aad6	-0.29427212
14	0xbe90419b	-0.28175053
15	0xbe485eef	-0.19567464
16	0xbd5d3355	-0.054004032
17	0x3e52ffdf	0.2060542
18	0xbdc4585a	-0.09587164
19	0x3e0a89e2	0.1352916
20	0xbd601844	-0.05471064
21	0x3e07abc3	0.13249116
22	0xbdab71bb	-0.08371302
23	0x3d8d7b63	0.069083
24	0x3cfc5a6d	0.030804837
25	0x3dfa9817	0.1223604
26	0xbc52e5b6	-0.01287215
27	0xbdcc27fd	-0.09968565
28	0xbed56620	-0.41679478
29	0xbda56380	-0.08075619
30	0xbda7c40d	-0.081916906
31	0x3e040b84	0.12895018
32	0xbe7dd3ea	-0.2478787
33	0xbddc08c8	-0.107438624
34	0xbd686500	-0.056736946
35	0x3df11ffc	0.11773679
36	0xbdaae147	-0.083437495
37	0x3dcf4eb0	0.1012243
38	0x3ca4d585	0.020121345
39	0x3c9e724a	0.019341607
40	0x3e21253b	0.15736859
41	0xbd7890df	-0.060685035
42	0xbc7ee27f	-0.015556931
43	0xbf0320b4	-0.51221776
44	0xbd194044	-0.037414804
45	0x3c9cc9c2	0.019139174
46	0x3e584342	0.21119407
47	0x3a7bc709	0.00096045487
48	0x3da52662	0.080639616
49	0xbe0dbd78	-0.13841808
50	0x3dab7a91	0.08372987
51	0x3e7362c4	0.23768145
52	0x3d28f3a0	0.041247964
53	0xbcb1bf9d	-0.021697814
54	0x3dd1db17	0.10246866
55	0xbd943419	-0.07236499
56	0xbe44eb9b	-0.19230501
57	0xbe8541f7	-0.2602689
58	0xbe3cf468	-0.18452609
59	0xbd7a9d4a	-0.06118516
60	0x3e2799fb	0.16367333
61	0x3dbb386e	0.091416225
62	0xbd3ca89d	-0.04605924
63	0xbd6850d9	-0.056717727
64	0x3d546926	0.05185809
65	0xbd3085e2	-0.04309643
66	0xbe1970ae	-0.1498439
67	0x3ca1704f	0.019706873
68	0x3da7f709	0.08201415
69	0x3d959f42	0.07305767
70	0xbe0e55aa	-0.13899866
71	0xbe886dfb	-0.26646408
72	0xbdc2b72e	-0.09507595
73	0x3d3d192c	0.046166584
74	0x3e528415	0.20558198
75	0x3e35d146	0.17755613
76	0xbdf60013	-0.12011733
77	0x3e152f27	0.14568768
78	0xbea8e913	-0.32990322
79	0xbeef6fa3	-0.4676486
80	0xbe63ca37	-0.22245108
81	0x3e9abdf0	0.30223036
82	0x3e40be77	0.18822657
83	0xbebf2610	-0.37333727
84	0x3e203f05	0.1564904
85	0xbe0e7f8d	-0.13915844
86	0x3b86d6df	0.00411497
87	0xbd61f30f	-0.05516344
88	0xbd8a1bbf	-0.067435734
89	0x3db0c474	0.086312205
90	0x3d455791	0.048179213
91	0x3da9945b	0.0828025
92	0x3b2c7439	0.0026314391
93	0x3d15efeb	0.036605757
94	0xbe99a676	-0.30009812
95	0x3dbd3d38	0.09240192
96	0x3d87cc63	0.066307805
97	0x3dd127ae	0.102126464
98	0xbdaa68e4	-0.083207875
99	0xbe1b4b7c	-0.15165514
100	0x3e50ec78	0.20402706
101	0x3e8c16b2	0.27361065
102	0xbeac0493	-0.3359724
103	0xbdc33625	-0.095318116
104	0xbe4b48d9	-0.19852008
105	0xbcce479c	-0.02518063
106	0x3d75cb5f	0.060008403
107	0xbe38cec0	-0.18047619
108	0xbdde45d1	-0.1085316
109	0x3d045f21	0.032317284
110	0xbcd7d500	-0.026346684
111	0x3e25e887	0.16201983
112	0xbdceea4e	-0.10103284
113	0x3e0de351	0.13856246
114	0x3dad23d4	0.08454099
115	0xbe893b77	-0.2680318
116	0x3d68be6f	0.056822237
117	0x3c5369b5	0.0129036205
118	0x3d6cb741	0.057791952
119	0x3ccfa91b	0.02534919
120	0xbc97debf	-0.01853883
121	0x3d4f90ab	0.050675076
122	0xbdfc7e81	-0.12328816
123	0xbd241826	-0.040062092
124	0x3dc17c90	0.094475865
125	0xbd274af4	-0.040842965
126	0xbbc5e27e	-0.006038963
127	0xbe1e2872	-0.15445116
128	0xbdcc4d88	-0.099757254
129	0xbcffac10	-0.031209975
130	0xbe06c2d2	-0.13160256
131	0x3d620c08	0.055187255
132	0xbe02024b	-0.12696187
133	0x3d337ee5	0.043822188
134	0x3dd81a1c	0.10551855
135	0xbdb294f8	-0.0871982
136	0x3d995dd4	0.074885994
137	0xbe5c7e42	-0.21532539
138	0x3d33d8e4	0.043908015
139	0x3e1c12b6	0.15241513
140	0x3eabfee9	0.3359292
141	0x3e341cdc	0.17589134
142	0x3e1cdc05	0.15318306
143	0xbdaacb2e	-0.08339535
144	0xbe02642e	-0.12733528
145	0xbf003b67	-0.5009064
146	0x3dc10666	0.094250485
147	0x3b94f944	0.0045463163
148	0xbda71a97	-0.081593685
149	0xbd96095c	-0.07326004
150	0xbdb8ce71	-0.090237506
151	0xbe6d39b7	-0.23166548
152	0xbe2d109c	-0.16900867
153	0x3e74adce	0.23894426
154	0xbe4c4e5e	-0.1995177
155	0xbdad052f	-0.08448254
156	0xbe4d3d23	-0.20042853
157	0xbf546310	-0.8296366
158	0x3d24fb9e	0.040279023
159	0x3d5f9236	0.054582797
160	0xbdfbf5a2	-0.1230271
161	0xbdb483d5	-0.088142075
162	0xbe740d4b	-0.23833196
163	0xbe27bb6c	-0.1638009
164	0xbd467cc3	-0.048458826
165	0x3d3c30ac	0.045944855
166	0x3da25708	0.07926756
167	0x3cc1ca3a	0.023656
168	0xbc17acbc	-0.009257492
169	0xbd02cbd6	-0.031932674
170	0xbbc80b22	-0.0061048428
171	0x3c9040ad	0.017608965
172	0x3e83dd67	0.25754854
173	0xbd4fed85	-0.050763626
174	0xbda99a4e	-0.082813844
175	0x3e04a4a6	0.12953433
176	0x3de99842	0.11405994
177	0x3dfa8c67	0.12233811
178	0x3e205478	0.15657222
179	0xbe44b512	-0.19209698
180	0x3e20df6a	0.15710226
181	0xbdbd0fcd	-0.092315294
182	0x3f21ca7c	0.6319959
183	0x3d6df462	0.05809439
184	0x3d13e030	0.036102474
185	0x3c2d8fad	0.010593337
186	0xbdb3c1ff	-0.08777236
187	0xbd4cdf08	-0.050017387
188	0xbe50eb60	-0.20402288
189	0x3d9b016f	0.07568633
190	0x3e22fbb5	0.15916331
191	0x3dcce156	0.10003917
192	0xbde1c1eb	-0.11023315
193	0xbe615ea6	-0.22008762
194	0xbfb69180	-1.4263153
195	0xbdd0df30	-0.1019882
196	0xbe0d9037	-0.13824545
197	0xbd4a19db	-0.049341064
198	0xbcadb31a	-0.021203566
199	0x3dabb3a8	0.08383876
200	0x3dd532d6	0.10410087
201	0xbd6e2859	-0.058143947
202	0xbe4c5e9d	-0.19957967
203	0xbdf9cd15	-0.121973194
204	0xbe662d5f	-0.22478245
205	0x3e3e434b	0.18580358
206	0xbdbbef80	-0.091765404
207	0x3cbbe7ed	0.02293774
208	0xbd408e01	-0.047010425
209	0x3d38684f	0.04502135
210	0xbcfaa184	-0.030594595
211	0x3ac6afb9	0.0015158571
212	0x3dc1ffec	0.09472641
213	0xbea1a7c3	-0.31573305
214	0xbedd48ec	-0.43219697
215	0xbc8f1b50	-0.017469078
216	0xbe4f36bd	-0.20235725
217	0x3d319cc6	0.0433624
218	0xbd9686a2	-0.07349898
219	0xbe81b1de	-0.25331014
220	0x3db7f411	0.08982099
221	0x3d8542f4	0.06506911
222	0x3da16289	0.07880122
223	0x3d822f79	0.06356711
224	0xbe412683	-0.18862347
225	0xbc42846c	-0.011872392
226	0xbd1c08e8	-0.03809443
227	0xbcd1ded2	-0.025618944
228	0xbe23c9bd	-0.15994926
229	0x3b8f29b3	0.0043689846
230	0x3d1c6b60	0.03818834
231	0x3e9359c3	0.2877942
232	0x3d336eb3	0.043806743
233	0x3e2d689a	0.16934434
234	0x3c868e60	0.016425312
235	0x3ac2b8fc	0.0014856155
236	0x3ddb31a3	0.10702827
237	0xbddcabbe	-0.10774945
238	0xbdb65dd6	-0.089046165
239	0xbb88a874	-0.004170472
240	0x3e045aed	0.1292531
241	0x3e44876a	0.19192281
242	0xbd6ad611	-0.057333056
243	0x3ce71f9c	0.028213315
244	0x3d9838e6	0.074327275
245	0xbe029977	-0.12753855
246	0x3e08832a	0.13331285
247	0xbe3b074b	-0.18264501
248	0xbcfec45e	-0.031099495
249	0x3cd6532e	0.02616271
250	0xbbb5fdc2	-0.005553932
251	0x3e28dfbf	0.16491602
252	0x3e9c484a	0.30523902
253	0xbe9459f0	-0.28974867
254	0xbe4df130	-0.20111537
255	0xbe48f6db	-0.19625418

fc1.bias f4 [128]
0	0xbdd84379	-0.105597444
1	0x397913e7	0.00023753905
2	0xbccb37c9	-0.024806874
3	0xbd0c5c3b	-0.034267645
4	0x3c59330b	0.0132567985
5	0xbe0bcb99	-0.13651885
6	0x3db324cc	0.08747253
7	0x3d8b0275	0.06787578
8	0xbe2c701c	-0.16839641
9	0x3d32904f	0.043594655
10	0xbdce8811	-0.10084546
11	0x3d0fd03e	0.035110705
12	0xbdd5fbd6	-0.104484245
13	0xbdc215ed	-0.09476838
14	0xbe357e4a	-0.17723957
15	0x3d22694f	0.03965121
16	0x3ca98d31	0.020697208
17	0x3d5a1f40	0.05325246
18	0xbc328c70	-0.010897741
19	0xbca2632e	-0.019822683
20	0xbd9b0d05	-0.07570843
21	0x3c68a828	0.014200248
22	0x3e1e0718	0.15432394
23	0xbda8433d	-0.0821595
24	0x3c810abc	0.015752189
25	0x3da62e26	0.08114271
26	0x3e01f867	0.12692414
27	0xbca481b6	-0.020081382
28	0xbd00392d	-0.031304527
29	0xbd9fb3ed	-0.0779799
30	0x3d2a3841	0.041557554
31	0x3db257a8	0.08708125
32	0xbd7594e1	-0.059956435
33	0x3cb99a31	0.022656532
34	0x3d0f0d8f	0.03492504
35	0xbe4057aa	-0.18783441
36	0xbc907076	-0.01763175
37	0x3ca9cf29	0.020728664
38	0x3c94fb74	0.018186308
39	0x3d830c4c	0.0639883
40	0x38ee2787	0.00011356087
41	0x3d6e6fee	0.058212213
42	0x3e872745	0.26397148
43	0xbc705736	-0.01466923
44	0x3c758509	0.014985331
45	0xbdee3828	-0.11631805
46	0x3dc650ab	0.09683355
47	0xbd88cc7e	-0.06679629
48	0xbe1dc615	-0.15407594
49	0x3da93886	0.08262734
50	0xbd3400e7	-0.043946173
51	0x3cb0f187	0.021599544
52	0x3d233c0e	0.039852194
53	0x3db43452	0.08799042
54	0x3ca7dba6	0.020490479
55	0x3d9a8877	0.0754556
56	0xbe002da0	-0.12517405
57	0xbdcae878	-0.09907621
58	0x3db2eb4a	0.08736284
59	0xbdacdba6	-0.08440332
60	0xbe099c12	-0.13438442
61	0xbc28d130	-0.01030378
62	0x3d64a92f	0.05582541
63	0xbdd17c2b	-0.10228761
64	0x3e0c0449	0.1367351
65	0xbc6885c3	-0.0141920475
66	0x3d9c22c5	0.07623819
67	0xbd2828bb	-0.04105447
68	0xbe1b953d	-0.15193649
69	0xbda5bc61	-0.08092571
70	0x3d7d3c07	0.061824825
71	0xbe073fb4	-0.13207895
72	0x3da3a1ac	0.07989821
73	0xbe115916	-0.1419414
74	0xbdc28cc7	-0.094995074
75	0xbd885573	-0.06656923
76	0x3e0d56a3	0.1380258
77	0xbdad2b37	-0.08455508
78	0x3db89cff	0.0901432
79	0x3d4a91ed	0.049455572
80	0xbc59fd66	-0.013305044
81	0x3cefeabb	0.029286733
82	0x3d17aecc	0.037031934
83	0xbd7de728	-0.061988026
84	0xbd8e3a31	-0.06944693
85	0x3db28621	0.08716989
86	0x3dffecb9	0.12496323
87	0xbde691a4	-0.112582475
88	0xbd3b823a	-0.04577849
89	0x3d3a05a1	0.045415524
90	0x3df92767	0.121657185
91	0xbd848d08	-0.06472212
92	0xbe2b321b	-0.16718332
93	0xbdf7b473	-0.12094965
94	0xbd10f29f	-0.03538763
95	0x3d8bad89	0.068202086
96	0xbd941a70	-0.07231605
97	0xbe09d58a	-0.13460365
98	0xbcb73e3b	-0.022368541
99	0x3e04d55b	0.12972014
100	0xbdeb8a0a	-0.11500938
101	0xbe3bbf2b	-0.18334644
102	0x3de18eab	0.1101354
103	0x3ddefc52	0.1088797
104	0xbe131689	-0.14364065
105	0xbe58637a	-0.21131697
106	0xbd2fb383	-0.042895805
107	0x3e3dca56	0.18534216
108	0xbe28d7c6	-0.16488561
109	0x3db0ff1d	0.08642409
110	0x3dcc4e50	0.099758744
111	0xbd3b8a79	-0.045786355
112	0xbd379cdd	-0.04482733
113	0xbdb5c638	-0.08875698
114	0xbd802d97	-0.062586956
115	0x3df3701d	0.11886618
116	0x3d8954a4	0.06705597
117	0x3e101dba	0.1407384
118	0x3b16303c	0.0022916934
119	0xbd96d99f	-0.07365727
120	0xbd2a134c	-0.04152231
121	0x3d9b0562	0.07569386
122	0xbc88f13d	-0.016716594
123	0xbe58e44e	-0.21180841
124	0xbd85a7ba	-0.06526132
125	0x3dab4758	0.08363217
126	0x3e2b382f	0.16720651
127	0xbd744fa7	-0.059646275

fc2.weight f4 [64, 128]
0	0xbe905e6c	-0.28197038
1	0xbe984052	-0.29736573
2	0x3d5714e9	0.052510176
3	0x3e1a05e4	0.1504131
4	0x3c34cde4	0.011035416
5	0x3ba71f6f	0.0051001827
6	0x3e085e56	0.13317236
7	0x3d9f7e4b	0.0778776
8	0xbe2edae4	-0.17075688
9	0x3d795b2a	0.060877956
10	0x3d902635	0.070385374
11	0x3e6860fb	0.22693245
12	0xbe0486a5	-0.12941988
13	0xbd2c6a23	-0.042093407
14	0xbecc774e	-0.39934772
15	0x3b4ed6fc	0.0031561246
16	0x3e10dd55	0.14146931
17	0x3e1014a5	0.14070375
18	0xbd50098b	-0.05079035
19	0xbdf9f187	-0.12204271
20	0xbe5a9bf6	-0.21348557
21	0xbd19d92a	-0.03756062
22	0xbdaa545e	-0.08316873
23	0xbe061e85	-0.1309758
24	0xbd2c8ca3	-0.04212631
25	0x3e1b0fdc	0.15142769
26	0xbd092e52	-0.03349144
27	0xb98e0bb9	-0.00027093085
28	0xbd84d102	-0.064851776
29	0x3e204a3a	0.15653315
30	0xbe40069a	-0.18752518
31	0x3dc32123	0.09527805
32	0xbdea9643	-0.114544414
33	0xbd87bad7	-0.06627434
34	0xbc0a07d2	-0.008424716
35	0x3d3b2307	0.0456877
36	0xbbea3c25	-0.007148283
37	0x3dc96dc2	0.09835388
38	0x3d0b639c	0.03403054
39	0xbeca6c49	-0.3953574
40	0xbd3e9435	-0.04652806
41	0xbec870c0	-0.3914852
42	0xbdf4dbbd	-0.11955974
43	0xbe1b7297	-0.15180431
44	0xbd1d6044	-0.038421884
45	0xbdc58ae7	-0.09645634
46	0xbd9d6a5a	-0.076863006
47	0xbe979d68	-0.2961228
48	0xbf663145	-0.8991893
49	0xbeb7f947	-0.3593237
50	0xbd8ccc2e	-0.06874882
51	0xbe421907	-0.1895486
52	0xbe81a13a	-0.2531832
53	0x3afe1062	0.0019383545
54	0xbdd85437	-0.10562938
55	0xbceeb26a	-0.029137809
56	0x3cd87d80	0.02642703
57	0x3d8d7fdc	0.06909153
58	0xbd4b7916	-0.049676023
59	0x3d814238	0.06311458
60	0x3d915acc	0.07097396
61	0xbe1adddc	-0.15123695
62	0xbdea2c0b	-0.11434182
63	0xbc30202a	-0.010749856
64	0x3d969823	0.073532365
65	0x3dd38766	0.103285596
66	0xbb863860	-0.004096076
67	0x3d88038e	0.06641303
68	0x3e677c07	0.22605906
69	0xbe17708e	-0.1478903
70	0xbe0b547a	-0.13606444
71	0x3e6fcddd	0.23418374
72	0x3c8960fb	0.016769877
73	0xbd1a7992	-0.037713595
74	0x3d103e0f	0.035215434
75	0x3d9a2efa	0.07528491
76	0xbf02c66e	-0.5108403
77	0xbeb84706	-0.35991687
78	0x3d6ee70a	0.058325805
79	0x3c9c8c01	0.019109728
80	0xbdaacc29	-0.08339722
81	0x3e154983	0.14578824
82	0x3eb465b4	0.35233843
83	0xbdd07e20	-0.101803064
84	0xbe2ec903	-0.17068867
85	0xbe8c077a	-0.27349454
86	0xbeb06aa1	-0.3445635
87	0x3d50e0d6	0.05099567
88	0xbe95e26f	-0.29274318
89	0x3dc1eeec	0.09469399
90	0x3e0640a5	0.13110597
91	0x3e1822a8	0.1485697
92	0xbc91a067	-0.017776681
93	0xbe2be6c1	-0.16787244
94	0x3d21e4fd	0.03952502
95	0x3e119fc3	0.142211
96	0xbe0f9ec4	-0.14025408
97	0x3c15463d	0.009110984
98	0xbe27c224	-0.16382653
99	0xbe604065	-0.21899565
100	0x3e1d274a	0.15347019
101	0xbdfa6f2d	-0.12228236
102	0xbe89da4c	-0.2692436
103	0x3dd77180	0.10519695
104	0x3d588e89	0.052870307
105	0xbe680162	-0.22656778
106	0x3ccbf46c	0.024896823
107	0xbe8c0d83	-0.2735406
108	0xbbc2ff59	-0.00595085
109	0xbd701fa3	-0.05862392
110	0x3dec731e	0.11545394
111	0xbdadad0c	-0.08480272
112	0xbc660bfa	-0.014040941
113	0x3e92dc4f	0.28683707
114	0xbe4ed4ff	-0.20198439
115	0xbda1f0cb	-0.07907256
116	0x3d3f1074	0.04664655
117	0x3daf6ded	0.085658886
118	0x3bb4efd6	0.0055217547
119	0xbe32928e	-0.17438719
120	0x3dd374a9	0.103249855
121	0xbdbba1e3	-0.09161737
122	0xbe1ee828	-0.15518248
123	0xbdd2d8f8	-0.1029529
124	0x3e189f74	0.14904577
125	0xbe1ddb9d	-0.15415807
126	0x3deb5f54	0.11492792
127	0xbd9b7530	-0.07590711
128	0x3e0b891c	0.13626522
129	0x3da6da83	0.081471466
130	0xbe0c5106	-0.13702783
131	0xbe025516	-0.1272777
132	0xbe58976a	-0.2115151
133	0xbdca56e3	-0.098798536
134	0x3c677587	0.014127142
135	0x3bd6a063	0.0065498813
136	0x3d4d7ac2	0.0501659
137	0x3cb30da2	0.021857087
138	0x3c8d21ec	0.01722809
139	0x3daefbee	0.085441455
140	0xbdc0e9d9	-0.09419603
141	0xbd1772e9	-0.03697482
142	0x3d3d9e84	0.04629375
143	0xbdec10ab	-0.11526617
144	0x3d19709a	0.0374609
145	0x3dd95c96	0.106133625
146	0x3cf16101	0.0294652
147	0x3de55b8b	0.11199101
148	0x3c76bdbb	0.015059884
149	0xbd29d6c0	-0.041464567
150	0x3ddfba5a	0.109242156
151	0xbe4001cc	-0.18750685
152	0xbd167b64	-0.03673877
153	0xbd368f0c	-0.044570014
154	0x3c473599	0.012158775
155	0xbe8d511a	-0.27600938
156	0x3d506893	0.05088098
157	0xbe5b99fa	-0.21445456
158	0x3d9b0dbe	0.075709805
159	0xbe825090	-0.2545209
160	0x3b3fdbcc	0.0029275296
161	0xbe5e0e9f	-0.21685265
162	0xbb3d8dca	-0.0028923624
163	0x3d69aaa6	0.05704751
164	0x3cbaab0a	0.022786636
165	0x3c991f07	0.018691553
166	0x3cdc4aa7	0.026891066
167	0xbd22f2fc	-0.03978251
168	0xbdf68d2d	-0.12038646
169	0x3dc43e8f	0.095822446
170	0xbd3db698	-0.046316713
171	0x3e465822	0.19369557
172	0x3c8abb04	0.01693488
173	0x3cc83914	0.02444128
174	0xbc88276c	-0.01662036
175	0x3e01ac51	0.1266339
176	0xbdeb27fe	-0.11482237
177	0xbdf21d62	-0.118220106
178	0xbcbebd86	-0.023283731
179	0x3ca9f397	0.020746036
180	0x3deea0a6	0.11651735
181	0xbf086695	-0.5328153
182	0x3da3f1b0	0.080050826
183	0x3d106110	0.035248816
184	0x3d3ed959	0.046593998
185	0x3d87fae2	0.06639649
186	0x3d2ddff7	0.042449918
187	0xbd1e0731	-0.038581077
188	0x3cd0011c	0.025391154
189	0xbd12e630	-0.035864055
190	0x3e1a684b	0.15078847
191	0x3e21154e	0.15730783
192	0x3d9a2514	0.07526603
193	0x3d8df5de	0.06931661
194	0x3d108c1f	0.03528988
195	0x3d31aac9	0.043375764
196	0x3da3efc8	0.08004719
197	0x3d3495aa	0.044088043
198	0x3d6bbabd	0.057551134
199	0x3b0729aa	0.00206242
200	0xbcdb2ebb	-0.026755681
201	0x3d9b5a21	0.0758555
202	0x3db0ef48	0.08639389
203	0xbda4c00a	-0.08044441
204	0x3dabb2bf	0.083837025
205	0xbe40fdbe	-0.18846795
206	0xbbf27fe3	-0.007400499
207	0x3db4904b	0.08816584
208	0xbc8a8e39	-0.01691352
209	0xbbbce2be	-0.0057643345
210	0xbda67b2f	-0.08128964
211	0xbd825f8d	-0.06365881
212	0xbbff217d	-0.0077859745
213	0xbd6084b8	-0.05481407
214	0xbd098754	-0.033576325
215	0x3d59f6bc	0.05321382
216	0x3dbd947b	0.09256836
217	0xbd1f6708	-0.038916618
218	0x3e2f0f86	0.17095765
219	0xbd808dd3	-0.06277051
220	0x3da5b45e	0.08091043
221	0xbc99ad10	-0.01875928
222	0xbca0abb3	-0.019613123
223	0xbdba9ff0	-0.09112537
224	0xbd6c390e	-0.0576716
225	0x3db054b2	0.08609904
226	0xbd8d9166	-0.06912498
227	0x3e74503d	0.23858733
228	0xbe5b2d12	-0.21403912
229	0x3ce819ba	0.02833258
230	0x3df8519f	0.12124943
231	0x3e9a95d8	0.30192447
232	0xbda8c444	-0.0824056
233	0xbdccc6eb	-0.09998878
234	0x3d3f4c55	0.046703655
235	0x3dc896b4	0.09794369
236	0x3aa02615	0.001221838
237	0x3a7ecfd6	0.0009720301
238	0xbcbf5a98	-0.023358628
239	0xbd907902	-0.070543304
240	0xbe00ef30	-0.12591243
241	0x3da140e6	0.078737065
242	0xbd411d8c	-0.04714732
243	0xbdc07b9d	-0.09398577
244	0xbd01f1cb	-0.031724732
245	0x3e3183b8	0.17335403
246	0xbddf46ac	-0.109021515
247	0x3d566e7b	0.052351456
248	0xbcf2b220	-0.029625952
249	0xbdc70323	-0.09717395
250	0x3b1ec697	0.0024227255
251	0xbd803641	-0.06260348
252	0xbe3b4b2e	-0.18290398
253	0x3d212b0a	0.039347686
254	0xbcd246ec	-0.025668584
255	0xbcf338ac	-0.02969011

fc2.bias f4 [64]
0	0xbd2fbd57	-0.042905178
1	0xbcbfeb24	-0.023427553
2	0x3d8bf20f	0.068332784
3	0x3b802fcb	0.0039119474
4	0x3e43d535	0.19124301
5	0xbda42ecb	-0.080167376
6	0xbc9b42bf	-0.018952725
7	0xbca89d96	-0.020582955
8	0xbd9a5853	-0.07536378
9	0xbdcdd042	-0.10049488
10	0x3be4ecbd	0.006986229
11	0xbcf5e341	-0.03001559
12	0xbd8efa60	-0.06981349
13	0xbcd59e84	-0.026076563
14	0xbb0435b4	-0.002017361
15	0x3c4001c5	0.011719172
16	0xbd39e82b	-0.04538743
17	0xbd3e61c6	-0.046479963
18	0xbd0c331c	-0.03422843
19	0xbdd6c671	-0.104870684
20	0xbd5a528a	-0.05330137
21	0x3cb499dc	0.022046022
22	0xbd1d4458	-0.038395256
23	0x3c263d01	0.01014638
24	0xbd40f2eb	-0.047106665
25	0x3dcbcf3c	0.09951636
26	0x3e43f83e	0.19137666
27	0x3dc91fdd	0.098205306
28	0xbb58481f	-0.0033001972
29	0xbd334993	-0.043771338
30	0x3d06cd7c	0.03291081
31	0x3da3d5d9	0.079997726
32	0xbe3af4ff	-0.18257521
33	0x3e213d50	0.15746045
34	0x3cc8d4bd	0.024515504
35	0xbe02c38d	-0.12769909
36	0xbd859386	-0.065222785
37	0x3ce738fa	0.02822541
38	0xbc09e644	-0.008416716
39	0x3d462dd0	0.048383534
40	0xbc84e201	-0.016221048
41	0x3b81fef6	0.0039671613
42	0x3c4040c7	0.011734194
43	0xbc15aea2	-0.009135874
44	0x3e5fb1ac	0.2184512
45	0xbc29cfc3	-0.010364476
46	0xbd847f6f	-0.064696185
47	0xbe078951	-0.13235976
48	0x3c8e9c5c	0.017408542
49	0xbda15b46	-0.07878737
50	0xbdaa8d3b	-0.08327719
51	0xbdf6a43c	-0.12043044
52	0xbd862d0f	-0.06551563
53	0x3d703746	0.058646463
54	0x3e4f52d9	0.20246448
55	0xbbb53962	-0.005530522
56	0xbd0702ba	-0.032961585
57	0x3e3c9733	0.18417053
58	0x3d1c0378	0.038089246
59	0x3dfd6949	0.12373597
60	0xbd2adc9a	-0.04171429
61	0xbdfbe118	-0.122987926
62	0xbd9abf42	-0.07556011
63	0xbdc76b0b	-0.09737214

fc3.weight f4 [4, 64]
0	0xbdb15c45	-0.08660177
1	0xbd45f8cc	-0.048332974
2	0x3e9f9b43	0.31173143
3	0x3e3e4dff	0.1858444
4	0x3dbbd51b	0.09171506
5	0x3e9eac2a	0.30990726
6	0x3e760b27	0.24027692
7	0xbe2a0f7e	-0.16607472
8	0x3df663fc	0.12030789
9	0xbd8105b4	-0.06299916
10	0x3d3330da	0.04374776
11	0x3e70c73e	0.23513505
12	0x3e3f4b87	0.18681155
13	0x3ea8dace	0.32979435
14	0x3d5fbb03	0.054621708
15	0x3e094081	0.13403513
16	0xbeaff307	-0.34365103
17	0x3d410944	0.047127977
18	0x3bafcd6e	0.0053650653
19	0xbd244135	-0.04010125
20	0xbcac6fef	-0.021049468
21	0x3e78235b	0.24232237
22	0x3bf34a39	0.0074246195
23	0x3dd9ad27	0.10628729
24	0xbca52432	-0.02015886
25	0xbf4eb84e	-0.80749977
26	0x3e52c0bd	0.20581336
27	0x3db6f179	0.08932776
28	0x3dbf3986	0.093371436
29	0xbece9950	-0.40351343
30	0xbe16d588	-0.14729893
31	0x3e1836af	0.1486461
32	0xbd8d6f3d	-0.06905983
33	0x3e388b74	0.18021947
34	0x3c6cac2c	0.014445346
35	0xbe8c0a8e	-0.27351803
36	0xbecaff08	-0.39647698
37	0x3d5dfb8f	0.054194983
38	0xbf0ae2cb	-0.5425231
39	0x3e314a75	0.1731356
40	0x3e42cb96	0.19022974
41	0xbde9874c	-0.11402759
42	0xbe9a483a	-0.3013323
43	0xbae0fdb4	-0.0017165453
44	0x3d101861	0.0351795
45	0x3e3ea340	0.18616962
46	0x3e5bead6	0.21476302
47	0xbc431f9a	-0.01190939
48	0x3e12dab2	0.14341238
49	0x3d87009b	0.06591912
50	0xbda053b8	-0.07828468
51	0xbd58faf6	-0.05297371
52	0xbef3d2c8	-0.4762175
53	0x3f11bf89	0.56932884
54	0x3e02e375	0.1278208
55	0xbd606b6e	-0.054789953
56	0xbe4817a5	-0.1954027
57	0x3df34e4b	0.118801676
58	0x3df6b84e	0.12046872
59	0x3dc2991c	0.095018595
60	0xbec4ebfc	-0.38461292
61	0x3d50ec17	0.051006403
62	0xbc8fb7f9	-0.01754378
63	0xbe635bf7	-0.2220305
64	0x3ea20eb1	0.31651834
65	0x3cf4ceec	0.029883824
66	0x3e19bc7a	0.15013304
67	0x3b9fb3ea	0.0048737423
68	0x3d421c08	0.047390014
69	0x3d855450	0.06510222
70	0xbcb9af5b	-0.022666624
71	0x3d913784	0.07090667
72	0x3ebd92f2	0.37026173
73	0x3f21e041	0.6323281
74	0x3da8f1b7	0.082492284
75	0x3e5ddd0c	0.21666354
76	0x3e9c69d4	0.3054949
77	0x3ebe4ef3	0.37169608
78	0x3e10208e	0.14074919
79	0xbe54dbff	-0.20787047
80	0xbecf9e35	-0.4055039
81	0x3d82a0d7	0.06378334
82	0x3d5dfe15	0.05419739
83	0xbbcbb7b2	-0.0062169665
84	0xbeddcf72	-0.4332233
85	0xbda2b941	-0.07945491
86	0x3e16eec2	0.14739516
87	0x3e81d629	0.25358704
88	0xbdcc0bb4	-0.0996317
89	0xbed35b9b	-0.41280827
90	0x3e1f62b1	0.15564992
91	0x3d0aabb0	0.03385514
92	0x3e370181	0.17871667
93	0xbd57c8db	-0.052681785
94	0xbebcea9a	-0.36897737
95	0x3db7f5fa	0.08982463
96	0xbec93faa	-0.39306384
97	0xbf2e2e08	-0.6803899
98	0xbe1db921	-0.15402652
99	0x3c127fbd	0.008941588
100	0xbe90539c	-0.2818879
101	0xbea3431e	-0.31887144
102	0xbd8cb3b5	-0.06870214
103	0x3ddc26e9	0.10749609
104	0x3e9527ed	0.29132023
105	0xbe35b33d	-0.17744155
106	0xbe8ab6b4	-0.27092516
107	0x3e051dee	0.12999699
108	0x3df3c79c	0.11903307
109	0x3ebb3231	0.3656173
110	0x3e8d8b58	0.27645373
111	0x3de6fdca	0.11278875
112	0x3dfc59bf	0.12321805
113	0xbda784c4	-0.0817962
114	0xbd4e81dd	-0.050416816
115	0x3b034034	0.0020027282
116	0xbe85da98	-0.26143336
117	0x3eabe6fb	0.33574662
118	0x3de7b2f6	0.11313431
119	0x3d7f927f	0.06239557
120	0x3dee9497	0.11649435
121	0x3d76c544	0.06024672
122	0x3eeb4758	0.45952868
123	0x3df7c9a0	0.12099004
124	0xbd0b815b	-0.03405891
125	0x3e6d99b8	0.2320317
126	0x3e321125	0.17389353
127	0xbd82b143	-0.06381466
128	0xbebd6fca	-0.3699935
129	0xbe2360fc	-0.15954965
130	0x3e2250f0	0.15851188
131	0x3d1d0fcf	0.038345154
132	0x3e200c3f	0.15629672
133	0x3f0b10f1	0.54322726
134	0xbe43445b	-0.19069044
135	0x3e9d54cf	0.30728766
136	0x3e738216	0.23780093
137	0xbdc4d3a1	-0.096106775
138	0xbe98fa3f	-0.29878423
139	0x3e82ebdc	0.2557057
140	0xbeb375b8	-0.3505075
141	0x3d860d33	0.06545486
142	0x3d8eff37	0.06982272
143	0xbe350119	-0.176762
144	0xbe7f9d3b	-0.24962322
145	0xbe933596	-0.2875182
146	0xbe05787c	-0.13034242
147	0xbe378acf	-0.17924045
148	0xbe4180ae	-0.18896744
149	0x3e154bdb	0.14579718
150	0x3f2bcba5	0.6710761
151	0x3dfd8967	0.12379723
152	0x3e5286d9	0.20559253
153	0xbd134d10	-0.035962164
154	0x3e6ae84b	0.22940175
155	0x3dd704b1	0.10498942
156	0xbe0d4c24	-0.13798577
157	0xbefd4a39	-0.4947069
158	0x3e999336	0.29995126
159	0x3d2ffcc9	0.042965684
160	0xbdb9ddd2	-0.09075512
161	0x3d1d9cfd	0.038479794
162	0xbe8c3e8c	-0.2739147
163	0xbe36f53d	-0.17866988
164	0x3d61d937	0.055138793
165	0xbe0fa458	-0.14027536
166	0xbcbe6af6	-0.023244362
167	0x3e0c98ee	0.13730213
168	0x3ef1c4be	0.47220415
169	0xbe21c124	-0.15796334
170	0xbe6a6d3e	-0.22893235
171	0x3db3b228	0.08774215
172	0x3db80ff7	0.0898742
173	0x3eaa6a8c	0.33284414
174	0xbf15312a	-0.58278143
175	0xbeaffc15	-0.3437201
176	0x3d61a91d	0.05509292
177	0x3dda29c7	0.106525
178	0xbd90c560	-0.07068896
179	0x3e362c9f	0.17790459
180	0x3e1c0a50	0.15238309
181	0x3e621b81	0.22080804
182	0x3bd892d1	0.0066092988
183	0x3ea80814	0.32818663
184	0x3db7977b	0.089644395
185	0x3df33aab	0.118764244
186	0x3e0fddce	0.14049456
187	0x3cb7dfcd	0.022445584
188	0xbedf2088	-0.43579507
189	0x3daa3f34	0.08312836
190	0x3e601420	0.21882677
191	0x3e08d364	0.13361889
192	0xbeaf553a	-0.3424471
193	0xbe32cb06	-0.1746026
194	0x3e3b4407	0.18287669
195	0x3e15f66d	0.14644785
196	0x3d3f195d	0.046655048
197	0x3c89f3ca	0.01683988
198	0x3cacdfcf	0.021102814
199	0xbf1160d3	-0.5678837
200	0xbe8367cb	-0.25665125
201	0xbe246c20	-0.16056871
202	0xbe72aca0	-0.23698664
203	0x3dcc090b	0.09962662
204	0xbe4e8575	-0.20168097
205	0x3e27d0a1	0.1638818
206	0x3e39757c	0.18111223
207	0xbe305f64	-0.17223889
208	0x3dc6616f	0.09686553
209	0x3e3c3aff	0.1838188
210	0xbefdbd2b	-0.49558386
211	0x3ef8f547	0.48624632
212	0x3eb4fa5c	0.3534726
213	0x3ebab07e	0.36462778
214	0x3b034efc	0.0020036092
215	0x3ebb22a3	0.36549863
216	0x3d351d73	0.044217538
217	0xbd545499	-0.05183849
218	0x3e18194e	0.14853403
219	0x3e27b012	0.16375759
220	0x3e5fd795	0.21859582
221	0xbd07febb	-0.033201914
222	0xbde3d44f	-0.11124479
223	0x3e3b0af5	0.18265899
224	0xbe93337d	-0.2875022
225	0x3ed4da87	0.41572973
226	0x3d5c8c33	0.053844642
227	0xbcd4bca4	-0.025968857
228	0xbec42fcb	-0.38317713
229	0xbeec9a89	-0.4621165
230	0xbeb37d1b	-0.35056385
231	0x3d85e1c3	0.06537201
232	0x3e3ae8fc	0.18252939
233	0xbe024952	-0.12723282
234	0xbecbb90d	-0.3978962
235	0xbcd5fc3a	-0.026121248
236	0x3e0d57ae	0.13802978
237	0xbe148433	-0.14503555
238	0xbccce862	-0.025013153
239	0xbecd5f83	-0.40111932
240	0xbd974664	-0.07386473
241	0x3e9452eb	0.2896951
242	0x3e8383c0	0.25686455
243	0xbe181e1a	-0.14855233
244	0x3e8c6d77	0.27427265
245	0x3e9389d6	0.28816098
246	0x3df3325c	0.1187484
247	0x3e5bfc06	0.21482858
248	0xbde56fc0	-0.11202955
249	0x3dbae7e7	0.09126263
250	0x3abbd3de	0.0014330109
251	0xbdfa4831	-0.12220801
252	0xbd5ddd46	-0.0541661
253	0xbe84c366	-0.25930327
254	0xbd9d1020	-0.07669091
255	0x3db480df	0.08813643

fc3.bias f4 [4]
0	0x3e033a8c	0.12815303
1	0x3ddeaf12	0.10873236
2	0x3e1c6a5b	0.15274946
3	0x3e1614ce	0.14656374
