Navigation - Value based methods/checkpoint/checkpoint_dqn_3.pth (torch_old, 54445 bytes, 6 tensors)

fc1.weight f4 [128, 37]
000000 e2 31 1a bd dc 75 25 3e 4b 76 45 be 0a 5b 13 be
       -0.03764523 0.16158241 -0.19283406 -0.14390197
000010 65 46 2f be 85 59 94 3d fc d8 34 3c 72 4e 96 3c
       -0.17116697 0.07243637 0.011038061 0.018347953
000020 63 78 10 be 9c 4f 43 3e 0d 2d 9a bd d8 d4 d5 bc
       -0.14108424 0.19073337 -0.07528124 -0.026102468
000030 af 72 95 be ec a0 14 be 0e cd 58 bb e3 d4 0d 3e
       -0.2918906 -0.14514512 -0.0033081206 0.13850741
000040 89 28 aa be 8f 0f dc 3d 28 43 8b be aa 70 1d bf
       -0.3323405 0.10745155 -0.27199674 -0.61500037
000050 19 c3 e3 3b c4 3a 2b 3e 2f 3e c8 bd e3 cd 3e 3d
       0.0069507477 0.16721636 -0.097774856 0.046583068
000060 df df 94 bd ca 84 99 bd 21 60 4c 3e 63 f2 c2 bd
       -0.072692625 -0.07496031 0.19958545 -0.09518888
000070 cf 8b 54 be e2 97 97 3d 63 10 00 be 93 bd ed 3d
       -0.20756458 0.07402016 -0.12506251 0.11608424
000080 ee 74 10 be 17 fd e6 bd 24 ae 87 bd 79 6a ab bd
       -0.14107105 -0.11278742 -0.066250116 -0.083699174
000090 84 21 5b bc 63 1c f8 3d 6a 4b 0a 3e 5e af e7 3c
       -0.01337469 0.12114789 0.1350533 0.028281864
0000a0 5e c9 10 3c 9a 26 9c be b1 8e a7 bd a4 1a 0a be
       0.008837072 -0.304982 -0.08181513 -0.13486725
0000b0 14 65 89 bd 2c b9 32 3d f1 f2 87 3e 46 ac f4 3b
       -0.06708732 0.043633625 0.26552537 0.0074668257
0000c0 ed f0 5d bc e9 b7 ae 3c 2b a5 dd 3d 92 c8 ce 3d
       -0.013546211 0.02132793 0.10822519 0.100968495
0000d0 91 ea 8d 3e 63 52 10 bf eb b7 55 be c4 64 80 be
       0.27718022 -0.5637571 -0.2087094 -0.25076878
0000e0 87 80 99 bf 07 5e 17 be 7d 7d 8f bd 4b b8 98 bd
       -1.1992348 -0.14781962 -0.07006357 -0.07457026
0000f0 46 b3 21 bd 76 42 aa 3c f6 e9 13 be d1 78 23 3e
       -0.03947761 0.020783644 -0.14444718 0.15964057
000100 d5 72 24 3d 7e c5 28 bd 3e 4c 8a 3c cb 35 1c bd
       0.040148575 -0.04120397 0.016882058 -0.03813724
000110 31 86 d3 3d ac 34 f3 3d a8 51 fc 3c d9 1a 62 3c
       0.10328329 0.11875281 0.030800655 0.013800346
000120 71 90 af 3c 9b 59 cd 3b 70 8b 9c 3d 95 cd 3d 3e
       0.02143118 0.0062667853 0.07643783 0.18535455
000130 79 11 d5 3d e6 2a 8f be 76 7c e0 bd e3 1f 66 bd
       0.10403723 -0.27962416 -0.10961239 -0.056182753
000140 43 99 3a bd 5c 89 01 3e 3e 20 a3 3d 14 9a 8c 3c
       -0.045556318 0.12650055 0.07965134 0.017163314
000150 12 32 a8 bc a4 10 8e bd c6 cc c8 3d 20 ab 33 be
       -0.020531688 -0.06936768 0.098046824 -0.17545748
000160 0c be 0c 3d a5 38 02 3d ff 57 93 bc 0f c1 88 3d
       0.03436093 0.0317923 -0.017986296 0.06677448
000170 7e f0 8e 3d a8 a3 89 3d 70 be bd be eb c2 44 be
       0.06979464 0.06720668 -0.37059355 -0.1921498
000180 43 6c f5 3d ba 7e 6c 3e 41 bd c1 be 49 61 37 bd
       0.1198354 0.23095217 -0.37839702 -0.044770513
000190 ba c6 3b 3e 1f 8b ac 3c 1d be c0 bd e2 9a 3a 3d
       0.18337527 0.021062432 -0.09411261 0.045557864
0001a0 47 10 77 be f5 f2 5a bd 0e e1 98 bd 09 56 44 bd
       -0.24127303 -0.053454358 -0.07464801 -0.047933612
0001b0 c6 27 d8 bd 4d 1f 2b 3c ca 1f bc bc 20 aa 3c 3e
       -0.10554461 0.010444474 -0.022964377 0.18424273
0001c0 1b a7 79 be f4 d6 18 3e ea 41 26 3d d7 a6 d5 be
       -0.24380152 0.14925748 0.040590204 -0.4172885
0001d0 87 5a d0 3c 33 08 9f bd 5c 3d 87 bc 92 bd 17 3e
       0.025433792 -0.07765236 -0.01650875 0.14818409
0001e0 9a 2a 2d bd d6 cc 5b 3d ac 6b e8 bd 94 15 8e 3d
       -0.042276956 0.053662144 -0.11348662 0.069377095
0001f0 21 d2 57 be 09 59 66 be b5 13 e9 bd 1b 83 d4 bd
       -0.21076252 -0.22494902 -0.11380712 -0.10376569
000200 e5 0e 2f 3d 03 cd fd bd 7b 49 01 be 77 15 d7 bd
       0.042738814 -0.123926185 -0.12625687 -0.10502141
000210 b7 d8 b3 3b 4a f1 94 3d 28 df b4 3c 62 f2 4d 3d
       0.005488481 0.07272585 0.022079065 0.050279982
000220 7b f2 b6 3d 7a 59 37 bd 3c 6f 94 3a 22 8e 77 3d
       0.08932968 -0.044763066 0.0011324654 0.060438283
000230 82 b7 da 3d 00 d2 8f 3d 4f fc 1b 3e 31 11 71 3c
       0.106795326 0.07022476 0.15232967 0.014713571
000240 39 fb 26 be 99 af 38 be 3f 86 5f 3e 7f 8a 7b bd
       -0.16306771 -0.18035735 0.21828555 -0.061411377
000250 5b 69 be bd 83 e5 8c be c1 4c f5 bd 7c ac fa bd
       -0.09297439 -0.27518854 -0.1197753 -0.1223993
000260 4d c4 00 bd e1 74 e8 3d e7 a2 4a 3b 2a ff 22 be
       -0.031437207 0.11350418 0.0030919851 -0.1591765
000270 5a 2d 66 3d 27 80 fb 3e 74 a9 8b bd e6 b8 0e bd
       0.056195594 0.4912121 -0.0681943 -0.0348443
000280 85 4e 4f bc 5b c1 be bd d0 72 b8 bd 6f b3 32 be
       -0.012652998 -0.093142234 -0.09006274 -0.17451261
000290 42 24 4a bc 43 61 e3 3c b9 ad 20 be 25 55 03 3e
       -0.012337746 0.027756339 -0.1569127 0.12825449
0002a0 d8 d8 10 be 97 09 0d bc 85 86 0c 3e a9 4e aa bd
       -0.1414522 -0.008608243 0.1372319 -0.083157845
0002b0 55 1b 27 3e 13 ee 9c 3d 8c 76 e4 bd 7a c1 90 bd
       0.1631902 0.076625966 -0.111554235 -0.07068153
0002c0 06 39 70 3c 30 f1 41 3e 04 bc f5 3d e1 10 d8 bd
       0.014662033 0.18939662 0.11998752 -0.105500944
0002d0 d9 a6 0a bd d5 4b 82 bd c7 d7 ab 3e 80 73 91 3a
       -0.033850525 -0.0636212 0.33563063 0.0011097044
0002e0 9d 79 00 3d 74 ef 7c bd d9 6f 3b be 9e 35 8d 3d
       0.03136598 -0.061751798 -0.18304385 0.06894992
0002f0 d9 93 0e be 99 cd e9 bd 5f 70 08 3e c3 91 97 3d
       -0.13923587 -0.11416168 0.13324116 0.07400849
000300 3f 48 f0 bd 00 b6 e2 bd b5 91 13 bf 2d c8 13 be
       -0.1173253 -0.1106987 -0.57644206 -0.1443183
000310 d7 71 76 bd 03 bf 26 3d 1c 00 55 be d7 5b bf 3d
       -0.06016716 0.040709507 -0.20800823 0.09343689
000320 bd 1f ab bd 61 92 6a 3d 5e 0f 8b bd c2 7a 3e be
       -0.08355663 0.057268504 -0.067900404 -0.18601516
000330 c6 cb 62 be bd cf b0 3d f7 65 a4 3d 75 e5 6e 3d
       -0.22148046 0.08633373 0.08027261 0.058324296
000340 c1 6a 48 be f8 cf 6f be e3 41 98 bd fb 16 ec 3c
       -0.19571973 -0.23419178 -0.07434442 0.028819552
000350 6c d9 35 bd 95 01 e5 bd cc 3b 3b be b8 ab fb 3d
       -0.044396803 -0.111819424 -0.1828453 0.12288612
000360 60 c8 a5 be 82 f8 62 be e7 5e 4a be 64 db 4d bf
       -0.32379436 -0.2216511 -0.19762765 -0.8041289
000370 f4 b7 9a 3d 2e 25 09 3d 56 b7 d5 bc 27 2c 86 3d
       0.075546175 0.033482723 -0.026088398 0.0655139
000380 e8 5b f5 bc 10 e7 30 bd 21 42 1f be b8 3e 90 bd
       -0.02995105 -0.04318911 -0.1555257 -0.07043213
000390 00 3d 1a 3d 17 76 f0 3b 7c 31 80 bb c8 62 e4 3d
       0.03765583 0.007338296 -0.003912149 0.111516535
0003a0 2a 9b 66 3d f2 45 89 3d fb 61 f0 3d 6b ed 99 3d
       0.05630032 0.06702794 0.11737438 0.07515987
0003b0 a1 16 dc 3d 51 e4 8c bd 08 43 d5 bd 31 a4 4c 3c
       0.107465036 -0.068794854 -0.10413176 0.012490318
0003c0 ca 4f a2 3d 60 bd 17 3e 9d 38 df bd 19 03 20 3d
       0.07925375 0.14818335 -0.1089947 0.039065454
0003d0 50 c4 59 3d c6 7e 3d bd e1 26 68 3d 49 75 42 be
       0.053165734 -0.04626348 0.056677703 -0.18990053
0003e0 3e 36 45 bd df f2 0c 3d 72 8e 82 bc 48 ed 44 3e
       -0.048147433 0.034411307 -0.015937064 0.1923114
0003f0 6c 7f 84 3e 82 d9 72 be 95 ed d2 be ff a8 b1 be
       0.25878465 -0.23715785 -0.41196886 -0.34699246

fc1.bias f4 [128]
000000 d0 a3 59 bd b1 6b 14 3d f1 b9 8d bd 56 4e 40 bd
       -0.05313474 0.036235515 -0.06920231 -0.046949707
000010 3f 90 1e bd 80 95 1f be a0 15 b9 3d 54 52 f9 3d
       -0.038711783 -0.15584373 0.09037328 0.12173906
000020 f8 06 58 be 42 af c7 3d a5 76 dc bd 8e 8e 9c bd
       -0.21096408 0.09750225 -0.10764817 -0.07644378
000030 6a 5e 41 bd b6 0a ad bd 1d 7c 91 bd f7 8a 46 bd
       -0.04720918 -0.084493086 -0.07103751 -0.04847237
000040 f0 47 4c 3d ad 10 4d bd 01 fa 96 bd a0 d2 7d 3c
       0.049873292 -0.05006473 -0.07371903 0.015492111
000050 ef 23 2e be 44 66 96 3c 48 63 28 3e c3 04 92 bd
       -0.17005895 0.01835931 0.16444123 -0.071298145
000060 1e a3 7b 3d eb 8b f3 3d b1 0e 4f 3e f7 c9 9f 3c
       0.061434858 0.118919216 0.20220448 0.019505484
000070 05 ac 9b 3c 8b e5 d6 bc 6c f3 6e 3d d4 81 30 3e
       0.019002924 -0.026232501 0.058337614 0.17237025
000080 99 56 6d bd 1b a5 e6 3b 70 70 ef 3d 16 24 88 be
       -0.057943914 0.007038725 0.116913676 -0.2659003
000090 78 b5 3b b8 d3 63 65 3d da e4 8c bb cb 36 08 3c
       -4.475328e-05 0.056003403 -0.004299742 0.008313845
0000a0 e7 6f 8d 3c f0 a5 c9 3d 3b 76 21 3e 9c 78 0c bd
       0.017265273 0.09846103 0.15767758 -0.03429471
0000b0 05 d1 d9 3c e9 85 cf bd 27 c9 92 3d eb f5 e7 bd
       0.026588926 -0.10132963 0.07167273 -0.11326202
0000c0 40 21 3a be 7b 0c ed 3d 1e 94 78 bb 8a de 3f 3d
       -0.18176746 0.11574646 -0.0037930082 0.04684309
0000d0 55 90 0a 3c 00 fe ca 3d 9a 2d 1c 3d 84 8a ec 3c
       0.008457263 0.09911728 0.038129427 0.028874643
0000e0 64 91 71 bd 04 b1 8c bd 04 1d ab 3b c6 3a 88 bd
       -0.058976546 -0.068697006 0.005221965 -0.06651835
0000f0 99 a2 24 be c0 d4 27 3d f9 ee 3a 3d ed 56 93 bd
       -0.16077651 0.04097438 0.04563806 -0.07194314
000100 bf 40 1a 3e 41 5e d6 3c 43 aa 93 3d e2 d6 96 bd
       0.15063761 0.02616799 0.07210209 -0.073652044
000110 99 03 4f be 5c e4 32 bd d2 91 40 3d 48 88 7c bd
       -0.20216216 -0.04367481 0.047014065 -0.061653405
000120 d4 5b 0b 3d 54 3c bd bd 9c 1b fa bd 04 1a 53 b8
       0.03402312 -0.09240022 -0.12212297 -5.033055e-05
000130 46 e5 23 3e 9d d7 2a be 63 4f 3c 3d ee 4f f7 3c
       0.1600543 -0.16683812 0.045974147 0.03018948
000140 91 49 14 bd 60 01 2f 3d dc 46 5a 3d da 02 da bd
       -0.03620297 0.04272592 0.053290233 -0.10645075
000150 e1 28 8a bb 8d 79 1e 3e 0b 9c db 3d 11 44 0b be
       -0.004216299 0.15476055 0.10723122 -0.13600184
000160 28 32 01 be c6 be 6c 3d b5 9f fa 3d 97 13 2f bd
       -0.1261679 0.057799123 0.12237493 -0.04274329
000170 69 00 ec bd d8 24 0a be e7 d9 53 bd f0 97 72 3b
       -0.11523516 -0.13490617 -0.05172148 0.0037016831
000180 a3 56 1f bd 12 c0 46 be c4 95 66 bd 6a 73 c0 3d
       -0.038900983 -0.19409207 -0.05629517 0.093970135
000190 45 07 f1 bd d2 2a 3a be db 3a fb 3d 70 80 0b 3e
       -0.11768965 -0.18180397 0.12267085 0.13623214
0001a0 8e 07 7a be 42 04 19 be e3 4e 80 bd d4 84 e3 3d
       -0.24416944 -0.1494303 -0.062650464 0.11109319
0001b0 c9 7b 22 be fc 79 a7 bc ff d4 9e 3d 19 50 08 bd
       -0.15867533 -0.020443909 0.077554695 -0.033279512
0001c0 f8 26 aa bd 2e 1e b4 bd 70 e9 08 3c 27 0c 26 3e
       -0.08308214 -0.08794819 0.008356437 0.16215573
0001d0 a1 b8 cc 3c 21 63 b5 3d ea c7 c4 3d 2c ae 26 bd
       0.024990382 0.08856798 0.09608443 -0.040693447
0001e0 31 a1 0e 3d d0 58 29 3d 5a 38 c2 bd 81 53 18 be
       0.034821693 0.041344464 -0.094834045 -0.14875604
0001f0 d5 2f af bd 6c a4 a2 3d b4 da bf 3d 85 d0 31 3d
       -0.08554045 0.07941517 0.09367886 0.04341175

fc2.weight f4 [64, 128]
000000 58 d7 00 3c 05 7a 1b 3c 5a 32 8d bc f0 59 76 3d
       0.007863842 0.009489541 -0.017235924 0.060144365
000010 9a 20 c7 bd 15 76 2f bd 30 f5 ad bb eb 0f 1d 3e
       -0.09723015 -0.04283722 -0.0053087696 0.15338103
000020 6a 5d 15 bd 52 3b eb 3d cf 91 b8 bd f2 ea ed 3c
       -0.03646604 0.11485924 -0.09012186 0.029042695
000030 64 8a 3e be aa 0f b6 bd de c4 71 bd 10 f4 32 3d
       -0.1860748 -0.088897064 -0.059025638 0.043689787
000040 b7 0a b5 3d 5b 3c 33 be 40 e0 d5 be 78 e7 19 be
       0.08839934 -0.17503493 -0.41772652 -0.15029705
000050 5a 84 ee bd d1 04 3e bd 66 27 c9 bd 6d 78 e2 3c
       -0.11646338 -0.046391312 -0.09821968 0.027645314
000060 4a b9 40 bd ae b3 32 3e 55 67 2a 3d 46 a6 c1 bd
       -0.047051705 0.17451355 0.04160245 -0.09455542
000070 51 ac c2 bb 48 31 88 3d 28 1b 3d bd 02 2e 02 3e
       -0.005940952 0.06650025 -0.046168476 0.12712863
000080 b4 08 ca bd f9 ae f4 bd ad f4 ac bc be a8 19 be
       -0.09864941 -0.11947436 -0.021112764 -0.15005776
000090 75 29 9e 3b 0c 50 0f bc bd 01 37 3e 9d 14 f4 bd
       0.0048267194 -0.008747112 0.17871757 -0.11917994
0000a0 e9 35 27 3c b3 08 ee bd 14 c5 3b be d0 22 3b bd
       0.010205724 -0.11622753 -0.18336898 -0.045687497
0000b0 1d b5 8d bb 87 63 a1 bd f1 c5 b6 be b7 6d 30 be
       -0.004324569 -0.078803115 -0.35697892 -0.17229353
0000c0 4c 59 79 be d6 de 01 be c2 a4 32 be 84 d7 98 bd
       -0.2435047 -0.12682661 -0.17445663 -0.07462981
0000d0 de a8 e6 bd 1a b5 d6 bc 00 f5 cc bd 9a 1d d0 bd
       -0.112626776 -0.026209403 -0.100076675 -0.10161896
0000e0 d1 31 cd 3c bb 4d 16 be bc c1 bd 3d 87 4e de bc
       0.025048168 -0.1467809 0.092654675 -0.027137054
0000f0 72 7f 18 be 63 fb 1f 3d c3 13 17 bd 8f 71 2b be
       -0.14892367 0.0390581 -0.03688408 -0.16742538
000100 1f 01 d1 3d b5 14 20 bc 61 46 30 3c 5e 26 4b be
       0.10205292 -0.009770562 0.010758967 -0.19838855
000110 f9 15 39 be 12 d2 27 be da 9b 0a bd e9 14 27 3d
       -0.18074788 -0.16388729 -0.033840038 0.040791426
000120 c5 a8 80 bd 1d a6 ea bd 15 76 cf bd 12 7d b0 bd
       -0.0628219 -0.11457465 -0.10129944 -0.08617605
000130 45 a7 77 bc bf 1a 28 be 4a 8d 02 bc 20 bb 46 bd
       -0.015115564 -0.16416453 -0.007968256 -0.0485183
000140 11 dd 4b 3d 57 7c e5 3c ec df 35 3e da 99 07 be
       0.049771372 0.028013391 0.177612 -0.13242283
000150 03 6c 24 3d 60 0b 84 bb 55 4c 31 3d ce 7a 06 3d
       0.04014207 -0.0040296763 0.043285687 0.03283196
000160 1a 71 61 be 87 15 85 bc dd 28 b5 3d a4 b9 f4 bc
       -0.22015801 -0.016245617 0.08845685 -0.029873677
000170 40 c0 4d be a5 5b 2a be 30 20 f0 3d 92 86 1d bb
       -0.20092869 -0.16636522 0.11724889 -0.002403651
000180 31 38 8d be 24 f5 0a be 77 5e 45 be 7e 71 c4 bd
       -0.27581933 -0.13570076 -0.19274317 -0.095919594
000190 6c ff a5 3d f0 cf 81 be 10 2d 91 be 2d 97 4d bd
       0.081053585 -0.25353956 -0.28354692 -0.050193
0001a0 0f f5 c1 3b ee 99 a2 3d 83 1c 41 3e ed 9f 37 bd
       0.005919106 0.07939516 0.18858533 -0.04483025
0001b0 bd bc 23 bb 48 00 32 be a0 84 8e bc 09 1d bd bd
       -0.0024984323 -0.1738292 -0.017397225 -0.09234054
0001c0 6a a4 0a be dd b9 4c bb ca 4a 60 be f4 7e 08 3c
       -0.13539281 -0.0031238713 -0.2190353 0.008331049
0001d0 df 5d 14 3e f5 48 9f 3d 5c 8e 29 be 0e 8b c9 3d
       0.14488934 0.07777587 -0.16558212 0.09840976
0001e0 64 51 12 3e c3 7b 48 be 0a 63 0c bc dc f2 7b be
       0.1428886 -0.19578461 -0.008568535 -0.24604362
0001f0 6f 0c 4e 3e 3f 38 c2 bd 5a 59 03 be a3 1c 0b be
       0.2012193 -0.09483384 -0.12827054 -0.13585143
000200 af 8b 47 ba 7a 25 41 3d 35 27 3c bd a4 08 91 3d
       -0.0007612062 0.04715488 -0.04593583 0.07081726
000210 5f ab 17 be f6 cc 44 bd 54 b2 e6 3d 09 91 8d bd
       -0.14811467 -0.04804703 0.11264482 -0.06912429
000220 b3 a3 55 3e e0 19 14 bd a2 62 1c be 16 3f 2a bd
       0.20863228 -0.03615749 -0.15272 -0.04156407
000230 9f f4 12 be ab 4e e7 bd 80 3c 99 3d 0d 06 b0 bd
       -0.14351128 -0.112943016 0.074822426 -0.08594904
000240 5e c4 13 3d 9a 3a 20 3e 48 92 26 bc bf c6 27 3e
       0.036075942 0.15647355 -0.010166712 0.1638441
000250 af 5c cc bd f1 29 89 bd 97 b7 47 3d 29 7b 96 3c
       -0.099786155 -0.06697453 0.04875907 0.018369274
000260 57 d9 95 bd 24 7c 97 3c c8 21 0a 3e b4 5e 9a bb
       -0.07316845 0.018491812 0.13489449 -0.0047109965
000270 0e d7 16 3e 48 57 bc bd 15 f9 47 be b3 f9 c1 bd
       0.14730474 -0.09196335 -0.19528611 -0.094714545
000280 3a 73 05 3d a3 e8 6b bd 16 5a 60 3d 55 8f 20 be
       0.03258059 -0.057594907 0.054773413 -0.15679677
000290 8e a5 89 3d 55 82 99 3c ce ec af bd a5 ab 9d bd
       0.0672103 0.018738905 -0.08590089 -0.07698754
0002a0 c3 f3 ef bd 98 81 e1 3d 12 c0 dc bd dc b8 e6 bd
       -0.11716416 0.11011046 -0.10778822 -0.11265728
0002b0 b8 49 ac 3d d3 be 88 bd cc e0 e6 bd e9 d3 20 3e
       0.08412498 -0.06677022 -0.11273345 0.15705837
0002c0 a9 df e3 bd cb d9 f4 ba ca a7 8b 3d 73 fe 08 3d
       -0.11126644 -0.001868063 0.068191126 0.033445787
0002d0 5c 45 ea 3d 89 ad 16 be a4 3a e3 3d d0 e1 70 3c
       0.114390105 -0.14714636 0.11095169 0.014702275
0002e0 a7 73 ea bc 4f a9 b5 3b d6 fe b9 bd ae 15 b7 3c
       -0.0286196 0.005543865 -0.09081809 0.022349205
0002f0 fe 01 9d 3d 63 7f cf bd a1 b3 d5 bd 50 b3 77 3d
       0.076663956 -0.10131719 -0.10434652 0.06047374
000300 c8 a3 85 3d 8e b7 88 3c 52 28 ad bb 30 49 02 bd
       0.065253794 0.016689088 -0.0052843476 -0.03180808
000310 05 f9 25 3e 8a 02 ef 3d f3 c7 87 bc 35 3e 89 3d
       0.16208275 0.11670406 -0.016574835 0.06701318
000320 5b c7 68 bc b8 52 de bc ca 58 ad 3c 9f c9 85 bd
       -0.014207686 -0.027139053 0.021160502 -0.06532597
000330 fa c9 a9 3a 8c e7 8d 3b 17 a2 c0 bd fd 02 fb 3c
       0.001295387 0.004330581 -0.09405916 0.030641073
000340 cc af 91 bc a1 54 90 bd 57 b7 54 be 79 6b 83 bd
       -0.017784022 -0.07047392 -0.20773064 -0.06416983
000350 5b 94 95 bd f3 ee c6 bc 6c e9 8c 3b 27 c5 03 3e
       -0.07303687 -0.024283862 0.004300287 0.12868176
000360 30 0a 4e 3c 21 28 a4 bd ef 58 96 3d fe ce bb bd
       0.012575671 -0.080154665 0.073411815 -0.0917034
000370 27 82 19 3d 25 ba 13 be 34 fe 35 be af f3 95 bd
       0.03747764 -0.14426477 -0.17772752 -0.073218696
000380 6a 63 06 bd 73 ca 84 3d 05 55 10 3d 67 7c 52 bd
       -0.032809652 0.064839266 0.03523733 -0.05138817
000390 2b 4d 30 3e db 7b fa 3d 7d 4e 11 3c 88 c5 34 3e
       0.17216937 0.12230655 0.008868811 0.17653477
0003a0 b6 69 bd 3d 20 a3 aa bd a6 bf 65 3d 06 d9 0c 3d
       0.092486784 -0.08331895 0.056090973 0.034386657
0003b0 2b bb 10 3c 24 61 01 be 13 26 58 bd 7d 91 01 3c
       0.008833687 -0.12634712 -0.052770685 0.007908222
0003c0 7c 55 9f bd 40 e6 99 3d be 2c f5 3c 60 53 c7 bc
       -0.07779977 0.0751462 0.029928561 -0.024331748
0003d0 61 38 bd bd aa 09 04 3e c8 7d dd 3d 31 3c 22 bd
       -0.09239269 0.12894312 0.108150065 -0.039608184
0003e0 a7 fa a7 bc 13 59 a9 bd df d5 01 3e b5 14 a6 bc
       -0.020505263 -0.08268943 0.12679242 -0.020273546
0003f0 b3 05 25 3c 43 22 97 3b 7c 25 8d 3c 8e 5f ce bd
       0.01007216 0.0046122386 0.017229788 -0.10076819

fc2.bias f4 [64]
000000 e1 32 6a bb 4a f7 02 bd 47 51 30 3e 83 5e a9 3c
       -0.0035735893 -0.031974114 0.17218505 0.02067495
000010 53 72 1d 3e d0 0e f3 bc 98 dd 9d 3c c4 f4 7c 3d
       0.15375642 -0.02967015 0.019270703 0.061756864
000020 9f 96 83 bd 37 4b fa bd 82 18 c3 bc af 34 80 3b
       -0.06425213 -0.12221377 -0.023815397 0.0039125304
000030 0b bc be bd aa 4d bc bd c6 11 06 3e e1 a8 26 3c
       -0.0931321 -0.09194501 0.13092718 0.0101721
000040 25 eb 3f 3c 5c 2f 04 bd 39 32 bc bd 16 0f 03 bd
       0.011713778 -0.032271728 -0.09189267 -0.03199681
000050 50 93 c9 bc 40 ac 9d 3d ca 91 38 bc 1e 10 05 bd
       -0.024606377 0.0769887 -0.011265228 -0.032486074
000060 fe a2 14 bd af d9 96 bb a0 64 77 3e 4e 9c 5f 3d
       -0.036288254 -0.0046035866 0.24159479 0.054592423
000070 86 cb 2e bd 12 84 fa bc 48 5c e2 bb e7 95 27 3e
       -0.042674564 -0.030580554 -0.0069079734 0.16365777
000080 f1 00 f1 bd 48 76 61 3d 9d 92 4a 3d 38 d2 8e bd
       -0.11767758 0.055044442 0.049456228 -0.0697369
000090 7c 46 54 bd 67 f5 34 3d ef 06 77 3d b5 68 8b 3c
       -0.05182503 0.044179346 0.060309347 0.017017702
0000a0 17 7e 80 3d 82 66 83 bc c2 5d 3d bb e9 10 9a 3c
       0.0627405 -0.01604009 -0.0028894995 0.018806892
0000b0 0b 74 4f 3e de c4 85 3d 8d 5b 76 bd a9 52 b3 bd
       0.2025911 0.0653169 -0.060145903 -0.087560005
0000c0 46 b5 e8 3d 56 6a c4 bd 61 06 d7 bc e3 ef 9c bd
       0.113627 -0.095905945 -0.026248159 -0.07662942
0000d0 12 ed 8b bd d6 35 3b 3e 0a 5a 52 3d 24 25 b8 3d
       -0.06832327 0.18282256 0.0513554 0.08991459
0000e0 90 57 b2 bc 19 c6 ba 3d 2f a1 82 3e 54 fb 16 3d
       -0.021770269 0.091198154 0.25513598 0.03686078
0000f0 45 07 8e bc 26 16 f0 bd 8f 61 6b bd 90 88 3b bd
       -0.01733745 -0.117229745 -0.057466086 -0.045784533

fc3.weight f4 [4, 64]
000000 b5 bf 09 3e 04 20 33 bd f1 1f d4 3d 78 3c 02 3e
       0.13452037 -0.043731704 0.10357655 0.1271838
000010 aa 4c 9e 3d 22 d5 15 3e be 08 ff 3d 63 90 5f 3e
       0.07729466 0.14632085 0.12452839 0.21832423
000020 9c 5a ef 3a 1e 37 b3 bd fe 3b d6 3d 9a 29 fd 3d
       0.0018261257 -0.08750747 0.10460661 0.123614505
000030 bf 01 31 be dd d8 cb bd 97 69 ab 3d 8a fc c3 3d
       -0.17285822 -0.09953473 0.08369749 0.095696524
000040 47 68 e2 bd 5c 73 57 3d b4 bb 8d be 86 fe fc 3c
       -0.110550456 0.05260025 -0.2768227 0.030883085
000050 b3 29 8d bd a9 8a cf 3e 60 f1 a6 bc 0f 01 01 be
       -0.06892719 0.40535477 -0.020378768 -0.1259806
000060 98 06 da bc 99 2e 5b be 6a da 0a 3e c1 a9 f1 3d
       -0.026614472 -0.21404494 0.13559881 0.11799956
000070 cb b7 b9 3c 97 18 36 be c1 ff 01 bd 1d ed 0a 3e
       0.022670647 -0.17782818 -0.031738047 0.13567014
000080 26 1e c6 3b 97 c5 3f be 47 e9 51 3e 2a 57 b0 3c
       0.0060460744 -0.18727718 0.20499144 0.021525938
000090 e5 34 96 bd 73 57 f0 3d 14 d1 d7 be f4 78 88 3e
       -0.073343076 0.117354296 -0.421517 0.2665478
0000a0 d2 37 a8 3d 45 1c 3d bc c0 78 d8 3d 2b c6 27 3e
       0.08213772 -0.0115423845 0.10569906 0.16384189
0000b0 a8 40 1b 3d ee 59 a5 3e 9e 5b 68 3e 95 06 06 be
       0.037903458 0.32295173 0.22691199 -0.13088448
0000c0 7c f6 02 3e 7b f8 c1 bd 80 b4 3d be 84 bf b3 3d
       0.12789339 -0.09471222 -0.18525887 0.08776763
0000d0 13 f9 29 bd 7f 2f fa 3d f4 94 99 3d df 15 0d 3d
       -0.0414973 0.122160904 0.07499114 0.034444686
0000e0 f5 29 3b be 98 ec 89 3d f6 e7 e0 3d 0f 47 ce 3d
       -0.18277724 0.0673458 0.10981743 0.10072147
0000f0 c1 ff a0 3d 4c 86 02 be 62 5b aa bc e6 3a d9 3d
       0.07861281 -0.12746543 -0.020795528 0.10606937
000100 33 6c 18 be 94 9e 5f 3d 44 46 31 3d 61 45 1a 3e
       -0.14885025 0.05459459 0.0432799 0.15065528
000110 91 86 aa 3d 23 82 31 3d 6c 20 21 3d f1 54 42 3e
       0.08326448 0.043337 0.03933756 0.18977715
000120 8e 0a bd 3d 1e 6b 0e 3e 7f 8a 78 bc 6f 9c a6 3d
       0.09230529 0.1390805 -0.015169739 0.08135306
000130 60 08 76 bb 31 06 4c 3e 08 4e 8e 3d 16 45 31 3e
       -0.0037541613 0.19924237 0.06948477 0.1731151
000140 12 76 4f be 78 ff 6b 3d 7f 07 6e 3d a2 6f 5b 3d
       -0.20259884 0.05761668 0.058112618 0.05357326
000150 6a 91 22 bd 74 35 1a 3e 6a 52 1b bd ea 76 02 be
       -0.03968946 0.15059453 -0.037920393 -0.12740675
000160 67 5b f3 3b db 42 3c be 86 35 fc 3d 37 f4 b1 3d
       0.0074266675 -0.18384878 0.12314896 0.086891584
000170 51 d5 5c 3d 4f 96 be bd 1b fd 28 bd c8 87 a3 3c
       0.053914372 -0.09306013 -0.041257005 0.019962206
000180 ac 63 88 bd ac e4 89 be 86 89 5b 3d a7 b8 97 bc
       -0.06659636 -0.26932275 0.05359795 -0.018520666
000190 78 3f bb bd 90 9c 2c 3d ba b9 07 be 06 1d 5f 3e
       -0.09142965 0.042141497 -0.13254443 0.21788415
0001a0 a0 32 b2 3c d6 97 08 be ca cf 5b 3d 66 de 02 3e
       0.021752656 -0.13339171 0.05366496 0.12780151
0001b0 4f ed e3 3d 0c bf f6 3d 9f 08 3e 3d 47 a8 51 3d
       0.111292474 0.12048158 0.04639494 0.051185872
0001c0 0f 04 d0 3d aa 63 4b bc 14 97 40 3d e3 4f 16 3e
       0.10157024 -0.0124138985 0.04701908 0.14678912
0001d0 48 b0 4b bd fd 6c c7 3d 51 4a bc 3d a1 26 60 3c
       -0.04972866 0.09737585 0.09193862 0.013681085
0001e0 54 01 35 3e 5c 18 8b 3d df 1d cf 3d 09 52 50 3d
       0.17676288 0.067917556 0.10113119 0.050859485
0001f0 4f 75 99 bc de 12 2f 3d 81 53 32 3e ba 3b 85 3e
       -0.018732695 0.042742603 0.17414667 0.2602213
000200 a5 f8 27 3e 54 58 38 be ab 79 1d 3d 51 f3 93 3e
       0.16403444 -0.18002445 0.03844611 0.28896573
000210 c6 ff c4 3d 66 f0 b5 3e 2c 15 e8 bd 82 f6 8c 3e
       0.096190974 0.35534972 -0.11332163 0.2753182
000220 46 0b 16 3e f2 fc 56 bd ce 47 86 bc 24 8e a9 3d
       0.14652738 -0.05248732 -0.016391661 0.08279064
000230 85 be a7 3c 9c 32 61 3d 89 1b d5 3d de 8c 3b 3e
       0.020476589 0.054979905 0.104056425 0.18315455
000240 16 38 9c be d7 04 2a bc 02 24 d3 3c 8f bd dd bd
       -0.3051154 -0.0103771305 0.025774006 -0.10827171
000250 36 92 48 3d 05 37 92 3d 39 0a 31 bd 8e 30 2b 3e
       0.048967563 0.071394004 -0.04322264 0.16717741
000260 03 8f 33 3e 86 12 7f bd 4c 98 ef 3d 36 2c 40 3d
       0.17535023 -0.062273525 0.1169897 0.046917163
000270 c3 8d 2c bd 2b ed 2c be b9 94 a2 bc 21 c0 af bc
       -0.042127382 -0.16887347 -0.019846307 -0.021453919
000280 c6 02 4f bd 5e 7d 85 bb 44 75 e0 3c 87 ae 9d bd
       -0.050539754 -0.004073783 0.027399667 -0.07699304
000290 a3 db f6 bb 27 cc 90 3d 80 6d 8d 3d eb 04 04 3e
       -0.007533507 0.07070189 0.06905651 0.12892501
0002a0 cc b0 fe 3d 0b 8b 45 be c9 a3 cf 3d 85 38 83 bc
       0.12436065 -0.19291322 0.101386614 -0.016018162
0002b0 70 5c 7f 3d 27 b8 20 3e 91 a2 5a bd ad 2c e2 bc
       0.062344015 0.15695249 -0.05337769 -0.027609194
0002c0 3f 9e 05 3d b6 12 18 3e 1b 97 93 3d 98 bf 8d 3e
       0.03262162 0.14850888 0.072065555 0.27685237
0002d0 5b e7 48 be 0f ed c2 3d 0b 05 2a bd 43 b6 96 3d
       -0.19619505 0.095178716 -0.041508716 0.073589824
0002e0 29 4e 7f bd 8b fd ab 3d 16 95 eb 3d b5 00 7a bb
       -0.0623304 0.08397969 0.11503045 -0.0038147394
0002f0 8c 7c 85 bd a0 2a 03 be 6c 05 96 3d 10 54 95 bd
       -0.06517896 -0.12809229 0.07325253 -0.07291424
000300 5e 9a c0 bd 2a 36 dc bd db 16 89 3d f2 0c 60 3e
       -0.09404443 -0.107525185 0.066938125 0.21879938
000310 96 fe 99 3d 64 50 59 3e f6 a7 0d be f7 46 5f bd
       0.075192615 0.21222073 -0.13833603 -0.054511037
000320 c6 48 e2 bd e6 6a 9c bd 75 13 ad bd 42 3b 6a 3d
       -0.11049037 -0.07637577 -0.08450977 0.05718542
000330 13 f3 59 be 2d 25 bc 3d d8 65 e4 3d 7e ec 6b 3e
       -0.21284132 0.09186778 0.11152238 0.23039433
000340 0b b0 e4 bd a7 ee 89 3e fb 85 84 be a1 3d 31 3e
       -0.1116639 0.2693989 -0.2588347 0.17308666
000350 59 67 bf 3d d8 57 a2 3e 88 35 4c 3e 82 ee b1 3d
       0.09345884 0.31707644 0.19942296 0.0868807
000360 56 90 9b bd 3a 31 c5 3c 39 a0 e1 3d 54 9f 4c 3c
       -0.07595889 0.024071325 0.11016888 0.012489159
000370 c7 0c b0 3d 91 f2 1e be 92 01 80 bd 35 c3 e8 3d
       0.08596187 -0.15522219 -0.062502995 0.11365358
000380 14 db 89 bd 66 ff b3 3d de ba d8 3c e1 d3 e5 bd
       -0.06731239 0.08788948 0.026456293 -0.11222053
000390 c8 46 fb bd 44 59 20 bd 93 d9 08 bd 69 f2 99 3d
       -0.1226936 -0.03914763 -0.03341062 0.07516939
0003a0 23 6b e6 3d 51 89 5a be 28 1b d6 bd f4 91 84 bd
       0.112509035 -0.21341445 -0.104543984 -0.06473151
0003b0 01 04 02 3e 30 55 15 bd 0a 28 0d 3d 0c 54 37 bd
       0.1269684 -0.036458194 0.034462012 -0.044757888
0003c0 71 5c 2a bc 0b 74 8f 3d 2e de bd 3d 67 17 92 ba
       -0.010398016 0.07004555 0.09270893 -0.001114589
0003d0 20 84 e7 bc e3 c8 1e 3d d4 2b c5 3d bb e7 9b 3d
       -0.028261244 0.0387658 0.096275 0.076125585
0003e0 1b c1 8f 3d 46 16 a5 ba 0f b8 9d 3d 5c 0e 8d bc
       0.07019254 -0.0012595139 0.07701122 -0.017218761
0003f0 33 ef cd bd aa b5 40 be 43 f8 c3 bb ac 04 bb 3e
       -0.10055389 -0.188193 -0.005980523 0.36527002

fc3.bias f4 [4]
000000 28 4b 91 3d ae b9 aa 3d b1 93 1c 3e 9f a2 ff 3d
       0.07094413 0.08336197 0.15290715 0.124821894
