Navigation - Value based methods/checkpoint/checkpoint_ddqn_er_42.pth (torch_old, 54451 bytes, 6 tensors)

fc1.weight f4 [128, 37]
00000000: 2110 fe3d c9d5 00be 0ee2 54be 2ec0 a6bd
00000010: d1cc 873e 2b38 263e 1538 acbe 0c13 753c
00000020: 3c8b 533e 7284 443c 135a de3b a3e7 45be
00000030: 7947 c1be 4f3c a63d 8695 fabd 1433 ae3d
00000040: 5a04 1bbd 19dc 49bd 7001 18be abe5 11bd
00000050: 239e 153c 2d0d 45bc 766b e0bc c01a 4bb6
00000060: 3ac6 f93d 8201 ab3e 5579 82bd 95a9 b1be
00000070: 60c6 bfbe f5cc ffbd 71ca 21be 287a 63bd
00000080: a470 0ebd ac42 bbbd 8c63 3dbe bfbf 34be
00000090: 7591 dbbd 585e ab3e d34f 493e e961 64be
000000a0: b728 d7bd ebe6 1dbf 33e3 2cbd f006 06be
000000b0: 2d59 a33d eb75 1bbe a394 493e bfab 873e
000000c0: 0b56 09be c165 b03d 4a64 7bbd 97aa 9e3c
000000d0: 59f4 593d 1bcb 0f3e a036 983c e3f8 2bbd
000000e0: f6e5 a3be 5d7b 33bd 6025 34be f958 493d
000000f0: f350 46bc 9ca9 32bd 6715 35bc a80f b33d
00000100: 64e4 553d 8ac7 b03c 9519 9f3a 2210 09bd
00000110: 1ede a93e 597a 3e3e e25e 2cbe 2ee8 c9bb
00000120: d698 aabd 1249 473d d386 9c3e e721 3a3d
00000130: 7bf4 0c3e f154 33bf 2ea1 323c b5ea 95be
00000140: cba4 d5bc 06ac 213e d1c7 063e e2b7 b7be
00000150: 429e ea3d dd73 8dbe d12c 8e3d 502b 95bd
00000160: 0759 6f3e feba cabe c009 e13d f17a b63d
00000170: e36d a13e 7749 3dbe 2ab9 55be c280 5dbe
00000180: 3958 493e 02b6 0abe 8898 a0bd 1e6f 90bd
00000190: 529d 5c3e 6af2 1e3e 315b a0be e39f 57bd
000001a0: fcf6 2dbf c2a9 183e 232a 73bc e11f 04be
000001b0: 37d8 003e 5b32 0b3d 634e 16bd 625f 3a3e
000001c0: b5d3 35be 3159 813e f033 9dbd 70c0 41bf
000001d0: 0153 01be 133e c9bb 2bc8 2f3e 7bdc 093e
000001e0: fed0 a03e 89a0 623d ceb1 5bbe 3a0d 253e
000001f0: e28c 59be fc0b d93c c0f7 653d bcb7 e8bd
00000200: ff88 16be 1491 02bd 29d3 023e ccfa 593e
00000210: f1df 643d 82a3 0bbe 2074 0c3e d275 9cbe
00000220: 2b12 51bd 27ed d8bc a197 303e 9122 053c
00000230: 9acf 4c3e 7208 2d3e b570 283d 8bd3 303e
00000240: a2d1 bebe a8a4 5cbe 9318 423d 1c0c b83b
00000250: 30eb 96bd 635a a8bd 6a13 0abe 72ca 03be
00000260: fd7c 6b3e 66ab 143d 1563 353e 059d 5dbd
00000270: d717 cc3d 1212 2d3e 637d 4abe 5af1 533e
00000280: 2483 c93c 629e c6be 2f42 5fbe 63eb 033c
00000290: de06 cdbd 5e99 9fbd 6448 56bd 7b8c 3b3e
000002a0: 5a44 00bf 1d6b abbc 67ed bc3e 9a3e cebd
000002b0: dece 3fbd af0a 923e 33d9 60be 07d7 e23d
000002c0: 5927 f5be c0f0 03bf e99a 48be 5c68 be3c
000002d0: 7b68 043e b801 cebc b42f 7dbe 2edb 1cbe
000002e0: d071 553d f4a7 963e 045b 18be 8ccd 0cbd
000002f0: 087e 3fbe 3564 82be 1809 bc3e 0a0d 653c
00000300: 9427 6f3d 9fd5 19bf cffe 14c0 c47f f9bc
00000310: 3656 b53d 3481 7fbd 4d5b 1bbe 6c76 abbd
00000320: bfc5 3bbe 7e94 0d3e 43f6 c93d 3e70 8cbd
00000330: f316 243d 179a 3f3d 071e eb3d 6c61 3a3e
00000340: 6373 5e3e dd02 923d e72d a6bd 5781 033c
00000350: f72d 723e 0763 1a3e 9094 7ebb c625 bcbc
00000360: 8c9e 283e 00a9 cb3c 988e 3dbe 5cde 1fbf
00000370: df5b 883d 4042 063d dc72 973b bedc d83b
00000380: f53c 923c 55ba cdbd 64b2 0dbe f364 eabd
00000390: fa32 c5bd c73b dbbc 4f5a 3a3e 7e72 633e
000003a0: a4f8 7bbd cc60 1c3e c3ac e13c 4031 9f3d
000003b0: 9d59 f63d 9b5d 6fbd 5489 d4bc 9c0f cdbb
000003c0: b988 993d 0602 823d 886b 2dbe f0de 3f3d
000003d0: c0ef 2b3d ae00 043e 5528 af3e dbca a9bd
000003e0: 0ffc 09be 1d5f 8dbc f4bc 093c 613b 7c3d
000003f0: 8365 cf3e 5f38 0abf e1ce 41be d5a9 efbe
0.1240542 -0.12581553 -0.20789358 -0.08142124 0.2652345 0.16232364 -0.33636537 0.014958154
0.20658582 0.011994468 0.00678564 -0.19326644 -0.37749842 0.08116972 -0.122355506 0.08505836
-0.037845947 -0.049282167 -0.14844298 -0.03561942 0.009131941 -0.012027067 -0.027394991 -3.0264928e-06
0.12196012 0.33399588 -0.063707985 -0.34699693 -0.37456036 -0.12490264 -0.15799882 -0.05553642
-0.03477539 -0.09143576 -0.18495005 -0.1765127 -0.10721103 0.33470416 0.19659357 -0.22302975
-0.105058126 -0.6168048 -0.04220886 -0.13088584 0.07975993 -0.15181701 0.19685607 0.2649822
-0.13411729 0.08613158 -0.06137494 0.019368453 0.053211544 0.14042322 0.018580735 -0.041985404
-0.32011384 -0.04381882 -0.17592382 0.049157117 -0.012104261 -0.043618783 -0.011052466 0.087432206
0.052219763 0.021579523 0.0012138361 -0.03346265 0.33177274 0.1860136 -0.1683307 -0.006161711
-0.083299324 0.04865367 0.30571613 0.045442488 0.13765137 -0.70051485 0.010902686 -0.2928063
-0.026079556 0.15788278 0.13162161 -0.3588248 0.114559665 -0.2762746 0.06942142 -0.07283652
0.23373805 -0.3959579 0.10988188 0.08910168 0.3152915 -0.18485056 -0.20871416 -0.21631148
0.1966256 -0.13545993 -0.07841593 -0.07052444 0.21544388 0.15522161 -0.31319574 -0.052642714
-0.67954993 0.14908507 -0.014841589 -0.12902786 0.1258248 0.03398357 -0.03669585 0.18200448
-0.17756541 0.2526336 -0.07675922 -0.7568426 -0.1262932 -0.006141433 0.17166202 0.13463013
0.31409448 0.05532888 -0.21454546 0.16118327 -0.21245149 0.026494972 0.056144476 -0.113631696
-0.14700697 -0.03187664 0.12775864 0.21287078 0.05587763 -0.13636592 0.13716173 -0.3055864
-0.051042717 -0.02648027 0.17245342 0.008125917 0.20001069 0.16897753 0.04112311 0.17268197
-0.37269312 -0.21547186 0.047386717 0.005616678 -0.07369077 -0.08220365 -0.13483968 -0.12870196
0.22996898 0.03629627 0.17713578 -0.054104824 0.099654846 0.16901425 -0.19774394 0.20697537
0.024598666 -0.38792711 -0.21802591 0.008051726 -0.100110754 -0.07792924 -0.05231513 0.18315308
-0.50104296 -0.020925099 0.36899874 -0.10070534 -0.046828143 0.28523776 -0.21957855 0.110761695
-0.47881582 -0.5153923 -0.19590344 0.023243122 0.12930481 -0.025147304 -0.24725229 -0.15317985
0.052110493 0.29425013 -0.1487847 -0.034375712 -0.18700421 -0.25467077 0.36725688 0.01398016
0.058387354 -0.60091585 -2.3280523 -0.030456431 0.08854334 -0.062379077 -0.15171547 -0.083721966
-0.18337153 0.13826177 0.09861424 -0.06857346 0.04006095 0.04677781 0.11480337 0.18201226
0.21723704 0.071294524 -0.08114224 0.0080264425 0.23650347 0.15076838 -0.0038845874 -0.02296723
0.16466731 0.024860859 -0.18511426 -0.6244867 0.06658148 0.032778025 0.0046218466 0.0066181114
0.017851332 -0.10045306 -0.13837582 -0.11445036 -0.09628864 -0.026761902 0.18198512 0.22211644
-0.06151642 0.152713 0.0275482 0.077730656 0.12028811 -0.05843888 -0.02594439 -0.0062579643
0.07496781 0.06348042 -0.16935551 0.04684347 0.04197669 0.12890884 0.34210458 -0.08290645
-0.13475059 -0.017257268 0.008406866 0.061580066 0.40507135 -0.53992265 -0.18926574 -0.4680926

fc1.bias f4 [128]
00000000: d2d6 04be 1e78 f73d c7aa 9bbd 2136 bdbc
00000010: 281e 20bb 523f 61bc 7477 c93d 7642 153e
00000020: 857f 5fbe 03b9 883b 6ce5 aabd 58a2 01bd
00000030: 374d 13bd cf4d 113d 1579 afbd bf56 22bd
00000040: 76d0 c83d 094d 21bd 9b70 fc3b 62e6 c6bb
00000050: 2699 04be 0d89 303a 9e03 ff3d 375e 92bd
00000060: 846a a9bc e0fa 0c3e c793 193e 871f edbd
00000070: 8e9f c73c 3df9 e2bd 84bc 183e fa50 943b
00000080: 2641 253c 51da 7e3d f53c 483c 4d59 8fbe
00000090: 6f7b 163e 2121 2c3e c5e8 683d fdd8 243d
000000a0: 7e39 ae3d 329c 9a3d a4b6 643e 9040 203d
000000b0: da7b 603d 5b20 17be 5c0c 1c3d 8bed c1bd
000000c0: 0326 08be 8641 f93d faa4 1a3c 1d24 a03b
000000d0: 6b8d 603d f4e8 c93d 4e7b c13d ce90 943d
000000e0: d5a8 343b e647 f5bd 2a95 2f3c c578 97bd
000000f0: a147 9bbd aa28 a03d 260e d13d 779b 4bbd
00000100: c598 113e 2dac f53c bb4c c43d 85e4 88bc
00000110: 93df d2bd 30c9 94bd 6649 413d 9e3d c2bd
00000120: d044 e23d 5c65 3bbe 2e4f 16be d4b2 75bd
00000130: ce84 6d3e a170 fe3c 0c1d 193d edb7 0b3e
00000140: c340 843b b669 073d 629a 9f3d 2710 e8bd
00000150: 4508 27bd e581 073e d349 fa3d a05d a9bd
00000160: f2fd f5bb 21e4 df3d df05 133e df1f 033c
00000170: 3c2e c2bd c531 83be cf96 2d3d e46f 3abc
00000180: 87f3 f5bc ac4c 8bbe e635 7fbd 7102 e23d
00000190: 1f68 2ebd c744 3ebe a528 013e e807 6c3e
000001a0: 8cb1 88be cb3f 70be db53 f8bd 2ef3 5b3e
000001b0: 17cd 2bbd ae24 86bd ef9a 9e3d 4174 1dbd
000001c0: 8bc0 863c 8c62 08be de45 bdbc b021 203e
000001d0: d9e3 7e3d 3adc 143e f046 aa3c 3ea7 033c
000001e0: 10f3 fd3c 736e 623d cedd ddbc 96dc 19be
000001f0: 4c20 c6bd 2556 6d3d 74e3 a43d 649a db3a
-0.12972572 0.120834574 -0.076009326 -0.0230971 -0.0024432037 -0.013748007 0.09837237 0.14576134
-0.21825989 0.0041724457 -0.0834454 -0.031648964 -0.03596231 0.035474595 -0.085680164 -0.03963351
0.09805386 -0.039380107 0.0077038533 -0.0060699442 -0.12949046 0.00067342893 0.12451862 -0.07146876
-0.020680673 0.13767576 0.14997779 -0.11578279 0.024368074 -0.11082695 0.14915663 0.0045262547
0.010086333 0.06221992 0.012221565 -0.2799782 0.14695524 0.16809513 0.05686261 0.040246
0.085070595 0.07549323 0.22335297 0.03912407 0.054805614 -0.14758436 0.038097724 -0.09469136
-0.1329575 0.12170701 0.009438748 0.0048871175 0.054822367 0.098588854 0.09447347 0.07254182
0.0027566452 -0.11976604 0.010716716 -0.07396082 -0.075820215 0.07820256 0.10207777 -0.04970881
0.14218433 0.029989326 0.09584948 -0.01671053 -0.1029655 -0.07264936 0.04718914 -0.09484409
0.11048281 -0.18300384 -0.14678642 -0.059984997 0.23195192 0.031059565 0.037381217 0.13644381
0.0040360405 0.0330598 0.07793118 -0.11331206 -0.04077937 0.13233145 0.12221112 -0.08269811
-0.0075070793 0.10932184 0.14357708 0.008003204 -0.09481475 -0.2562391 0.04238015 -0.011379216
-0.03002335 -0.27206933 -0.06230726 0.11035622 -0.042579766 -0.18580924 0.12613161 0.23049891
-0.26697958 -0.23461835 -0.12125369 0.21479484 -0.041943636 -0.06549965 0.07744395 -0.038440946
0.016449234 -0.13318843 -0.023104604 0.15637851 0.06222901 0.14537135 0.020785779 0.008035479
0.03099969 0.055281114 -0.027083304 -0.15025553 -0.09674129 0.057943482 0.08051196 0.0016754386

fc2.weight f4 [64, 128]
00000000: d917 19be 9499 1dbd 2a0b 4dbc d54f 9b3d
00000010: e2d1 07be f659 11be 295a 92be ccdf 45bc
00000020: ec8a 7fbe 4792 2dbe 37db 95be 9c41 ae3e
00000030: e114 5fbd 378c 39be d687 0e3d d1b7 cf3d
00000040: cc58 27bc 9d3b e7be f47d d3bd 0f38 3b3e
00000050: 8593 d6bd bcb9 f83d 08d3 cf3d 522c 3e3d
00000060: 1b51 943e 590b d93c a943 09be fd38 72be
00000070: 3086 bebe a105 b63e 9156 01be 1445 533d
00000080: 13b9 83be 3591 5cbe 4aac f8bd d211 0ebf
00000090: 16e0 14be c9b7 5dbd 1355 09be 4769 863b
000000a0: 0ec7 afbd a203 0f3e a109 8e3e f153 ec3d
000000b0: 946a c3bd 9ee3 6fbe 17ca 27bd db1b 24bd
000000c0: 6a88 1bbc d3ec b8be f150 98be 239a a7be
000000d0: b208 8e3d ce67 91bd d12b 083d 3956 2d3d
000000e0: cad1 193e 2456 e5bd 6ac8 b53d 7e2b 8dbe
000000f0: 930c e5be 67b2 c93e db72 813d 3c19 6bbe
00000100: dc03 783d 0889 313e 272c b73d f294 193b
00000110: 654f eb3d 9915 11be 96d4 51be 42a4 bd3d
00000120: 0f0e a7bd e2af 4cbe 51da 6cbd 2f68 873e
00000130: 0ce5 4b3d 19e0 a9bd 8a79 bc3e 1bec 99be
00000140: 4274 f2bd da10 24bd 5543 843e dfbb 89be
00000150: db38 66be 32c5 57bd fde5 f83d 1660 01bd
00000160: ba63 7b3d 2e35 813d b5ff 90be d526 943b
00000170: 6b3a c2be 5cf8 d53d 6a2a c33e 0882 253e
00000180: a45e 1dbe 3a1e 113e e9cf 25bf fe8f 743d
00000190: 8cab a83d fe1a 3bbe 64c6 8b3c a17b 4ebf
000001a0: db42 1b3d e91e 85be 40db 05be a2c7 e0bd
000001b0: 4f3a 403d e029 0f3d 22e4 8c3d e4bd 1f3d
000001c0: 89ed 33bd b891 0ebe 9a46 c5be d896 203d
000001d0: 3d5e 00bd d68f f13d 3e59 ecbe d368 96be
000001e0: f80e 6abd a248 aabd 0dd9 33bd 2e9d 493d
000001f0: d449 c43e 305f 23be dea4 8f3d a8c2 e0be
00000200: ae05 febc 2b03 0abd 51a3 fd3d 5c07 9f3e
00000210: d5a2 983d 3a70 133e df44 fdbd 77ea 2d3c
00000220: 7788 10bd 7294 3c3c 0be7 8dbd 9abd 76be
00000230: 0214 1b3e c99a cdbd b8fc 513e 9d1e 62be
00000240: 6dd0 82be 987c 32be dd63 eabc 0241 3c3d
00000250: b391 5e3c d8ad aabd bc15 903d 80b2 04be
00000260: ca32 8f3d f02e 703d c899 563d 5ff6 4dbe
00000270: a638 aabd 7808 18bf 6acc e0bc e4dc 803d
00000280: f95a 49be 6867 20be 057a 903e e694 da3d
00000290: e960 013c 4c19 843d 0c03 cf3e 6fa0 82be
000002a0: 2289 18bd ae7b dc3d 216d 6f3d 2274 30bd
000002b0: fe11 a03d 56d6 883d 9b77 6ebc 4334 8b3d
000002c0: 906b f83b 68ff 1bbe bc6f 323d 94d0 bbbd
000002d0: 64d8 d63d a593 00bf f2c7 4cbd 2fc2 56bd
000002e0: a485 7bbe 1830 713c fc47 91be 2ea4 95bc
000002f0: f6e0 f8bc 9e03 c7be 2f9d 4ebe 403f a93c
00000300: b9bb 80bd 0be7 85bd 1a01 143e 226f fb3c
00000310: 9241 a93d 3015 863d e0d6 b23d 8028 903d
00000320: 7ad4 bebd 5382 37bd bf97 03bc bccb bcbd
00000330: 299b 7a3e 24ec 593d e64f 6fbe d4b7 b63c
00000340: e8e4 a8bc 5ac2 263e 1508 d63d b513 66bd
00000350: c2c1 03bd afd0 863e 29d1 733d 204e f1bb
00000360: 7eb4 083f f48e 523d 8c9c 1c3e 9bc5 97be
00000370: 9d6a 10bd 17db 97be fe5d f63c 6a53 61be
00000380: aa7e bfbd a5b2 b13d 716f e6be c26d 88bd
00000390: df74 653e 6d0e 1d3d 0a79 443c 5e54 bd3b
000003a0: 4a41 233e b0d7 ee3c 77a2 6cbe 843c c7bc
000003b0: b40d ac3d 1b11 703d 6ace b8bc 9972 91bd
000003c0: de8d 013d 932e f43d 150f 653d 65f9 023e
000003d0: bfca 2fbe 048c 923d 790c d73d b1c9 9c3d
000003e0: 8291 76bc 8393 cb3d 63fc cb3d 61bc a1bd
000003f0: 183e ebbc 2737 0cbc de06 143e 4cd4 4c3e
-0.14950503 -0.03847654 -0.012514869 0.07583586 -0.13263658 -0.14194474 -0.28584412 -0.012077283
-0.24955338 -0.16950332 -0.2926881 0.3403443 -0.05446327 -0.18119894 0.034797512 0.10142482
-0.010214042 -0.4516267 -0.10326758 0.18283103 -0.10477356 0.12144801 0.10147673 0.046428986
0.2896813 0.026494669 -0.13404717 -0.23654552 -0.37211752 0.3555117 -0.12630679 0.05157955
-0.25727138 -0.21539767 -0.121422365 -0.5549594 -0.14538607 -0.05413035 -0.1341136 0.0041019055
-0.085828885 0.1396623 0.2774172 0.11539448 -0.095418125 -0.23426673 -0.040964212 -0.040065628
-0.009492973 -0.36118183 -0.29749253 -0.32734784 0.06935252 -0.07099877 0.03324491 0.042318556
0.15021434 -0.11198071 0.088761166 -0.27572244 -0.44736156 0.39393923 0.06320735 -0.22958845
0.060550556 0.1733743 0.08943968 0.0023434726 0.11489753 -0.14168395 -0.20491251 0.09259845
-0.08156978 -0.19988969 -0.05782539 0.26446673 0.049778983 -0.08294696 0.36811477 -0.30062947
-0.11838581 -0.040055133 0.2583262 -0.26901147 -0.22482626 -0.052678294 0.12153242 -0.031585775
0.061374404 0.06308971 -0.2832009 0.0045212307 -0.37935194 0.104477614 0.38118297 0.16162884
-0.15368134 0.14171687 -0.6477037 0.059707634 0.08235845 -0.18272015 0.017062373 -0.8065739
0.037905555 -0.26000145 -0.13071918 -0.10975577 0.046930607 0.034952044 0.068794504 0.038999453
-0.043927703 -0.13922775 -0.38530427 0.039206356 -0.031339873 0.11795013 -0.46161836 -0.2937685
-0.05714318 -0.08314635 -0.043908168 0.049222164 0.38337576 -0.1595428 0.07013868 -0.4389851
-0.031008568 -0.033694427 0.12384666 0.31060302 0.07452933 0.1439828 -0.12366652 0.010614983
-0.035286393 0.0115100015 -0.069288336 -0.24095765 0.15144351 -0.100392886 0.20506561 -0.2208199
-0.2554964 -0.17430341 -0.028612072 0.045960434 0.013584542 -0.08333939 0.070353955 -0.12958717
0.06992109 0.058638513 0.05239275 -0.20113514 -0.08311586 -0.5938792 -0.027441222 0.062921315
-0.1966361 -0.15664446 0.28218094 0.106729314 0.00789664 0.064501375 0.40432012 -0.25513026
-0.037240155 0.107657775 0.058453683 -0.043079503 0.07815932 0.06681506 -0.014554883 0.067970775
0.007581182 -0.15234149 0.04356359 -0.091706425 0.10490492 -0.5022529 -0.04999537 -0.05243128
-0.24562699 0.014720939 -0.28375232 -0.018266764 -0.030380707 -0.38869947 -0.20177148 0.020660043
-0.06285805 -0.065382086 0.14453545 0.03069264 0.0826446 0.0654701 0.087323904 0.07038975
-0.093178704 -0.04480202 -0.008031785 -0.09218547 0.24473251 0.053203717 -0.23370323 0.022304453
-0.020616964 0.16285077 0.1045076 -0.056171138 -0.032167204 0.26331088 0.059525643 -0.0073640496
0.5340041 0.051405862 0.15294093 -0.29642949 -0.035257924 -0.2965934 0.030074116 -0.22004476
-0.09350331 0.08676652 -0.45006898 -0.0666156 0.22407864 0.038343836 0.011991749 0.0057778796
0.15942875 0.029155582 -0.2310885 -0.024320848 0.08401051 0.058610063 -0.022559363 -0.07101936
0.031629436 0.11922946 0.055922586 0.12790449 -0.17167185 0.07155612 0.10500426 0.07655657
-0.01504934 0.09940245 0.09960248 -0.078972585 -0.028716132 -0.008558071 0.14455745 0.2000286

fc2.bias f4 [64]
00000000: adac bdbd 1031 08be 023b c73d 5c63 c4bd
00000010: 8650 353e fc42 82bd 06bc 19be f12a 873c
00000020: af8f 0fbd 4d68 03be d91b 043b 2c93 67bd
00000030: 0e77 c6bd 4d1d ebbd c965 863c 5a11 87bd
00000040: 427c 9cbd fb4d adbd 95cc e9bd 57a6 e9bd
00000050: 8d1f 09bd dbd6 ae3d 5edf 3fbd 0e97 e13c
00000060: 7c8c 6fbd 1f4a 323d ee96 033f 767b b1bc
00000070: 9412 3a3e 9a4d 0cbe 0e87 1f3c d0a3 d4bc
00000080: 523a 27be 3f99 6e3d 7be3 2fbc eed5 12be
00000090: 335d 9cbd 8e2e 3dbc b4df d13b 689b 253e
000000a0: 63a6 ebba acc2 27be d6f8 d3bc 2514 3c3d
000000b0: bac3 e23e 24db c4bc 8f7b 4abd 6a32 00be
000000c0: 5bb1 f83d 6fba b9bd 62f9 123e 8ba1 03bd
000000d0: 8a08 b6bd 3a79 aa3e 5ab8 9f3e 3028 de3d
000000e0: dee9 26bd 349f 06bd f2c7 e03e d88a 233e
000000f0: 0fb9 e4bd 51fe 02bd 9f82 003d 4ab8 c5bd
-0.09261451 -0.13299966 0.09728052 -0.09589264 0.17706499 -0.063604325 -0.15013131 0.016499968
-0.035049137 -0.12832756 0.00201582 -0.05653684 -0.09690677 -0.11480198 0.016405957 -0.065951064
-0.07640888 -0.08462139 -0.11415974 -0.1140868 -0.033477355 0.08537074 -0.04684388 0.027537849
-0.058483586 0.04352772 0.51402175 -0.021665316 0.1817115 -0.13701478 0.009736789 -0.025957018
-0.16330841 0.058251616 -0.010735388 -0.1433942 -0.07634964 -0.011546744 0.0064048413 0.16172564
-0.0017978664 -0.16382855 -0.02587549 0.04591765 0.44289953 -0.024030276 -0.04943424 -0.12519231
0.12143203 -0.090687625 0.14352944 -0.03213648 -0.088883474 0.33295614 0.31195337 0.10847509
-0.040750377 -0.03286667 0.43902546 0.15970933 -0.111681096 -0.031980816 0.03137457 -0.09654291

fc3.weight f4 [4, 64]
00000000: d923 f63e db28 7bbe de1e 143e 0f98 16be
00000010: d154 e93e 0715 5fbe 3ef0 38be 799f a83e
00000020: a600 e03e 4d94 093d 4a8b cb3d b2d9 333e
00000030: eab0 adbe c960 bd3e c0ec 2a3f f2c2 2c3e
00000040: 0550 42bd 1127 aebf fd63 993c 1b3d 523f
00000050: a9c8 fa3e 2b75 7f3e e5f1 033e d67a 67bf
00000060: b26b 0fbd 9c7d 6b3e a90f 4e3e 9b7f 573f
00000070: b0c5 b03d 0d20 93be bc7d 433e 682c 05bd
00000080: 3d8b b5bc 6320 943d f186 8abc 896c 42be
00000090: 9dc8 02bc f385 193c 63b3 81bf 38be f23d
000000a0: 50af 633e e20c 08be a5d9 96bd c17a ef3d
000000b0: 7642 8f3d ad2b 61bd 1f82 e53c 92f2 d3bd
000000c0: 38e4 653e 0a28 c53d 402e a83d 27f6 6bbe
000000d0: 3558 a9bf fac0 133e 3410 023e 9109 d43d
000000e0: a08e 343d d7b1 72bd 106b 5f3e 8639 4d3e
000000f0: e8bc 9ebe d4e7 ac3e 28fb 1e3e 7d1f 153e
00000100: 48fe e83e 0e9c 21be 76a0 063e 07e8 0c3e
00000110: 8db8 c33e b17d 4abd 8491 3abe c99d 9c3e
00000120: cbf4 453f 70ca 0b3e 54e2 b1bf 7e59 7b3e
00000130: 43d5 2abe b448 ec3e d717 053f c2dc 2c3e
00000140: 6c1e 4fbe bdcf f9be bb38 eb3d 9b28 ca3e
00000150: d931 2e3f dd99 9c3e 8915 88bf 8e79 c4bd
00000160: aa2b 04be 866d 6cbe 4a70 2b3e b9bb cb3e
00000170: 859f 573d fec5 ffbd d67a ef3d 0691 1d3e
00000180: 3488 f3be baae a4bf 9354 3abe 6a74 6fbe
00000190: 269b 8abe 188a c1bc 9bc9 3fbf da99 b43d
000001a0: 740a 923f 6f58 d3bd 1bf6 b6bf 1427 4c3d
000001b0: 74d8 3d3e 52c0 11bf 950c 0cbf 092a 323e
000001c0: 7375 443e 4230 fcbc de94 853d 8164 80bf
000001d0: bee7 113e 62b9 263e 9129 873d 8a59 473e
000001e0: 3500 023f bb10 a83d cf8b 0a3e 7040 fb3d
000001f0: 37f0 94be 9061 853e e5f6 1e3e 9a88 3f3f
00000200: f9c0 e33e cc53 babe 5312 4c3e 45a7 b63e
00000210: 65bb d23e 70bc 8a3c e707 48be a72f 133f
00000220: ab1c 5d3f e0b5 7ebf e94b 593e a5ee c73e
00000230: 965d 5fbf 40ce 1abe 9b43 de3e de31 8d3e
00000240: 2e03 a8be 552f fcbe 6c47 ce3c 28be 29be
00000250: 9da7 adbc 507e 773e dcaf 623f 052e 013f
00000260: fc49 263e f9c0 3cbf d61a 5a3e e94d 603f
00000270: a14b 16bd e5d5 82bd ca1c 9d3e a455 ab3d
00000280: 6897 debe e672 e43e 2bfb 8d3e 37a2 79bd
00000290: 6378 2bbd 7ba6 0c3c 8951 a73e c956 4a3e
000002a0: e9dc 7f3f 995e 20be 451a a0be 40e8 1cbe
000002b0: ed0b 083e 3743 7c3d 7350 9cbf f3da d0be
000002c0: be2d 753e 5c76 1d3f 5c7a c53d 4c2c 0c3f
000002d0: 570f 0dbe 12e4 113e 1639 a33d 9b7c bd3e
000002e0: dcd9 6bbe 4b6f da3e fb6d a33d d36a 37bd
000002f0: 9991 88be ff64 ef3d 441a 5f3d accc 6fbf
00000300: 98dc 3f3e 3ce8 74be 6415 103e 00c2 d03e
00000310: c9eb 993e 4b9d 78bb 9b6a 8bbe 2837 113e
00000320: d395 afbd 63c9 82bf 2a73 753d 2d52 8e3e
00000330: 4299 83bf 3df2 213f 85b4 173f e1e9 a73e
00000340: 5912 f63c 0e5b b73e fd92 cdbd 0514 243f
00000350: a802 353f 5348 ee3e 5ea1 273f d5af d73e
00000360: 72eb eebe 2363 d43c d061 393e 41df f23e
00000370: b914 083e c56c 30be 2221 39be d33f fa3e
00000380: d564 b8be 07ad 053f 2088 1e3e 2eaf d8be
00000390: aace 2c3e edfc 70be e427 b4be 69b6 163e
000003a0: cfb1 eb3e 2294 d7bd efb7 6dbf 454d d73d
000003b0: 41ae 143e 4751 51bf d5c6 a2be 640b c2be
000003c0: dc3f 5c3d 79f0 473c 39cd 1f3e 6599 4d3f
000003d0: 10c3 893e 2587 a83d e2b6 073e c516 b33e
000003e0: 3f70 9d3e fe77 91be a0f0 743d acc0 d03d
000003f0: 8d11 b6be 285b 583e e2b1 d8bc 9449 d63d
0.48074225 -0.24527304 0.144649 -0.14706443 0.45572522 -0.21785365 -0.18060395 0.32934168
0.43750495 0.033588696 0.09938677 0.17563513 -0.33924037 0.36987904 0.667675 0.1687124
-0.047439594 -1.3605672 0.018724436 0.8212449 0.48981217 0.2494704 0.12885244 -0.9042181
-0.035014816 0.22997135 0.20123161 0.84179085 0.08631456 -0.2873539 0.19090933 -0.032513052
-0.02216112 0.0723274 -0.016910048 -0.18986715 -0.0079824 0.009370315 -1.013287 0.118526876
0.22234845 -0.13286164 -0.07365731 0.11693335 0.06995098 -0.054973293 0.028016148 -0.10349001
0.2245034 0.096267775 0.082119465 -0.23043118 -1.3230044 0.14429083 0.12701494 0.10353387
0.04408133 -0.059251633 0.21818185 0.20041475 -0.310035 0.3377062 0.15525496 0.14562793
0.455065 -0.15782186 0.13147148 0.13760386 0.3822674 -0.049436275 -0.18219572 0.3058913
0.7732665 0.13651443 -1.3897195 0.24545857 -0.16682915 0.46149218 0.519895 0.16881087
-0.20226449 -0.48791304 0.1148543 0.39484105 0.6804481 0.30586138 -1.0631572 -0.09593497
-0.12907282 -0.23088655 0.16742054 0.3979166 0.052642364 -0.12488936 0.11693351 0.15387353
-0.47564852 -1.2865822 -0.18196325 -0.23384252 -0.27071494 -0.023625419 -0.74917 0.08818407
1.140944 -0.10319602 -1.4293855 0.049841955 0.18539602 -0.5693408 -0.547067 0.17398848
0.19185428 -0.03078473 0.06522535 -1.0030671 0.14248559 0.16281655 0.06599725 0.1946775
0.50781566 0.08206316 0.13529895 0.1226815 -0.2908952 0.26050997 0.1552387 0.7481781
0.44483164 -0.36392057 0.19928865 0.35674492 0.41158596 0.016935557 -0.19534265 0.57494587
0.8637187 -0.9949627 0.21220364 0.3904926 -0.87252176 -0.1511774 0.43410954 0.27577108
-0.32814926 -0.4925486 0.025180541 -0.16576445 -0.021198088 0.24169278 0.8854959 0.50460845
0.1623916 -0.7373195 0.212993 0.8761888 -0.03669322 -0.063884534 0.30686027 0.08365944
-0.4347489 0.4461891 0.27730688 -0.060945716 -0.041862857 0.008584614 0.32679394 0.19759668
0.9994646 -0.15661086 -0.31270042 -0.15322971 0.132858 0.06158754 -1.2212051 -0.40792045
0.2394323 0.6150873 0.09642479 0.5475509 -0.13775383 0.14247158 0.07969873 0.3700913
-0.23032326 0.42663035 0.079799615 -0.04477961 -0.26673582 0.11689185 0.05446841 -0.9367168
0.18736494 -0.23916715 0.1407066 0.4077301 0.30062702 -0.003793555 -0.2722977 0.14181197
-0.085734986 -1.0217708 0.059924282 0.2779707 -1.0281146 0.6326025 0.59259826 0.32795623
0.030038046 0.35811657 -0.100378014 0.6409305 0.7070718 0.46539554 0.654806 0.42126337
-0.46664006 0.025926178 0.18103719 0.47435954 0.13289155 -0.17228992 -0.18079045 0.4887682
-0.3601443 0.52217144 0.15481615 -0.42321151 0.16875711 -0.23533984 -0.35186684 0.14718021
0.46034095 -0.10526301 -0.92858785 0.10512785 0.14519598 -0.81764644 -0.31792322 -0.37899315
0.05377184 0.012203329 0.1560563 0.80312186 0.26906633 0.08228902 0.13253358 0.3497831
0.307497 -0.2841186 0.05979979 0.10192999 -0.35560265 0.21128523 -0.026452009 0.10463253

fc3.bias f4 [4]
00000000: 4078 6b3e 5ac4 823e 2e0b b93e 6e8b aa3e
0.2299509 0.2554043 0.36141342 0.333095
