Navigation - Value based methods/checkpoint/checkpoint_ddqn_er_35.pth (torch_old, 54445 bytes, 6 tensors)

fc1.weight f4 [128, 37]
0.39541242 0.03575505 -0.25770664 -0.5360303 -0.28019765 0.081298865 -0.15939106 0.2506125
0.056511346 -0.20382452 -0.33725148 0.11988581 -0.1481419 -0.07850534 0.09655788 -0.22132485
0.06784739 0.14471154 0.17149632 0.16583054 -0.060429204 0.31347686 -0.2174313 0.072160274
0.050269578 -0.16214187 0.2058818 -0.219119 0.21724507 0.061697464 -0.20832522 0.28988975
-0.16258444 -0.012407947 0.12086995 -0.03594795 -0.044832036 0.19442555 -0.02636623 0.10568682
0.1161227 -0.26463127 0.19122796 -0.23317048 -0.20373385 -0.026171299 -0.049868684 0.08903691
-0.06337175 0.015004337 0.13484289 0.15635921 0.16308877 0.071356624 -0.07606757 0.09610609
-0.07709692 -0.17782082 -0.0647318 -0.03957222 0.13911697 0.13406034 -0.08465762 -0.12232052
0.20411968 0.08173961 -0.21626046 0.23314032 0.24191263 -0.09914504 -0.19585432 -0.0041109202
0.09162077 0.081519 -0.13959754 0.0981173 0.24990611 -0.27630946 -0.07896922 -0.11168792
-0.42651102 0.43548054 -0.001547411 -0.2417021 0.032119915 0.07062052 -0.05220605 -0.24497984
0.06807114 -0.10822283 -0.1429918 0.27732125 0.14699736 0.2109153 -0.67648727 -0.09113041
0.10692935 0.32031637 -0.2580424 -0.06204347 0.1629882 0.089630194 -0.031991594 0.4242697
0.020699568 0.08440389 -0.29547805 -0.29645824 0.15223928 0.12785986 -0.048369665 0.43837658
-0.14776549 -0.030182857 0.12222467 -0.8239437 -0.06410279 0.097612955 -0.0067369104 0.23268881
0.20887034 -0.054107293 0.08546282 0.06347276 0.0030850444 -0.07035147 -0.17180859 -0.07195344
0.13370726 0.032465838 0.015540356 0.25422838 0.0022238658 -0.07739249 0.050833654 -0.33841366
-0.06780481 0.046205033 0.21626592 0.11861996 0.075804986 0.20175053 0.07197021 0.078417934
0.050856777 -0.29738104 0.054211974 0.005662194 0.029196586 -0.2910476 -0.3722306 -0.06393217
-0.11393603 -0.0064578108 0.096092016 -0.07615666 -0.04199259 -0.11668109 -0.20264843 0.011099575
-0.23081021 0.03581994 -0.3083814 -0.3365216 -0.016520968 0.06477209 -0.2875671 -0.11563119
-0.16871542 0.0068286723 -0.06287626 -0.0070088375 -0.10360651 -0.011721112 -0.115725234 -0.10272596
-0.017535785 0.03079771 0.10743447 -0.058164712 -0.06045146 -0.3385773 0.2496201 0.103300355
0.1571485 -0.3529004 0.07179341 -0.011729277 -0.10341663 0.004666986 -0.17880146 0.1759769
-0.04627659 -0.24538507 -0.026270531 0.043895718 -0.23422275 -0.24077164 0.11182671 0.32743496
0.11171955 0.08109108 -0.35808283 -0.14864406 -0.3208217 -0.17641938 0.10379724 0.3245482
-0.31030357 0.05528334 -0.0652423 -0.03385813 0.15046927 -0.47085533 -0.03907778 -0.5636735
-0.07185184 0.15651236 -0.04647487 -0.2906793 -0.0024990726 0.1312552 0.28079724 0.0011037944
-0.09051066 -0.09633917 -0.21801436 -0.02175075 -0.10223369 0.013022434 0.06369706 0.06424975
0.024468163 0.101520926 0.07613365 0.16427234 0.17645329 -0.081719466 0.006321802 -0.01254163
0.11277567 0.30513296 0.06737821 -0.08033579 0.19926827 -0.18225534 0.14118433 0.061158407
-0.07278509 -0.08032595 -0.06418727 0.06506462 0.42547145 0.09466329 -0.41525078 -0.2814629
00000000: 7f73 ca3e e373 123d 20f2 83be 4839 09bf
00000010: 1176 8fbe 0580 a63d 6937 23be 4850 803e
00000020: 7178 673d 60b7 50be 3aac acbe b186 f53d
00000030: 83b2 17be 68c7 a0bd 23c0 c53d fba2 62be
00000040: 93f3 8a3d 432f 143e bb9c 2f3e 7bcf 293e
00000050: 9d84 77bd 0a80 a03e 50a6 5ebe c4c8 933d
00000060: 79e7 4d3d 8508 26be aed2 523e bb60 60be
00000070: 7e75 5e3e 7bb6 7c3d 3553 55be 6e6c 943e
00000080: 897c 26be b44a 4bbc aa8a f73d 283e 13bd
00000090: cca1 37bd 7e17 473e fefd d7bc 5572 d83d
000000a0: bdd1 ed3d c07d 87be 43d1 433e 3ec4 6ebe
000000b0: 9b9f 50be 3165 d6bc 1b43 4cbd fc58 b63d
000000c0: 0cc9 81bd c0d4 753c 4114 0a3e a11c 203e
000000d0: be00 273e 6c23 923d 50c9 9bbd 45d3 c43d
000000e0: fde4 9dbd a916 36be 1b92 84bd 7b16 22bd
000000f0: ae74 0e3e 1d47 093e f960 adbd 2e83 fabd
00000100: c004 513e 1967 a73d 6273 5dbe 56bc 6e3e
00000110: f2b7 773e 8e0c cbbd 098e 48be e6b4 86bb
00000120: aca3 bb3d 6ff3 a63d a8f2 0ebe b9f1 c83d
00000130: 63e7 7f3e 6f78 8dbe 9dba a1bd a3bc e4bd
00000140: a75f dabe 4ef7 de3e 7fd2 caba c180 77be
00000150: 2c90 033d 7ea1 903d 03d6 55bd ffdb 7abe
00000160: e268 8b3d eea3 ddbd 716c 12be 0dfd 8d3e
00000170: 7a86 163e 2efa 573e 452e 2dbf 95a2 babd
00000180: c6fd da3d 8200 a43e 221e 84be 4b21 7ebd
00000190: 61e6 263e 0990 b73d 9e09 03bd e139 d93e
000001a0: 2492 a93c f2db ac3d e648 97be 60c9 97be
000001b0: 9de4 1b3e b2ed 023e 451f 46bd e572 e03e
000001c0: d64f 17be 0a42 f7bc ee50 fa3d f9ed 52bf
000001d0: 5348 83bd 4de9 c73d 4dc1 dcbb fa45 6e3e
000001e0: 1be2 553e 9c9f 5dbd 2207 af3d 02fe 813d
000001f0: 752e 4a3b 6e14 90bd 97ee 2fbe 535c 93bd
00000200: 8eea 083e e6fa 043d fa9c 7e3c 392a 823e
00000210: 47be 113b f47f 9ebd f336 503d 8e44 adbe
00000220: 40dd 8abd 7d41 3d3d d074 5d3e 06ef f23d
00000230: a53f 9b3d b197 4e3e 1e65 933d 9599 a03d
00000240: 324f 503d 5442 98be 600d 5e3d ed89 b93b
00000250: ae2d ef3c 3104 95be 0295 bebe dfee 82bd
00000260: 4b57 e9bd 0b9c d3bb e4cb c43d 06f8 9bbd
00000270: 6c00 2cbd 7ff6 eebd 1283 4fbe feda 353c
00000280: 8359 6cbe eeb7 123d 2be4 9dbe 8f4c acbe
00000290: fb56 87bc 3ba7 843d ff3b 93be 0cd0 ecbd
000002a0: bcc3 2cbe 0ec3 df3b 45c5 80bd 64aa e5bb
000002b0: a62f d4bd e809 40bc 5a01 edbd fd61 d2bd
000002c0: 35a7 8fbc 7b4b fc3c 9a06 dc3d 1f3e 6ebd
000002d0: f39b 77bd 015a adbe 699c 7f3e 238f d33d
000002e0: 89eb 203e 5caf b4be 6c08 933d 272c 40bc
000002f0: 19cc d3bd 84ed 983b bb17 37be 4a33 343e
00000300: 868c 3dbd 3946 7bbe 4c35 d7bc ffcb 333d
00000310: 17d8 6fbe d78c 76be 6705 e53d 8ea5 a73e
00000320: 38cd e43d 1513 a63d a256 b7be 2636 18be
00000330: be42 a4be 48a7 34be a693 d43d 2f2b a63e
00000340: 1ce0 9ebe c970 623d c19d 85bd d3ae 0abd
00000350: 9e14 1a3e f313 f1be 0610 20bd e84c 10bf
00000360: 0f27 93bd c744 203e 6f5c 3ebd ebd3 94be
00000370: 7bc7 23bb c367 063e a8c4 8f3e 32ad 903a
00000380: a75d b9bd 794d c5bd 283f 5fbe a12e b2bc
00000390: e65f d1bd 0c5c 553c 9b73 823d 5f95 833d
000003a0: 7571 c83c 34ea cf3d f6eb 9b3d 0237 283e
000003b0: 2cb0 343e 895c a7bd 1e27 cf3b 697b 4dbc
000003c0: eef6 e63d 633a 9c3e 96fd 893d 1787 a4bd
000003d0: fb0c 4c3e 25a1 3abe a092 103e 3d81 7a3d
000003e0: 5910 95bd ef81 a4bd 9e74 83bd 9940 853d
000003f0: 65d7 d93e d4de c13d c09b d4be e81b 90be

fc1.bias f4 [128]
-0.03096099 0.06373736 -0.10143678 0.022845523 -0.09477546 -0.12792437 0.11085481 0.25360298
-0.22397958 0.19618903 -0.1406823 -0.08741963 -0.13312384 -0.014528834 -0.050215002 0.033069137
0.15319741 -0.16676834 -0.026045017 0.107149474 -0.047357015 -0.0060446374 0.28878254 0.002451635
0.17085902 0.25956392 0.26845893 -0.14948106 -0.004126124 -0.032194864 0.13877149 0.16359559
-0.11733485 0.07767964 0.17661832 -0.16095535 0.15778418 0.15910715 0.0010666332 0.15113053
0.151028 0.26173797 0.2051119 0.15293777 -0.005491806 -0.12281942 0.08858576 -0.007060905
-0.13770154 0.20690896 -0.028237654 0.052046247 0.067407995 0.057802383 0.089017645 0.11245991
-0.09841281 -0.07256153 -0.016145421 0.03366646 -0.17075677 0.19418006 0.16293865 -0.003089244
0.07018097 -0.021490086 0.06425344 0.0010235717 -0.17081946 -0.016078064 0.11631316 0.014518503
0.163715 -0.16199933 -0.101349995 0.008004019 0.300388 -0.032934662 0.16199115 0.07438751
0.011281615 0.21304739 0.14711317 -0.029549474 -0.042535167 0.21578318 0.158633 -0.23198508
0.042973466 0.16096367 0.1326612 -0.012458187 -0.028403178 -0.13824916 -0.02031745 0.067021266
-0.15391877 -0.23744312 -0.063633166 0.213067 -0.04967763 -0.21374798 0.17391452 0.11294207
-0.15910289 -0.23340757 0.020556709 0.1492646 -0.071686246 -0.014185647 0.036605746 -0.0633672
-0.12573862 -0.16657297 0.12158771 0.18050887 0.10656874 0.23896255 -0.03315953 -0.022336256
0.008823847 0.19481954 0.00080720015 -0.021759195 0.07601963 0.14659065 0.17153369 -0.03507649
00000000: e7a1 fdbc bc88 823d 16be cfbd 8926 bb3c
00000010: a319 c2bd 9bfe 02be d907 e33d 40d8 813e
00000020: e75a 65be c7e5 483e 050f 10be 1009 b3bd
00000030: 9e51 08be 590a 6ebc 3fae 4dbd 8173 073d
00000040: c8df 1c3e 52c5 2abe 5c5c d5bc 2f71 db3d
00000050: 6ef9 41bd 1812 c6bb 4edb 933e 9cab 203b
00000060: abf5 2e3e 90e5 843e 7373 893e 9011 19be
00000070: 7034 87bb c3de 03bd 1d1a 0e3e 9a85 273e
00000080: 414d f0bd 8116 9f3d 6fdb 343e 7bd1 24be
00000090: 2d92 213e fcec 223e 45ce 8b3a f6c1 1a3e
000000a0: 16a7 1a3e 8502 863e db08 523e b89b 1c3e
000000b0: 9cf4 b3bb c088 fbbd 736c b53d 2a5f e7bb
000000c0: a201 0dbe f1df 533e a752 e7bc 722e 553d
000000d0: 340d 8a3d 31c2 6c3d e24e b63d 6251 e63d
000000e0: a88c c9bd 249b 94bd 6743 84bc d8e5 093d
000000f0: ddda 2ebe 23d7 463e 64d9 263e ea74 4abb
00000100: 0abb 8f3d fa0b b0bc 4f97 833d 5e29 863a
00000110: 4ceb 2ebe 25b6 83bc 9835 ee3d 04df 6d3c
00000120: e8a4 273e 27e3 25be 9690 cfbd 4a23 033c
00000130: 75cc 993e 7fe6 06bd 02e1 253e 7b58 983d
00000140: 86d6 383c 1829 5a3e d6a4 163e bd11 f2bc
00000150: 5b39 2ebd 44f6 5c3e b070 223e 7f8d 6dbe
00000160: f204 303d a9d3 243e 56d8 073e 6c1d 4cbc
00000170: c8ad e8bc 3091 0dbe c870 a6bc 7242 893d
00000180: e29c 1dbe 4a24 73be 1b52 82bd 3c2e 5a3e
00000190: c57a 4bbd c0e0 5abe a616 323e 2c4e e73d
000001a0: deeb 22be 6502 6fbe 8b66 a83c d2d8 183e
000001b0: 3dd0 92bd ea6a 68bc e8ef 153d aac6 81bd
000001c0: a0c1 00be 1b92 2abe fa02 f93d 51d7 383e
000001d0: b640 da3d 99b2 743e 4ad2 07bd 86fa b6bc
000001e0: e691 103c c67e 473e 499a 533a 5740 b2bc
000001f0: 2eb0 9b3d dc1b 163e 87a6 2f3e 5eac 0fbd

fc2.weight f4 [64, 128]
-0.08437665 -0.08580119 -0.07643495 0.013960526 0.06515359 0.023827577 0.008819534 0.036429998
0.06043292 0.030409776 0.028185146 0.0033541182 0.024428539 -0.0633975 -0.072898 0.018379876
0.0074787955 -0.07777291 -0.07074164 -0.07641772 0.06559013 0.05145793 -0.06891791 -0.008179596
-0.042817846 0.07178792 -0.100750215 -0.06448285 -0.09171165 0.046310153 -0.05986667 0.046476513
0.014030377 -0.04918619 -0.046134636 -0.035769228 0.016579492 -0.057009306 0.014133821 0.0063144416
-0.09300482 -0.07752486 -0.061286163 0.025156576 0.01261366 -0.023687214 -0.05945133 -0.10584773
-0.049581733 -0.08946567 -0.09316867 -0.10401793 -0.062769644 -0.101716556 0.0049014483 0.010695245
0.0356265 -0.10975179 0.04962366 0.011731572 0.031108273 -0.042390827 0.020430258 -0.10623566
0.008157699 0.047320787 0.030794013 -0.08331599 -0.030524252 -0.031458143 0.033027597 -0.05476492
0.006515077 -0.03789262 -0.036321435 -0.0244396 -0.07321638 -0.079838574 0.05058324 0.05225417
-0.0073837307 0.05398225 0.045374177 -0.060594484 -0.057476856 -0.062789395 0.023582144 -0.0015052034
-0.027966307 0.043065738 -0.039724067 -0.05469993 -0.08041823 -0.044965725 0.07764811 -0.049121995
-0.024320342 0.034307763 -0.08937467 -0.07417596 0.058732864 -0.041011274 -0.06840217 -0.027821306
-0.034557153 0.0110358 0.010339698 -0.07465984 0.057906885 -0.089444295 0.0074899723 -0.030513141
-0.042890072 0.079932705 -0.10060912 -0.016241726 0.03617718 0.056967467 -0.071973056 0.005702449
0.082924716 -0.10882292 0.005790853 -0.05538157 -0.007872648 -0.09829852 0.043487377 -0.032405354
-0.00041245893 0.03332869 0.046374746 0.023634834 0.00843734 -0.08378226 -0.3495705 -0.16976018
0.10427234 -0.020660244 -0.457227 -0.06581085 -0.11512511 0.028318772 -0.02123706 -0.5513076
-0.5266235 -0.3443205 -0.3164075 0.13056566 -0.11953122 0.46021226 0.075719394 0.11262091
-0.088009454 0.022920515 -0.07514021 0.0027086323 -0.043769866 -0.060848843 -0.09178428 -0.36391315
-0.09667819 -0.5824614 -0.049568046 0.15415794 -0.20963727 0.01725472 0.28362137 -0.45969108
0.067417555 -0.026295716 0.025385711 -0.074943215 0.93640083 0.4054914 -0.076096 0.15751931
-0.18521419 -0.031020485 0.3936212 -0.0002544816 0.28063875 -0.120494306 -0.02137271 -0.038352925
-0.39887893 -0.22910811 -0.72501385 0.30392963 0.017567642 -0.060014218 -0.0762122 -0.29836908
-0.34642106 0.10934148 -1.049453 0.24333194 0.12132461 0.06161943 -0.07714526 -0.0077669593
-0.042658847 -0.16394456 -0.24423574 -0.008815794 -0.011917255 -0.05695125 0.051205643 -0.27124083
-0.20520556 0.058604322 -0.19851469 -0.18591338 -0.17980011 -0.07680321 -0.008424366 0.2511989
0.097305454 -0.1146723 -0.23265915 -0.5547067 -0.042120967 -0.2607988 0.22871022 0.063154735
0.26332986 -0.44161165 0.2876135 -0.99321413 -0.45329118 0.11844098 0.024681069 0.008647059
-0.06923441 -0.04172516 -0.05094039 0.01259664 -0.1717597 -0.7886252 0.029990086 0.38820735
-0.42753932 0.20460615 -0.35463023 -0.56231886 0.0092209615 0.065561645 -0.04524224 -0.4629981
-0.09356659 -0.02874064 -0.32564178 0.10874231 -0.023143578 0.046735782 -0.25598216 -0.012311092
00000000: aacd acbd 89b8 afbd ed89 9cbd b1ba 643c
00000010: 3f6f 853d 0d32 c33c cf7f 103c 9f37 153d
00000020: 8288 773d ec1d f93c 89e4 e63c c4d0 5b3b
00000030: 5c1e c83c 8cd6 81bd 8c4b 95bd 6591 963c
00000040: af10 f53b 6747 9fbd fee0 90bd e580 9cbd
00000050: 1e54 863d 8dc5 523d d524 8dbd b603 06bc
00000060: c461 2fbd 8c05 933d 2156 cebd 960f 84bd
00000070: 51d3 bbbd b7af 3d3d c136 75bd 285e 3e3d
00000080: abdf 653c 7577 49bd acf7 3cbd c182 12bd
00000090: b7d1 873c 9782 69bd 8b91 673c 60e9 ce3b
000000a0: 5079 bebd 5bc5 9ebd 3307 7bbd 2a15 ce3c
000000b0: 86a9 4e3c b00b c2bc 3d83 73bd b2c6 d8bd
000000c0: 3716 4bbd c739 b7bd 37cf bebd 5a07 d5bd
000000d0: 5f8d 80bd c550 d0bd 549c a03b 1c3b 2f3c
000000e0: 18ed 113d 8cc5 e0bd 2e42 4b3d c835 403c
000000f0: c7d6 fe3c 01a2 2dbd 5b5d a73c 1592 d9bd
00000100: dfa7 053c 71d3 413d ba43 fc3c 93a1 aabd
00000110: ff0d fabc 41da 00bd f247 073d 2e51 60bd
00000120: 6d7c d53b 4b35 1bbd c9c5 14bd 8e35 c8bc
00000130: 78f2 95bd 6882 a3bd 5f30 4f3d 7808 563d
00000140: 39f3 f1bb 7e1c 5d3d 46da 393d ec31 78bd
00000150: da6c 6bbd ba97 80bd 572f c13c 3f4a c5ba
00000160: 9919 e5bc b365 303d b4b5 22bd 090d 60bd
00000170: 50b2 a4bd fb2d 38bd f905 9f3d 2534 49bd
00000180: 743b c7bc 4c86 0c3d 110a b7bd 91e9 97bd
00000190: df91 703d 70fb 27bd 7016 8cbd 82e9 e3bc
000001a0: cd8b 0dbd 80cf 343c d667 293c 42e7 98bd
000001b0: c52f 6d3d 922e b7bd 716e f53b b2f6 f9bc
000001c0: 80ad 2fbd c2b3 a33d 280c cebd 5e0d 85bc
000001d0: 862e 143d b856 693d 9c66 93bd 9cdb ba3b
000001e0: 6fd4 a93d 8dde debd 32c1 bd3b c9d7 62bd
000001f0: 47fc 00bc bc50 c9bd d21f 323d 7abb 04bd
00000200: 4d3f d8b9 aa83 083d 72f3 3d3d d79d c13c
00000210: c53c 0a3c 0996 abbd e8fa b2be 9dd5 2dbe
00000220: bd8c d53d ac3f a9bc a819 eabe d7c7 86bd
00000230: b7c6 ebbd c5fc e73c 58f9 adbc 7f22 0dbf
00000240: ccd0 06bf c74a b0be 2a00 a2be 01b3 053e
00000250: c9cc f4bd f1a0 eb3e c512 9b3d cba5 e63d
00000260: 4d3e b4bd cec3 bb3c 1ce3 99bd 4f83 313b
00000270: 0848 33bd a33c 79bd 66f9 bbbd d352 babe
00000280: 37ff c5bd 311c 15bf dd07 4bbd 94db 1d3e
00000290: 27ab 56be c559 8d3c d236 913e a15c ebbe
000002a0: 3712 8a3d 1d6a d7bc b2f5 cf3c d47b 99bd
000002b0: f7b7 6f3f 929c cf3e 38d8 9bbd be4c 213e
000002c0: caa8 3dbe ac1e febc b888 c93e f16b 85b9
000002d0: e2af 8f3e b8c5 f6bd d215 afbc f517 1dbd
000002e0: dc39 ccbe 519b 6abe 829a 39bf aa9c 9b3e
000002f0: 04ea 8f3c 78d1 75bd 2415 9cbd d5c3 98be
00000300: 1a5e b1be 6dee df3d 7a54 86bf 022c 793e
00000310: 0a79 f83d a864 7c3d 56fe 9dbd fa81 febb
00000320: 0bbb 2ebd 15e1 27be ef18 7abe 1f70 10bc
00000330: 9740 43bc b745 69bd 02bd 513d 14e0 8abe
00000340: 6821 52be 160b 703d 6f47 4bbe 1460 3ebe
00000350: 851d 38be 004b 9dbd 5a06 0abc 249d 803e
00000360: 1548 c73d 50d9 eabd 333e 6ebe 4201 0ebf
00000370: 0987 2cbd 6c87 85be 0333 6a3e 4557 813d
00000380: 2cd3 863e ec1a e2be 1442 933e 4843 7ebf
00000390: c815 e8be 2f91 f23d f42f ca3c 65ac 0d3c
000003a0: c5ca 8dbd 00e8 2abd dfa6 50bd 2362 4e3c
000003b0: c6e1 2fbe 57e3 49bf c5ad f53c 1dc3 c63e
000003c0: 6fe6 dabe 4684 513e 1892 b5be 21f4 0fbf
000003d0: 8413 173c 2f45 863d ed4f 39bd 160e edbe
000003e0: d79f bfbd 7e71 ebbc 85ba a6be 4ab4 de3d
000003f0: 9a97 bdbc 056e 3f3d 1810 83be 76b4 49bc

fc2.bias f4 [64]
-0.06516377 -0.08831185 0.22601612 0.057137083 0.14286683 -0.07239546 0.019509012 0.061058186
-0.084158726 -0.14803189 -0.0017557398 0.1491201 -0.07947168 0.041373264 0.14343596 -0.010312071
0.036637414 -0.07469978 -0.05036729 -0.040738292 0.017846763 0.041026145 -0.035271704 0.023126936
-0.059096187 0.06157606 0.2783012 0.10226348 0.045394927 -0.04184648 0.05330733 0.23104504
-0.054136816 0.0357791 0.05215451 -0.06970139 0.045950215 -0.009773645 0.013757171 0.026347948
0.22119692 0.027747594 0.041309755 0.03609132 0.25575733 0.027111532 -0.051390458 -0.050817925
0.06014817 0.050167512 0.044095848 -0.07394521 -0.08724766 0.22011533 0.14123511 0.19899459
-3.5358564e-05 0.21165207 0.2661519 0.045847032 0.09247022 -0.0048246137 -0.054019075 0.09358052
00000000: 9574 85bd d8dc b4bd c570 673e 9308 6a3d
00000010: af4b 123e 1244 94bd 5dd1 9f3c 2618 7a3d
00000020: 695b acbd ac95 17be da20 e6ba f1b2 183e
00000030: 0cc2 a2bd 0377 293d e0e0 123e f6f3 28bc
00000040: 1d11 163d 33fc 98bd ee4d 4ebd 32dd 26bd
00000050: 6033 923c 080b 283d 1079 10bd b374 bd3c
00000060: d80e 72bd 2e37 7c3d 7f7d 8e3e 846f d13d
00000070: 08f0 393d 3767 2bbd c958 5a3d 1297 6c3e
00000080: 91be 5dbd 1b8d 123d f89f 553d 9abf 8ebd
00000090: 4b36 3c3d a321 20bc c265 613c a7d7 d73c
000000a0: 7281 623e ec4e e33c 6b34 293d 7ed4 133d
000000b0: a0f2 823e 0119 de3c cd7e 52bd 7526 50bd
000000c0: ed5d 763d 737c 4d3d d99d 343d 9670 97bd
000000d0: e7ae b2bd ea65 613e f09f 103e 3dc5 4b3e
000000e0: f84d 14b8 52bb 583e 1045 883e 19ca 3b3d
000000f0: 0761 bd3d cb17 9ebb 1b43 5dbd 25a7 bf3d

fc3.weight f4 [4, 64]
0.050389044 0.02689743 0.11441008 0.20521817 -0.045837685 -0.7296997 0.18093067 0.16855092
-0.5014715 -0.18692017 0.0056719356 0.16677171 -0.74484533 0.091275424 0.10229084 0.044411313
-0.925467 0.008412128 0.25240657 0.52732587 -0.50399 0.11402404 0.055534292 0.027235141
-0.71513516 -0.0864824 0.16368356 0.059549637 0.047559947 -0.9209546 -0.08659321 0.14573446
-0.008739581 0.019050179 0.115958065 -1.1863151 -0.6476998 0.113145255 -0.089268945 0.33259952
0.14436644 0.08682441 -0.5652474 0.03495797 0.05643289 -0.3982216 0.13945684 0.24265836
0.05618847 0.055004902 -1.5697562 -0.007655306 -0.11093579 0.1469451 0.07138754 0.08220943
-0.57743704 0.096127175 0.12465614 0.43670693 0.038343247 0.08002291 0.03480974 0.050171137
0.011251822 0.1671564 0.093476504 0.17387515 0.12218524 0.051502857 -0.042751085 0.11187152
-0.030351063 -0.08198698 -0.8608116 0.14435546 -0.04159913 0.099570885 0.097558565 -0.09521816
-0.9850975 0.08505363 0.15815493 0.4333662 -0.69124824 -0.8015601 -0.65708774 -0.77366155
-0.01925338 -0.05361121 0.16018085 0.10788526 0.065620616 -0.033979353 -1.071464 0.049946796
-0.74116325 -0.07122753 -0.800428 0.037967846 0.23578979 -0.5811987 -0.011586212 0.33167958
0.06789014 -0.012171299 -0.5485199 0.050630815 0.17014286 0.3620548 0.06540783 0.072508015
0.05706728 0.008780232 0.031072108 -1.724372 -0.08089895 0.16880304 0.11495426 0.0712911
0.063225694 0.09358686 0.13900891 0.35092223 0.14145076 0.055781 -0.007283845 0.060098603
0.04356471 -1.2049878 0.09901927 0.10492092 0.074919686 0.0030414772 -0.0042897947 0.4260929
-0.15648097 -0.19870554 0.0451524 0.13789779 -0.5949181 0.08305641 0.1259186 -0.042598836
-0.7034336 -0.12452093 0.2771473 0.07663499 0.2871307 0.0041034403 0.056782894 0.038834605
0.2347593 -0.006495679 0.14296648 0.19821201 -0.06410321 -0.026028577 -0.016410714 0.028568164
0.14781144 -0.014811222 -0.179755 -0.84317774 0.28487417 0.11834459 0.017056406 0.57567775
0.117602214 -1.2706456 0.04698458 0.0010006501 0.08432363 0.012617643 -1.4131284 -0.15296805
0.017394127 0.17245665 -0.047758583 0.11068881 -0.039914403 0.16126315 -0.023567688 0.13981353
0.13035217 0.13298589 0.15406068 -0.04086569 0.1948466 0.13581459 -0.011676855 -0.0028486405
-0.024525255 0.23221298 0.13161513 0.0394307 -0.030090343 -0.8447043 -0.016300894 -0.037469365
-0.9594744 -0.056192122 -0.75192755 0.12733579 0.13396181 0.020847084 0.109453276 0.0020218028
-0.052907933 0.21205898 -1.0034981 0.71300125 0.047944006 0.08410022 0.54527724 0.32008347
-0.07637089 0.027706698 0.17386878 0.060058113 0.055794723 -0.02626321 -0.5044265 0.15928103
-1.2172889 0.024030628 -0.54093766 -0.123402305 -0.7593 -0.71636087 -0.06374459 0.2423806
0.09682168 0.05068723 -0.54084593 -0.02966589 0.14461459 -0.7329954 0.26958394 0.17255549
-0.0066032214 0.11128929 0.10025143 -0.027628744 0.09586221 0.03283975 0.07445611 0.15299709
0.16866662 0.06006784 0.092181146 0.18188466 0.15565692 -0.0041891374 -0.68397826 0.12513655
00000000: be64 4e3d 0058 dc3c d54f ea3d b624 523e
00000010: 4cc0 3bbd 99cd 3abf e445 393e 9d98 2c3e
00000020: 7060 00bf 0068 3fbe a5db b93b 34c6 2a3e
00000030: 2fae 3ebf 9cee ba3d dc7d d13d a3e8 353d
00000040: 68eb 6cbf 06d3 093c 6f3b 813e d4fe 063f
00000050: 7d05 01bf 7085 e93d ed77 633d 3b1c df3c
00000060: 1913 37bf af1d b1bd aa9c 273e 52ea 733d
00000070: 38ce 423d aec3 6bbf c857 b1bd 6a3b 153e
00000080: 7630 0fbc 1f0f 9c3c 6c7b ed3d 2cd9 97bf
00000090: a7cf 25bf b3b8 e73d a3d2 b6bd 7c4a aa3e
000000a0: ccd4 133e ffd0 b13d 0eb4 10bf 1730 0f3d
000000b0: 2d26 673d b4e3 cbbe c6cd 0e3e 6f7b 783e
000000c0: e225 663d d24c 613d c5ed c8bf 5cd9 fabb
000000d0: 4e32 e3bd c778 163e a133 923d 6b5d a83d
000000e0: ead2 13bf 53de c43d b84b ff3d 0d98 df3e
000000f0: cf0d 1d3d 0de3 a33d a894 0e3d 4080 4d3d
00000100: 9059 383c 0c2b 2b3e 9c70 bf3d 540c 323e
00000110: 413c fa3d a9f4 523d c31b 2fbd e51c e53d
00000120: cba2 f8bc cae8 a7bd 265e 5cbf ebd1 133e
00000130: d963 2abd d2eb cb3d c9cc c73d bd01 c3bd
00000140: 5a2f 7cbf 9930 ae3d 5ef3 213e 2de2 dd3e
00000150: a5f5 30bf 0b33 4dbf e736 28bf af0e 46bf
00000160: 44b9 9dbc 6e97 5bbd 7306 243e f2f2 dc3d
00000170: 1a64 863d ef2d 0bbd bb25 89bf 0395 4c3d
00000180: e0bc 3dbf bddf 91bd d9e8 4cbf 2c84 1b3d
00000190: e172 713e 70c9 14bf 18d4 3dbc e8d1 a93e
000001a0: fc09 8b3d 216a 47bc cd6b 0cbf 4262 4f3d
000001b0: ee39 2e3e 3f5f b93e 8af4 853d 157f 943d
000001c0: 61bf 693d f6da 0f3c ef8a fe3c 39b8 dcbf
000001d0: 59ae a5bd b4da 2c3e 246d eb3d 1101 923d
000001e0: 797c 813d 78aa bf3d 5a58 0e3e 14ac b33e
000001f0: 78d8 103e 9e7a 643d 52ad eebb f429 763d
00000200: e970 323d 0a3d 9abf 9dca ca3d c8e0 d63d
00000210: 7e6f 993d 8553 473b 6891 8cbb d928 da3e
00000220: 8c3c 20be 7779 4bbe b9f1 383d 1435 0d3e
00000230: 8d4c 18bf 7b19 aa3d cef0 003e 1e7c 2ebd
00000240: 3914 34bf d404 ffbd 40e6 8d3e cef2 9c3d
00000250: cc02 933e 2776 863b 2e95 683d 0911 1f3d
00000260: be64 703e b4d9 d4bb ce65 123e 17f8 4a3e
00000270: 8b48 83bd e239 d5bc c36f 86bc c807 ea3c
00000280: e25b 173e c5aa 72bc b211 38be 7fda 57bf
00000290: 07db 913e a65e f23d e0b9 8b3c 9e5f 133f
000002a0: 6ed9 f03d 84a4 a2bf e772 403d 3f28 833a
000002b0: deb1 ac3d 3bba 4e3c 64e1 b4bf a8a3 1cbe
000002c0: 217e 8e3c 7a98 303e 819e 43bd d1b0 e23d
000002d0: 497d 23bd 2b22 253e 0611 c1bc 472b 0f3e
000002e0: 0a7b 053e 742d 083e 15c2 1d3e c862 27bd
000002f0: de85 473e fb12 0b3e 4850 3fbc 42b0 3abb
00000300: 30e9 c8bc 3dc9 6d3e 1ec6 063e 1682 213d
00000310: 0680 f6bc 8a3e 58bf 7489 85bc 7a79 19bd
00000320: 1da0 75bf b629 66bd 537e 40bf 5064 023e
00000330: 492d 093e 81c7 aa3c 0a29 e03d 3980 043b
00000340: fdb5 58bd fd25 593e a072 80bf 4087 363f
00000350: ef60 443d bc3c ac3d 4a97 0b3f fbe1 a33e
00000360: 5768 9cbd 28f9 e23c a80a 323e 7fff 753d
00000370: 0289 643d f225 d7bc 1822 01bf 911a 233e
00000380: 1fd0 9bbf e1db c43c e47a 0abf 59ba fcbd
00000390: 7c61 42bf 6d63 37bf 868c 82bd 9f32 783e
000003a0: 724a c63d 6a9d 4f3d e174 0abf e105 f3bc
000003b0: d915 143e 96a5 3bbf e806 8a3e 63b2 303e
000003c0: d65f d8bb a4eb e33d 9f50 cd3d ad55 e2bc
000003d0: 6853 c43d f982 063d 727c 983d 45ab 1c3e
000003e0: f1b6 2c3e b209 763d 78c9 bc3d f93f 3a3e
000003f0: 8764 1f3e 0845 89bb 3319 2fbf cc23 003e

fc3.bias f4 [4]
0.059155766 0.08568367 0.20371664 0.20552441
00000000: 514d 723d ec7a af3d 189b 503e fe74 523e
