Navigation - Value based methods/checkpoint/checkpoint_ddqn_er_41.pth (torch_old, 54449 bytes, 6 tensors)

fc1.weight f4 [128, 37]
0.26811177 -0.03415491 -0.06674448 -0.17267133 -0.49693736 0.062207554 0.08324968 0.039295584
0.22925796 -0.07560735 0.15446082 -0.11566947 -0.10120601 -0.19968684 -0.5754905 0.15225473
0.10047932 -0.03116761 -0.07181919 0.0058424543 0.2294607 0.29594097 -0.24202074 -0.12780002
-0.15371546 0.099129304 0.23291375 -0.14180388 -0.19098882 -0.13006216 -0.073754676 0.15767077
0.04949245 -0.15415043 -0.25499615 0.036321282 -0.010387215 -0.0817476 -0.039404377 0.17920743
0.09943622 -0.02776506 0.01102226 -0.1391947 -0.25892398 -0.14049856 0.27907586 0.27850303
-0.26695222 -0.11326238 -0.17173667 -0.37203074 0.08959669 0.06890104 -0.057143528 -0.07231786
0.0124841565 -0.015241166 -0.20571534 -0.0025084168 -0.77641237 -0.40623394 -0.1536592 -0.3040575
0.17895375 0.12602942 0.06268015 -0.09409282 0.20461397 0.2089154 -0.2897808 0.028415514
-0.090093486 0.07901542 0.27165627 0.12211347 -0.053356167 -0.2702463 0.034416933 -0.5672291
-0.05533555 0.38880274 -0.19606566 -0.19349308 0.13410893 -0.37014765 0.17768623 -0.39288032
-0.22577564 -0.25324854 0.13601409 0.12884432 0.20146789 -0.06301809 -0.18475638 0.07058404
-0.049816027 -0.035196036 -0.11223292 -0.2742586 0.21930955 0.30511886 -0.2113629 -0.22649994
-0.17264636 -0.102168396 -0.026586182 -0.15084983 -0.085900284 0.07131479 -0.04094282 0.14555505
-0.021455858 0.1525583 0.072231136 -0.191257 0.0029802844 -0.031257212 0.094061784 0.11001319
0.13287263 0.24228863 -0.3266652 -0.16985604 -0.2973084 -1.6646044 -0.04553286 0.014957552
-0.08031832 -0.045979876 0.017118286 0.27480364 -0.15666847 0.047909267 -0.09120745 -0.18007793
-0.07679886 0.14793092 0.11356474 0.08642397 0.21945153 0.07593061 0.08332379 0.050227553
0.10631833 0.0550856 0.03755294 -0.012553751 -0.06668803 -0.03343636 -0.10604472 -0.040054422
0.0074853194 0.5025543 -0.48850277 -0.5631283 -0.54843414 -1.7135928 0.0050417134 0.06528902
0.049406886 -0.012168364 0.0042051175 -0.28308845 0.04902526 0.044261105 0.12293167 0.108272135
-0.006902774 -0.005534572 0.0073753824 0.15589781 0.10103626 0.13538916 0.047946718 0.10361037
0.18390818 0.08201336 0.1454644 0.089034095 0.06411106 -0.023581337 -0.07497679 -0.009543008
0.0040758634 -0.102375254 0.1141485 -0.08496696 -0.38432926 -0.055422444 -0.033995062 0.07412912
0.06634378 -0.081740595 -0.59975123 -0.2891208 0.031049075 -0.042260963 -0.18445303 -0.18076397
-0.41199008 0.16470398 0.16110553 -0.20128147 -0.25066787 -0.04597889 0.2437912 0.010465032
-0.1349845 -0.13146466 0.038307972 -0.11074137 -0.11984131 -0.26742795 -0.20750406 -0.40272224
0.15585898 -0.05190387 0.23747098 -0.061859187 0.047607888 0.1300244 -0.059663832 0.031839024
-0.06500067 0.19797038 -0.2705237 -0.026766421 0.035088655 -0.09206246 0.030118372 0.15505722
-0.10090841 0.05944911 0.25718975 0.028701447 -0.08459763 -0.13947985 0.006424494 -0.076182745
0.2657792 0.4389525 0.030691909 -0.21438067 0.045605674 0.26756978 0.19932058 -0.0910996
0.07927882 -0.044210616 -0.073151246 -0.1107186 0.23405693 0.25312647 -0.42546347 -0.110981785
00000000: f245 893e 05e6 0bbd 54b1 88bd c1d0 30be
00000010: 936e febe 59cd 7e3d cf7e aa3d 68f4 203d
00000020: 99c2 6a3e 07d8 9abd fa2a 1e3e 1de4 ecbd
00000030: 1945 cfbd b57a 4cbe 5853 13bf aae8 1b3e
00000040: 1ac8 cd3d 3753 ffbc f115 93bd 0f72 bf3b
00000050: bff7 6a3e 9385 973e 49d4 77be 02de 02be
00000060: 9667 1dbe 4e04 cb3d f180 6e3e 0935 11be
00000070: 9392 43be 042f 05be b10c 97bd 7274 213e
00000080: 98b8 4a3d 9cd9 1dbe db8e 82be a0c5 143d
00000090: 232f 2abc 496b a7bd 7c66 21bd 2782 373e
000000a0: 38a5 cb3d 8d73 e3bc b696 343c 0e89 0ebe
000000b0: af91 84be dbde 0fbe 08e3 8e3e f397 8e3e
000000c0: f6ad 88be 1bf6 e7bd bddb 2fbe d07a bebe
000000d0: 787e b73d fd1b 8d3d 550f 6abd 631b 94bd
000000e0: 598a 4c3c 15b6 79bc 0ba7 52be 4064 24bb
000000f0: f6c2 46bf e5fd cfbe d658 1dbe 6dad 9bbe
00000100: a73f 373e db0d 013e 735e 803d bdb3 c0bd
00000110: 5386 513e ebed 553e 265e 94be a7c7 e83c
00000120: ef82 b8bd d6d2 a13d 8816 8b3e a116 fa3d
00000130: ff8b 5abd b95d 8abe c5f8 0c3d ed35 11bf
00000140: 88a7 62bd 2711 c73e 70c5 48be 0d23 46be
00000150: da53 093e fe83 bdbe 61f3 353e 9c27 c9be
00000160: bb31 67be cba9 81be 4747 0b3e c4ef 033e
00000170: 994d 4e3e a10f 81bd c730 3dbe 5d8e 903d
00000180: e40b 4cbd b829 10bd 60da e5bd a06b 8cbe
00000190: af92 603e 8a38 9c3e 846f 58be 9aef 67be
000001a0: 35ca 30be aa3d d1bd 44cb d9bc 6178 1abe
000001b0: 7dec afbd 7d0d 923d a9b3 27bd 620c 153e
000001c0: 32c4 afbc 3e38 1c3e ebed 933d e0d8 43be
000001d0: e050 433b 9007 00bd 77a3 c03d 984e e13d
000001e0: c30f 083e 831a 783e a940 a7be beee 2dbe
000001f0: ce38 98be c211 d5bf aa80 3abd 8510 753c
00000200: ee7d a4bd 6555 3cbd a63b 8c3c 10b3 8c3e
00000210: b36d 20be 823c 443d f9ca babd 5966 38be
00000220: b948 9dbd 347b 173e a194 e83d 0dff b03d
00000230: e7b7 603e 8281 9b3d aaa5 aa3d 68bb 4d3d
00000240: 6dbd d93d 70a1 613d 1dd1 193d 3fae 4dbc
00000250: bc93 88bd 91f4 08bd f92d d9bd 1b10 24bd
00000260: 6947 f53b 66a7 003f 091d fabe 2d29 10bf
00000270: 2e66 0cbf 0257 dbbf f534 a53b 40b6 853d
00000280: e05e 4a3d d15d 47bc 15cb 893b f8f0 90be
00000290: b6ce 483d 224b 353d 99c3 fb3d c8bd dd3d
000002a0: aa30 e2bb 5b5b b5bb 31ad f13b ada3 1f3e
000002b0: 19ec ce3d 75a3 0a3e c763 443d ac31 d43d
000002c0: 6d52 3c3e 9ff6 a73d 9ff4 143e 8257 b63d
000002d0: a94c 833d a62d c1bc 6e8d 99bd 475a 1cbc
000002e0: d28e 853b 1eaa d1bd b0c6 e93d 2803 aebd
000002f0: cec6 c4be a502 63bd 683e 0bbd 02d1 973d
00000300: 3fdf 873d 9d67 a7bd 4c89 19bf a407 94be
00000310: a15a fe3c d519 2dbd 41e1 3cbe 311a 39be
00000320: 5df0 d2be 29a8 283e d9f8 243e bb1c 4ebe
00000330: 8a57 80be 5c54 3cbd 66a4 793e 8775 2b3c
00000340: 6039 0abe ac9e 06be d2e8 1c3d 5fcc e2bd
00000350: 5c6f f5bd 51ec 88be f27b 54be 9c31 cebe
00000360: 7f99 1f3e 2799 54bd 982b 733e 0f60 7dbd
00000370: 7d00 433d 1e25 053e 1062 74bd a369 023d
00000380: 121f 85bd bfb8 4a3e 1582 8abe 4145 dbbc
00000390: 1fb9 0f3d 3e8b bcbd ceba f63c 52c7 1e3e
000003a0: 12a9 cebd e980 733d 60ae 833e 4c1f eb3c
000003b0: 8641 adbd ced3 0ebe 9084 d23b b305 9cbd
000003c0: 3614 883e 62be e03e 996d fb3c 9b86 5bbe
000003d0: 04cd 3a3d e8fe 883e b21a 4c3e 6d92 babd
000003e0: ef5c a23d 3116 35bd 52d0 95bd 6fc0 e2bd
000003f0: 9fac 6f3e cb99 813e 59d6 d9be 6b4a e3bd

fc1.bias f4 [128]
0.047418248 -0.0052160732 -0.077669226 -0.012739418 0.0810749 -0.20223433 0.12953247 0.10813399
-0.23257299 0.07730564 -0.05522311 -0.018490082 -0.04955852 -0.021907492 -0.038599182 -0.025673164
0.08081159 -0.09490675 -0.05648275 0.002329647 -0.07791451 0.048020806 0.17443393 -0.065520175
0.07832224 0.062507726 0.24506773 -0.09169626 -0.08593623 -0.057814293 0.07769743 0.06666598
-0.07682934 -0.02159931 -0.020372935 -0.22633305 0.052125745 0.10509503 -0.05006886 0.08405768
0.085640006 0.12757248 0.14773653 -0.027938133 -0.048351392 -0.090101555 0.100082494 -0.036319237
-0.15949973 0.06243243 0.06484654 0.077522874 0.04165622 0.031638373 0.09929385 0.05127275
-0.031127647 -0.10314368 0.043308895 -0.08155172 -0.12631392 0.07520608 0.06996789 -0.07558473
0.14480732 -0.015948834 0.016849183 0.032683473 -0.13194993 -0.1007364 -0.017195398 -0.049071517
0.02408338 -0.11772086 -0.047993667 -0.00927163 0.1508902 -0.11007322 0.084098436 0.041762143
0.02914027 0.0077255685 0.014418979 -0.14452401 -0.012363848 0.23726259 0.10164062 -0.088404626
0.038102668 0.008022888 0.071702644 -0.0723871 -0.1071503 -0.17268929 -0.064934224 0.06448563
-0.066458866 -0.1896746 -0.08729381 0.14329682 -0.12138977 -0.122234575 0.1917104 0.1388925
-0.15130435 -0.15062608 -0.12216934 0.16474691 -0.15286772 0.0026143678 0.049527857 -0.08694902
-0.037318926 -0.037944637 0.02477152 0.1878047 0.07794649 0.102378786 0.011900143 -0.06702031
-0.050659172 0.032494325 -0.02438457 -0.11366097 -0.040330287 0.051001564 0.20641139 -0.0803569
00000000: a339 423d 98eb aabb 0b11 9fbd feb8 50bc
00000010: 990a a63d 8416 4fbe 29a4 043e 5a75 dd3d
00000020: 9d27 6ebe 6b52 9e3d a131 62bd 8378 97bc
00000030: e0fd 4abd 5777 b3bc 2d1a 1ebd 8750 d2bc
00000040: 8c80 a53d 785e c2bd 755a 67bd feac 183b
00000050: a591 9fbd 77b1 443d cf9e 323e 712f 86bd
00000060: 6967 a03d 0d04 803d 09f3 7a3e 40cb bbbd
00000070: 56ff afbd aece 6cbd d51f 9f3d 2c88 883d
00000080: b358 9dbd 09f1 b0bc 24e5 a6bc dac3 67be
00000090: ce81 553d 103c d73d 0115 4dbd 6f26 ac3d
000000a0: 0764 af3d 5ca2 023e 3f48 173e 83de e4bc
000000b0: 1c0c 46bd 2a87 b8bd 0df8 cc3d 7bc3 14bd
000000c0: e653 23be 26b9 7f3d 43ce 843d 50c4 9e3d
000000d0: b69f 2a3d 3d97 013d 935a cb3d 6003 523d
000000e0: 68ff febc fe3c d3bd ab64 313d 9704 a7bd
000000f0: 7058 01be a505 9a3d 534b 8f3d 2bcc 9abd
00000100: 5f48 143e 21a7 82bc 4c07 8a3c 1bdf 053d
00000110: e21d 07be e34e cebd 5ddd 8cbc 37ff 48bd
00000120: 824a c53c a217 f1bd 0295 44bd 09e8 17bc
00000130: f682 1a3e 126e e1bd cd3b ac3d c80e 2b3d
00000140: 93b7 ee3c c426 fd3b 953d 6c3c 1afe 13be
00000150: bd91 4abc f7f4 723e f528 d03d 7c0d b5bd
00000160: 8b11 1c3d 6e72 033c d6d8 923d b03f 94bd
00000170: 9e71 dbbd 76d5 30be 3cfc 84bd 0b11 843d
00000180: 961b 88bd 0f3a 42be 19c7 b2bd 67bc 123e
00000190: 339b f8bd 1f56 fabd bb4f 443e d639 0e3e
000001a0: 87ef 1abe b93d 1abe eb33 fabd 6ab3 283e
000001b0: 5b89 1cbe d055 2b3b b9dd 4a3d 5412 b2bd
000001c0: bbdb 18bd d66b 1bbd a5ed ca3c e04f 403e
000001d0: 69a2 9f3d f8ab d13d d1f8 423c f241 89bd
000001e0: fe7f 4fbd c518 053d 26c2 c7bc 15c7 e8bd
000001f0: 5f31 25bd 04e7 503d 825d 533e 2992 a4bd

fc2.weight f4 [64, 128]
-0.09847267 -0.14929798 -0.099799335 -0.015034667 -0.5016131 -0.05813025 -0.16260068 0.042184576
0.13686574 -0.048867002 0.13693511 -0.17925781 -0.13983329 0.0045327228 -0.036869004 -0.09270875
-0.28268963 -0.08712283 -0.49800554 -0.4119265 -0.00482259 0.105629936 -0.101732776 -0.17882608
-0.13474616 0.0071636247 -0.29219428 -0.058770977 -0.4922584 0.44110766 -0.0004790844 0.044719093
-0.108335696 0.0016950349 0.0070001646 -0.07359842 0.00023258473 -0.19367942 0.3564444 -0.093964644
-0.41806453 -0.4795625 -0.19915521 -0.058819 -0.11765319 -0.1724031 0.053380594 -0.19305608
-0.42483318 -0.8020948 0.032069717 -0.6085797 -0.44008666 -0.28335676 -0.07673103 0.09135488
-0.015333547 -0.43355286 -0.040951446 0.1612677 0.07530037 -0.15319279 -0.11004628 -0.43619716
0.111223035 0.3550645 -0.367269 -0.09845199 -0.22109883 0.06301741 0.1411527 -0.20588396
0.10423067 0.2581805 -0.027423432 -0.2088258 -0.6971943 -0.07738752 0.325094 -0.06561331
-0.016369365 0.27141872 0.060599636 -0.1526826 -0.58974713 -0.24321194 0.18823422 -0.15757188
-0.07581109 0.07928912 0.2605819 -0.21589854 -0.32846123 -0.64273524 0.15556744 -0.20374572
0.1425511 -0.14642401 -0.45876783 -0.037769537 -0.49077347 0.0015383158 -0.0301652 -0.3426737
-0.039137047 -0.07506397 -0.2114914 -0.21183287 0.0077754124 -0.1592323 0.0036340973 -0.38062206
-0.038758766 0.19662629 -0.26266026 -0.7127649 0.08064148 -0.17639172 -0.08043224 -0.1607961
0.3463046 -0.14153577 -0.2309898 -0.16757578 -0.4684125 0.08131016 -0.15271044 0.17671792
0.02168095 -0.0010429804 -0.24172977 -0.046243805 0.18005113 -0.07474403 0.12133579 -0.12787622
0.07458595 -0.11534442 0.064941935 0.12905914 -0.051531665 0.10141741 -0.03946776 -0.023987016
-0.080267765 -0.023748893 -0.016914362 0.1439731 -0.09105883 0.045966014 0.07324884 0.078255296
-0.009757283 -0.04523055 0.15455538 0.19770601 -0.07722527 0.006835189 0.41164464 -0.06417646
-0.18632232 -0.1669288 -0.06836756 0.2140545 0.16984639 0.09731585 -0.04601304 0.051395908
0.029096194 0.07220768 -0.1540649 0.04235787 -0.3262697 -0.08459815 -0.0581454 0.20281768
0.00950599 -0.16197704 -0.038254082 0.054641016 0.1968078 0.06829647 -0.08829898 -0.0108079985
-0.21460764 -0.17427854 -0.57176566 0.039669033 -0.041278332 0.069814876 -0.2835594 0.06254141
-0.059269693 -0.073076874 0.10320411 0.1585791 0.14609309 -0.029595625 -0.032769244 0.041189887
0.12923445 -0.7118679 0.043523654 -0.0025204727 0.19048192 0.03489583 -0.186072 0.0025311438
-0.013498189 0.16724196 0.15198034 -0.5245662 -0.14435454 -0.16169691 -0.11092363 -0.21987116
0.22275618 0.01981265 -0.1372164 0.047808226 0.010922564 0.0866161 -0.351077 -0.17546062
-0.24470778 -0.12631074 -0.017964467 -0.10039168 0.12153556 0.0047779866 -0.00062318577 0.04979822
0.053433683 0.12160755 -0.1666795 0.09298977 0.124981105 -0.16571729 -0.06743253 0.0015851802
-0.02646457 0.19214693 -0.0050879857 -0.08416262 -0.115602665 -0.051972967 0.17912556 -0.37121096
0.15622088 -0.08370138 -0.0868045 0.2028411 -0.100346856 0.1174677 -0.4026745 0.14741881
00000000: 0aac c9bd 92e1 18be 9863 ccbd f753 76bc
00000010: b769 00bf fc19 6ebd cb80 26be bcc9 2c3d
00000020: 8826 0c3e c428 48bd b838 0c3e 5c8f 37be
00000030: 7530 0fbe 3c87 943b f403 17bd 16de bdbd
00000040: b2bc 90be 746d b2bd 95fa febe 08e8 d2be
00000050: d106 9ebb 8254 d83d 4659 d0bd 2f1e 37be
00000060: e6fa 09be d7bc ea3b 7d9a 95be d6b9 70bd
00000070: 4b09 fcbe ddd8 e13e 9f2d fbb9 5e2b 373d
00000080: 1bdf ddbd ef2b de3a a361 e53b c5ba 96bd
00000090: fde1 7339 e653 46be e17f b63e 8970 c0bd
000000a0: 8e0c d6be 3789 f5be 58ef 4bbe 31ec 70bd
000000b0: 28f4 f0bd 708a 30be 9ca5 5a3d 7eb0 45be
000000c0: bc83 d9be 1656 4dbf 895b 033d e1cb 1bbf
000000d0: 0a53 e1be 2314 91be 2925 9dbd 4418 bb3d
000000e0: 8f39 7bbc a4fa ddbe b4bc 27bd 5c23 253e
000000f0: 1537 9a3d 92de 1cbe f25f e1bd 3c55 dfbe
00000100: e7c8 e33d 04cb b53e af0a bcbe 32a1 c9bd
00000110: bb67 62be 460f 813d 558a 103e 3fd3 52be
00000120: e476 d53d 3c30 843e 1ba7 e0bc 6ed6 55be
00000130: 537b 32bf 597d 9ebd b972 a63e 4560 86bd
00000140: 0c19 86bc 65f7 8a3e 5337 783d d458 1cbe
00000150: abf9 16bf 8d0c 79be 79c0 403e 865a 21be
00000160: d842 9bbd 5662 a23d fe6a 853e 8214 5dbe
00000170: 122c a8be 4c8a 24bf 124d 1f3e b8a2 50be
00000180: eaf8 113e 2df0 15be 9ee3 eabe 3bb4 1abd
00000190: a946 fbbe 50a1 c93a 021d f7bc ed72 afbe
000001a0: 2b4e 20bd 24bb 99bd 3491 58be b7ea 58be
000001b0: e3c8 fe3b cb0d 23be 092a 6e3b e5e0 c2be
000001c0: 83c1 1ebd 6758 493e 687b 86be c377 36bf
000001d0: 5c27 a53d 08a0 34be a9b9 a4bd bca7 24be
000001e0: d64e b13e c1ee 10be 9788 6cbe fc98 2bbe
000001f0: c3d3 efbe f185 a63d 2060 1cbe 8bf5 343e
00000200: 3f9c b13c 9db4 88ba 0288 77be 256a 3dbd
00000210: 535f 383e 6613 99bd e67e f83d fcf1 02be
00000220: 85c0 983d b239 ecbd 4700 853d 1428 043e
00000230: de12 53bd eeb3 cf3d f2a8 21bd 6b80 c4bc
00000240: 6d63 a4bd 0a8d c2bc fd8f 8abc af6d 133e
00000250: 0d7d babd dc46 3c3d 7d03 963d 5044 a03d
00000260: 03dd 1fbc ab43 39bd c443 1e3e 7273 4a3e
00000270: 4828 9ebd b9f9 df3b 16c3 d23e f36e 83bd
00000280: 47cb 3ebe 62ef 2abe 4b04 8cbd 1a31 5b3e
00000290: 36ec 2d3e 884d c73d 2b78 3cbd 8484 523d
000002a0: 245b ee3c 9fe1 933d 30c3 1dbe 727f 2d3d
000002b0: d20c a7be cb41 adbd df29 6ebd 70af 4f3e
000002c0: 03bf 1b3c 4fdd 25be 50b0 1cbd 42cf 5f3d
000002d0: fc87 493e 05df 8b3d 18d6 b4bd 0814 31bc
000002e0: 1bc2 5bbe 1376 32be 3c5f 12bf ff7b 223d
000002f0: 7813 29bd 1afb 8e3d b32e 91be b615 803d
00000300: c7c4 72bd 54a9 95bd ad5c d33d 8f62 223e
00000310: 6d99 153e 8672 f2bc 0b39 06bd bab6 283d
00000320: 0956 043e fa3c 36bf dc45 323d 842e 25bb
00000330: b10d 433e eeee 0e3d a989 3ebe 8ce1 253b
00000340: 8227 5dbc 7a41 2b3e bca0 1b3e f849 06bf
00000350: add1 13be e093 25be ee2b e3bd e825 61be
00000360: 321a 643e 234e a23c 7582 0cbe 8fd2 433d
00000370: 8ef4 323c c863 b13d 5dc0 b3be f3ab 33be
00000380: ad94 7abe 9a57 01be 382a 93bc 279a cdbd
00000390: a3e7 f83d a890 9c3b 4a5d 23ba 38f9 4b3d
000003a0: 47dd 5a3d 610d f93d 08ae 2abe 6c71 be3d
000003b0: 18f6 ff3d cbb1 29be 111a 8abd d2c5 cf3a
000003c0: 3acc d8bc 2ac2 443e 1eb9 a6bb 745d acbd
000003d0: 17c1 ecbd 9be1 54bd b16c 373e 5d0f bebe
000003e0: 5ef8 1f3e a16b abbd 8fc6 b1bd 94b5 4f3e
000003f0: a782 cdbd e892 f03d 5a2b cebe f5f4 163e

fc2.bias f4 [64]
-0.1388267 -0.06628802 0.48997566 -0.105991624 0.023191301 -0.06590247 -0.058359407 0.08550274
-0.022712702 -0.19359572 -0.012821733 -0.01602101 -0.079726584 -0.08781761 0.004993458 -0.08053718
-0.05622963 -0.070257284 -0.061478693 -0.08415364 0.016888402 0.058869872 -0.102647714 0.11167629
-0.0041657793 0.04949116 0.32770136 0.104167484 -0.071208544 -0.15912297 -0.031110162 0.014581835
-0.14117296 0.009008513 -0.028563406 -0.06906558 -0.17538202 0.05158396 -0.10928305 -0.12250834
-0.06843652 -0.14912865 -0.14071906 0.22076312 0.53437626 0.07174029 -0.014406099 -0.12960637
-0.0683988 0.052609857 -0.0438152 0.08562198 -0.16833593 -0.016213719 0.4397906 0.23321062
-0.012622705 0.01741413 0.04154283 0.3354396 0.1339627 0.093657054 -0.12883832 -0.086247824
00000000: 9628 0ebe 03c2 87bd 17de fa3e 2312 d9bd
00000010: affb bd3c e0f7 86bd 460a 6fbd 101c af3d
00000020: fd0f babc f53d 46be 3f12 52bc 7e3e 83bc
00000030: b147 a3bd b8d9 b3bd 29a0 a33b adf0 a4bd
00000040: 0a51 66bd 0de3 8fbd 15d1 7bbd be58 acbd
00000050: 8c59 8a3c 8921 713d f738 d2bd 8ab6 e43d
00000060: 1781 88bb 3eb7 4a3d 79c8 a73e c355 d53d
00000070: c9d5 91bd 22f1 22be bdda febc a6e8 6e3c
00000080: a58f 10be 7198 133c cefd e9bc 4172 8dbd
00000090: 5897 33be b449 533d cbcf dfbd a7e5 fabd
000000a0: 7228 8cbd 2eb5 18be a818 10be ba0f 623e
000000b0: e2cc 083f 93ec 923d 8f07 6cbc 88b7 04be
000000c0: ac14 8cbd 6f7d 573d 9177 33bd 945a af3d
000000d0: 4160 2cbe a2d2 84bc 3c2c e13e c4ce 6e3e
000000e0: 76cf 4ebc 14a8 8e3c d128 2a3d bdbe ab3e
000000f0: 852d 093e 45cf bf3d 31ee 03be b3a2 b0bd

fc3.weight f4 [4, 64]
0.79566 -0.047218874 0.20416033 0.022545744 0.4014676 0.30322763 0.42998984 0.23136407
0.09937828 -0.14114489 0.07373415 0.3837604 -0.1651789 0.4974323 0.09698295 0.19968605
-0.38193667 0.59014285 -0.21545838 0.7269614 0.34264365 0.1856336 0.46594003 0.258011
0.34952137 -1.2498313 0.11774202 0.21322216 0.23731743 -0.6188861 -1.4955472 -0.28282064
0.120339036 0.9277474 0.67813444 0.047133997 -0.19312309 0.5764248 -0.11311707 -0.25446314
0.85112923 -0.068852566 -0.37658086 0.1817778 0.1058298 0.24033533 0.35244218 -0.13255832
-0.05444358 0.07538351 -0.29342517 0.17172347 -0.2909586 -0.19598934 0.16341454 0.04795301
0.5636189 0.033686705 0.33580765 0.1845467 -0.17661594 0.21935263 0.55532104 0.5681919
0.9178761 -0.011344278 0.107621394 0.9049732 0.38147616 0.29100883 0.40505284 0.28019926
0.12811764 0.6333315 -0.02185404 0.3533874 0.47481748 -0.04749275 0.14793773 -0.24949962
-0.23913188 0.7166416 0.5249591 -0.2528439 -1.8193514 -1.6937548 -1.2062657 0.1950783
0.34030882 -0.56541467 0.07975021 0.17162032 0.45806634 -0.1632243 -0.04749288 -1.6676024
-0.37186193 -1.0769925 -1.2401063 -0.41223338 -0.22370186 0.7903896 -0.1274643 -0.32099503
-1.1744492 -0.111495815 -0.52520853 0.20562941 0.17478539 0.43637463 0.39698222 -0.12799582
0.105346076 -0.06507067 -0.16073036 0.24886623 -0.16239563 0.04697802 0.16111703 0.01688279
0.75662494 0.40572098 0.40928543 0.14016533 -0.0004574401 0.18240091 0.5440533 0.47378066
0.4296051 -0.45308265 0.11309916 1.7547239 0.43274826 0.49250513 -0.78684264 0.64361954
0.17322819 1.029426 -0.008930676 0.23591077 -0.27389443 0.33143023 0.16465357 -1.8755828
-0.42734033 0.23002747 0.8109871 -1.4541465 -0.14187719 0.195735 0.71194965 0.13858604
0.4302796 -1.2262721 0.1511767 0.2828466 -0.21236728 -0.4712421 -0.1874682 -0.7221618
-0.16582276 -1.4795803 0.025901183 -0.95753783 -0.1032751 0.6239269 -0.11902436 -0.08936715
0.8279528 -0.2732114 -0.98409015 0.11103641 0.19965254 0.5669779 0.4741313 -0.45891446
0.10424866 0.33973897 -0.105613455 0.32384077 0.25951833 -0.024408985 0.024198346 0.19167972
-0.081335396 0.6576121 1.0151541 0.11552397 0.12346445 0.07019459 -0.4118136 -0.9794271
0.66242146 -0.34659272 0.1880981 -0.32163352 0.30102065 0.39749283 0.6448731 0.46960014
-0.19666828 0.8523129 -0.08810799 0.6076689 -0.85626405 1.2330287 0.26775673 -0.35201576
-0.067661755 0.69028944 0.35026085 1.0969863 0.7412262 0.6201587 0.04170465 0.237609
0.24634112 -0.17280236 0.19733627 0.24513954 0.70974797 -0.27150542 -1.2399967 0.3705642
-0.8189693 1.0317643 -0.6710504 -0.44522846 -0.28048134 0.18007089 -0.35626793 -0.3794033
0.07458563 -0.16944082 -0.27969074 0.043433756 0.16811012 -0.063959256 0.32474816 -0.19232894
-0.1280789 0.37400112 -0.12146035 0.33875018 0.09463758 -0.39863577 0.1480122 0.14726342
0.51946974 0.14530458 0.35855868 -0.03130649 0.10540081 -0.02314994 0.63197184 0.40299743
00000000: 60b0 4b3f 9468 41bd 680f 513e dab1 b83c
00000010: 298d cd3e a740 9b3e a127 dc3e b4ea 6c3e
00000020: d786 cb3d 4988 10be ee01 973d 3e7c c43e
00000030: a824 29be 72af fe3e ff9e c63d 807a 4c3e
00000040: 348d c3be 9a13 173f 1fa1 5cbe 241a 3a3f
00000050: fd6e af3e bc16 3e3e b18f ee3e 051a 843e
00000060: 77f4 b23e 79fa 9fbf ba22 f13d e956 5a3e
00000070: 5703 733e 526f 1ebf 176e bfbf decd 90be
00000080: 5074 f63d db80 6d3f 389a 2d3f 940f 413d
00000090: 0fc2 45be 9390 133f eca9 e7bd fe48 82be
000000a0: 9be3 593f 9302 8dbd 35cf c0be f623 3a3e
000000b0: 4bbd d83d 771a 763e 4d73 b43e 5ebd 07be
000000c0: 3b00 5fbd ab62 9a3d d33b 96be 47d8 2f3e
000000d0: 87f8 94be 6eb1 48be 2456 273e 606a 443d
000000e0: 5449 103f 12fb 093d fbee ab3e cff9 3c3e
000000f0: cfda 34be fa9d 603e 8529 0e3f 0675 113f
00000100: eef9 6a3f 5add 39bc 9b68 dc3d 53ac 673f
00000110: d850 c33e 1cff 943e 1663 cf3e 4776 8f3e
00000120: 4531 033e 0322 223f 3e07 b3bc 31ef b43e
00000130: 471b f33e c287 42bd fd7c 173e d47c 7fbe
00000140: fdde 74be d375 373f b863 063f c174 81be
00000150: 82e0 e8bf f5cc d8bf ea66 9abf 9bc2 473e
00000160: f53c ae3e 04bf 10bf 1454 a33d 3dbd 2f3e
00000170: ac87 ea3e 4524 27be e587 42bd ff73 d5bf
00000180: b064 bebe e4da 89bf cebb 9ebf 4110 d3be
00000190: 1a12 65be f956 4a3f 0086 02be 7659 a4be
000001a0: 5a54 96bf eb57 e4bd 1174 06bf 8490 523e
000001b0: f1fa 323e 7f6c df3e 4141 cb3e 5611 03be
000001c0: afbf d73d c543 85bd 8096 24be cad6 7e3e
000001d0: 0a4b 26be 066c 403d ddfb 243e c74d 8a3c
000001e0: 2cb2 413f a9ba cf3e dc8d d13e 8087 0f3e
000001f0: 92d4 efb9 4ec7 3a3e 1447 0b3f 6193 f23e
00000200: 33f5 db3e 73fa e7be 88a0 e73d cb9a e03f
00000210: 2e91 dd3e a229 fc3e 856e 49bf 40c4 243f
00000220: bb62 313e 3bc4 833f f851 12bc 9892 713e
00000230: e43b 8cbe 39b1 a93e f29a 283e 1913 f0bf
00000240: 5acc dabe 528c 6b3e da9c 4f3f 7921 babf
00000250: 4148 11be c16e 483e 5542 363f 80e9 0d3e
00000260: 9c4d dc3e 7cf6 9cbf 11ce 1a3e 45d1 903e
00000270: cf76 59be a546 f1be aaf7 3fbe 99df 38bf
00000280: 71cd 29be e362 bdbf b82e d43c 3321 75bf
00000290: e581 d3bd acb9 1f3f 0bc3 f3bd 2006 b7bd
000002a0: b7f4 533f 5de2 8bbe 55ed 7bbf 0f67 e33d
000002b0: b771 4c3e 7725 113f 56c1 f23e d6f6 eabe
000002c0: 5280 d53d 44f2 ad3e de4b d8bd 75ce a53e
000002d0: 96df 843e 5af5 c7bc 9c3b c63c b047 443e
000002e0: 2c93 a6bd 4459 283f 92f0 813f d597 ec3d
000002f0: eeda fc3d 2ec2 8f3d 3bd9 d2be bcbb 7abf
00000300: 7494 293f 9a74 b1be ca9c 403e 26ad a4be
00000310: 611f 9a3e 2e84 cb3e 6716 253f 6e6f f03e
00000320: 6963 49be 2e31 5a3f f671 b4bd 3090 1b3f
00000330: 1f34 5bbf e2d3 9d3f 6917 893e 693b b4be
00000340: 3f92 8abd cfb6 303f 6455 b33e 0c6a 8c3f
00000350: 00c1 3d3f b8c2 1e3f 7fd2 2a3d c64f 733e
00000360: d940 7c3e 1af3 30be 8512 4a3e dc05 7b3e
00000370: 0bb2 353f c202 8bbe 36b8 9ebf 97ba bd3e
00000380: f9a7 51bf da10 843f f6c9 2bbf fcf4 e3be
00000390: 409b 8fbe 8164 383e c068 b6be 2641 c2be
000003a0: 5ac0 983d e581 2dbe a033 8fbe 98e7 313d
000003b0: 0f25 2c3e 12fd 82bd 6445 a63e e1f1 44be
000003c0: 1d27 03be 137d bf3e 34c0 f8bd aa70 ad3e
000003d0: 59d1 c13d fd19 ccbe 8390 173e 39cc 163e
000003e0: f8fb 043f b9ca 143e 0195 b73e 3c3b 00bd
000003f0: 61dc d73d f1a4 bdbc e8c8 213f ae55 ce3e

fc3.bias f4 [4]
0.30487597 0.28725347 0.34900215 0.30450025
00000000: b418 9c3e e312 933e 69b0 b23e 75e7 9b3e
