Navigation - Value based methods/checkpoint/checkpoint_ddqn_er_37.pth (torch_old, 54445 bytes, 6 tensors)

fc1.weight f4 [128, 37]
0	0x3d536563	0.05161036
1	0x3dda8212	0.1066934
2	0xbea1193f	-0.31464574
3	0xbd88ea2e	-0.06685291
4	0x3d0e60d9	0.03476033
5	0xbdb2277b	-0.086989366
6	0xbe72d52f	-0.23714136
7	0x3ecdf889	0.4022868
8	0x3dc1c6c1	0.094617374
9	0xbe64ca0b	-0.22342698
10	0x3d72ef18	0.05931005
11	0xbc77c8c0	-0.015123546
12	0xbe9a1c3e	-0.30099672
13	0xbe5fb63d	-0.21846862
14	0xbdd94778	-0.10609335
15	0x3e0e8eef	0.13921712
16	0x3d44c163	0.04803599
17	0xbe4d889a	-0.2007164
18	0xbe81e0b3	-0.25366744
19	0xbdf67916	-0.12034814
20	0xbdeb6f01	-0.11495782
21	0x3e8a9e5b	0.2707394
22	0xbe446af1	-0.1918142
23	0x3e1b9315	0.15192826
24	0xbe371988	-0.17880833
25	0x3ca322cc	0.019914053
26	0x3e9b8811	0.30377248
27	0xbe8e5859	-0.2780178
28	0xbef77164	-0.48328698
29	0x3cc80768	0.024417594
30	0xbd075fa7	-0.033050206
31	0x3e3602c4	0.17774493
32	0xbe42911f	-0.19000672
33	0xbd49fa44	-0.049310938
34	0xbe12396c	-0.14279717
35	0xbdb9df6c	-0.090758175
36	0xbcb6f8ed	-0.022335494
37	0x3e29bbf2	0.16575602
38	0x3e36dafc	0.17856973
39	0x3c7692ff	0.015049695
40	0xbe962a42	-0.29329115
41	0xbe51d428	-0.20491087
42	0xbc207931	-0.009794519
43	0xbe56b3c4	-0.20967013
44	0xbdec9377	-0.11551564
45	0xbdde0287	-0.10840326
46	0x3e477ad4	0.19480449
47	0x3e82745a	0.25479394
48	0xbe672c37	-0.2257546
49	0xbe8bc26a	-0.27296764
50	0x3e34f4a4	0.17671448
51	0x3e644b90	0.2229445
52	0x3c5fc2fa	0.013657326
53	0xbd5de8ce	-0.054177098
54	0x3e0be1d9	0.13660373
55	0xbe82fb09	-0.2558215
56	0xbc5b80db	-0.013397421
57	0xbd75e475	-0.060032327
58	0xbe675adb	-0.22593252
59	0xbd917c6c	-0.0710381
60	0xbdaa7b20	-0.083242655
61	0xbe4facc9	-0.20280756
62	0xbe6f9c7a	-0.23399535
63	0x3d70c09b	0.058777433
64	0x3e5ce682	0.21572307
65	0xbe707d61	-0.23485328
66	0xbdba2c1d	-0.09090445
67	0xbc976202	-0.018479351
68	0x3e32abd4	0.1744836
69	0x3dacbe7c	0.084347695
70	0xbe1a9d87	-0.15099154
71	0xbe0004c2	-0.12501815
72	0x3dd99c95	0.10625569
73	0x3d2a7fc7	0.041625764
74	0x3de09629	0.10966141
75	0x3d09b2d1	0.0336178
76	0x3df5814b	0.11987551
77	0xbe31f978	-0.17380321
78	0x3d50e91a	0.051003553
79	0xbe70965b	-0.23494856
80	0xbe3f054e	-0.18654367
81	0x3e954a28	0.2915814
82	0xbd86e4af	-0.06586587
83	0xbda94303	-0.082647346
84	0x3e8424f8	0.25809455
85	0xbec1dfb8	-0.37865996
86	0xbe185c63	-0.14878993
87	0xbe1d49f0	-0.15360236
88	0xbe305e24	-0.17223412
89	0xbeb35cf3	-0.35031852
90	0x3db0ad4a	0.08626802
91	0x3e0617f3	0.13095073
92	0x3d688490	0.056767046
93	0x3e7c15fe	0.24617764
94	0xbf232581	-0.637291
95	0xbe4469ee	-0.19181034
96	0x3e514545	0.2043658
97	0x3d9f4f15	0.077787556
98	0xbd39219b	-0.045198064
99	0x3dd4fcbd	0.103997685
100	0x3d859dc1	0.0652423
101	0xbd897190	-0.067111135
102	0xbe721fba	-0.23644915
103	0xbd91980a	-0.07109077
104	0xbf0da1d8	-0.5532508
105	0x3e0c3eef	0.13695882
106	0xbe51bc8e	-0.20482084
107	0xbdd9140b	-0.10599526
108	0x3ea1afef	0.3157954
109	0xbcfc1fb9	-0.030776845
110	0xbcade03b	-0.021225085
111	0x3eae6bac	0.34066522
112	0xbe319c5a	-0.173448
113	0xbcaed66a	-0.021342475
114	0xbd0d1769	-0.034446154
115	0xbfb19c14	-1.3875756
116	0x3c02c54f	0.007981612
117	0xb8c0e7e2	-9.198465e-05
118	0x3c19d9b4	0.009390283
119	0x3d442e74	0.047895864
120	0x3d436b63	0.047709834
121	0xbd331179	-0.043717835
122	0x3d6d178d	0.057883788
123	0xbadd0228	-0.0016861605
124	0x3c22046f	0.009888752
125	0x3d49da2f	0.04928034
126	0xbe0088ac	-0.12552136
127	0x3d093359	0.033496235
128	0xbc52b649	-0.012860843
129	0x3caa6d05	0.020803938
130	0x3dbe86db	0.093030654
131	0x3e39a43b	0.18129055
132	0xbdad876c	-0.08473095
133	0xbd6889fd	-0.05677222
134	0xbdb24e0e	-0.08706294
135	0xbebcb1b6	-0.36854333
136	0x3cbd3608	0.023097053
137	0x3d20aea8	0.039229065
138	0x3d9faf6c	0.07797131
139	0x3e0232e4	0.12714726
140	0x3e407b29	0.18796982
141	0x3ddc9e72	0.107724085
142	0x3e0ebfa0	0.13940287
143	0x3b0fe58c	0.002195689
144	0x3c6cd4f2	0.014455067
145	0xbe04e35b	-0.12977354
146	0x3c2c2f54	0.010509331
147	0xbb0ee88f	-0.0021806096
148	0xbd25d837	-0.0404894
149	0xbe3412fa	-0.17585364
150	0xbdcdc255	-0.100468315
151	0xbe4cb96c	-0.19992608
152	0xbe3f4de4	-0.18682057
153	0xbe54c8bc	-0.20779699
154	0xbf043634	-0.5164521
155	0x3d38311a	0.044968702
156	0x3e9f9a3f	0.31172368
157	0xbed59466	-0.41714782
158	0xba5bcd1a	-0.00083847495
159	0xbe2b8b07	-0.16752253
160	0x3d08a63b	0.033361655
161	0xbd7f1a56	-0.062280975
162	0xbf06f587	-0.52718395
163	0xbe84e251	-0.25953916
164	0x3d033faf	0.032043155
165	0x3e1967fe	0.14981076
166	0xbe91705d	-0.2840604
167	0xbc2378f1	-0.009977565
168	0xbdcbfa17	-0.0995981
169	0xbf0cb080	-0.5495682
170	0x3e645f07	0.22301875
171	0xbe7ba093	-0.24572973
172	0x3d284c06	0.041088127
173	0xbd171d3f	-0.036893126
174	0xbe13733d	-0.14399429
175	0xbd06b2ec	-0.032885477
176	0x3e13cc83	0.14433484
177	0xbe822c45	-0.254244
178	0x3e8c609e	0.27417463
179	0x3ed5956d	0.41715565
180	0xbe643738	-0.2228669
181	0xbf2b3873	-0.6688301
182	0xbe1d0016	-0.15332064
183	0xbd82f4e7	-0.06394368
184	0x3d279d89	0.04092172
185	0x3daf6216	0.0856363
186	0xbd6bcc66	-0.057567976
187	0x3c55d3bb	0.013050969
188	0xbc8d1aa5	-0.01722462
189	0x3d2fe2c5	0.042940874
190	0x3e830a3c	0.25593746
191	0x3b35f1f7	0.002776263
192	0x3d421027	0.047378685
193	0xbe578933	-0.21048431
194	0xbf0a61bc	-0.5405538
195	0xbe0646d4	-0.13112956
196	0x3d9c50de	0.07632612
197	0xbd4e6b2a	-0.05039517
198	0x3da8869d	0.082288004
199	0x3e46a2a3	0.19397978
200	0x3d37ada5	0.044843335
201	0x3e44e855	0.19229253
202	0xbe406f59	-0.18792476
203	0x3da9d77d	0.08293054
204	0x3cdeff4d	0.027221346
205	0x3e3dc665	0.18532713
206	0xbd378fef	-0.044815
207	0x3e0d92d8	0.13825548
208	0x3e1956ec	0.14974564
209	0x3e214ed0	0.15752721
210	0xbcfbb4dc	-0.030725889
211	0xbdbf4536	-0.09339373
212	0x3de79b1c	0.11308882
213	0x3e38aa1c	0.18033642
214	0x3ea7d965	0.32783046
215	0x3e500302	0.20313647
216	0xbe983370	-0.29726744
217	0xbdf1d5d8	-0.118083656
218	0xbd8f0fb1	-0.06985415
219	0xbf735a73	-0.9505989
220	0x3bdfc6ea	0.0068291323
221	0x3d216e88	0.03941205
222	0xbdf17ad6	-0.11791007
223	0x3e1d20ce	0.15344545
224	0xbd2238e7	-0.039605048
225	0xbe64ac51	-0.22331358
226	0xbe9a6775	-0.30157056
227	0xbdc7e39d	-0.09760211
228	0xbe34339e	-0.17597815
229	0xbccfaf17	-0.025352044
230	0x3e75bf45	0.23998745
231	0x3e8be83b	0.27325615
232	0x3df2e7c7	0.11860614
233	0xbdbcdb89	-0.092215605
234	0x3e2b242e	0.1671302
235	0xbe67e075	-0.22644217
236	0xbe00c0f8	-0.12573612
237	0xbd1140f9	-0.035462353
238	0xbea09074	-0.3136021
239	0x3d5e14b8	0.054218978
240	0x3df0b3a8	0.11753017
241	0x3e8b7148	0.27234864
242	0x3e4b886c	0.1987626
243	0xbdb4d7fb	-0.088302575
244	0xbd48661c	-0.048925504
245	0xbef5acff	-0.47983548
246	0x3e8b340c	0.27188146
247	0x3c743f7e	0.014907716
248	0x3db6d096	0.08926503
249	0xbe360017	-0.17773472
250	0xbeb76c62	-0.35824877
251	0xbea32084	-0.31860745
252	0x3e081d7a	0.13292494
253	0x3df06755	0.11738459
254	0xbe1f0daa	-0.15532556
255	0xbe8bd227	-0.2730877

fc1.bias f4 [128]
0	0xbca058c3	-0.019573575
1	0x3c38e059	0.011283957
2	0xbdfe253e	-0.12409447
3	0xbd41fc17	-0.047359552
4	0xbcd91747	-0.026500357
5	0xbcbfb287	-0.023400558
6	0x3d2d872e	0.042365246
7	0x3d49da5f	0.04928052
8	0xbe4c8f3e	-0.19976518
9	0x3d3539af	0.044244464
10	0xbdb338b3	-0.08751049
11	0xbd257751	-0.040396992
12	0xbd388dc3	-0.04505707
13	0xbd8e401d	-0.069458224
14	0xbe0a02e7	-0.1347767
15	0xbd8242f8	-0.063604295
16	0x3de73e0e	0.11291133
17	0xbe01232f	-0.12611078
18	0xbd32f011	-0.043685976
19	0x3ce814b7	0.02833019
20	0xbdc7a61f	-0.09748482
21	0x3d990b79	0.07472891
22	0x3e00a4d9	0.12562884
23	0x3b983b58	0.004645746
24	0x3d00b965	0.031426806
25	0x3e21e98b	0.15811746
26	0x3e29e11f	0.16589783
27	0xbdd599fd	-0.104297616
28	0xbb2051a0	-0.0024462715
29	0xbd0a4b30	-0.03376311
30	0x3e3b61f3	0.18299083
31	0x3e0830b4	0.13299829
32	0xbddd9e4d	-0.10821209
33	0xbca9f8ee	-0.020748582
34	0x3bcfe39a	0.006344271
35	0xbe2381f6	-0.15967545
36	0x3c2e9bfd	0.010657308
37	0x3e1e0f16	0.15435442
38	0x3c971ed8	0.018447325
39	0x3c273a57	0.01020678
40	0x3d9e9237	0.07742732
41	0x3dc74153	0.097292565
42	0x3e52893b	0.20560162
43	0x3c257ae6	0.010100102
44	0xbd18183e	-0.037132494
45	0xbd698499	-0.05701122
46	0xbd0a4fa8	-0.033767372
47	0xbe0e3b48	-0.13889802
48	0xbdd269f9	-0.10274119
49	0x3da68418	0.08130664
50	0x3d77554f	0.06038409
51	0xbc5f625d	-0.0136342915
52	0x3da8391b	0.08214017
53	0x3de3fa7f	0.11131763
54	0x3d57b85d	0.052666057
55	0x3d3c6d94	0.04600294
56	0xbd6a48ec	-0.05719845
57	0xbacf3395	-0.0015808219
58	0x3dca8041	0.09887744
59	0xbd9360a8	-0.0719617
60	0xbe3d1fa9	-0.18469109
61	0x3d55042c	0.05200593
62	0x3dab5bcc	0.08367118
63	0xbc6deb40	-0.01452142
64	0x3df6426d	0.120243885
65	0x3cb51432	0.022104356
66	0x3c66350f	0.014050736
67	0xbdfbe8ec	-0.12300286
68	0xbdae2aa1	-0.085042246
69	0xbda3fe0e	-0.080074415
70	0xbcd36087	-0.025802864
71	0xbd0676c1	-0.032828096
72	0x3d5ea9f6	0.054361306
73	0xbdf332a4	-0.11874893
74	0xbe0bfde6	-0.13671073
75	0xbd8939f9	-0.067005105
76	0x3e0eef17	0.13958393
77	0xbd90a7f6	-0.07063286
78	0x3ce4cc0d	0.02792933
79	0x3d82f721	0.06394792
80	0xbcdd619e	-0.027024087
81	0x3dae0071	0.08496178
82	0x3d03660c	0.03207974
83	0xbdd07135	-0.101778425
84	0xbd8aeb80	-0.06783199
85	0x3e1616fd	0.14657207
86	0x3e086c4b	0.1332256
87	0xbd8384af	-0.06421792
88	0xbd9ae610	-0.07563412
89	0x3dac5e70	0.0841645
90	0x3e2bdf2c	0.16784352
91	0xbd04cefa	-0.03242395
92	0xbdca624f	-0.09882032
93	0xbe3008b0	-0.17190814
94	0xbd465ad5	-0.048426468
95	0x3e46fe2a	0.19432893
96	0xbc8e9db6	-0.017409187
97	0xbdf7939b	-0.120887004
98	0xbdc0a4df	-0.09406447
99	0x3d595466	0.053059004
100	0xbd284490	-0.04108101
101	0xbe800ccb	-0.2500976
102	0x3e0e7460	0.13911581
103	0x3e229900	0.15878677
104	0xbe2a6a37	-0.1664208
105	0xbe685f01	-0.22692491
106	0xbd9b10dc	-0.07571575
107	0x3e4f321e	0.20233962
108	0xbdaceb98	-0.084433734
109	0xbd829576	-0.06376164
110	0x3d81f2b0	0.06345117
111	0xbce368b9	-0.027759897
112	0xbe0df4af	-0.1386287
113	0xbe0c6bf7	-0.1371306
114	0x3c0a1856	0.008428654
115	0x3e1031b8	0.14081466
116	0x3c8a6b00	0.016896725
117	0x3dd17986	0.10228257
118	0x3b74903f	0.0037317423
119	0x3c8e2d76	0.017355662
120	0x3e185438	0.14875877
121	0x3d575ab8	0.05257675
122	0xbd937c2b	-0.072014175
123	0xbe5d6580	-0.2162075
124	0xbdc5cb87	-0.096579604
125	0x3d1af540	0.037831545
126	0x3d82f09d	0.063935496
127	0xbc7b9206	-0.015354639

fc2.weight f4 [64, 128]
0	0x3b860ffb	0.0040912605
1	0xbd6649e5	-0.056222815
2	0xbd869cc3	-0.06572869
3	0x3e367f49	0.17821993
4	0x3d12061b	0.035650354
5	0xbe064028	-0.13110411
6	0x3e1365ce	0.14394304
7	0x3d1ee554	0.038792923
8	0x3d9bdf6d	0.076109745
9	0xbca2cc78	-0.019872889
10	0xbdc76255	-0.09735552
11	0xbdb0082c	-0.08595309
12	0x3d8123b0	0.06305635
13	0xbdbe661f	-0.09296822
14	0x3dae57cf	0.08512842
15	0xbdbd8b78	-0.09255117
16	0x3cab200b	0.020889303
17	0x3dc9008e	0.09814559
18	0xbd90974a	-0.07060106
19	0x3c4f5a1f	0.012655764
20	0x3db11e2d	0.08648334
21	0xbc4796ac	-0.012181919
22	0x3d2911d2	0.04127676
23	0x3edc241f	0.42996308
24	0xbe056f90	-0.13030839
25	0xbcd43469	-0.025903897
26	0xbdf0c862	-0.1175697
27	0xbe90807b	-0.28223023
28	0x3d1dd8ac	0.038536713
29	0xbef17aef	-0.47164103
30	0x3da05a9d	0.07829783
31	0x3c461d50	0.01209195
32	0x3e02e87e	0.12784001
33	0xbe84d103	-0.25940713
34	0x3c96f5b1	0.018427702
35	0x3d31037e	0.04321622
36	0x3dccdf73	0.10003557
37	0x3cac9586	0.021067392
38	0xbdf3df36	-0.119078085
39	0xbdf29a87	-0.1184588
40	0xbccebb40	-0.025235772
41	0x3b5f2fc0	0.003405556
42	0xbf1b4917	-0.606584
43	0x3dace854	0.084427506
44	0xbcb56885	-0.022144565
45	0x3cce8481	0.025209667
46	0xbbbe4ed1	-0.0058077355
47	0xbd420fd4	-0.047378376
48	0xbeb42e41	-0.3519154
49	0xbdc56e74	-0.09640208
50	0x3d1475f7	0.036245313
51	0xb905c506	-0.00012757265
52	0x3cb4a705	0.022052297
53	0x3b40ee4e	0.0029438916
54	0x3d19bd23	0.03753389
55	0xbe668429	-0.22511353
56	0xbeb2eda9	-0.34946945
57	0xbda33800	-0.079696655
58	0xbe32274f	-0.17397808
59	0xbd17e5e6	-0.037084483
60	0xbd84a201	-0.06476212
61	0xbec75edd	-0.38939562
62	0xbc663b18	-0.014052175
63	0xbdd70c7d	-0.10500429
64	0xbe276be5	-0.16349752
65	0x3e800ab7	0.25008175
66	0x3d40b244	0.047045007
67	0xbdf5bcb8	-0.11998886
68	0xbdb1a549	-0.08674104
69	0xbdbadefc	-0.09124562
70	0xbd5f2f36	-0.054488383
71	0xbdf0e804	-0.117630035
72	0x3da0a327	0.07843619
73	0xbd704772	-0.058661886
74	0xbe2894d3	-0.16463022
75	0xbd6e3fa7	-0.058166172
76	0xbd841187	-0.064486556
77	0xbdd7dbda	-0.1053998
78	0xbbb648cd	-0.0055628777
79	0xbd92e965	-0.07173423
80	0x3f05f65f	0.5232906
81	0x3deb0767	0.11476021
82	0xbd742034	-0.059601024
83	0x3cf2e22d	0.029648865
84	0xbb069c16	-0.0020539812
85	0x3ca9d25b	0.020730188
86	0xbe225e1e	-0.15856215
87	0x3dc2c8d9	0.09510965
88	0x3dc5a103	0.09649851
89	0xbd03632e	-0.032077007
90	0xbd5581f2	-0.05212588
91	0xba8a3d81	-0.0010546894
92	0xbec6eb8b	-0.3885158
93	0x3dab2b35	0.083578505
94	0x3e0a7bd6	0.13523802
95	0xbecdc2ad	-0.40187588
96	0xbd3e0fb4	-0.046401694
97	0x3e09fa2d	0.1347434
98	0xbe0f1cd9	-0.13975848
99	0xbdf6c426	-0.12049131
100	0xbe0ab84d	-0.13546868
101	0xbc727fbd	-0.014800963
102	0xbe8fc357	-0.2807872
103	0x3d3c12c0	0.04591632
104	0x3c86f5c9	0.016474621
105	0xbe0c3fb2	-0.13696173
106	0x3d81c9c4	0.06337312
107	0xbdf8567d	-0.12125871
108	0xbd7cee49	-0.061750684
109	0xbe1315b8	-0.14363754
110	0xbcedcc8c	-0.0290282
111	0x3dd28a50	0.10280287
112	0xbe1272c5	-0.14301594
113	0xbd133852	-0.035942383
114	0xbd513df1	-0.051084463
115	0xbd28baa9	-0.041193638
116	0x3e10e93d	0.14151473
117	0x3d40a29e	0.047030084
118	0xbd01c6c9	-0.031683717
119	0xbd08a1cb	-0.033357423
120	0x3e487fa6	0.19579944
121	0xbd39bedd	-0.045348037
122	0x3c212e68	0.009837724
123	0xbd9f9be1	-0.077934034
124	0xbc9299bf	-0.017895577
125	0x3d69de2e	0.057096653
126	0x3e2c2844	0.16812235
127	0xbf281229	-0.6565271
128	0x3d9c729b	0.07639047
129	0xbd260cf7	-0.040539708
130	0x3e8a0588	0.26957345
131	0xbe2245f9	-0.15847005
132	0xbeb1971b	-0.34685597
133	0xbe58eb11	-0.2118342
134	0xbea0333a	-0.31289083
135	0x3dcb0232	0.09912528
136	0x3e0ca602	0.13735202
137	0xbe1fc03c	-0.15600675
138	0xbf230fa1	-0.6369572
139	0xbb5dcf70	-0.0033845566
140	0xbed0cc3f	-0.40780827
141	0xbeabbf11	-0.3354421
142	0x3e9250a5	0.28577152
143	0xbe5f2806	-0.21792611
144	0x3d5754bf	0.052571055
145	0xbde31f1a	-0.110899165
146	0xbe99ff75	-0.3007771
147	0xbdee1047	-0.116241984
148	0xbde6dde6	-0.112727925
149	0xbde5e11e	-0.11224578
150	0xbb731b97	-0.0037095302
151	0xbebce25b	-0.36891446
152	0xbe0e2140	-0.13879871
153	0xbe402d09	-0.1876718
154	0xbf1f2ce4	-0.6217787
155	0xbe3a6f83	-0.18206601
156	0xbe2a9b87	-0.16660891
157	0xbdbe0c66	-0.092797086
158	0xbd96fa96	-0.07372014
159	0xbc4552d1	-0.012043671
160	0x3d1b70f6	0.037949525
161	0xbe110bb1	-0.14164616
162	0xbdd405cc	-0.10352668
163	0xbe372f6e	-0.17889187
164	0xbc27ff25	-0.010253702
165	0xbdca1099	-0.09866447
166	0xbe695c58	-0.22789133
167	0xbef487ae	-0.47759765
168	0xbe32362d	-0.17403479
169	0xbec908fe	-0.39264673
170	0xbe03d365	-0.1287361
171	0xbeba6b8c	-0.36410177
172	0xbcdbd1d3	-0.02683345
173	0xbe479e80	-0.19494057
174	0xbee1d2ee	-0.4410624
175	0x3df36269	0.118840046
176	0xbd71c603	-0.05902673
177	0xbf53b2c3	-0.82694644
178	0x3e164626	0.14675197
179	0x3dc0392a	0.09385903
180	0x3d16e474	0.036838964
181	0x3ee2d7b5	0.44305196
182	0x3dba7bf9	0.09105677
183	0xbe6afb36	-0.22947392
184	0xbe3bf4f4	-0.18355161
185	0xbcd3ceb8	-0.025855407
186	0xbf07686f	-0.5289373
187	0x3e866fb7	0.26257107
188	0xbd96998f	-0.07353508
189	0xbd2fbb71	-0.042903367
190	0x3dcb7f41	0.09936381
191	0x3ddc1924	0.10746983
192	0xbe20f684	-0.15719038
193	0x3ea5ef3f	0.32409093
194	0x3e7a1783	0.24423032
195	0x3eb7c181	0.3588982
196	0x3e38c940	0.18045521
197	0x3dfa032b	0.122076355
198	0xbea0a750	-0.3137765
199	0xbe37305b	-0.1788954
200	0x3d408fbb	0.047012072
201	0x3e946bc2	0.28988463
202	0xbc812e73	-0.015769219
203	0x3e029bc1	0.12754728
204	0x3e7955ea	0.2434918
205	0xbd2c4e64	-0.042066947
206	0xbe7b143e	-0.2451944
207	0xbebfe2f3	-0.37477836
208	0xbe08eeb9	-0.13372315
209	0xbe814831	-0.2525039
210	0xbf169e8d	-0.5883568
211	0xbe04156c	-0.12898797
212	0xbe9ddf99	-0.30834654
213	0xbd92a153	-0.071596764
214	0xbe8e2189	-0.2775996
215	0xbc9a2b86	-0.018819582
216	0x3d513445	0.05107524
217	0xbb8115a4	-0.0039393473
218	0xbecf22e7	-0.40456316
219	0xbe22688d	-0.15860195
220	0xbe26d783	-0.16293149
221	0xbd8a1b31	-0.067434676
222	0xbf278b0f	-0.6544656
223	0xbdf03a99	-0.117299266
224	0xbe62be5f	-0.22142933
225	0x3d060f34	0.032729343
226	0xbe9a9685	-0.30192962
227	0xbe8b7b16	-0.27242345
228	0xbe2cd2a4	-0.16877228
229	0x3e63cfce	0.2224724
230	0xbe9eccd9	-0.3101566
231	0x3ec89448	0.3917563
232	0x3e309b10	0.17246652
233	0xbea9ba2e	-0.33149856
234	0x3e263f65	0.1623512
235	0xbe1fcada	-0.15604725
236	0xbc830083	-0.015991455
237	0xbdea3719	-0.1143629
238	0xbe562de9	-0.20915951
239	0xbebe2c42	-0.3714314
240	0xbdc4e56f	-0.096140735
241	0x3dc171e9	0.09445555
242	0xbe1eab89	-0.15495123
243	0xbe32e2e4	-0.17469364
244	0x3dcc5983	0.099780105
245	0x3e1d9dd3	0.15392236
246	0xbd033c06	-0.032039665
247	0xbee4795c	-0.4462384
248	0xbc06b61b	-0.008222128
249	0xbee2d610	-0.44303942
250	0xbdd821ea	-0.105533436
251	0x3cbcfb77	0.023069127
252	0xbead3d4e	-0.33835834
253	0xbdd4d630	-0.103924155
254	0xbedac855	-0.42730966
255	0x3e051377	0.12995706

fc2.bias f4 [64]
0	0x3e7cd1d6	0.24689421
1	0xbdbd2222	-0.09235026
2	0x3e6fe615	0.23427613
3	0xbb1dade1	-0.0024059939
4	0x3e88e34f	0.26735923
5	0xbd78c9ee	-0.06073945
6	0x3bc5c170	0.0060350224
7	0x3d88c90a	0.0667897
8	0xbda3b179	-0.079928346
9	0xbe1a0e4e	-0.1504452
10	0xbd61844d	-0.055057812
11	0x3d5eb14b	0.0543683
12	0xbe059b5a	-0.13047543
13	0x3d2388d4	0.03992541
14	0xbd0bb3fc	-0.034107193
15	0xbc513e87	-0.012771255
16	0xbdc90c3b	-0.09816786
17	0xbd435b77	-0.04769465
18	0xbdfcc809	-0.12342841
19	0xbd9311c0	-0.0718112
20	0xbcfa81d9	-0.030579494
21	0xbd1b3448	-0.037891656
22	0xbd675cd4	-0.056485012
23	0x3e322603	0.17397313
24	0xbddd2861	-0.10798717
25	0x3c5c22d1	0.013436035
26	0x3e98fab9	0.29878786
27	0xbd84793a	-0.06468435
28	0x3ca76523	0.020433968
29	0xbe15f168	-0.1464287
30	0xbc477a0d	-0.012175095
31	0x3e4ac1be	0.1980047
32	0xbe1047c1	-0.14089872
33	0x3d23cf12	0.0399924
34	0x3d9d08f0	0.0766772
35	0xbdada2b6	-0.084783
36	0xbde8c3a3	-0.1136544
37	0xbc3b4a7c	-0.011431333
38	0xbdc8ab10	-0.097982526
39	0xbd796562	-0.0608877
40	0xbc3b63a3	-0.011437329
41	0xbd42a7ca	-0.047523297
42	0x3bd2a027	0.006427783
43	0x3e5a6c79	0.21330442
44	0x3ecfbd83	0.40574273
45	0x3d17de0f	0.037077006
46	0xbda331fc	-0.07968518
47	0xbded70ca	-0.115937784
48	0x3d3137f6	0.04326626
49	0xbcb71a67	-0.022351457
50	0xbd4640cc	-0.04840164
51	0xbe03665c	-0.12832016
52	0xbe21c3b6	-0.15797314
53	0x3eb1a967	0.34699556
54	0x3eaf2833	0.34210357
55	0x3dbde3ab	0.0927194
56	0x3d510cfc	0.051037773
57	0x3d28abda	0.041179515
58	0x3e2ee2a3	0.17078643
59	0xbcedbd1f	-0.029020844
60	0xbc33c88a	-0.010973105
61	0xbe0dcf48	-0.13848603
62	0x3cdd766d	0.027034009
63	0xbd107f8c	-0.03527789

fc3.weight f4 [4, 64]
0	0x3e36f13b	0.1786546
1	0xbe2801ac	-0.16406888
2	0x3e02b5d8	0.1276468
3	0x3e08c45d	0.13356157
4	0x3e2b9ff4	0.16760236
5	0x3e212289	0.1573583
6	0x3ef75381	0.48305896
7	0x3ed96493	0.42459545
8	0x398c5d68	0.00026772474
9	0xbe465132	-0.19366911
10	0xbb993be4	-0.004676329
11	0x3db752af	0.089513175
12	0x3e27b983	0.16379361
13	0x3edf7a51	0.43648008
14	0x3ebcc76c	0.36870897
15	0xbe1cb45e	-0.1530318
16	0xbe668f7c	-0.22515672
17	0xbe9e4a4d	-0.30916062
18	0xbf0a0da6	-0.53927076
19	0xbf07a832	-0.5299102
20	0x3f19e8a3	0.601206
21	0x3f0ea96a	0.55727255
22	0x3e6fc23b	0.23413937
23	0x3d9b205b	0.07574531
24	0xbdf39960	-0.11894488
25	0xbe1492dd	-0.14509149
26	0x3e3d685b	0.1849684
27	0x3e9d5f63	0.30736837
28	0x3d838afa	0.06422992
29	0xbf19ec63	-0.6012632
30	0xbf524294	-0.8213284
31	0x3e1d751e	0.15376708
32	0xbdbdd16c	-0.0926846
33	0x3ebb0040	0.36523628
34	0x3e2b3a9a	0.16721573
35	0xbe3b90dc	-0.18316978
36	0xbdbf7aed	-0.09349618
37	0x3d2a931d	0.041644204
38	0xbe19edbe	-0.15032098
39	0x3ece6099	0.40308073
40	0x3ec9650a	0.393349
41	0x3cd26b33	0.025685882
42	0xbf22c66b	-0.6358401
43	0x3e2730fd	0.16327281
44	0x3dcc7da4	0.099849015
45	0x3ea42d87	0.32065985
46	0x3d424072	0.04742474
47	0xbeaac9b8	-0.33357024
48	0x3e11423f	0.14185427
49	0x3e8f84e6	0.2803108
50	0x3e4d381f	0.2004094
51	0x3bc64130	0.0060502514
52	0xbee13a44	-0.43989766
53	0x3e47dd70	0.19518065
54	0x3e0a2377	0.13490091
55	0x3d58ed67	0.05296078
56	0x3d6e9d87	0.0582557
57	0x3e49ba3c	0.19699949
58	0x3e1382da	0.14405385
59	0xbc04d896	-0.008108279
60	0xbe481af5	-0.19541533
61	0x3e5ba223	0.21448569
62	0x3e4b7e7f	0.19872473
63	0xbf609660	-0.87729454
64	0x3e50c9b7	0.20389448
65	0x3d99508b	0.074860655
66	0x3dd40607	0.10352712
67	0x3dd4a008	0.10382086
68	0x3e289833	0.1646431
69	0x3dfcf2f4	0.12351027
70	0x3ebad0a7	0.36487314
71	0x3ecfdcbc	0.40598094
72	0x3d992678	0.074780405
73	0x3e0f3e5c	0.13988632
74	0x3ec500cc	0.3847717
75	0x3dd7e708	0.105421126
76	0x3f153f58	0.5829978
77	0x3ea1bf30	0.31591177
78	0x3ef8fa2e	0.48628372
79	0xbf04cb1e	-0.5187243
80	0xbe0b8c5d	-0.13627763
81	0xbebfcf60	-0.37462902
82	0xbd37ee16	-0.04490479
83	0xbc9c0816	-0.019046824
84	0x3f04330e	0.51640403
85	0xbf264492	-0.6494838
86	0xbf0b95c3	-0.54525393
87	0x3d7969a8	0.060891777
88	0xbde53384	-0.111914665
89	0xbeb84b5a	-0.3599499
90	0x3e2f8e07	0.17144023
91	0x3dac02dc	0.08398983
92	0x3de44afe	0.11147116
93	0xbd293396	-0.04130896
94	0xbdce46f5	-0.10072128
95	0x3e2d5756	0.16927847
96	0xbe9730ed	-0.29529515
97	0x3ea32df0	0.31870985
98	0x3d9e6915	0.077348866
99	0xbe241ef2	-0.1602743
100	0xbecd2f13	-0.40074977
101	0xbe8e3bbb	-0.27779946
102	0xbe0895fa	-0.13338462
103	0xbe32f009	-0.17474379
104	0x3f64f7c3	0.89440554
105	0xbd67a130	-0.056550205
106	0xbf00280e	-0.5006112
107	0x3e04c5e7	0.12966119
108	0x3e23c526	0.15993175
109	0x3f051183	0.51979846
110	0x3e96f768	0.2948563
111	0x3dc27b95	0.09496228
112	0x3e2a6bd0	0.1664269
113	0x3e5084ca	0.20363155
114	0x3e2d1e61	0.1690612
115	0x3dd31380	0.10306454
116	0xbe926370	-0.2859149
117	0x3e14f8a9	0.14547981
118	0x3e0645d6	0.13112578
119	0x3d0a45ec	0.03375809
120	0x3eb522d0	0.35378122
121	0x3e67e4e8	0.22645915
122	0x3db8686d	0.09004293
123	0x3d27d7c5	0.04097726
124	0x3e7093d7	0.23493896
125	0x3e93e2e4	0.2888404
126	0x3e0cd31e	0.1375241
127	0x3f53f1aa	0.82790625
128	0x3e70ed28	0.23527968
129	0x3d9c7afe	0.076406464
130	0x3db2b582	0.08726026
131	0x3ebce320	0.36892033
132	0x3e3b26a1	0.18276455
133	0x3eb731ae	0.3578009
134	0x3e0b68a3	0.13614134
135	0x3e4bb8c5	0.19894703
136	0x3d25deda	0.04049573
137	0xbee273fc	-0.44229114
138	0xbe4390c9	-0.190982
139	0x3d4c3632	0.049856372
140	0xbe634199	-0.22192992
141	0x3f035a87	0.5131001
142	0x3e1ac9b5	0.15116008
143	0xbf1b7997	-0.60732406
144	0xbe95402b	-0.2915052
145	0xbebd3af3	-0.36959037
146	0xbceffae7	-0.029294444
147	0xbf2e4233	-0.6806976
148	0x3e522ea5	0.20525606
149	0xbe250d27	-0.16118298
150	0x3eafe202	0.34352118
151	0xbbde50b9	-0.0067845252
152	0xbd7d3e42	-0.06182695
153	0xbe9ad02b	-0.30236945
154	0x3e5ea958	0.21744287
155	0x3f1759b0	0.5912123
156	0xbd9e631b	-0.077337466
157	0xbdd18bb8	-0.10231727
158	0xbdf8d842	-0.12150623
159	0x3e0d77c2	0.13815215
160	0xbe82a8e4	-0.25519478
161	0x3ea897b7	0.3292825
162	0xbd298e91	-0.041395728
163	0xbdcfaeac	-0.10140738
164	0xbdba443a	-0.090950444
165	0xbf27c5dd	-0.6553629
166	0xbdad6188	-0.08465868
167	0xbe573b54	-0.21018726
168	0xbd830730	-0.06397855
169	0xbd8b9083	-0.06814673
170	0x3e1cf3a5	0.15327318
171	0x3d976860	0.07392955
172	0x3e1291ef	0.14313482
173	0x3f42ee4b	0.76144856
174	0xbc468fd1	-0.012119249
175	0xbda01d48	-0.07818085
176	0x3d901fb0	0.07037294
177	0x3e67cbcd	0.22636338
178	0x3e0611e9	0.1309277
179	0x3e8736d0	0.26409006
180	0x3c77dded	0.015128595
181	0x3e3a64b9	0.18202485
182	0x3d9bb156	0.076021835
183	0x3e3efd4e	0.18651316
184	0x3ecc4881	0.39899066
185	0x3ed1eee1	0.41002563
186	0x3e56b07f	0.20965765
187	0xbe702d9a	-0.23454896
188	0x3f04ffaa	0.5195261
189	0xbe297a8c	-0.16550654
190	0x3e53ebfb	0.20695488
191	0x3e2a7bf7	0.16648851
192	0x3e8fea4b	0.2810844
193	0xbf74a71f	-0.95567507
194	0x3dc9796b	0.09837612
195	0x3eb4dee1	0.35326293
196	0x3e0b3fd6	0.1359857
197	0x3edb75fd	0.42863455
198	0x3e03d77b	0.12875168
199	0x3d8656e4	0.06559542
200	0xbdb7c76c	-0.089735836
201	0xbf06b091	-0.5261317
202	0xbf39b451	-0.72540766
203	0x3e32a925	0.17447336
204	0xbef79503	-0.48355874
205	0x3e77b18e	0.24188825
206	0x3f000273	0.5000374
207	0xbeb2ce3f	-0.34922978
208	0xbde9fa50	-0.114246964
209	0x3e218612	0.157738
210	0xbed8116b	-0.4220079
211	0x3eb23e08	0.3481295
212	0x3f42efe3	0.7614729
213	0x3e4c99b5	0.1998051
214	0xbeae0a1b	-0.33992085
215	0x3dd99177	0.10623448
216	0xbe6548d7	-0.22391067
217	0xbe569e45	-0.20958813
218	0x3e27a71d	0.16372342
219	0x3f0a1010	0.5393076
220	0x3e311978	0.17294872
221	0xbdf52532	-0.11969985
222	0xbe87c48b	-0.26517138
223	0x3e60d880	0.21957588
224	0xbe95255a	-0.2913006
225	0x3ee04f9a	0.4381073
226	0x3db042c0	0.086064816
227	0xbe17b871	-0.14816453
228	0xbefe191c	-0.49628532
229	0xbf8bb37b	-1.0914148
230	0xbe784fed	-0.2424924
231	0x3edc242c	0.42996347
232	0x3ed6e297	0.4196975
233	0xbe4e5ae7	-0.20151864
234	0xbf8c2e0f	-1.0951556
235	0x39177088	0.00014442403
236	0x3e2b1fcf	0.16711353
237	0xbdbce9a3	-0.0922425
238	0xbdcf97ca	-0.10136373
239	0xbd20c89a	-0.03925381
240	0x3db8b3f6	0.090187
241	0x3e3bf3f6	0.18354782
242	0x3eb2c8cc	0.3491882
243	0x3ee7fbf1	0.45309404
244	0x3d1ae2f7	0.037814107
245	0x3dd7ed30	0.10543287
246	0x3e2dffbc	0.16992086
247	0x3dafdbb0	0.08586824
248	0x3e500abd	0.20316596
249	0x3e997929	0.2997525
250	0x3e028aef	0.12748311
251	0xbe14f82e	-0.14547798
252	0x3f0f8c72	0.5607368
253	0x3e26c38f	0.16285537
254	0x3dfb5f64	0.12274054
255	0x3f2fd839	0.68689305

fc3.bias f4 [4]
0	0x3e7a47e7	0.24441491
1	0x3e4a75ae	0.19771454
2	0x3e9adc4b	0.30246195
3	0x3e8e0b3f	0.27742955
