Navigation - Value based methods/checkpoint/checkpoint_ddqn_er_43.pth (torch_old, 54451 bytes, 6 tensors)

fc1.weight f4 [128, 37]
000000 b1 8d 6c 3e 56 4d 62 be 5b cb a1 be 10 87 a1 bc
       0.23100926 -0.22099814 -0.3160046 -0.019717723
000010 17 1b a2 be b2 cd 9c 3e 14 82 c6 be f2 2f d4 bd
       -0.31661293 0.30625683 -0.38771117 -0.10360707
000020 6b 17 9d 3d f8 f2 9c bd e6 37 a0 bd 42 c9 df be
       0.07670482 -0.0766353 -0.07823162 -0.43708235
000030 15 3c 16 3d f2 a6 3d be 3a 74 09 bf 62 6f 22 bc
       0.036678392 -0.18520716 -0.5369297 -0.009914251
000040 e3 02 64 3e d8 09 b3 bb 81 a5 20 bf 36 cd a5 ba
       0.22266726 -0.00546382 -0.6275254 -0.0012649659
000050 66 08 54 bd 55 ae 0f bd e9 29 c0 3d cc 3c f9 3d
       -0.051765822 -0.035078365 0.09382994 0.12169799
000060 cd 10 28 3e f4 51 42 be bc 74 b6 3e 6d 68 c2 be
       0.16412659 -0.18976575 0.35635936 -0.37970296
000070 bb 84 e4 bd 37 25 ef bd 3f 6e ad be c0 e9 0b 3e
       -0.11158129 -0.1167702 -0.33873174 0.13663387
000080 40 e4 61 bd 71 e6 b3 3b 39 49 82 3d b2 07 b6 be
       -0.055149317 0.0054901172 0.06361622 -0.35552746
000090 50 d3 c9 bd de d3 b0 3e f9 53 61 be fa 87 10 be
       -0.09854758 0.34536642 -0.2200469 -0.14114371
0000a0 81 2a b2 3e 2f 5d 98 be c8 b1 90 3c ff 75 e9 3d
       0.34798053 -0.29758593 0.017662898 0.11399459
0000b0 91 d1 9b be 0f 44 bd 3d 1a 14 bf be a1 22 bc 3e
       -0.30433324 0.09241497 -0.37320024 0.3674517
0000c0 db be 25 bd bf 36 95 be 37 0d 72 3a 5b 17 8c bd
       -0.040465217 -0.2914333 0.00092335365 -0.06840392
0000d0 7d d5 4a 3e f2 66 85 3b b2 54 bf 3d 79 06 8b be
       0.19808002 0.00407111 0.09342326 -0.27153376
0000e0 8e 38 fe 3d 4b 2b 9d be 12 35 cd bd 8b e8 98 3d
       0.12413131 -0.30697092 -0.10019888 0.07466229
0000f0 6a 0a 03 3e 11 05 32 be 83 d0 7d be ad a9 d5 3d
       0.12796941 -0.17384745 -0.24786572 0.10432754
000100 37 5b 36 3e 8c d5 f4 3d 89 49 9f be a4 54 29 3e
       0.17808233 0.11954793 -0.3111079 0.16536194
000110 2c eb c9 3d 0f 1d c4 3c e6 23 f8 bd 21 ce 62 3e
       0.098593086 0.023939637 -0.12116222 0.22148944
000120 4e f8 06 3e d5 24 69 3d 15 ef d5 3e dd 2e ac bd
       0.13180658 0.05691989 0.41783968 -0.08407376
000130 82 1b c0 bd 98 c3 18 3c 47 fc 06 bd 6f 2f 18 bd
       -0.09380247 0.009323977 -0.032955434 -0.03715461
000140 dc eb 8e bd 10 ef 32 3e 58 10 93 bd d7 5f 26 bd
       -0.0697858 0.17474008 -0.07180852 -0.040618744
000150 ab 06 29 be ca 69 c6 be 9a 0c 93 3e fe b1 4a 3e
       -0.1650645 -0.38752586 0.28720552 0.19794461
000160 b3 69 cf 3e 13 a9 80 be 1e 9b 9f 3e 70 2d 85 3d
       0.4051033 -0.25128993 0.31173033 0.06502807
000170 48 ae 19 bc 56 51 d2 bd bd 4c 0f be f1 39 b8 be
       -0.009379931 -0.1026942 -0.13994117 -0.35981706
000180 31 ff b3 3e 14 b1 37 bd b5 b2 99 be 82 35 7c be
       0.35155633 -0.04484661 -0.30019155 -0.24629787
000190 41 1d 67 3e a9 27 6e 3e 90 e7 42 be 47 05 bc be
       0.22569753 0.23257317 -0.19033647 -0.36722776
0001a0 8c 37 89 be 27 12 18 bd b0 71 2f be 1a 14 20 3e
       -0.2680019 -0.037126686 -0.17133212 0.15632668
0001b0 ac 32 f2 3c 86 45 1c be ac 33 c0 bd e8 91 2d 3e
       0.029565178 -0.15260896 -0.09384856 0.1695019
0001c0 87 6f e0 be f9 63 80 3e 02 69 72 be 34 48 d2 be
       -0.4383509 0.25076273 -0.2367287 -0.41070712
0001d0 c0 23 8a 3d e0 5a f2 be c2 21 24 3e 5a d8 f4 bb
       0.067451 -0.47334957 0.16028503 -0.00747208
0001e0 4f 9d e9 3e 37 39 25 be 2a 28 c2 be 3b 0e 6c 3e
       0.4562783 -0.16135107 -0.37921268 0.23052303
0001f0 58 e3 bd bd 01 e6 b6 3d 65 18 d1 bd d3 1c 28 bf
       -0.09271878 0.089305885 -0.10209731 -0.6566898
000200 2b 05 b2 3e f3 47 04 bf 15 62 7b bf 45 a3 de bd
       0.34769568 -0.51672286 -0.98196536 -0.10870985
000210 da 45 26 3e 7e ce 04 bf df af e5 3e e6 87 3d bd
       0.16237584 -0.5187758 0.44860741 -0.04627218
000220 91 42 0b 3c ad 32 0c 3e f8 7b 74 3d a5 f2 3a 3e
       0.008499757 0.13691206 0.05968854 0.18256624
000230 31 14 2d 3e 52 2f 10 be 1c 56 17 3e 50 be 8a 3c
       0.16902234 -0.14080551 0.14778942 0.016936451
000240 39 c2 19 3e b5 4a e4 be 12 1e 18 3e ab 74 0e bd
       0.15015496 -0.44588247 0.14855221 -0.034779232
000250 65 c6 50 bd 95 25 d1 be 4f 14 1d bc 5c f7 72 bc
       -0.050970454 -0.40848985 -0.0095873615 -0.014829483
000260 03 21 f4 be f6 c1 42 be 35 7d f6 3c 8f 1e 3f 3e
       -0.47681436 -0.19019303 0.030089 0.18664001
000270 9c e2 ed 3c 68 ad 2a bf 56 38 dd bd fe 6c 1e 3e
       0.02903872 -0.66670847 -0.10801761 0.15471265
000280 f2 b0 1e 3d f0 a6 07 be 86 1d b0 be 98 7c 51 be
       0.038742967 -0.13247275 -0.34397525 -0.20457685
000290 0f 14 23 3e f0 e3 7b 3d 8e 7a 55 be 13 e4 b3 be
       0.1592562 0.061496675 -0.20847532 -0.35134944
0002a0 60 d2 82 be d6 b0 4f bc dd b3 92 3e ad df 9b 3d
       -0.25551128 -0.012676438 0.2865285 0.07611022
0002b0 79 13 47 3e 85 71 0e 3e b1 81 05 3e 4c bd 01 3d
       0.19441022 0.13910492 0.13037755 0.03167467
0002c0 54 af 0b 3d c4 5a 5c 3e ee 14 16 3f 05 1d 9a bc
       0.034102753 0.21519 0.58625686 -0.018812666
0002d0 2e 4f 6d be 17 cb e8 be 39 da 9f bf c5 0a a3 3e
       -0.23174736 -0.45467445 -1.2488471 0.31844154
0002e0 dc c3 30 3d 4c 08 35 3d c7 18 bd bd b8 ce f0 3c
       0.043155536 0.044197366 -0.092332415 0.029395446
0002f0 0a ab cb 3d 11 3d f5 3d 90 12 08 3d 0a f2 36 3e
       0.099447325 0.11974538 0.033220828 0.17865768
000300 92 79 ea 3d b7 00 3f 3e 55 a0 cc 3d 4e 07 2f bd
       0.11448969 0.18652616 0.099915184 -0.042731576
000310 99 53 b8 3d 06 ff 98 bc 57 1d 40 3e 8f c8 05 3e
       0.0900032 -0.018676292 0.18761192 0.13064788
000320 10 1a 90 3d ba b1 a7 3d 4a 2f 41 bc a7 7d af 3c
       0.07036221 0.081881955 -0.01179106 0.02142222
000330 41 21 d2 bd 26 40 03 3e d7 2c 10 3e 60 de 6b 3e
       -0.10260249 0.1281744 0.14079605 0.23034048
000340 cc 48 97 3d fb 2e c5 bd b0 b0 06 bd af 96 8e 3c
       0.07386932 -0.096281014 -0.032883346 0.017405836
000350 18 8a 19 3e 32 2b c1 3d 71 09 6f bc 69 73 c6 3e
       0.14994085 0.09432067 -0.014589653 0.38759926
000360 de 39 1b bf d2 42 90 be c3 f6 11 be cf 7a 27 c0
       -0.60635173 -0.2817598 -0.14254288 -2.6168706
000370 eb 93 bc 3c dd 6b e5 3b 63 af ab 3d 85 6a 34 bb
       0.023019752 0.0070013837 0.08383062 -0.002752931
000380 27 e0 e8 bd 47 27 bb bd 2d 42 c0 be 92 69 47 3d
       -0.11370879 -0.09138351 -0.37550488 0.048684664
000390 a5 8f 46 bd 0e 40 ab be d9 ce 49 3e 49 bf 19 3e
       -0.048476834 -0.33447307 0.19707812 0.15014376
0003a0 60 f5 9b 3c ef 0f e9 3d e4 a4 29 3e c7 75 76 bd
       0.019037902 0.11379992 0.16566807 -0.060170915
0003b0 a9 3f ac 3d cf 5b 44 3e c2 b0 1a bf 86 4c a7 3d
       0.0841058 0.19175647 -0.6042596 0.081688926
0003c0 06 4a 55 bd dc 4c de be 59 ff 1d be 23 b2 ef 3b
       -0.052072547 -0.43418014 -0.15429439 0.0073149367
0003d0 1c 96 6e 3e 52 9b bc bd 66 84 c1 3d d8 ef bc be
       0.2329945 -0.092093125 0.09449081 -0.36901736
0003e0 6b e1 96 bd 8a d0 ee 3c 4f 87 98 3e be 4b 06 3f
       -0.07367214 0.029152174 0.29790732 0.52459323
0003f0 08 0f 7d be 73 0a f8 3d fc 91 4f 3d 66 be ce 3d
       -0.24712765 0.12111368 0.05067633 0.10094909

fc1.bias f4 [128]
000000 d3 1a e1 bd 4b e6 9e 3d 97 a8 8e bd 29 9d 97 bd
       -0.109914444 0.07758769 -0.0696575 -0.07403023
000010 c1 af 8a 3d aa 22 f0 3c 7e c1 9a 3d 2a 17 9f 3d
       0.06771804 0.029313404 0.07556437 0.0776809
000020 bd b5 db bd 8e ba 1c 3e 2a b0 b1 bd 26 6c 74 bd
       -0.10728023 0.1530554 -0.08676179 -0.05967345
000030 01 86 bb 3c 75 e1 26 bd 70 a4 a6 bd ca a1 59 bd
       0.022891046 -0.040742356 -0.08136833 -0.05313281
000040 a6 8b 74 3d e5 63 bd bc c2 4f ac bd 6f 9a cd bd
       0.05970349 -0.023118922 -0.0841365 -0.100392215
000050 10 c1 ba bd ac 09 2d ba e1 9f 0e 3e 2f 7d 77 bd
       -0.09118855 -0.00066008675 0.13928176 -0.06042212
000060 66 86 0f bd bc d0 51 3e dd b6 28 3e f8 26 08 be
       -0.03504028 0.20489782 0.16476007 -0.13296115
000070 db e4 e0 bc e9 f5 e3 bd 92 89 1f 3e 38 73 6e 3d
       -0.027452877 -0.11130888 0.15579823 0.05821535
000080 88 dc 90 3d 5e be 3e 3c 94 c2 ca ba 7f 0d 07 be
       0.07073313 0.011642067 -0.0015469366 -0.13188742
000090 89 85 c0 3c 2e 67 c4 3d 13 46 d6 3c 96 d5 67 3d
       0.023501175 0.095899925 0.02615646 0.056600176
0000a0 9e e2 25 ba 32 58 25 3e c2 5f 44 3e 51 65 8f bc
       -0.0006328019 0.16146925 0.19177154 -0.017504366
0000b0 6b e0 8a 3d 07 c3 b0 bd 03 fb dc 3d a3 b1 ac bc
       0.067810856 -0.086309485 0.10790064 -0.021080798
0000c0 1f d5 20 be 00 e2 9f 3d 1b 78 19 3d f3 78 ce 3d
       -0.15706299 0.07806778 0.037468057 0.10081663
0000d0 74 5c 3f 3c 0b 17 d0 3d 76 15 0c 3e 0e 1f 1b bc
       0.011679757 0.10160645 0.13680062 -0.009467853
0000e0 75 74 b3 bd 12 36 54 3a 39 6f cb 3c b5 d2 df bc
       -0.08762447 0.00080952153 0.024833309 -0.027322153
0000f0 07 12 a3 bd 41 46 b7 3d b8 ec c5 3c a0 f6 25 3d
       -0.07962423 0.08948947 0.024160728 0.040518403
000100 29 79 36 3e 6f 63 fa 3d ad fc 9f 3d cc 96 a5 bd
       0.17819656 0.12225997 0.07811866 -0.08085403
000110 10 cf 08 be b1 d3 f0 bd bd 79 4b 3d 00 39 8b bd
       -0.13360238 -0.11759127 0.049676646 -0.06797981
000120 24 bd a2 3d 14 3d 73 be 76 00 72 be f2 3e 0b bd
       0.07946232 -0.23753768 -0.23632988 -0.033995576
000130 fa 39 4b 3e a0 bf 4d be 99 b4 25 3e 18 aa 64 3c
       0.19846335 -0.2009263 0.16182174 0.013956569
000140 5f 83 07 bc 30 d1 1a 3e 41 e3 68 3d 36 54 cb bd
       -0.008271067 0.15118861 0.05685735 -0.09928171
000150 b3 f2 47 3d cc 59 5b 3e 98 72 ce 3d 15 f0 cd bd
       0.04881544 0.21420974 0.10080451 -0.10055558
000160 b3 b7 5e be 33 97 95 3d 30 b2 4d bc f4 c2 03 bd
       -0.21749763 0.073042296 -0.01255469 -0.032168344
000170 65 c5 e4 bd 7a f3 7f be 47 d9 40 bb c4 5c a7 3c
       -0.111704625 -0.24995223 -0.0029426382 0.020429976
000180 ce d3 ec 3c 16 a7 58 be 66 8d e6 bc d1 5e f5 3c
       0.02890959 -0.21157488 -0.028143596 0.029952439
000190 fe 3c 1c be 84 91 13 bd bb d9 cb 3d bd a7 4a 3e
       -0.15257642 -0.036027446 0.09953638 0.1979055
0001a0 2c 33 75 be 0f ba 1c be f0 f3 83 be a2 bd 3c 3e
       -0.23945302 -0.1530535 -0.25772047 0.18431714
0001b0 f7 7f 57 be d4 76 58 bd 48 3e 56 3e 96 a8 22 be
       -0.21044908 -0.0528477 0.20922196 -0.15884623
0001c0 6d e2 01 be 5b f4 46 be 67 ae 4f bd 0e 35 1c 3e
       -0.12684031 -0.19429152 -0.050703432 0.15254614
0001d0 25 1e 93 3d 94 04 19 3e 9d b4 66 3b e4 a5 17 3c
       0.07183484 0.14943153 0.0035202869 0.00925586
0001e0 2c 5b f0 bc 9d 64 80 3d 84 55 02 be 12 b5 6d be
       -0.02934035 0.062691905 -0.12727934 -0.23213604
0001f0 6c 63 f2 bd b2 60 7b 3c eb 87 26 3d 83 c8 c9 bc
       -0.118353695 0.015342878 0.040656965 -0.024631744

fc2.weight f4 [64, 128]
000000 34 50 29 bd 71 ce 0d be 78 1d 29 bd e9 b0 c3 3d
       -0.041336253 -0.13848282 -0.04128787 0.09555227
000010 6f 58 2b 3e d0 47 12 3f b0 d7 9f bd f6 03 12 3d
       0.16732953 0.5714083 -0.07804811 0.03564831
000020 fb 8e 0b be 9c fd 21 3e c3 61 c8 bc 75 3f bb 3d
       -0.13628761 0.158194 -0.024460679 0.09142963
000030 28 c7 52 3e 6c af 5a 3d 90 fb c1 bd 74 23 45 bd
       0.20583785 0.05338995 -0.0947181 -0.048129514
000040 21 b0 b4 bc 71 34 89 be 85 04 9a bd 37 d3 84 bd
       -0.022056641 -0.26797822 -0.07520393 -0.064855985
000050 fe 13 85 3e 16 5e 78 bd 60 08 28 3e 93 87 c5 be
       0.25991815 -0.060636602 0.16409445 -0.38579997
000060 92 c6 02 bb 19 a7 f7 3d 7a 64 b7 bc 1b 86 e4 be
       -0.0019954783 0.12092418 -0.022386778 -0.44633564
000070 3f f6 6f bd 82 46 23 3e af 58 aa bd f6 8d 93 3d
       -0.058584448 0.15944865 -0.08317696 0.07204811
000080 e0 dd c2 bb 5b 2e 1e be 61 89 87 bd 59 34 00 3e
       -0.0059468597 -0.1544737 -0.06618 0.12519969
000090 b0 f5 5d be 92 b5 1d be 66 31 43 3e 32 2d 41 3b
       -0.21675754 -0.15401295 0.19061813 0.0029476401
0000a0 77 38 f2 bd 52 e9 39 bd f5 85 04 be c5 95 ea bd
       -0.11827176 -0.045388527 -0.12941726 -0.114543475
0000b0 aa ad 01 3d 6a 50 05 3d 95 e8 4f be d2 d3 9a bd
       0.03165976 0.032547392 -0.20303567 -0.07559933
0000c0 f8 e1 3f bc 49 9a 61 bd 6b b1 6c bc 5d e8 b0 3d
       -0.01171159 -0.05507878 -0.014446597 0.0863807
0000d0 14 7c 10 be 4b 24 97 be 1f bf 95 3e 3b 06 c3 3c
       -0.14109832 -0.29519877 0.29247376 0.023806682
0000e0 cc 1c 01 3d a8 75 b2 3d bc 5b ae bd 6a d9 31 be
       0.031521603 0.087138474 -0.08513591 -0.17368093
0000f0 00 8a c7 3d ef 36 11 bf cc 41 00 3d d5 be 44 3d
       0.09743118 -0.56724447 0.03131275 0.048033554
000100 a2 d9 06 be dc ca 5f 3e b5 35 b9 3d f7 15 1c 3d
       -0.13168958 0.21854728 0.09043447 0.038106885
000110 d7 87 ed 3c 47 46 3e be 38 47 2a 3e c9 a4 89 be
       0.028995438 -0.18581496 0.1662873 -0.26883534
000120 42 dc e7 bd a4 73 fb bd 14 3f 6e bd 46 d6 00 bf
       -0.11321308 -0.12277916 -0.058165625 -0.50326955
000130 d5 70 cd bd 86 2d 12 3c 81 10 48 3d 4e 16 c1 bd
       -0.100312866 0.008921986 0.048843864 -0.094280824
000140 0b 59 26 3d 8e f0 5a be fe 5c 4c bc 5b 41 f9 bd
       0.04061226 -0.21380827 -0.012473343 -0.12170669
000150 ef 90 13 bd 69 b5 83 be 1a 86 a6 bd 8f 8d 48 be
       -0.03602689 -0.25724342 -0.081310466 -0.1958525
000160 a7 78 a1 be d6 72 a5 3e 08 08 9d 3c ba 02 09 3e
       -0.31537363 0.32314175 0.019168869 0.13379946
000170 06 eb ed bd 80 a6 01 3e d6 09 83 3e 26 64 f9 bc
       -0.11617093 0.12661171 0.25593442 -0.030443262
000180 74 22 f8 3c 8f a8 d1 3c 66 34 be be cc 4b 27 3d
       0.030289866 0.02559307 -0.37149352 0.04084377
000190 7a 3e ac be a4 8c 3e be 02 fe fc 3b 6c 1a d3 3c
       -0.33641416 -0.18608338 0.00772071 0.025769435
0001a0 cb 63 98 bd 79 fb 44 3c cf af 9d 3d ba c1 98 3b
       -0.07440909 0.012022846 0.076995485 0.004661766
0001b0 e5 3a 41 3e d3 a0 33 be 0b ab a5 be 6f c4 1a 3e
       0.18870123 -0.17541818 -0.32357058 0.15113996
0001c0 40 b2 21 be d5 15 34 3f 34 ed 47 bd f1 0a 64 bd
       -0.15790653 0.70345813 -0.0488102 -0.055674497
0001d0 eb ec 0c be cb 1c ea bc 0f 16 a6 bc df 72 8f bd
       -0.13762252 -0.028578183 -0.02027419 -0.07004332
0001e0 73 86 02 3e 87 a1 e4 bd c3 d7 79 3d a9 ab 95 3d
       0.12746601 -0.111636214 0.060996782 0.07308132
0001f0 b4 e2 c6 bb 97 fc ee bd 70 8c 13 be 1a 57 80 3e
       -0.0060695056 -0.116692714 -0.14409041 0.25066453
000200 c5 eb c9 3d 3b 18 18 3e ff c0 94 bd 04 58 7f be
       0.098594226 0.14852993 -0.072633736 -0.24935919
000210 12 e4 07 3e 03 8b 5e be f8 36 c9 bc 6c 13 d5 3d
       0.13270596 -0.21732716 -0.024562344 0.10404095
000220 cc ee 4a 3d 94 93 89 bd 00 5e f3 3d ec 89 cb 3d
       0.04954414 -0.067176014 0.118831635 0.09938416
000230 90 dd 25 be 3f a1 52 3e ec 70 72 be e7 cb bc bd
       -0.161978 0.20569323 -0.23675889 -0.09218579
000240 d7 66 6a bd cf e5 e8 3d 1c d2 86 bd 08 50 24 3e
       -0.057226982 0.113719575 -0.06583044 0.16046154
000250 f2 b0 74 be 95 55 c9 bd 71 8f 85 be 64 74 e7 3e
       -0.23895624 -0.098307766 -0.26086 0.45205986
000260 1c a3 01 be f5 20 ce 3d bd a3 61 be c4 b3 a1 be
       -0.12659878 0.1006488 -0.22035117 -0.31582463
000270 4c c2 a2 ba 6a 82 0a be 30 f5 15 bf ee b0 93 bc
       -0.0012417524 -0.13526312 -0.5857725 -0.018028703
000280 48 ad 61 3d 1a e2 c5 3c 15 70 90 ba 78 03 47 3b
       0.055096895 0.024155665 -0.0011019731 0.0030367058
000290 b4 93 ea bc f3 59 8b bb e2 e3 05 bc 7d 2f 8a 3d
       -0.028634883 -0.004252666 -0.008172007 0.06747339
0002a0 3a e9 2d bd 69 59 17 3d 6f e1 dc be 8a 2a d2 bd
       -0.04245875 0.036950503 -0.43140742 -0.1026202
0002b0 c4 8c 92 bd 0c 9d 1f bd 5b 79 05 be fd 26 98 3c
       -0.07155755 -0.03896813 -0.13034575 0.018573279
0002c0 1d 94 e2 bc f5 2d 96 3d b1 dc 89 3d 68 24 65 bc
       -0.027658517 0.07332984 0.06731547 -0.013985731
0002d0 34 c9 0c bd 67 9b ba 3d 35 a6 9e bd 69 94 84 3d
       -0.03437157 0.09111672 -0.07746545 0.064736195
0002e0 1c f4 ab bd 52 ac 61 bc f6 5e bd 3b 4e a8 94 3d
       -0.083961695 -0.0137739945 0.0057791425 0.07258664
0002f0 5d 87 6f bd 62 fc 7c be 71 b1 12 3d db 99 2b be
       -0.0584787 -0.24705651 0.035813753 -0.1675791
000300 c1 27 60 3e 73 cf 97 3e 32 09 6c 3d 32 f7 06 3e
       0.21890165 0.2965046 0.057625957 0.13180235
000310 7a c0 19 3e 70 7d 94 3d b2 8b a9 3d 77 cb 34 3d
       0.1501483 0.07250488 0.08278598 0.04413935
000320 cb 63 e4 bd af ff 80 3d 3d 4d 0c 3d ab d9 23 be
       -0.111518465 0.06298768 0.034253348 -0.16001002
000330 e0 97 74 bc fb 71 b3 bb 7a 67 99 be 58 9c d5 bd
       -0.014928788 -0.005476234 -0.2996176 -0.10430211
000340 a4 01 73 bb cf b4 24 be 2d ba bc bd cd 0a 0a 3e
       -0.0037079835 -0.16084598 -0.09215198 0.13480683
000350 18 49 6f bd af 53 f9 bd 90 34 a9 3d 12 4e d4 bc
       -0.058419317 -0.121741645 0.082619786 -0.025916133
000360 e8 f1 c6 bb e9 e9 7e 3d 5a bb 49 3e 99 17 8a 3d
       -0.006071318 0.062234793 0.19700375 0.06742782
000370 28 22 ad bd 2b bd 00 bd ce 1a 5d 3d 28 70 82 bc
       -0.084537804 -0.031430405 0.05398064 -0.01592262
000380 bf 5c 86 3c 47 f9 10 be 39 47 55 3f b7 c7 93 3c
       0.016401647 -0.14157592 0.833118 0.018039567
000390 4c 0d 1e 3e 6b ef 24 3d 94 3e 35 be 74 57 81 3e
       0.1543476 0.04026739 -0.17699653 0.25262034
0003a0 cb 1e c7 bd ff cb d7 bc 1b c0 19 3e a3 f2 65 3d
       -0.0972267 -0.02634239 0.15014689 0.0561396
0003b0 42 c2 f1 bd 5d 88 0d 3e 9b cb e3 bc 98 d7 07 3e
       -0.1180463 0.1382155 -0.027807048 0.13265836
0003c0 ed 65 a8 bc a7 5d 4c 3f 90 bc b4 bd 5f 91 79 be
       -0.020556414 0.798304 -0.08825028 -0.24371861
0003d0 4b e6 19 be bf 46 27 3e 4f a8 02 be 36 f3 18 3c
       -0.15029256 0.16335581 -0.12759517 0.00933533
0003e0 6c de 9a bd 41 52 ac bd 02 2a ed bd b2 60 12 3e
       -0.07561955 -0.08414126 -0.11580278 0.14294699
0003f0 61 f0 1c be 76 47 55 bd 89 24 9f 3d c5 4a 87 bd
       -0.15326072 -0.052070104 0.077706404 -0.06606058

fc2.bias f4 [64]
000000 9c 9a da bd 9c c6 a0 bd 18 da e4 3e e1 34 21 be
       -0.10674021 -0.07850382 0.44697642 -0.15742828
000010 63 ec 22 bd 73 31 fc bd 26 bb ee bd 7f a3 d4 bc
       -0.039776217 -0.12314119 -0.116567895 -0.025956867
000020 a7 c6 10 be 29 c1 0f be 3f 52 64 bd a8 8c b9 bd
       -0.1413828 -0.14038529 -0.0557425 -0.09060031
000030 32 9f da bd 03 26 cb bc 03 d7 9a 3c f8 d6 b8 bd
       -0.10674895 -0.024798399 0.018901354 -0.09025377
000040 0f e6 86 bd 4c 04 90 bd 03 6f ab bd 1b 29 93 bd
       -0.06586849 -0.070320696 -0.08370783 -0.071855746
000050 64 e5 49 be 9b 2b 6a bd 32 c5 a4 bc 7f d7 93 bd
       -0.19716412 -0.05717049 -0.020113561 -0.07218837
000060 94 8e 05 be a3 d7 4f 3d b0 da 98 3e 03 a0 50 bd
       -0.1304267 0.050742757 0.29854345 -0.05093385
000070 9c 9d 92 bd 3a a1 4f be 9b 5a 92 bc 11 7a 58 3e
       -0.07158968 -0.20276347 -0.01786547 0.21140315
000080 b7 40 1b be 0a 5b 15 3d 7e e5 74 3d ca 84 cd bd
       -0.15161406 0.036463775 0.059789173 -0.10035093
000090 56 e2 42 bd 8a 65 5e bd ba bf 1f 3d 8c b1 41 3e
       -0.047579132 -0.054296054 0.039001204 0.18915385
0000a0 3a 33 ca bd 3c 76 98 bd 4a ca 04 be 3a d3 22 3e
       -0.09873052 -0.074444264 -0.12967792 0.15900889
0000b0 b0 11 92 3e 6d f9 3a 3d 4b 48 ca bd 33 9b be bd
       0.2852912 0.045648027 -0.0987707 -0.09306946
0000c0 a8 80 d5 3e 07 11 2c be 4c c5 c8 bc 81 cc e8 bd
       0.4169972 -0.1680337 -0.024508141 -0.11367131
0000d0 cc 46 5d be d3 65 14 be d7 3e e7 bc e8 32 91 bd
       -0.21609038 -0.14491968 -0.028228207 -0.07089788
0000e0 24 70 f0 bc d5 d5 18 3d 04 2d e2 3d 90 59 16 3e
       -0.029350348 0.0373133 0.11043742 0.14682603
0000f0 b8 9c 90 3b a0 ae 47 be e9 8e 20 bd f2 bc d3 bd
       0.0044132136 -0.19500208 -0.03919879 -0.10338773

fc3.weight f4 [4, 64]
000000 4c 62 25 3f 28 df b6 3e 38 55 39 3e 04 55 f1 bc
       0.64603114 0.3571713 0.18098915 -0.029459484
000010 60 91 98 bf ef ef 0d 3f f4 5f 00 be 87 b8 9a bf
       -1.1919365 0.55444235 -0.12536603 -1.2087563
000020 69 f9 17 bf 2a 62 23 3f aa 7f 24 3e 50 8a 1a 3e
       -0.59364945 0.6382166 0.16064325 0.15091825
000030 f9 18 67 be 6a 37 da 3d a7 fd d6 3d 7a ab a1 be
       -0.2256812 0.10655101 0.10497599 -0.3157614
000040 d6 8e 90 bf 49 19 6f 3d 4d fa 88 be 69 78 0a 3f
       -1.129359 0.058373723 -0.26753464 0.5408998
000050 0d 75 01 3d d3 7f 10 3e 82 03 1f 3e 8b 8b 33 bf
       0.03160577 0.14111261 0.15528682 -0.701348
000060 22 91 a7 bd a9 58 56 bf 8e e2 55 3e 56 3d 42 3e
       -0.08181979 -0.83729035 0.20887205 0.1896871
000070 ee 64 7d be 9f 08 0b be 54 75 84 be 05 53 43 3e
       -0.24745533 -0.13577507 -0.25870764 0.19074638
000080 10 9c 72 bf 32 5a b5 3e a4 d9 ca 3e cc 87 a6 3e
       -0.9476938 0.35420376 0.39619172 0.3252548
000090 b2 3b 45 3e 35 92 b7 3e 73 21 61 bf 95 28 16 3e
       0.19261053 0.35853735 -0.87941664 0.14663918
0000a0 42 5a ce 3e 0f d2 47 be d8 8e 85 be 53 f1 17 3e
       0.40303236 -0.19513725 -0.26085544 0.14838152
0000b0 66 4f 22 3e ed 1c 6e be 13 a7 9d 3f aa 35 12 bf
       0.158506 -0.23253222 1.2316612 -0.57113135
0000c0 d6 d6 64 3e 4f af 64 be 19 ef 9b 3e 18 b7 4a 3f
       0.22347578 -0.223325 0.30455855 0.7918563
0000d0 a4 7e 14 bf 5d 20 4b 3f 21 be 45 3f b5 b3 23 3f
       -0.5800574 0.7934626 0.7724324 0.63946086
0000e0 02 26 a7 bf f6 01 ad 3e 66 75 d2 3e 90 b2 94 3e
       -1.3058474 0.3379056 0.41105193 0.29042482
0000f0 ea 90 66 bf 62 b6 8c be 3f 21 57 3e 15 00 8b bf
       -0.9006487 -0.27482897 0.21008776 -1.08594
000100 86 c9 1d 3f 81 7e 10 3f c9 50 56 3e 14 70 85 be
       0.61635625 0.5644303 0.20929255 -0.2606207
000110 5f 2f 97 3d ec 4c 89 3e 5f e7 3c be 69 b4 5f be
       0.07382082 0.268165 -0.18447636 -0.21846165
000120 51 32 86 3f b2 34 f9 3f ee bc 52 bf b9 4c 2b 3e
       1.0484105 1.9469206 -0.82319534 0.16728486
000130 8c 2f ac 3f 37 c3 11 3f df af 4a 3e 34 e2 a7 be
       1.345201 0.569385 0.19793652 -0.32789767
000140 42 33 c2 be cd 71 63 be e8 89 75 3e c6 b2 01 3f
       -0.37929732 -0.2221138 0.23978388 0.5066341
000150 a1 08 e0 bd 9d d4 bc bf f1 a0 51 bf c9 11 88 bf
       -0.10939146 -1.4752384 -0.818862 -1.0630428
000160 e1 15 72 bd a5 5e c4 bf 68 83 38 3e d0 86 82 be
       -0.059102897 -1.5341383 0.18018878 -0.2549348
000170 e8 f9 66 3c e1 1c de bd 20 78 1a 3f a5 43 d1 3d
       0.014097668 -0.10845352 0.60339546 0.1021798
000180 a9 d6 6b bf 46 88 0c bf e4 b4 98 3e ab 9e 1b 3f
       -0.9212442 -0.54895437 0.2982551 0.60788983
000190 b7 14 18 bf f6 ad ad bf 93 cb c9 3d 4e 54 c9 3d
       -0.5940661 -1.3568714 0.09853282 0.09830533
0001a0 31 48 4f 3f 08 ac 48 be ab 3a 2d bf d0 b0 4d 3e
       0.8096953 -0.19596875 -0.67667645 0.2008698
0001b0 7f 6a 4b 3e 77 61 a1 3e 23 e9 8c 3f 63 97 31 bf
       0.19864844 0.31519672 1.1008648 -0.6937162
0001c0 f8 fe 30 3e b7 2f 97 bd 49 88 18 3e 84 b2 83 bf
       0.17284763 -0.07382148 0.14895739 -1.0288854
0001d0 17 2b c4 be 50 68 9b 3f 15 13 7d 3c 03 84 28 3e
       -0.38314125 1.2141209 0.015446444 0.16456608
0001e0 c6 2d 28 3e a1 d9 b8 3e af b5 ad 3e ed 00 2a 3e
       0.16423711 0.36103538 0.33927676 0.16601916
0001f0 4c 1e 62 be 66 8a 8f bd 96 ab ea 3d 93 13 91 3f
       -0.2208187 -0.07008819 0.11458509 1.1334099
000200 c4 9a 2e 3f 99 d8 be 3d 5a 3b 2f 3e c6 d1 ae 3f
       0.68204904 0.093186565 0.17112485 1.3657768
000210 ed d8 ef 3e e0 74 3c 3f ed e8 b4 be f9 b2 b3 3e
       0.4684519 0.7361584 -0.35333958 0.35097483
000220 4d a8 dc 3e 22 31 02 be f1 c1 22 bf 49 8e 91 3e
       0.43097153 -0.12714055 -0.6357718 0.28428867
000230 7d 51 83 bf d8 18 a5 bf b4 95 4b 3e f4 ac 2f bd
       -1.0259243 -1.2898207 0.19881326 -0.04288955
000240 1b 83 b8 be 3e ce f6 bd ce e1 47 3e 9f c6 85 3e
       -0.36037526 -0.12051056 0.19519731 0.26128098
000250 55 3f 38 3f 69 f3 e3 be 7a 11 50 bf cb 6f 44 bf
       0.71971637 -0.44521645 -0.8127667 -0.7673308
000260 c1 20 13 3e 95 bf 0b 3e c2 21 a3 3e 32 78 d3 3d
       0.14367963 0.13647301 0.31861693 0.1032566
000270 f2 da 32 bf 04 e0 62 be 21 93 a1 3f 42 d9 c4 3d
       -0.69865334 -0.22155768 1.2623025 0.09611751
000280 76 cd 98 be fc 47 a0 bf 18 31 8b 3e 0a f9 51 3f
       -0.29844254 -1.2521968 0.27185893 0.8202063
000290 a0 56 12 3c 19 04 af 3e da 3b 82 bf 81 e5 01 3e
       0.008931786 0.34182814 -1.0174515 0.12685205
0002a0 38 55 6e 3f 8a 7c 5b be cd 8c c8 be 53 05 8b 3e
       0.93098783 -0.21434227 -0.39169922 0.271525
0002b0 5e 54 ce 3d e9 7a 1c be 03 fe 07 3f 28 fa d7 bf
       0.100746855 -0.15281262 0.53121966 -1.6873217
0002c0 1d e1 31 3e 99 5b 58 3e 04 b0 87 3e 3d ad 84 3e
       0.1737103 0.21128692 0.26501477 0.2591342
0002d0 61 8b 44 be 08 d5 a3 3f 8c f1 06 3d a1 77 d7 3e
       -0.19193794 1.2799387 0.0329452 0.42083457
0002e0 1f 8a ba be 47 3d 2d 3f 92 94 6e 3e 07 80 52 3d
       -0.36433503 0.67671627 0.23298863 0.051391628
0002f0 28 13 ca 3e b0 94 07 bf 49 b5 95 bd e1 19 2b 3f
       0.3946774 -0.52961254 -0.07309968 0.66836363
000300 96 38 13 3f 13 ce c5 3e ca 0d 4d 3e 67 1b 9d 3e
       0.5750822 0.38633785 0.20024791 0.3068497
000310 61 6e ed 3e c2 c1 2c 3f d1 f0 fe bd bf 7a aa bf
       0.46373275 0.6748315 -0.12448276 -1.3318709
000320 af 9e 9a bf b1 b2 c1 3e 19 db 55 3f 80 d0 ac 3d
       -1.2079676 0.37831643 0.8353744 0.08438206
000330 60 77 62 be 10 a1 f6 3d 65 e6 a4 3e cf 41 c6 be
       -0.2211585 0.12042439 0.32207027 -0.38722083
000340 f0 b1 62 be c8 68 d5 3e 44 4c e1 be 04 7d 14 3f
       -0.2213819 0.41681504 -0.440035 0.5800326
000350 71 49 a8 3f 4e 8c 63 bf cd 9b 9b bf 84 04 03 3f
       1.3147413 -0.8888596 -1.2156922 0.51178765
000360 03 12 91 b8 b8 1f 3b 3e ce dc 0f 3e c1 20 06 3d
       -6.917494e-05 0.18273818 0.14049074 0.03274608
000370 e5 07 99 3c 1c 79 61 bd bf a3 4c 3f 3a 12 44 3e
       0.018680522 -0.05504714 0.79937357 0.19147578
000380 ce f7 91 bf d5 86 84 3f 60 f9 e8 3e 19 ea 9c be
       -1.1403749 1.0353647 0.45502758 -0.30647352
000390 5e aa 5e bf ee 45 56 bf 49 20 0a bf a7 a7 7f 3e
       -0.8697871 -0.83700454 -0.53955513 0.24966298
0003a0 46 6a 52 3f 58 3f 48 be bf af 85 be f6 e1 e4 3d
       0.8219341 -0.19555414 -0.26110646 0.11175911
0003b0 f1 8f 3a 3e 2b 60 38 bf 56 25 44 bb 8d 7f ad bd
       0.18218972 -0.7202174 -0.002992948 -0.08471594
0003c0 5e ba 31 3e 2d 99 5c 3c c9 92 4c 3f b4 b2 37 3f
       0.1735625 0.013464254 0.79911476 0.71757054
0003d0 cb 8b 9d bd b7 b7 30 be 39 ee e9 3d ab e2 43 3f
       -0.07692679 -0.17257582 0.114223905 0.7651774
0003e0 de f6 78 bf 26 fa fa 3d 2c 09 5f 3e a2 20 72 bd
       -0.9725169 0.12254743 0.21780843 -0.059113152
0003f0 72 0e 70 bf df a7 48 be d9 08 84 be 1d 0d 6b 3f
       -0.9377204 -0.19595288 -0.25788 0.91816884

fc3.bias f4 [4]
000000 65 09 8e 3e 36 59 a0 3e c4 55 c7 3e b6 c5 b7 3e
       0.27741542 0.31318063 0.3893262 0.3589303
