Navigation - Value based methods/checkpoint/checkpoint_ddqn_er_32.pth (torch_old, 54453 bytes, 6 tensors)

fc1.weight f4 [128, 37]
00000000: 3473 35bd 9dcf 863c b183 f13d abfc 85be
00000010: f62b 8d3e 5775 1bbd 8e23 ec3d 096d 083e
00000020: f190 093e 5b2d 8b3e ab17 55be 791c 4d3e
00000030: b6f7 40be 21c6 64be 48d3 2cbe eb9b eebd
00000040: 9649 903d cdfc b23e d67e c0be 16fe 49be
00000050: 306f 82bd 506f 193e 0068 c43b 43f0 903e
00000060: eb0a a43d 3957 603e 1e4e 393e 0764 7cbe
00000070: 7fc2 86be 96f1 77be 6b00 42be edc0 023e
00000080: 2ab1 6fbe 7b92 013e 340d 9e3d 1c54 883d
00000090: cffe c9bc 6b4b 7e3e cb53 663e 041d 463c
000000a0: 52b5 f6bd 9ed9 84be d5e3 de3d d74b 08be
000000b0: 8b7b 27bb 6aab 2cbe 9a04 39bf a81a 193c
000000c0: d706 54bd 08b6 bbbb 0eaa 6e3e eb3e 893e
000000d0: c262 0c3e 5b03 303e c581 cb3d c095 9ebe
000000e0: a068 70be 56cd 1ebe b7ac 903c d8b0 a0bd
000000f0: f944 8d3d b9ef 063e 2250 cf3d c14b b03c
00000100: 0768 983b 0de5 efbe 4f99 64bf 0dc3 62bd
00000110: d0b0 513e d5f8 423e 1026 23be c1b3 d9be
00000120: 9ea7 abbc 3579 4f3c a2a9 903e 99f8 2abe
00000130: 2688 983d dd8a 6f3d 0713 c03c ae86 c6be
00000140: 3a0c 8bbe 702e d43e 9755 5abd 3104 55be
00000150: 5ccb 8dbd 4f80 18be a838 5dbe 02b7 3c3e
00000160: d4cf 373e dd78 d6bd 3c5d 40bd 7b96 c93c
00000170: 4124 3f3e ecf9 5a3e 3acb 9fbd 06f0 35bf
00000180: e0d3 983e ca5d 41be c158 163e 923a 653c
00000190: 0b44 703e 0f7d 2e3d 02f1 86be 3bfb e73d
000001a0: 26af 07bf 18a4 a0bd c720 61be 1de0 713e
000001b0: 8672 debe e244 83bd fee1 0abb d8a2 5a3e
000001c0: 8d17 273e c878 283d 8e6a 1b3d 2b8f 8cbe
000001d0: 5b79 cdbc a1b0 1aba 0619 c4bc 6bb6 333e
000001e0: bc0f 003e d40a a33c e892 9cbd 69f7 e43c
000001f0: 24e5 dbbc 9bb6 83bc 8491 a03e ea38 21bf
00000200: 0db1 a9be df3f efbe c14d e4bf be80 393d
00000210: caa1 b73d d924 983b 34ff 523c c2d3 293c
00000220: cace c7bc 09a3 ea3d 21c1 aa3d 7f98 6f3e
00000230: ffc0 883e c914 87bd 9cfb 183e 009b f83d
00000240: 9252 963d 6aab b6bb 75df 1c3c 0490 393b
00000250: 211c 07be 9c10 7abe 946d b3bc a180 59be
00000260: 4ae7 9dbe 9f73 5b3e ed53 23bf 882e d03d
00000270: a58d aebe 07ee cdbe f05a d9bd 66b1 293e
00000280: 2c67 41be 9e50 89be 3781 7bbe 2d96 87be
00000290: 4355 acbc ac2c 2a3d 035d c4bd 8cdf efbe
000002a0: ffd5 dabe e7aa 103c 1f63 0f3e 5de0 41be
000002b0: 1309 1cbf 7be6 933d 1ded 2dbe f4d4 2b3e
000002c0: 71a9 83be 8d8b 4cbd 00ac 8d3b cbfe cbbd
000002d0: 171d 283e 3f18 c6be 1c7a a13e ef5a 7e3d
000002e0: 4ccf 933d 6430 e7bb 6023 5a3e 144e bfbd
000002f0: 8e5b 7ebe 7ef0 f03d af96 c53e 4503 e8be
00000300: 63d5 aabd 3140 c13d 3e1a 9abe 5327 24be
00000310: df0c 87be ec2e a53e bb3a bdbe 60f1 133e
00000320: f8b4 7cbb 896f e4bc d9ae c43d 4305 6fbe
00000330: 0760 403e a964 43be 0d31 cf3d 9416 503e
00000340: 0d75 793e 97a3 f8bd 5198 30be c383 8bbd
00000350: db2e 8ebd 30c6 5e3e a902 d03c e884 093d
00000360: 1fab 1cbe 6667 26be a600 033e c385 f4be
00000370: 0164 303d 9a69 773d 5817 8f3c 87fc 2d3c
00000380: 9a52 2ebd 6c6e df3c 5b5e f8bd d570 0abd
00000390: 4c0b fdbd a3c6 a83d 1132 7bbd ed4b 093d
000003a0: 1aae 813c b7af 503e 548c 27ba a1a0 c43d
000003b0: 52c9 583e 3548 1fbe 28db 14bd 810b b63c
000003c0: 41a6 f53d 2673 993e 0495 4dbe 407b 173d
000003d0: 70e9 ac3d 24d0 cf3b a1be a73e 9b38 91be
000003e0: 4364 5f3d dad2 103d 062f 493d 0acc 2a3c
000003f0: 6d41 c33e f50f aabd 9521 82be 8e3f d1be
-0.04429932 0.01645642 0.11792696 -0.26169333 0.27572602 -0.0379537 0.11530219 0.13322844
0.13434197 0.2718304 -0.2080981 0.20030393 -0.18844494 -0.22341205 -0.16877472 -0.11650833
0.070452854 0.34958497 -0.37596768 -0.19725832 -0.063688636 0.14983869 0.005993843 0.28308305
0.08009895 0.21908273 0.18096206 -0.24647532 -0.26320264 -0.24213251 -0.18945472 0.12768908
-0.23407426 0.12653534 0.07717362 0.066566676 -0.024657635 0.24833457 0.22492902 0.012091879
-0.12046303 -0.2594728 0.10883299 -0.1331018 -0.0025555815 -0.16862264 -0.72272646 0.009344734
-0.051764335 -0.005728487 0.23307058 0.26805815 0.13709548 0.1718878 0.09936861 -0.30973625
-0.23477411 -0.15508017 0.017660482 -0.0784623 0.06897921 0.13177384 0.10122706 0.021520497
0.004651073 -0.4685444 -0.8929643 -0.055361796 0.20477605 0.19040234 -0.15932488 -0.42519954
-0.02095395 0.012663175 0.2825442 -0.16696395 0.07447843 0.05848204 0.023446573 -0.38774627
-0.27157766 0.4144168 -0.05330428 -0.2080238 -0.06923553 -0.14892696 -0.21603644 0.18429187
0.17950374 -0.104722716 -0.046963915 0.024607887 0.18666174 0.213844 -0.07802434 -0.7106937
0.29849148 -0.18883434 0.14682294 0.013991015 0.23463456 0.042599734 -0.2635575 0.11327215
-0.5300163 -0.078437984 -0.2198516 0.23620649 -0.4344675 -0.06409623 -0.002119183 0.21351182
0.16317578 0.04113081 0.037943415 -0.27452978 -0.02508228 -0.00059009535 -0.023937713 0.17550056
0.12506002 0.019902624 -0.07645208 0.027950006 -0.026842661 -0.016078284 0.3136102 -0.6297747
-0.33142892 -0.46728417 -1.7836229 0.045288794 0.08966406 0.0046430645 0.012878228 0.010365428
-0.024390597 0.11456878 0.08337618 0.23398016 0.26709744 -0.06595761 0.14939731 0.12138939
0.07339968 -0.0055746334 0.009574761 0.00283146 -0.13194324 -0.24420398 -0.021902837 -0.21240474
-0.30840522 0.21430825 -0.63799936 0.10165125 -0.3409244 -0.40220663 -0.10613048 0.16571578
-0.18887013 -0.2681932 -0.2456101 -0.26481763 -0.02103675 0.04154651 -0.09588053 -0.4685024
-0.4274139 0.008829809 0.14002655 -0.18933244 -0.60951346 0.07221695 -0.16984983 0.16780454
-0.2571521 -0.049937773 0.0043234825 -0.09960707 0.16417347 -0.38690373 0.31538475 0.06209844
0.07217273 -0.007055329 0.21302557 -0.09341064 -0.24839613 0.1176462 0.38591525 -0.45314994
-0.083414815 0.09436072 -0.30098146 -0.16030626 -0.26377007 0.3226236 -0.3695887 0.14447546
-0.0038560014 -0.027885215 0.09603662 -0.23341851 0.18786632 -0.19081368 0.101167776 0.20321113
0.24361058 -0.12140577 -0.17245604 -0.06812241 -0.06942531 0.2175529 0.025391893 0.033574015
-0.15299653 -0.16250381 0.12793216 -0.47758302 0.04306412 0.060403444 0.017467186 0.010619289
-0.042559244 0.027274333 -0.12127372 -0.03379901 -0.1235567 0.08241012 -0.061327044 0.033519674
0.015830088 0.2037953 -0.0006391455 0.0960095 0.21170548 -0.15554889 -0.036341816 0.022222282
0.11994601 0.29970664 -0.20076376 0.036982775 0.08442962 0.006341951 0.32762626 -0.283635
0.054538976 0.035357334 0.04911711 0.010424623 0.38135853 -0.08303825 -0.25416246 -0.408688

fc1.bias f4 [128]
00000000: 4c1d b3bd 97d8 e03d 77b3 a6bd f7f0 85bd
00000010: 9186 5b3c 4966 01be 17ca 903d 8b38 163e
00000020: d6ea 4abe 225c 743e 2b8f 05be ae0e a2bd
00000030: 04b7 c83c 28f2 073c 00c3 27be 3130 56bd
00000040: bf5c 283d e2e6 38bd 041e 3bbe a63a 933c
00000050: 8b0c 78bd 27ad d93d b095 a13e d0dd bfbd
00000060: 324d fe3d b229 5f3e 73c9 813e 8273 0fbd
00000070: 8395 8abd e575 c1be d0b3 3f3e 882d 243e
00000080: 5266 00be a731 1c3d 3a48 833d d0ac 24be
00000090: 9029 e13d 4e20 713e 910c 9abc d625 c63d
000000a0: 5f0f c73d 2f94 8a3e b8a3 363e bdc4 6e3d
000000b0: 7a8f c9bc 34f6 10bd fe25 773d 6183 2ebe
000000c0: c737 1abe 0dd9 253e e37a e2bc 0a48 27bd
000000d0: 6787 a43d cd05 5e3d a1a8 b13d ca02 d73d
000000e0: d7e6 57be 686e 3dbd 4e67 c0bb fbdc abbd
000000f0: 96c9 53bd 45aa cc3d 766f 143e d4d6 4cbc
00000100: 9848 2c3e f325 cc3c bfe8 063e e572 14be
00000110: 48fc 06be b316 4a3c 7682 07bd 627c 18ba
00000120: cc02 a53d 4fae 08be 03b5 61bd e257 8b3d
00000130: e9c8 a23e 9752 15be be49 e93d c5ea 53bd
00000140: b9f0 80bd c2bc 843e 02b2 173e 18b5 a9bd
00000150: c61c d5bc b13d 213e 9a1c 2e3e 0fa6 1abe
00000160: a2d4 a33c 7bd3 7a3e a166 9d3d cd07 63bb
00000170: c92d 0fbd f2ce 3fbe 6bd9 f13c 464a 123d
00000180: 5753 afbd 2414 80be aae6 04be d190 1a3e
00000190: ee8f f4bd e477 47be 1184 1b3e 085a 703d
000001a0: 1e6d 50be 4d62 d5bd 4184 1abd fd0e 683d
000001b0: 4f46 22bd 9c59 42bd 30a2 173d a774 ffbd
000001c0: dc86 9cbd 9ec9 c9bd 2fe5 ec3d 0152 453e
000001d0: 663d 153e 1521 ff3d c034 5ebc 5f09 8fbd
000001e0: dd22 4b3c 9615 d03c bc2d e4bb ca76 7dbe
000001f0: bd90 263c 200d 593e 45b0 ca3d b923 2ebd
-0.08745822 0.10978811 -0.08139699 -0.06540101 0.013398782 -0.12636675 0.070697956 0.14670007
-0.19816145 0.23863271 -0.13042895 -0.07912956 0.024501331 0.008297481 -0.1638298 -0.052292053
0.041104075 -0.045142062 -0.18273169 0.017972302 -0.060558837 0.10628729 0.31559515 -0.09368479
0.124170676 0.21793249 0.25349006 -0.035022266 -0.06766798 -0.3778526 0.18720937 0.16032994
-0.12539032 0.03813329 0.064102605 -0.16081548 0.109942555 0.2354748 -0.01880482 0.096751854
0.09719729 0.2706618 0.17835891 0.058293093 -0.024604548 -0.035391048 0.060338967 -0.17042305
-0.1506034 0.1619608 -0.027646488 -0.040840186 0.080336384 0.05420475 0.086747415 0.10498579
-0.21084152 -0.04624787 -0.00587169 -0.08391758 -0.05170592 0.09993414 0.14495644 -0.012502391
0.16824567 0.02492044 0.13174723 -0.14496954 -0.13182175 0.0123345135 -0.0330834 -0.00058168743
0.08057174 -0.13347743 -0.055104267 0.06803872 0.31793907 -0.14582287 0.11391018 -0.051737566
-0.06295914 0.2592526 0.14813998 -0.08286494 -0.026014697 0.1574619 0.17003098 -0.15102409
0.019998852 0.24494736 0.076855905 -0.00346421 -0.034955774 -0.18731287 0.029522618 0.035715364
-0.08560818 -0.25015366 -0.12978616 0.15094306 -0.11941515 -0.19479328 0.15187098 0.05867961
-0.20354125 -0.1041914 -0.037723783 0.05665492 -0.039617833 -0.04744874 0.03701991 -0.124734215
-0.0764291 -0.098529086 0.11567151 0.19269563 0.14574203 0.12457482 -0.013562381 -0.06984209
0.012398449 0.025400918 -0.00696346 -0.24752346 0.010166344 0.21196413 0.09896902 -0.042514537

fc2.weight f4 [64, 128]
00000000: b7ac f8bd b4a8 b6bd 744d a3bd d2d6 fe3b
00000010: 5b25 0abd 4b81 21bb 3b0f d73d c399 663d
00000020: 6e4d 76bd 6d8b 2a3e fe33 6a3b 70ce 373e
00000030: ffda efbc 3a59 46bd c570 7cbd e345 cbbd
00000040: 9e2e 023d 2e24 edbd 95d5 02bd 5830 88bd
00000050: 5938 273d b5c5 6b3c ba11 513d c8b3 113c
00000060: e6a6 d43c 2a39 a73c 32a6 cdbc 5195 d5bd
00000070: 8380 01be ffee 84be f7d5 5bbd 8e47 5bbd
00000080: 91cd 653d 22b1 5fbc 31b0 cabc dca8 f7bd
00000090: 1fa7 253d b9df cc3c 70cd 823e b026 39bd
000000a0: 8cde c0bd 2bbb e23c 3cec b1bd a2a7 ac3d
000000b0: 04f5 bf3c 1402 edbd c9c3 f7bc 33e5 25be
000000c0: fecb c5bd 2e36 aabd daad dabd f8ac 8fbd
000000d0: b18b b2bd 33c8 873d ac3c a53a d39d 333d
000000e0: 5e59 bdbd 689a cfbd 864d c33d 2ad3 48bd
000000f0: 205c 18be 315b 6abc 7c36 4a3d e08c ebbd
00000100: 1473 b73c c13b 483d 5771 9b3d 5876 75bd
00000110: 84ca c0bd 2a7c 7c3b a0f2 253c 026e 05bd
00000120: 7bdf b73c 0115 53bc 2f6c c43c d257 4ebc
00000130: 34fa 8b3c 5a67 01be aa91 9e3d 9110 503d
00000140: 29c6 57bc a12d 0e3e d20f d53d b3b7 72bd
00000150: b1c2 c6bd 9b0c 4ebe 9a48 2e3c eb0e 25bd
00000160: 54c0 8fbd 8907 bb3d ece5 3a3e 5f85 adbd
00000170: 7b41 92bd 91cb 14be 37f3 ad3d 2053 c03c
00000180: b413 18be f3bd 493d 22a3 44bd a006 cfbd
00000190: e558 a43d 79ae f8bd ae1b b2bd 8289 bfbc
000001a0: e67f 973c b266 b9bc e606 813d 1cd9 0fbe
000001b0: 279a 3cbe d709 44be 6a76 7b3d ad78 8bb9
000001c0: a70a dbbc 7cb9 ba3c 1bd5 b4bd 53e7 0e3d
000001d0: d850 963d 5c3f 223d b05e 9abd bf4a 573d
000001e0: 40aa d13d 5070 f6bd e983 bd3b 1ebe 13be
000001f0: 84e9 9f3c 5f2a 5bbd 300c 373c fe6c d3bd
00000200: d0ca f03d 82b5 8b3d 25da 83bd f7eb cfbe
00000210: 4049 47bd 9c40 3bbe 2131 a2be 2ba2 cdbd
00000220: 4672 5abd 4aa0 a1bd 11b6 13bc f0f0 9d3e
00000230: 7915 a8be 8b81 083e 8636 c53d 59e3 803d
00000240: 1efb b8bd a2e0 123e 0139 a3bd 5342 443e
00000250: 7a65 293c 1e23 8abd 1228 033d d995 99bd
00000260: a3ab e7bd 7362 203c 66c2 643d dfb9 763c
00000270: ef99 a03d 9f98 c83e 860c a0bd 9897 043e
00000280: d62c 02be f10f db3b 0d1e babd 2b06 21be
00000290: 5ba2 0ebd 5bbe f03c 9fb9 09bf 0108 d2bd
000002a0: 8579 fabd 606a 0bbc bf52 b1bd d359 ffbd
000002b0: 45e5 d43e 15ed 5d3e bff7 47be 7734 fc3d
000002c0: 10a5 10be 3ace 2cbd 6fd9 ec3e 46e3 a4bd
000002d0: 6bf3 593d dfe2 ff3c 68a9 34be 4a38 e5bd
000002e0: 63eb 1c3e ad1b 5e3d 22c6 343d d327 acbe
000002f0: 34f0 993d 2987 f6bb 656f f63b ba75 003e
00000300: 4ace ae3e 203b ee3d 1db1 7abe ee0f 623e
00000310: 2e8d ad3e 0750 133d f274 06bd 3592 56bd
00000320: 14d6 7cbd ee7f 3abe ef27 22bc d971 81bd
00000330: 06b4 34bd 5b25 98bd 99a6 4a3e 8c39 083e
00000340: b4d1 15bd 0c44 0dbb 44f4 d1bd fb09 53bd
00000350: bad1 2cbd 0b06 9f3e d1d6 aabd 9a5c dbbd
00000360: c216 c2bb da9f ae3c fd9c b73e 5be5 4bbe
00000370: ac88 50bd abd2 d9bc 25eb 833e d0f8 69be
00000380: 8769 363e 2dc4 353e ae89 c8bd 5f92 11be
00000390: c603 273e 0276 1e3d cb16 15bd 39f3 8e3d
000003a0: d9b7 683d 4b21 a9bd 477d c4bd 9a71 593e
000003b0: 7310 873d 6937 ff3d da0d be3d b175 d2bc
000003c0: 0071 683d 472c 813e a139 923c 5fbf 5fbe
000003d0: 7051 75bd 2c98 0d3e b430 483d 5fa6 98bc
000003e0: 8045 48bd 4dfe dbbd 077c 7c3c 6e05 653a
000003f0: 50c7 93bc 11aa 223d e5d8 283d eb47 f03d
-0.12142318 -0.08918896 -0.079737574 0.0077770734 -0.03372703 -0.0024643715 0.10500952 0.056298982
-0.060132436 0.16654749 0.0035736556 0.17949843 -0.02927923 -0.048424937 -0.061630983 -0.09925439
0.03178274 -0.11579166 -0.03194197 -0.06649846 0.04082522 0.014390399 0.051042296 0.008892961
0.02595849 0.020413 -0.025103662 -0.104288705 -0.1264668 -0.2596359 -0.05367085 -0.053535037
0.056104247 -0.013653072 -0.024742218 -0.12092754 0.040442582 0.025009023 0.2554736 -0.04520291
-0.094174474 0.02767714 -0.08687636 0.08430411 0.023432262 -0.11572662 -0.030244725 -0.16200714
-0.09658049 -0.08311115 -0.10677691 -0.07015413 -0.0871805 0.06629982 0.0012606583 0.043851685
-0.09245561 -0.101368725 0.09536271 -0.049029507 -0.14878893 -0.014303968 0.049368367 -0.11501479
0.02239374 0.04888511 0.07589977 -0.059927315 -0.09413627 0.0038526156 0.010128647 -0.032575615
0.022445431 -0.012883426 0.023977367 -0.01259418 0.01708708 -0.12637082 0.07742627 0.05079705
-0.013169804 0.13884594 0.10403408 -0.05925722 -0.09705103 -0.20121996 0.010637427 -0.04029743
-0.070191056 0.091322966 0.1825177 -0.08472704 -0.07141396 -0.1453078 0.08493655 0.023477137
-0.14851266 0.049253415 -0.048007138 -0.101086855 0.08024768 -0.12142653 -0.08696686 -0.023380999
0.018493604 -0.022631977 0.06300144 -0.14047664 -0.1841818 -0.19144379 0.061392225 -0.00026602056
-0.026738478 0.022793524 -0.08829709 0.034888577 0.073396385 0.039611205 -0.075375915 0.052561518
0.10237551 -0.12033141 0.005783547 -0.14427993 0.019520529 -0.053507205 0.011172339 -0.10323523
0.117574334 0.06821729 -0.06438092 -0.40609714 -0.04865384 -0.18286365 -0.31678107 -0.10040697
-0.053331636 -0.07891901 -0.009015576 0.30847883 -0.32828882 0.13330667 0.0962954 0.06293363
-0.09032272 0.14343503 -0.07969857 0.19165926 0.010339135 -0.06744979 0.032020636 -0.07499284
-0.11312034 0.009789097 0.055849455 0.015058964 0.078418605 0.3917894 -0.07814889 0.12948453
-0.12712416 0.00668525 -0.09087763 -0.15725009 -0.034822803 0.029387644 -0.5379886 -0.10255433
-0.12230209 -0.0085092485 -0.08658361 -0.124683045 0.4158117 0.21672471 -0.19528101 0.123146944
-0.14125466 -0.04218886 0.4625964 -0.080511615 0.053210657 0.03123611 -0.17642748 -0.11192377
0.15324168 0.054225612 0.044134267 -0.33624133 0.07516518 -0.0075234366 0.0075206035 0.12544909
0.3414176 0.11632371 -0.24481626 0.22076389 0.33896774 0.035964992 -0.03282637 -0.052385528
-0.0617276 -0.18212864 -0.009897216 -0.06320543 -0.044116996 -0.07429 0.19790114 0.13303202
-0.03657694 -0.0021555452 -0.10251668 -0.05152319 -0.0421922 0.31059298 -0.08341754 -0.10711022
-0.005923123 0.021316458 0.3586196 -0.19911711 -0.05091159 -0.026589712 0.2576534 -0.2284882
0.17813693 0.17750616 -0.09791885 -0.14215992 0.16310033 0.03868676 -0.03639869 0.06979985
0.056815956 -0.08258303 -0.09594207 0.21234742 0.06594934 0.124617405 0.09279986 -0.025690885
0.05674839 0.25229093 0.017849745 -0.21850346 -0.059892118 0.1382758 0.048874572 -0.01863402
-0.048894405 -0.107418634 0.01541043 0.0008736466 -0.018039376 0.03971297 0.04122247 0.11732467

fc2.bias f4 [64]
00000000: f975 243e ff0f 6abd c913 823e eab2 3a3e
00000010: bdf3 563e a908 ffbc 52ce 9fbc c9e2 863d
00000020: 095c bc3a a9e6 17be 0a4a 213d 4473 363e
00000030: fcf8 5abd 63f3 a83d 1890 323e 7866 99bc
00000040: 0602 fb3c cc8a 3cbc cf66 5abd 9c8c c8bc
00000050: 40ab 2dbd a6e5 433d 5680 6abc 528e 673b
00000060: a896 6b3d f722 6c3d aba1 a03e 68ec 1f3e
00000070: 5f64 ed3c 85af 70bd 62e5 0d3d 25c1 663e
00000080: 1260 cfbd 3ebd 8a3d 5623 a53c b7ab 6bbd
00000090: a7ca cbbc ba59 163d 1469 843c e556 a23d
000000a0: cf91 6c3e 6656 783d 42c8 29bd 1b07 0f3d
000000b0: 5ff9 913e beac 763d 3ce8 063e d88b 8dbd
000000c0: 40e7 4d3d eeca f93c 35a4 cf3c 22cf c8bd
000000d0: c1d5 93bd ab89 813e d755 0d3e 234c 743e
000000e0: 983a de3c 4539 6e3e 297d 983e bb78 a9bc
000000f0: b70b e93b f719 1fbd 0e9f f4bd d59a 733d
0.16060628 -0.05714416 0.2540572 0.18232313 0.20991416 -0.03113206 -0.01950756 0.065862246
0.001437069 -0.14834084 0.03937725 0.17817408 -0.053460106 0.08249547 0.1743778 -0.018725619
0.030640613 -0.011507701 -0.053320702 -0.02448111 -0.042399645 0.04782643 -0.014312824 0.0035332632
0.057516724 0.057650533 0.31373343 0.15617526 0.028978525 -0.05876114 0.034642585 0.22534616
-0.10125746 0.06774376 0.020158451 -0.057536807 -0.024876906 0.036706664 0.016163386 0.0792673
0.23102497 0.06062927 -0.041450746 0.034918886 0.28510568 0.060223334 0.13174528 -0.06911439
0.050269365 0.030492272 0.025346855 -0.098051324 -0.07218505 0.25300345 0.13802277 0.23857169
0.027127549 0.23264034 0.2978299 -0.020687452 0.007111992 -0.03884312 -0.119444 0.05947383

fc3.weight f4 [4, 64]
00000000: 85b2 7a3d d53a 003e b647 f73d 0b07 c23d
00000010: 8661 f03c 0b35 bdbc 5f52 183e cad4 2f3d
00000020: c790 953d 866a eebd 34af 033e bfdf 223e
00000030: 7b1e b2bd bfbb 8a3d 981c fe3d 17bc 623c
00000040: 5b6e 63bf 5b6f 97be ab91 253e b49f cf3e
00000050: 20d0 cabd 6e41 293e 8c5b 233a 0d1b ac3d
00000060: 3069 afbe fbba 30bf 597d 263e eda5 5b3c
00000070: 96a7 a53c 6635 f9be 5556 cbbe c99f 013e
00000080: 59b4 cb3e 0a0d 8cbe 5f39 e83d 64d9 88bd
00000090: 4329 0dbd a9aa d63d ca40 b6bd 5afc aa3e
000000a0: 7538 0b3e 1f05 49be 1e52 2bbe 2aea 003e
000000b0: b6db 653d 5e0c 0c3e 69e2 ba3d e6a6 0fbf
000000c0: 8bbc 823d 8d3e f43e 6f3f 89bf 4aa1 79bc
000000d0: fa74 e3bd 31e8 183e a492 963d d50f c23d
000000e0: 5e72 e43d c808 ad3d 5077 083e f629 f1bd
000000f0: 588b b03d 57b8 0c3e 82c6 453d 4f17 953c
00000100: ba6a 4b3d 086b 293e be73 c73d 8224 fc3c
00000110: c697 423d 5cd5 753c 59d3 b63d cd4f eabd
00000120: 5b8e 3cbc d879 fbbc a26d a93d 1eb4 1b3e
00000130: ed8e 853d c0d2 8a3d 8019 d93d e568 e5bd
00000140: 21b1 9abe 4cfd e53d 49fa 363e d4f4 af3e
00000150: 79bf 3dbe 8731 29bf 059a a2be dac2 05bf
00000160: 806d 9dbe 34d1 9ebe ef70 2a3e 2e70 583d
00000170: 5548 d33d 4327 773e 71cf 54bd 2915 8e3d
00000180: dd28 d3be 6592 8ebd 291c 9ebd a751 1c3c
00000190: 2baa 89bd e363 823e 4497 e4bc 9ac2 8b3e
000001a0: f94b 483d 4683 4cbf e96d 8fbe 2975 463d
000001b0: 4808 2b3e e1c1 783e 106a b23d 9f0e 9d3d
000001c0: ccbc a73d c041 8c3e 259e 113e 740e 3cbc
000001d0: c385 a4bd 5a08 403e 3f74 ed3d 17fe 9a3d
000001e0: 98e2 883e c449 a23d e520 1e3e d7d9 e03d
000001f0: d5f5 d43d 413f a83d 4554 e5be 56b0 c23d
00000200: 01bd 6b3d 6d47 033e e6e1 ce3d e4c5 fd3d
00000210: 32f4 a03d 6cfc b23e a483 f23c ad09 8d3e
00000220: 2fc6 c83d df64 b3bc 8a32 e33d 6dfe 083e
00000230: 4720 c8bd be90 26ba 1f98 f23d 4da0 23bd
00000240: 58f0 e7be ae91 8ebd f7bc 763e d8a6 eabb
00000250: 33aa 153c d392 60bc b9d8 53bd b0a1 6cbc
00000260: 6920 e63d 999d 303e 9dd0 213e 93dd 763d
00000270: fa8a e1bc cbcf 9dbe 8f4f 623e 7bae f73c
00000280: a735 253d 8092 49bf d661 a0bb a9f3 1ebd
00000290: 95f7 ee3c 4d4a 903e df69 003c 62e6 923d
000002a0: 4d01 ff3d 5a6f fc3d 53b3 663e 816f 3e3e
000002b0: 667b b63d 01b9 dabe a66f d73b da25 773d
000002c0: 44f8 473a b800 8f3e 74fe 193e 8352 da3d
000002d0: 7c9e 5fbd 025a 213e 8d94 bdbc 276b 093e
000002e0: 1fd8 dc3e 6029 ee3d d1b2 133e 06ae debd
000002f0: d15b b03c 01bf bbbd bfa3 89bd 5bbe 3f3c
00000300: fddd a53c 7c42 2c3e 1c57 133e b385 ca3d
00000310: 5ee7 a43c 6dc4 073e c210 31be f3c1 48bf
00000320: 80a6 25bd 9f16 00bd 1f5f 9ebd 7c87 083e
00000330: 0b90 1ebe c571 a53d 96f2 e73d 8f09 b03c
00000340: efc3 2c3d a927 953d a3af 98be 08db 083f
00000350: 922d ca3d 63cf 69bc 9d91 edbe b84b e73d
00000360: 31b6 b4be 6ea9 b63e 2eec 2e3e 3cb9 ed3b
00000370: 2b38 7e3d 0cca 14bf a081 12bf d9e3 123e
00000380: 39c0 a1bd 5e12 bc3d 6ef8 8b3c d311 f0bc
00000390: 1955 e8bd ed52 11bf 4810 84bd ec32 6c3e
000003a0: e223 ad3d a925 cfbd 6951 d63d b765 383d
000003b0: 05b3 1a3e 4347 2fbf b345 743d 62f3 323e
000003c0: f08e 24bd 06b6 993d 8420 ac3e 9634 9c3d
000003d0: e66a c03d f388 393d 751b 603d 4b4d 2b3e
000003e0: a053 80bd 9458 673d cd55 b43d a878 adbc
000003f0: 28a2 3d3e 7889 bd3d 825c acbe 1188 0b3e
0.061205406 0.12522443 0.12074225 0.094739996 0.029343378 -0.023096582 0.14875172 0.04292754
0.07303005 -0.116414115 0.12859803 0.15905665 -0.0869722 0.06774091 0.124077976 0.013838789
-0.88840264 -0.29577145 0.16168849 0.4055153 -0.09902978 0.16528866 0.0006231598 0.08403597
-0.3425994 -0.6903531 0.16258754 0.013406259 0.020221513 -0.48673552 -0.39714304 0.1265861
0.39786032 -0.27353698 0.11339068 -0.06682089 -0.03446318 0.104817696 -0.08899076 0.33395654
0.13595755 -0.1963086 -0.16730544 0.12589327 0.056117736 0.13676593 0.091252156 -0.5611404
0.06383618 0.47703972 -1.0722483 -0.015236208 -0.11106296 0.14932324 0.07352188 0.09475676
0.11154626 0.084489405 0.13326764 -0.117755815 0.08620328 0.13742195 0.048285015 0.018199591
0.04966233 0.16544735 0.09738873 0.030779127 0.047508024 0.015004482 0.0892703 -0.11441002
-0.01150855 -0.030697748 0.08272864 0.15205428 0.065214016 0.067784786 0.10600567 -0.11201648
-0.30213264 0.11229953 0.17868914 0.34366477 -0.18530072 -0.660912 -0.31758133 -0.52250445
-0.30747604 -0.31018984 0.16644643 0.052841358 0.103165306 0.24136071 -0.051955644 0.0693763
-0.41242114 -0.06961516 -0.07720215 0.009540952 -0.0672191 0.25466833 -0.02790416 0.27296907
0.04890058 -0.7988781 -0.28013542 0.048451576 0.16702378 0.24292709 0.08711636 0.076688044
0.08190307 0.27393913 0.14220484 -0.011478055 -0.080333255 0.18753186 0.11594438 0.07567995
0.26735377 0.07924226 0.15442236 0.1097905 0.10398451 0.0821519 -0.44790855 0.0950629
0.057553295 0.12820216 0.101016805 0.1239126 0.078590766 0.34958208 0.029603787 0.27546445
0.098034255 -0.021898685 0.11093624 0.13378306 -0.097717814 -0.0006353966 0.11845421 -0.039947797
-0.45300555 -0.0696138 0.24095522 -0.0071610026 0.009134817 -0.013706881 -0.051720355 -0.014442846
0.112366505 0.17247619 0.15802236 0.060269903 -0.02753209 -0.30822596 0.22100662 0.030234566
0.04033437 -0.78739166 -0.0048944755 -0.03880659 0.02917079 0.28181687 0.007837742 0.07172848
0.1245142 0.12325926 0.22529344 0.18597223 0.08910255 -0.42719272 0.006574589 0.060338832
0.0007628242 0.27930236 0.15038472 0.10660269 -0.0545945 0.15756992 -0.023142124 0.13419782
0.43133637 0.116289854 0.14423682 -0.10873036 0.021528156 -0.091672905 -0.06720685 0.011703099
0.020247454 0.16822237 0.14388698 0.09888782 0.020129856 0.13258524 -0.17291549 -0.78420943
-0.04044199 -0.031271573 -0.07732987 0.13332933 -0.15484636 0.080783404 0.113255665 0.021488933
0.042179044 0.07282955 -0.298215 0.53459215 0.09871973 -0.014270636 -0.46400157 0.11293739
-0.3529525 0.3567614 0.17082283 0.0072547477 0.062065285 -0.581208 -0.5722904 0.1434473
-0.07897992 0.09183191 0.017086234 -0.029305374 -0.11344356 -0.5676716 -0.06448418 0.230663
0.0845411 -0.10114605 0.104647465 0.045018878 0.15107353 -0.6846811 0.059636783 0.17475656
-0.04017538 0.07505421 0.33618557 0.076272175 0.09395389 0.04529662 0.054713685 0.16728704
-0.0626595 0.05648096 0.08805428 -0.021175697 0.18518889 0.09254736 -0.33664328 0.13626124

fc3.bias f4 [4]
00000000: cd6f 833d 49bf c53d 7435 853e 4f06 6c3e
0.06417809 0.096556254 0.26017344 0.23049282
