Continuous Control - Actor Critic Methods/checkpoint_actor.pth (torch_old, 174005 bytes, 10 tensors)

fc1.weight f4 [256, 33]
000000 d5 3e 37 bd ac ae ee bc c3 ed c9 bd b8 61 b8 bd
       -0.044737656 -0.029136024 -0.098598026 -0.09003013
000010 70 49 33 bd 1b f2 1d bd 56 14 1d 3d 27 74 21 3c
       -0.043771207 -0.038560968 0.038349472 0.009854353
000020 64 d7 49 3d 64 81 d6 3c 46 92 9c 3a e2 b5 bb 3c
       0.049277678 0.026184745 0.0011945448 0.022913877
000030 3e 97 1f bc a4 83 08 bd ee 73 24 3d df 6f 26 bc
       -0.009740649 -0.033328667 0.04014962 -0.010158508
000040 40 03 2a 3d 75 4c a6 ba 30 0b c8 bc 0f d2 11 3d
       0.041507006 -0.0012687581 -0.024419397 0.035600718
000050 62 a0 31 3d 30 a2 05 bd cc c6 93 3d 6a 30 91 bb
       0.043365844 -0.032625377 0.07215652 -0.0044308202
000060 b3 b1 99 bc c1 c9 43 bb 5a 8c 84 3b 41 a7 5a bd
       -0.018761491 -0.0029874893 0.0040450515 -0.053382162
000070 9f 07 0b 3d 1c d2 39 bd ee ee 09 bc ae 08 77 bd
       0.033942815 -0.04536639 -0.008418782 -0.060311012
000080 f7 e3 46 3e 5a 8a c1 bc 4a 20 05 3c f7 7d 20 3d
       0.19422899 -0.023625541 0.008125374 0.03918263
000090 b3 56 36 3a 7b b5 e8 bc 86 fa 72 bc ea fc 0d 3d
       0.0006955668 -0.02840685 -0.014830237 0.034665026
0000a0 2e 16 09 bd 76 5e 25 3d a6 98 d8 3d 38 45 f9 bc
       -0.033468418 0.040373288 0.105759904 -0.030428514
0000b0 4d 13 03 3d bb 58 bb bc 21 69 d0 3d d9 60 88 3b
       0.03200083 -0.022869458 0.10176302 0.0041619358
0000c0 1c 38 b9 3b e2 0a 50 bd 67 88 25 3c 69 7e e1 3c
       0.0056524407 -0.05079163 0.010103322 0.027526097
0000d0 70 fe f5 3c 35 5d b7 39 ef 14 de 3c 5b d1 b2 3d
       0.030028552 0.00034973925 0.027109591 0.08731338
0000e0 c0 81 04 3d 3d a5 8e 3c 8a 7f b4 3b ab 77 b2 bd
       0.0323503 0.017412776 0.005508368 -0.08714231
0000f0 5d 2d 75 3d c8 37 9f bd 9c 08 9f 3c 3d 46 79 bc
       0.059857715 -0.07774311 0.019413285 -0.0152145
000100 d8 4a 77 3c f8 cb 04 bd 11 e9 87 3b 13 8a 11 3c
       0.015093528 -0.032421082 0.0041476567 0.008883017
000110 16 54 34 be 56 c2 28 bc e1 27 c7 3b b7 f9 63 bb
       -0.17610201 -0.01030024 0.006077752 -0.0034786293
000120 6d 73 9f bc 58 eb 3a 3d 80 0a fa bc 4b 09 09 bc
       -0.019464219 0.045634598 -0.030522585 -0.008364032
000130 37 3c c7 bc 39 20 07 bd 66 e6 09 bc 76 7f 21 bd
       -0.024320705 -0.032989714 -0.008416748 -0.039428197
000140 bc fc c8 bd 27 97 76 bc 94 54 65 bc 38 88 80 bc
       -0.0981383 -0.015050686 -0.013997216 -0.015689954
000150 65 3a 8f bd 6c 6c 97 3c 47 cf 4e bd 50 f6 a6 3c
       -0.0699356 0.018484317 -0.050490644 0.020381123
000160 3b 54 bb 3d da f9 64 3b 84 e1 60 bd 97 50 56 bc
       0.09146925 0.0034938962 -0.05490257 -0.013080738
000170 f7 60 ac 3c ad c6 d2 bb 06 16 0f bd 88 b6 62 bc
       0.02104233 -0.0064323754 -0.034933113 -0.013837464
000180 db ed 04 3d 4c 24 09 3d ca 75 04 bd 2f 53 1d 3d
       0.0324534 0.03348188 -0.032338895 0.03840941
000190 68 14 81 bd 98 ea fb bc e7 02 4f bc b5 4e 94 3c
       -0.0630272 -0.030751511 -0.012634969 0.018103937
0001a0 35 96 12 bd e0 0d 5b bd df 7b 95 bd fd f0 e1 3c
       -0.03578778 -0.05348003 -0.07299017 0.027580732
0001b0 b5 7e e8 3d 70 d9 6d 3d a9 21 53 bc 28 7a c8 bb
       0.113522924 0.058068693 -0.012886443 -0.006118078
0001c0 2f 76 42 3d 4e 7c 77 bd 28 7b a9 bc a8 83 8e bd
       0.04747599 -0.06042128 -0.020688608 -0.06958705
0001d0 61 0f af 3b 39 b9 41 3d 5f 3b 1e bd d0 ad f3 bc
       0.0053424095 0.047295783 -0.03863084 -0.029745966
0001e0 a9 3a c1 3d 81 88 11 bc 7c fc 8f bc df 48 1b bc
       0.09435017 -0.008882643 -0.017576449 -0.009477823
0001f0 24 90 f1 bc f5 03 bf bd cb fe 0a 3d 11 ba 6a bd
       -0.029487677 -0.093269266 0.033934396 -0.057306353
000200 7c d6 5d 3d 23 02 30 3d 62 79 69 bd fa ae a2 3d
       0.054159626 0.042970788 -0.057000525 0.079435304
000210 63 ff 19 bd d6 a6 b0 3d 1d 1a 8d 3a 13 41 e0 3c
       -0.03759707 0.086255714 0.0010765229 0.02737478
000220 de 19 0d 3d 4e 1b af bb 2f 02 24 3d ca 5b a8 3c
       0.034448497 -0.005343831 0.040041145 0.020551581
000230 1c f4 1f bd c5 c1 a2 3d 19 28 17 bd 29 8d 22 bd
       -0.03905116 0.07947115 -0.036903474 -0.039685402
000240 06 0d 1b bd 99 c5 19 bd 58 98 0a 3b 63 a3 2b 3d
       -0.037854217 -0.03754196 0.0021147933 0.041903865
000250 90 e7 92 3c a9 1e 85 bd ba fa 3a bd e5 88 a6 bc
       0.017932683 -0.064999886 -0.045649268 -0.020328948
000260 ee 79 4f bd 9c 22 75 3d 39 a3 a2 bc 06 d5 b1 bc
       -0.05065339 0.05984746 -0.019853221 -0.021708023
000270 b4 fc 97 3c a6 2a e7 bb b8 d2 8d 3d 03 21 23 3d
       0.018553115 -0.0070546446 0.06924957 0.039826404
000280 5b 5c 9f bd 58 1e 8e 3c fe 36 db bc e0 33 12 3c
       -0.07781287 0.017348453 -0.02675962 0.008923501
000290 c2 66 82 bc b6 8f 75 bd a7 b8 8b 3d fb 04 3d 3d
       -0.01591814 -0.059951507 0.06822329 0.046147328
0002a0 a5 c5 83 3d 7f b3 2c bc 86 59 d9 bc c5 be 36 3b
       0.06434182 -0.010540842 -0.026531946 0.0027884704
0002b0 d4 f3 90 3b 48 18 f7 bb a1 e5 e8 3d 4c 26 58 3c
       0.004423598 -0.0075407363 0.11371923 0.013192724
0002c0 54 39 91 bd ff 7a 2c bd 33 f6 93 3c e2 cb 06 bd
       -0.070910126 -0.042109486 0.018061733 -0.03290928
0002d0 1d c5 e5 3c 83 3a 8c bc c7 61 0b bd 52 15 d2 bc
       0.028048092 -0.017117744 -0.034028795 -0.025644932
0002e0 fd e8 8a 3c 5c 96 f0 bc 3d 21 02 3d 65 05 83 3d
       0.0169568 -0.029368572 0.03176998 0.06397513
0002f0 46 9b e6 3c bd 17 98 bd bc 42 fe 3b 66 b9 8a 3c
       0.028150212 -0.07426403 0.00775942 0.016934108
000300 42 2f 2f 3d 74 47 74 bd 3c 03 b2 bc 82 73 40 bd
       0.042769678 -0.059638456 -0.021730058 -0.046985157
000310 d4 1a 03 bd 49 c0 16 3c c8 ae 81 3d 5d 65 06 3d
       -0.032008007 0.009201118 0.06332165 0.03281151
000320 b4 9e 11 3d 30 a8 88 3d 1e c6 86 3d bd dc 88 3d
       0.03555174 0.06672704 0.065807566 0.066827275
000330 0b 80 90 bc 08 2c 03 3d 90 04 b4 3b 43 38 29 be
       -0.01763918 0.032024413 0.005493708 -0.16525368
000340 e0 b2 e6 bb 07 22 8c 3b 5f d9 3c bd 8a c9 00 3d
       -0.0070403665 0.0042765173 -0.04610574 0.031442203
000350 ef df d1 3c 7d 4b 31 bd 1f 6d 00 3d 62 06 83 3d
       0.025619475 -0.04328488 0.031354066 0.06397702
000360 b5 2d bf 3c 4d fb 73 bc 7a e8 21 3d f1 70 c7 bd
       0.023337224 -0.014891458 0.039528348 -0.09738339
000370 de 0a 99 bd 41 52 51 bc ac 7c 0b bc db 8a 60 3c
       -0.07472776 -0.0127759585 -0.008513611 0.013704981
000380 73 fa e9 3c 37 70 6f bc 3f 66 82 bd a2 ec 63 bd
       0.028561806 -0.014614156 -0.06367158 -0.055645593
000390 f6 a9 d1 3b d4 f7 39 3d da e7 9b 3d 3f 40 a2 bc
       0.0063984348 0.045402363 0.076125816 -0.019806026
0003a0 8c 2d 45 bd 32 d8 e0 bc e3 a5 49 bc e7 ff bb bd
       -0.04813914 -0.02744684 -0.012307617 -0.09179669
0003b0 d4 15 61 bc 86 58 c5 3a e4 12 90 bd aa 3c 8d bc
       -0.013738114 0.0015056289 -0.07034853 -0.017240841
0003c0 a1 fc 27 3d 7a 4d fc 3c 12 cd 5a 3d aa 33 48 3d
       0.04101241 0.030798662 0.053418227 0.048877396
0003d0 15 fd 37 bc d6 45 4e bc 53 1c ea 3d 9f 87 2d bd
       -0.011229773 -0.012589892 0.11431184 -0.042365666
0003e0 8f 9f 00 3d de 7a db bc 7c 81 09 3e 0e d5 bc bc
       0.031402167 -0.026791986 0.134283 -0.023050811
0003f0 85 c2 e7 bc 5a e9 e1 bc 4b 2c 05 bc 92 9d b3 3c
       -0.028290996 -0.027577091 -0.008128236 0.021925721

fc1.bias f4 [256]
000000 1f 4d e8 bc 70 1d bb bd 4d b5 0a 3e 2a b0 5a bd
       -0.028357087 -0.09136474 0.13545723 -0.05339066
000010 92 6e 9d 3d ec 13 b6 bb 9f c7 30 be 69 5e 40 3d
       0.07687105 -0.005556574 -0.1726365 0.046965037
000020 d9 6c 9e 3d f4 3d 1d 3e ab 9a 19 be 92 1a ff 3d
       0.07735605 0.15355664 -0.15000407 0.1245624
000030 6b 80 90 bd 6c e5 13 3e d6 9c 2d 3e ec 5b 27 3e
       -0.07055744 0.14442986 0.1695436 0.16343659
000040 a7 1e 9e 3d bf a8 8b 3c 58 3b b3 bd 45 e1 d2 bd
       0.0772069 0.017048238 -0.08751553 -0.10296873
000050 6a e3 46 3d 12 fa 97 bd b8 d2 0f 3d 55 ed 20 3e
       0.048556723 -0.07420744 0.035113066 0.15715535
000060 f9 db a0 bd 20 9a b8 3c 02 53 2b 3e 3d cf 18 3d
       -0.078544565 0.02253443 0.16730884 0.037307013
000070 81 22 04 3d 61 02 b2 bd 1b 57 71 bd a2 55 0e bd
       0.032259468 -0.0869186 -0.05892096 -0.034749635
000080 81 e1 47 3d ed 66 fd bd 90 42 cb bd dd 13 f7 3d
       0.04879904 -0.12373147 -0.09924805 0.120643355
000090 1b 3e f0 bd 75 ff f4 bd 34 88 1e 3e 03 74 84 3d
       -0.11730596 -0.11962787 0.15481645 0.0646744
0000a0 61 5d 12 be 02 ed 1a 3d 3d 24 09 3e e8 39 20 3e
       -0.14293434 0.037823685 0.1339273 0.1564709
0000b0 10 5c 17 3e 95 53 ed bc 6b fb ed 3d e4 93 19 bc
       0.14781213 -0.02897052 0.1162022 -0.009373639
0000c0 81 c3 13 3e 83 dd e3 3d 29 44 02 be db 1c a9 3d
       0.14430048 0.111262344 -0.12721314 0.08257457
0000d0 6e 45 5e bd 9f 89 5b bc 54 61 43 bd 35 01 be 3d
       -0.054265432 -0.013399511 -0.04770024 0.09277574
0000e0 ee 1f ed bc 46 27 a8 3d 2f f8 21 be 5b e7 69 3d
       -0.02894589 0.08210616 -0.15817331 0.057105403
0000f0 6a 93 66 bd 0f 28 5b bd 26 18 ef 3c 69 c5 89 3c
       -0.05629293 -0.053505 0.02918632 0.016817765
000100 a9 21 48 bd db ab 08 be 4e a3 27 3e 40 f1 8c 3b
       -0.048860226 -0.13346808 0.1637089 0.00430122
000110 e7 ac 73 3d d5 4d 90 bd ca 99 0b 3e 50 a9 e7 bd
       0.059491064 -0.07046095 0.13632885 -0.11311591
000120 ef 3c 28 be 2f 4b b5 3d fc 23 9a 3d 40 01 c8 3d
       -0.16429494 0.08852231 0.07526395 0.097658634
000130 f1 45 b7 bd 81 04 3f 3c b7 02 e8 bd 0f cd 2f 3d
       -0.08948887 0.011658789 -0.11328643 0.04292017
000140 27 bd 27 3e e2 aa 30 3d 30 bb d6 bd f4 64 9f bb
       0.1638075 0.043131717 -0.10484922 -0.0048643295
000150 97 d3 92 3d fe 8c c7 3d 70 3c 32 be c6 3a 9e bd
       0.07169264 0.09743689 -0.17405868 -0.07726054
000160 f5 d1 7b bd 02 3c 13 3e 81 1d 81 bc 79 66 af 3d
       -0.061479528 0.1437836 -0.015761139 0.08564467
000170 3d ee 9e 3d 58 9a 17 3e f8 88 b0 3b 41 af 2a 3c
       0.07760284 0.14804971 0.0053874217 0.01041776
000180 30 ff ec bc dc 27 24 be e8 6d da bc d8 6b ca 3d
       -0.028930277 -0.1603083 -0.026663736 0.09883851
000190 84 60 a6 3d 3c 33 b1 3d 67 e9 3f 3d 8c ba 78 3d
       0.08123878 0.0865235 0.04685345 0.06072478
0001a0 22 15 2f 3d 4e 2f 86 bc 14 8a 8a bd f7 f9 13 3d
       0.042744763 -0.016379979 -0.067646176 0.036127057
0001b0 51 7c 71 3c 59 fa 8c 3b 12 24 28 3e d3 b5 44 bd
       0.014739112 0.0043023047 0.1642001 -0.048024964
0001c0 20 f2 1b be a6 97 17 be 44 16 9c 3d d4 7f 93 bc
       -0.15229082 -0.14803943 0.07621434 -0.01800529
0001d0 f7 1a cc bd a5 4c 94 bd f7 18 fd 3d 69 af c6 bc
       -0.09966081 -0.07241181 0.12358277 -0.024253564
0001e0 62 35 0c 3e 7a e8 06 3e 48 08 2c bd 92 9f 00 3e
       0.13692239 0.1317462 -0.042000085 0.12560871
0001f0 38 86 26 3e 2a c0 bb 3d 21 e1 c7 bd fd 74 86 bd
       0.16262138 0.09167512 -0.09759737 -0.065652825
000200 e4 f4 a4 bd 58 66 2c be 6f 29 db bd 0c c6 19 be
       -0.08054522 -0.16835916 -0.10701262 -0.15016955
000210 c6 27 07 3e 5e b5 9c bd 17 41 28 bd 98 b6 64 3d
       0.13198766 -0.076517805 -0.0410777 0.055838197
000220 9c e0 9f 3c ff 95 de bd 4a e2 92 bd 85 02 04 bd
       0.019516282 -0.10868453 -0.071720675 -0.032228965
000230 99 69 8f 3b 7d 13 15 bc bb 5d 9c 3d af b4 64 3a
       0.004376602 -0.009098885 0.07635065 0.0008724434
000240 7d 60 cf bd 19 48 8e bd bb eb 24 bd 2e 7f f2 3d
       -0.101258256 -0.06947345 -0.040263873 0.11840664
000250 07 f0 fe 3d 0a 58 17 be 6d 70 09 be 78 c2 c2 3c
       0.12448125 -0.14779678 -0.13421793 0.02377437
000260 bb 14 9f 3d 9d 45 04 bd e7 e8 69 3d ec cc 39 3a
       0.07767626 -0.03229295 0.05710688 0.00070877257
000270 ed be b2 bd 28 e9 b4 3d 75 03 6f bd 5a 28 e7 bd
       -0.087278225 0.088335335 -0.058352906 -0.11286993
000280 db 0b 8d bb eb 5f 95 bd e3 07 c5 3d a5 54 1f 3e
       -0.004304392 -0.072936855 0.09620645 0.15559633
000290 5e d8 dc 3d cb ff 5c bd 6d 92 ae bd b2 25 80 bd
       0.10783456 -0.05395488 -0.08524022 -0.0625719
0002a0 69 01 cc bd c8 3d 50 bd e2 31 16 3e 1c 86 30 3e
       -0.099612065 -0.05084017 0.14667466 0.17238659
0002b0 35 3e 87 bd b8 f4 68 3d e8 8a 30 3c fb 89 36 3d
       -0.06603662 0.056874007 0.010775305 0.044565182
0002c0 2a 0c 0a be 19 7f c2 bd 0c 22 28 bd 8b c8 5e bd
       -0.13481203 -0.09496898 -0.041048095 -0.05439047
0002d0 d5 92 19 bd 0f 00 44 3d 7e 7d b0 bb 69 d0 12 be
       -0.037493546 0.04785162 -0.0053860536 -0.14337315
0002e0 a6 81 ef 3b ec 77 0d 3d 59 ef 00 3e c1 a4 c0 bd
       0.0073091565 0.034538195 0.12591304 -0.09406424
0002f0 82 c7 c9 bd 0d 2a fb 3d 93 f3 82 bd ed 8c 74 3d
       -0.09852506 0.1226388 -0.06394114 0.05970471
000300 ea 70 11 3e 79 ce 00 bd df 2b 7b bc 71 1d d2 bd
       0.1420323 -0.031446908 -0.015330284 -0.10259522
000310 00 54 aa 3d 18 63 b7 3d aa 87 16 be 64 17 d7 3d
       0.08316803 0.089544475 -0.14700189 0.10502508
000320 22 91 2d 3e 9f e8 24 3e cc 8e 81 3d 86 b8 2b 3e
       0.16949895 0.16104363 0.063260645 0.16769609
000330 9f a5 fa 3c 08 71 b6 bd fa 24 0c be 67 55 0d be
       0.030596552 -0.08908278 -0.1368598 -0.1380211
000340 77 89 8d 3d 10 46 97 3d 2c 3f b4 bd a0 da 5b 3c
       0.06910985 0.0738641 -0.088011116 0.0134188235
000350 2c 73 99 bd 57 12 99 3d 12 a1 fb bd 07 ab a8 3c
       -0.074926704 0.07474201 -0.12286581 0.020589365
000360 4b 3f 54 bd 7a 33 cb bd b4 70 7f bd 05 0a 2f 3e
       -0.051818173 -0.09921928 -0.06236334 0.17093666
000370 3c a8 22 3d 3d 37 10 be a6 e6 86 3d 1e 5c 18 be
       0.039711222 -0.14083572 0.065869614 -0.1487889
000380 6e 15 0e 3e bc 6a 15 be 85 00 68 bd 08 39 26 be
       0.13875362 -0.14591497 -0.05664112 -0.16232693
000390 a6 1a 76 bd bd 92 00 3e 5d 78 a1 3d b0 52 f0 3b
       -0.060084008 0.12555976 0.078842856 0.007334076
0003a0 2e 3d f8 bd 44 bd 07 3e 57 5c 92 bc 5e af c5 bc
       -0.12121044 0.13255793 -0.017866297 -0.024131473
0003b0 c3 9c a5 3d a0 b8 b6 3d 2e 81 f8 bd d0 ef 12 3c
       0.080865405 0.08921933 -0.12134014 0.008968309
0003c0 4d b3 ef bd 69 9d f0 bd 55 27 12 3a 12 8a 9d bb
       -0.11704121 -0.117487736 0.0005575319 -0.004807719
0003d0 c8 b4 36 3d ec 4d e1 bd 1a c8 3e 3d ab 54 e3 3d
       0.044606 -0.110011905 0.04657755 0.111001335
0003e0 3a 8d 6f 3c 23 0a 1a 3e ef ad 27 3b 83 40 02 be
       0.014621073 0.1504293 0.002558585 -0.12719922
0003f0 18 91 9e bd df 1c 58 3d 34 05 f4 bd c6 e9 d3 bd
       -0.07742518 0.05276191 -0.11915055 -0.10347323

batch.weight f4 [256]
000000 05 0d 92 3f ea 20 9e 3f f1 93 86 3f ad a8 59 3f
       1.1410223 1.2353795 1.0513898 0.85023004
000010 e5 71 44 3f 93 1a 39 3e d4 7a 5c 3f d1 c2 7c 3f
       0.7673629 0.18076544 0.8612492 0.98734766
000020 e7 04 a8 3f a2 8f d1 3e ec 15 51 3e 61 ae 4b 3f
       1.3126496 0.40929896 0.20418519 0.79562956
000030 68 8e 52 3f 83 fb 08 3f f5 f7 ba 3e 49 47 be 3e
       0.82248545 0.53508776 0.365173 0.3716376
000040 d6 4c 4a 3f a7 0b 8e 3f eb f0 68 3f ae ab d3 3e
       0.7902349 1.1097306 0.9099261 0.4134192
000050 87 7e 93 3f 59 e5 94 3f b1 9a 5e 3f 6b b4 94 3f
       1.1522988 1.1632491 0.8695479 1.1617559
000060 52 58 dd 3e 47 db 6e 3f 3f f0 af 3e 49 b7 8f 3f
       0.43231446 0.9330334 0.3436298 1.1227809
000070 72 38 83 3f 8d 19 71 3f a9 87 8b 3f 9b 8c 46 3f
       1.0251601 0.9417961 1.0900775 0.77558297
000080 d4 d9 14 3f b9 c3 21 3f 93 14 4c 3f cf 01 0d 3f
       0.5814488 0.63189274 0.79718894 0.55080885
000090 11 67 77 3e 8e 7a 42 3f c5 e3 82 3e a1 d4 f7 3e
       0.2416041 0.75968254 0.255644 0.4840441
0000a0 8a 38 5a 3f 76 0e 0c 3f b6 cb 6d 3f 89 63 a7 3e
       0.8524252 0.54709566 0.92888963 0.32693127
0000b0 e9 47 8b 3f 82 90 e9 3e 3f f8 10 3f 7d 91 e6 3e
       1.088132 0.45618063 0.56628793 0.45032874
0000c0 0c 43 89 3f 62 b7 91 3f e3 b0 81 3f cf 9d 05 3f
       1.0723586 1.1384089 1.0132107 0.5219392
0000d0 49 fd 72 3f 85 87 e3 3e a8 b6 72 3f 96 de 76 3f
       0.9491773 0.4443933 0.9480996 0.9643339
0000e0 e1 58 01 3f 50 58 22 3f 61 fe f5 3e 45 38 7d 3f
       0.50526243 0.63416004 0.48045638 0.98913985
0000f0 80 83 6f 3f 25 24 00 3f 48 bd 1d 3f 13 62 72 3f
       0.9356003 0.5005515 0.61616945 0.946809
000100 3a 4a 75 3f 97 0b 12 3f df d9 f4 3e 7d c8 85 3f
       0.95816386 0.57048935 0.47822472 1.0451809
000110 33 fd af 3e 3a e8 2b 3f 4b 15 f0 3e 71 ba 86 3f
       0.34372863 0.67151225 0.46891245 1.0525647
000120 7b 63 51 3f bf b1 fe 3e 51 54 75 3f 7a d8 70 3f
       0.8179242 0.49744985 0.9583178 0.9408032
000130 71 31 7f 3f 87 bf 7c 3f 82 c9 32 3f c1 a9 81 3f
       0.99684817 0.9872975 0.69838727 1.012993
000140 a6 b8 c7 3e 6a 41 5a 3f 3b 12 8f 3f 85 a3 d1 3e
       0.39008063 0.85256064 1.1177438 0.40945068
000150 07 0a cd 3e 1a 47 97 3f bd 19 46 3f 3b 1d 9a 3f
       0.40046713 1.1818573 0.77383024 1.204017
000160 59 78 13 3f ab 0f 93 3f 5a c0 26 3f ee 55 63 3f
       0.5760551 1.1489156 0.65137255 0.88802993
000170 52 b8 b5 3e 39 09 75 3f a8 dc 59 3e 9c c1 8e 3e
       0.35492188 0.957172 0.2127558 0.27882087
000180 fb c5 09 3f e6 de 93 3f 2d 52 09 3f c2 86 88 3e
       0.5381772 1.1552398 0.53641015 0.26665312
000190 a2 d8 86 3f 3a 08 a3 3e a4 a4 6c 3f 69 45 89 3f
       1.0534861 0.31842214 0.9243872 1.0724307
0001a0 64 51 e2 3e 27 26 d7 3e d5 00 6f 3f c4 52 f2 3e
       0.4420272 0.42021295 0.93360645 0.4732877
0001b0 a3 39 ee 3e 8c 66 11 3f 19 f3 66 3f a4 5d 53 3e
       0.46528348 0.567971 0.9021469 0.2064119
0001c0 ba 69 1e 3f c6 48 b8 3e b7 e0 ca 3e 1e 47 34 3f
       0.61880076 0.35993022 0.3962457 0.70421016
0001d0 da 02 09 3b df cb 65 3f 5d 85 83 3f 3c a2 57 3f
       0.002090624 0.8976421 1.0275074 0.84231925
0001e0 ef 8a 80 3f eb bf 76 3e 00 06 4f 3f 39 5d 73 3f
       1.0042399 0.24096648 0.8086853 0.9506412
0001f0 16 58 4c 3f c8 23 62 3f 30 f9 89 3f 68 d8 76 3f
       0.7982191 0.8833585 1.0779171 0.9642396
000200 c3 45 58 3f 2b b5 e1 3e b7 8b 7f 3e 2a ab 87 3f
       0.8448145 0.44083533 0.2495564 1.059911
000210 55 26 0f 3f 3b 29 3e 3f 3a 53 ad 3e c5 42 be 3e
       0.55917865 0.7428166 0.3385256 0.37160316
000220 f8 fd 93 3f b7 85 88 3f d3 89 1d 3f 92 5c 3c 3f
       1.156188 1.0665807 0.6153843 0.7357875
000230 bf 8b bc 3e 64 57 c4 3e 1f 05 63 3f 9d 7e ea 3e
       0.36825368 0.38347924 0.8867969 0.45799723
000240 3e 28 75 3f 39 e1 8c 3f 56 f7 51 3f fd 56 81 3f
       0.9576453 1.1006233 0.8201803 1.0104672
000250 81 b7 84 3f cd 9c 0e 3f d7 96 e0 3e 38 b2 6f 3f
       1.0368501 0.5570801 0.43865082 0.93631315
000260 c5 84 5c 3f 51 c8 6e 3f 36 78 bf 3e 69 87 31 3f
       0.8614009 0.9327441 0.373964 0.69347245
000270 f2 20 61 3f 96 b6 40 3f b8 20 7a 3f 2d c1 38 3f
       0.87940896 0.75278604 0.97706175 0.7216976
000280 4d 1c 4d 3f c3 b5 fc 3e 38 81 ee 3e 78 ed 8e 3f
       0.8012131 0.49357423 0.4658296 1.116622
000290 98 c6 a0 3e 95 8e 24 3f 55 72 8e 3f c3 0c 57 3f
       0.31401515 0.6428006 1.1128641 0.8400385
0002a0 06 03 89 3f 48 ee ea 3e 0d de 90 3d 54 3c b0 3e
       1.0704048 0.4588492 0.07073603 0.34421027
0002b0 a8 3a 3f 3f 05 4f 4f 3f 16 dc 96 3e 7e bd 33 3f
       0.7469888 0.8097995 0.29464787 0.7021102
0002c0 aa cd 82 3f 85 56 6f 3e 0c e9 70 3f 12 3c 2b 3f
       1.0219014 0.23372848 0.941056 0.66888535
0002d0 9f 29 cc 3e 21 ea 64 3f 0b 76 ba 3e 2d b8 1e 3f
       0.39875504 0.8941975 0.36418185 0.6199978
0002e0 e6 0d 4e 3f 4d 37 89 3f 65 2c a1 3f 95 2e 00 3f
       0.8048996 1.0720001 1.2591673 0.5007108
0002f0 ed d5 61 3f 58 c3 98 3f 14 e2 6b 3f 6a be ed 3e
       0.8821705 1.1934614 0.9214184 0.46434337
000300 a9 dc 94 3e d2 4e 14 3f b0 5c 20 3f 8d a3 c7 3e
       0.290746 0.5793277 0.6264143 0.38991967
000310 84 49 7e 3f d7 ee 8b 3f e5 fe 4f 3f 04 38 9a 3e
       0.99330926 1.0932263 0.81248313 0.30120862
000320 2b a3 4d 3f 70 78 7c 3f 43 8b 06 3f c6 72 35 3f
       0.803271 0.98621273 0.52556247 0.70878255
000330 16 6f 94 3f 85 9e 86 3f b4 bd b1 3e dd 0f 4c 3f
       1.1596401 1.0517126 0.34715044 0.79711705
000340 9c ba 23 3f 23 c6 51 3f fc 28 8d 3f 26 40 39 3f
       0.6395662 0.8194296 1.1028132 0.7236351
000350 12 82 94 3f 9e b0 46 3f af b6 52 3f 6d 1f 28 3f
       1.1602194 0.77613246 0.82310003 0.6567295
000360 1f a3 93 3e 87 77 d7 3e e6 4d aa 3e 96 3d 3f 3f
       0.2883539 0.4208338 0.33262557 0.7470335
000370 c2 1f c8 3e 8e 37 90 3f f5 4a 7a 3e d7 6c 43 3f
       0.3908673 1.1266954 0.24442656 0.7633795
000380 7f cb 93 3f 40 48 5b 3f 19 bd 52 3f 39 c0 80 3f
       1.1546477 0.8565712 0.8231979 1.0058662
000390 af 86 d2 3e 98 da 70 3f 72 f3 84 3f 34 10 84 3f
       0.4111838 0.9408355 1.0386794 1.0317445
0003a0 1b 54 5a 3f bb 2e ba 3e 9b 4c cf 3e 12 08 da 3e
       0.85284585 0.36363778 0.40488133 0.42584282
0003b0 94 73 90 3f 51 c1 67 3f e5 74 96 3e c9 7a 23 3f
       1.1285272 0.9052935 0.29386058 0.6385923
0003c0 e9 36 21 3f a3 ec d7 3e dd 67 81 3f db ac 27 3f
       0.6297441 0.42172727 1.0109822 0.6549813
0003d0 3d f4 22 3e a7 e0 8f 3f c3 9a 85 3f e0 5a 09 3f
       0.15913482 1.1240433 1.0437855 0.5365429
0003e0 ec 60 79 3f 6d d3 1e 3f b6 b2 1f 3f ff 40 48 3f
       0.97413516 0.6204136 0.62382066 0.78224176
0003f0 64 4d 0a 3f 1a 72 27 3f ba b3 31 3e a4 cb 0b 3f
       0.5402434 0.6540848 0.17353716 0.54607606

batch.bias f4 [256]
000000 fb 91 da 3b a1 d4 f0 3d 5f 25 b4 3d a6 af ab 3d
       0.0066702343 0.11759306 0.087961905 0.08383112
000010 86 4e d1 3d 37 2e 1e 3e 73 69 d2 3d 31 3b a6 3d
       0.10220055 0.15447317 0.10274019 0.081167586
000020 bc 57 93 3d 31 42 ce 3d 84 6b d0 3d a2 45 80 3d
       0.071944684 0.10071219 0.10176757 0.062632814
000030 88 d3 a8 3c 06 3c 69 3d 75 10 13 3c 94 bd 1b 3e
       0.020608678 0.05694201 0.008976092 0.15209037
000040 f7 86 b5 3d 4c 03 8c 3c c6 0f 4a 3d 55 2e a4 bb
       0.08863633 0.017091416 0.04933145 -0.005010406
000050 5d 72 68 3d 48 6a c3 3d fe eb 29 3e f4 4f 5d 3d
       0.05674969 0.09541756 0.1659393 0.054031327
000060 1e 9f b5 3d dc c1 71 3d 31 f7 e1 3d 9b 8c 31 3d
       0.0886824 0.05902277 0.11033476 0.043346982
000070 5c d5 11 3d 6d 00 4b 3d be 15 21 3d 1f 48 07 bc
       0.035603866 0.049560953 0.039327376 -0.008256941
000080 ef ee ab 3d 49 2c ec 3d 5f a4 d0 3d 23 74 ac 3d
       0.08395182 0.11531884 0.10187601 0.08420589
000090 9f 10 66 3d 65 67 07 3d 37 99 fe 3d 87 69 91 3c
       0.056168195 0.03305759 0.12431567 0.017750515
0000a0 e1 a8 80 3d 2c e7 64 3d 0c a7 dc 3d 00 1a ff ba
       0.06282211 0.055884525 0.10774049 -0.0019462705
0000b0 45 c8 8f 3d e9 d5 b4 3b 47 59 e2 3d 3a 35 c5 3d
       0.0702062 0.005518664 0.110521846 0.09629293
0000c0 f9 f7 97 3c 32 65 04 3d 52 d9 b9 3d 90 7a 4f 39
       0.01855086 0.03232307 0.09074654 0.00019786716
0000d0 6d 5b 21 3d f6 73 8a 3d c0 69 35 3d 69 74 43 3d
       0.03939383 0.06760399 0.044290304 0.04771844
0000e0 0e 0b 18 3e ce ae cf 3d 52 3d 9f 3d b6 33 a3 3d
       0.14847967 0.10140763 0.07775368 0.079688475
0000f0 8b 54 97 37 5f c4 c6 3d 8c 7a e0 3d 01 a4 a0 3d
       1.8039971e-05 0.097054236 0.10960874 0.07843781
000100 50 ba d9 3d 5a 63 88 3d e6 ee d0 3c c2 26 b2 3d
       0.106312394 0.06659575 0.02550454 0.08698799
000110 90 8e c5 3d 13 1f 44 3b d6 df a3 3d b8 16 8b 3d
       0.09646332 0.0029925748 0.08001678 0.06791443
000120 2b 3e 1b 3e 8e 2c 8a 3d 66 1c 35 3d 65 16 36 3d
       0.15160434 0.067467794 0.044216536 0.04445495
000130 0c 9b 27 3d 57 d3 fc 3d 08 35 96 3d 4f 52 5f 3d
       0.04091935 0.123449974 0.07334334 0.054521855
000140 ec 5b d7 3c 47 22 be 3d fd 3e ed 3d 21 ad 0f 3d
       0.026288949 0.09283882 0.1158428 0.035077218
000150 4e dc fa 3c 6f 3e 04 3e b3 0a e9 3c 4f 2d d9 3d
       0.030622628 0.12914442 0.028447485 0.10604345
000160 b1 0e 9e 3d 02 16 c8 3d 35 f7 4f 3d 5a 85 83 3c
       0.07717646 0.09769823 0.050772864 0.016054798
000170 66 d0 d8 bc 99 ea fb 3d 46 e1 e3 3d b2 69 e3 3d
       -0.02646656 0.12300605 0.11126952 0.11104144
000180 c3 44 87 3d 45 8b 46 3d 66 ae 5a 3d 19 2e 3a 3d
       0.06604912 0.04847266 0.053388976 0.04545412
000190 04 38 fd 3d e6 c9 89 3d c3 5a 92 bc 71 27 a2 3d
       0.123642 0.06727962 -0.017865544 0.07917679
0001a0 c6 88 d6 3d 8d 21 e1 3b 03 c1 2a 3d f0 90 da bb
       0.10475306 0.0068704546 0.041687977 -0.00667011
0001b0 29 bd 2f 3d cf 59 ed 3d 41 58 02 3e 6c d5 b1 3d
       0.042905007 0.11589395 0.12728979 0.08683285
0001c0 65 ea 29 3d c1 33 66 3c 97 f0 82 3c ef d1 c6 3d
       0.0414833 0.014050425 0.015983863 0.097080104
0001d0 27 52 f5 bb 82 55 3c 3d 98 be dc bc cd d9 c0 3d
       -0.0074866 0.045979984 -0.026946351 0.09416542
0001e0 57 1a 36 3d ea ac 1a 3e 98 52 37 3d 51 2f ca bb
       0.044458713 0.15105024 0.044756502 -0.0061701913
0001f0 ab 53 23 3e d6 27 51 bc 13 74 32 3d 9d cc 32 bb
       0.15949886 -0.012765845 0.04356773 -0.0027282604
000200 ae 21 91 3d 07 df eb 3d 8d a6 2f 3c ad 64 8d 3d
       0.07086502 0.115171485 0.010720861 0.06903968
000210 bc df 3e 3e 29 84 aa 3d 58 7e 27 3d 5e 4e 2d 3d
       0.18640035 0.08325989 0.040891975 0.042311065
000220 7a 72 20 3d a2 72 b7 3d 5e d7 0b 3c 6e 28 87 3c
       0.039171673 0.08957411 0.008535234 0.01649877
000230 7c 82 8d 3d 4a fc 4c 3d fb 7d c2 3d e8 57 a5 3d
       0.069096535 0.05004529 0.09496685 0.080734074
000240 c5 cd b4 3a 18 f7 8e 3d ee 08 5d 3c b1 de b6 3d
       0.0013794234 0.06980723 0.013490899 0.08929194
000250 97 4f 14 3e ec 72 4c 3d 37 51 9a 3d 81 50 2e 3d
       0.14483486 0.049914286 0.07535022 0.042557243
000260 3d a7 5c 3d 6d 04 12 3e fb a5 e6 3c b1 1f 6a bc
       0.05387043 0.14259501 0.028155318 -0.014289782
000270 18 22 ea 3d c3 df d7 3d 25 d0 34 3d 62 87 3d 3d
       0.11432284 0.10540726 0.044143815 0.04627169
000280 79 48 c4 bc cd cf 80 3d 3b 2e e1 3d e9 bf af bc
       -0.023960339 0.06289635 0.10995146 -0.021453815
000290 0b c2 6c 3c 8f b2 e1 3d e1 c2 38 3d e4 bf 1f 3d
       0.01445056 0.110203855 0.045107726 0.03900136
0002a0 62 72 fe 3c f0 e5 bb 3d d0 14 ec 3d 3a 59 39 3d
       0.031060401 0.091747165 0.11527407 0.04525111
0002b0 59 c0 93 3d 0d a7 52 3d 4e 1b 12 3c 32 f6 c8 bc
       0.07214422 0.051428843 0.008917643 -0.024531458
0002c0 94 26 86 3d aa b8 d3 3d 33 05 c5 3d 23 08 65 3d
       0.06550327 0.10337956 0.09620132 0.055915963
0002d0 56 54 9a 3d e9 95 83 3c da 3a 44 3d 7f 99 64 3c
       0.07535617 0.016062694 0.047907688 0.013952612
0002e0 de a0 eb 3d 8a b5 c2 3c a7 b4 c0 3d 27 a0 17 3e
       0.11505292 0.023768205 0.09409457 0.14807187
0002f0 74 61 7d 3d 42 df bf 3d 81 b1 04 3e ae d0 31 3e
       0.061860517 0.09368755 0.12958337 0.17364761
000300 09 bd f7 3d 2a 07 a4 3d 19 92 0d 3e 70 45 3f 3d
       0.120966025 0.08009179 0.13825263 0.04669708
000310 78 85 00 3e 48 b4 8f 3d d9 78 b1 3c c8 08 b9 3c
       0.12550914 0.07016808 0.02166407 0.022587195
000320 f3 5d aa bc 09 fd 54 3d 99 ad e2 3b 17 ec ff 3b
       -0.020796752 0.051999126 0.006917667 0.0078101265
000330 c0 89 9a 3d b4 e0 bc 3d 65 2f 48 3d 2a 5a 5f 3d
       0.07545805 0.09222546 0.048873324 0.054529347
000340 d8 c5 c9 3d cb 24 0e 3e 89 7b 63 3d c5 85 29 3b
       0.09852189 0.13881223 0.055537734 0.0025867086
000350 e4 4d f9 3d e7 89 22 bc fc 83 f8 3c 5d 2a 1d 3d
       0.121730596 -0.009920574 0.030336373 0.03837048
000360 91 15 5a 3d 32 33 09 3e ca fd f5 bc 7d 22 a9 3d
       0.053243224 0.13398436 -0.030028243 0.08258531
000370 71 47 b0 3d b4 8e fe 3c 7c e1 05 3e f7 c8 79 3d
       0.08607376 0.031073906 0.13074297 0.06098267
000380 96 7a 22 3b 96 ae 06 3d 48 19 59 bc 95 91 2c 3c
       0.0024792305 0.032881342 -0.013250656 0.010532756
000390 22 d3 89 bb 56 44 e2 3d 19 c9 ef 3c f0 df 1f 3e
       -0.004206077 0.1104819 0.029270696 0.15612769
0003a0 86 a6 05 bd df 46 f5 bb 92 63 27 3d 74 5a 50 bc
       -0.032629512 -0.007485255 0.040866442 -0.012716878
0003b0 b4 6a 5f 3d 3f 7a ad 3d 90 ed 13 3e 28 c4 55 3c
       0.05454512 0.08470582 0.14446092 0.013047256
0003c0 75 c3 9b 3d f1 54 a7 3d 0a b1 5c 3d 84 f6 d9 3d
       0.0760564 0.08170498 0.053879775 0.10642722
0003d0 46 ee 16 3e a1 dc 3b 3e 4b d0 ac 3d 8e 76 c2 3d
       0.14739332 0.18345882 0.08438166 0.09495269
0003e0 ee 55 0e bd 0d 7c 82 3d 95 39 41 3d 0a 3d 86 3d
       -0.034749918 0.06371317 0.047174055 0.06554611
0003f0 7f 29 90 3d 1a 6f 7c bc 6d 0c eb 3d 7e 94 08 3e
       0.07039165 -0.015407348 0.114769794 0.13337895

batch.running_mean f4 [256]
000000 32 c4 03 bd 2a d5 45 be fa 07 83 3e d1 99 b0 3c
       -0.03216953 -0.19319597 0.25592023 0.02155772
000010 16 b3 18 3c 38 87 b3 bd 3f aa 70 be de 72 27 3e
       0.009320041 -0.08766025 -0.23502444 0.16352412
000020 49 5b b1 3d 1b 40 6b 3e 72 9c fb bc c0 bb 20 3e
       0.086599894 0.22973673 -0.030714247 0.15696621
000030 d3 ba 2e bc 00 26 94 3e 3c 7c 4f 3e 0f 66 1b 3e
       -0.01066466 0.28935242 0.20262235 0.15175651
000040 31 bf d4 3c ff 75 dc 3d 77 9c 1f be f0 71 10 be
       0.025970073 0.107646935 -0.1558703 -0.14105964
000050 b8 42 d6 3b 6f 88 23 be 53 c1 87 3d f0 89 92 3e
       0.006538715 -0.15970014 0.066286705 0.28620863
000060 ce 6c 01 39 57 e9 89 3d 9b de 68 3e 6d cb 3a 3e
       0.00012342932 0.06733959 0.22741167 0.18241663
000070 f8 43 34 3e f5 33 4c be 65 be b3 3c f8 68 85 bc
       0.17604053 -0.19941695 0.021941373 -0.016285405
000080 05 72 d5 3d 7c 66 92 bd c8 24 20 be bd 14 9b 3e
       0.10422138 -0.071484536 -0.15639031 0.3028926
000090 2c a1 ac bd 2a d9 20 be 1a dd c0 3e 9d ea 37 3e
       -0.084291786 -0.15707842 0.37668687 0.17960592
0000a0 6e a8 2f be f2 c2 b1 3d 28 92 1f 3e 79 a1 fd 3d
       -0.17154095 0.08679761 0.15583098 0.12384314
0000b0 17 dc d6 3d 0d 7f 3e 3d c5 db 02 3e 0b d6 d7 3d
       0.104911976 0.046507884 0.12779148 0.10538872
0000c0 fd 4c e3 3d 5e c0 86 3b ad ec 08 3d 54 c4 1e 3e
       0.11098669 0.0041122874 0.033428837 0.1550458
0000d0 cc a1 52 bd ab 0a 26 be ff 1b 05 3c 81 88 2f 3e
       -0.051423833 -0.16215007 0.008124351 0.17141916
0000e0 82 71 d6 bb 97 0b 81 bc 4c f2 16 be 84 87 ee 3d
       -0.006544293 -0.015752597 -0.14740866 0.11646941
0000f0 65 63 e5 bd 3f 1e 10 be 04 d0 bd 3d e0 8d 75 3d
       -0.112005986 -0.14074038 0.092681915 0.059949756
000100 c5 a6 fb bc 45 f9 fa bd 94 58 25 3e 56 93 65 bc
       -0.03071917 -0.12254576 0.16147071 -0.014012178
000110 46 19 17 3e 16 a3 e1 bd 03 0b 72 3e ea 88 06 be
       0.14755735 -0.11017434 0.23637013 -0.13138166
000120 cb c1 d3 bd 13 69 36 3e a6 fd 99 3d b2 f8 7b 3d
       -0.103396975 0.1781352 0.07519083 0.06151647
000130 9e ed c9 bd 7a 63 35 3d 66 88 62 3d 55 60 19 3d
       -0.09859775 0.04428432 0.05530586 0.037445385
000140 eb 6a fc 3d 35 af f9 bd 57 38 82 3d d8 58 d0 3d
       0.123250805 -0.12191621 0.06358402 0.101731956
000150 d5 f9 45 3e 82 14 5d 3e 8b 30 ce bd 06 86 73 bd
       0.19333585 0.21589854 -0.100678526 -0.059453987
000160 68 54 6e bd d1 c3 4e 3e 7f 59 a1 bc d7 99 1e 3e
       -0.058185965 0.20191886 -0.019695995 0.15488373
000170 1c 62 d7 3d 65 e1 35 3e f9 7d 1b 3e 88 37 12 bd
       0.1051676 0.17761762 0.15184774 -0.03569749
000180 e9 33 94 3c 99 a1 b9 bd 2d 86 56 bd 88 1e 5c 3d
       0.018091159 -0.090640254 -0.052374054 0.053740054
000190 7b 13 3d 3d 63 15 6d 3d ea d9 31 3c 08 33 4f bc
       0.046161156 0.057881724 0.010855177 -0.012646444
0001a0 9b 9c 02 3e 6c e5 57 3c 04 31 6a bc 63 63 a2 3d
       0.12755053 0.013177257 -0.014293913 0.07929113
0001b0 9c a3 81 bd f4 88 38 3e 42 f2 c7 3d db e9 c7 3d
       -0.06330034 0.18020993 0.09763004 0.09761401
0001c0 8c c4 1d be 96 d0 19 be 1f 23 c9 3d 0a d4 4d 3b
       -0.15407008 -0.15020975 0.09821152 0.0031406903
0001d0 a1 70 7c bd c8 c5 10 be 02 75 2a 3e 29 84 0b 3d
       -0.06163085 -0.14137948 0.16646197 0.034061585
0001e0 4d a8 33 3e 08 c4 32 3d cc a0 dc 3c 86 14 87 3e
       0.1754467 0.04364398 0.026932143 0.26382846
0001f0 5b b6 9e 3e 21 aa 08 3e 59 36 61 bd 54 cf 87 bd
       0.309985 0.13346149 -0.05498347 -0.066313416
000200 f1 13 15 3d b8 00 97 3b 22 39 c4 3d e9 5c ff bd
       0.03639597 0.00460824 0.0958121 -0.12468893
000210 bf 7f a6 3d 03 f2 21 bd e2 cf 6d bd 5e 8a 68 3c
       0.081298344 -0.03953744 -0.05805958 0.014193146
000220 56 39 42 3d 26 4b 5f be 72 b3 39 bd 84 f2 94 bd
       0.04741796 -0.2180601 -0.045337148 -0.07272819
000230 b2 1d 47 3e 54 d6 12 3e ef 88 28 3e e9 e4 65 3d
       0.19444922 0.14339572 0.16458486 0.05612651
000240 fe e6 df bd 43 2f ab bd 99 b7 70 bd 42 1e 26 3e
       -0.1093273 -0.08358624 -0.058768842 0.1622248
000250 50 6e 75 3e 44 04 35 be 45 c2 59 be 55 d7 59 3d
       0.23967862 -0.17677408 -0.21265514 0.053183872
000260 4c 21 94 3d 45 7c 76 bd b6 6b b9 bc d1 7e c0 3b
       0.072329134 -0.060177106 -0.022634368 0.0058744927
000270 5e e7 59 bd 49 12 f8 3b 81 21 4e bd dc e2 d0 bd
       -0.053199165 0.007570539 -0.05032492 -0.1019952
000280 09 66 8a 3d 49 3a 14 3d ef ac c0 3d b2 c6 cc 3d
       0.06757743 0.036188398 0.094079845 0.099988356
000290 67 e2 42 3e dd 8a e1 bc 53 f8 76 be b7 47 2b bd
       0.19031678 -0.027532035 -0.24118166 -0.04181644
0002a0 ff a2 6b bd cf 96 7f 3d 4a ab d7 3d 6a e5 5c 3e
       -0.057528492 0.06239968 0.10530718 0.2157189
0002b0 9d 1c a6 bd 23 e6 8e bc d1 4b 0e 3e 5b d4 63 3e
       -0.08110926 -0.017443722 0.13896109 0.22248976
0002c0 c4 d9 18 be 12 ab f1 bd 4a 2e 67 bc 1d a0 d5 bd
       -0.14926821 -0.11800207 -0.014110157 -0.1043093
0002d0 2c 7a 4b 3c 40 b5 18 bc 26 8b 07 3d 4c bc 08 bd
       0.012419265 -0.009320557 0.033091687 -0.0333827
0002e0 c8 34 34 be e7 6c 08 3e e3 28 19 3e 5a ee 1f be
       -0.1759826 0.13322793 0.14957003 -0.15618268
0002f0 ca 2f bc bd 82 6a 58 3d d4 13 e5 bd cb 87 a6 3d
       -0.091888025 0.05283595 -0.111854225 0.08131369
000300 0b 8a b3 3c 84 c5 55 bd 2f 23 d7 bd 97 78 ce bd
       0.02191641 -0.05219032 -0.105047576 -0.100815944
000310 9f e6 88 3d 02 ba 92 bd 9b 1e d1 bd 22 b6 d9 3d
       0.066846125 -0.071643844 -0.10210916 0.10630442
000320 8f 25 94 3e c0 c3 34 3e a8 88 60 3d ad 35 7b 3e
       0.28934905 0.17652798 0.054817826 0.24532194
000330 b2 7a 49 3d ae de ef 3d c2 f0 99 3c e7 e0 ad bd
       0.049189277 0.11712395 0.01879156 -0.08490162
000340 08 ec 21 3d d5 07 a6 3d d7 29 9f bd c6 96 7d 3d
       0.039531738 0.081069626 -0.07771652 0.061911367
000350 6e 61 03 be c1 0f 4b 3e 21 6a b5 bd e6 33 f9 3d
       -0.12830135 0.19830228 -0.08858133 0.12168102
000360 84 8c b7 bd c4 3f a0 bd f9 5f f1 bc bc c1 71 3e
       -0.08962348 -0.07824662 -0.029464709 0.2360906
000370 fb 04 2e bc b7 d0 35 be 82 79 90 3e 90 ed 83 bd
       -0.010621305 -0.177554 0.28217703 -0.06441796
000380 c3 1f e2 3d 6f 31 62 be 15 19 96 3d 55 63 37 be
       0.11041214 -0.2208917 0.07329003 -0.17908986
000390 a7 ad 77 bd 8d fa 3f 3d ed 4b 50 3d 25 c3 52 3d
       -0.060468342 0.046869803 0.05085366 0.051455636
0003a0 13 97 1a be 02 d0 8a 3e 83 71 cc 3d 98 cb d0 bd
       -0.15096693 0.27111822 0.09982588 -0.101950824
0003b0 44 d9 a2 3c da 5f a6 3d d3 6c 68 be 9e 79 09 3e
       0.019878991 0.08123751 -0.22697763 0.134253
0003c0 2e 27 1a be bc 70 19 be 23 d4 e9 3c ad 62 d9 bc
       -0.15054008 -0.14984411 0.028543537 -0.02653631
0003d0 4a a2 c3 3d 46 8d 75 3c 1b 58 30 3e ae 0d c2 3d
       0.095524386 0.0149872955 0.1722111 0.094752654
0003e0 65 4d 12 3d 5c 45 6d 3e 6a 39 66 3d f8 8f 62 bd
       0.03571834 0.2317099 0.056207098 -0.05531308
0003f0 e6 18 89 3b c8 b5 c8 3d d0 cf 02 be 84 b5 ec bd
       0.0041838763 0.09800297 -0.12774587 -0.11558059

batch.running_var f4 [256]
000000 e6 27 ce 3e ee 62 ad 3f 61 25 7b 40 a9 bb ab 3f
       0.40264815 1.3545816 3.9241564 1.3416644
000010 bf 2e 7d 3f 79 e6 ce 40 f9 b6 15 3f 0c 69 52 40
       0.98899454 6.465634 0.5848232 3.2876616
000020 77 b6 8c 3f 37 30 2e 40 7e f5 6e 40 cd f1 b0 3f
       1.0993184 2.7216928 3.7337337 1.3823792
000030 62 85 83 3f c5 45 80 3f 99 12 82 3f 39 08 93 3f
       1.027508 1.0021292 1.0161926 1.1486884
000040 df 2a 4b 40 cf d0 e1 3f 86 4e 55 40 c4 20 84 3f
       3.1744916 1.7641848 3.3329177 1.0322499
000050 da e5 d0 3f 15 3e 98 3f 12 c5 3d 3f 06 ee 9b 3f
       1.6320145 1.1893946 0.7412883 1.2182014
000060 d2 c1 a9 3f 5f 94 52 3f 4c 90 46 40 00 95 1f 40
       1.3262274 0.82257646 3.1025572 2.4934692
000070 b7 79 b1 3f 5d da 61 3f b2 c2 24 40 c6 be 80 40
       1.386527 0.8822382 2.5743833 4.023288
000080 07 fd fd 3f ed b1 e5 3f 78 23 ad 3f aa 07 8e 3f
       1.9842843 1.7944924 1.3526449 1.1096089
000090 7c 10 9c 3f e5 a4 60 40 6f 2e 8c 40 10 fd 49 3f
       1.2192531 3.5100644 4.380668 0.7890177
0000a0 2f 04 3a 3f 85 80 5d 3f 80 9e 74 3f 3a c2 c1 3f
       0.72662634 0.8652423 0.9555435 1.5137398
0000b0 3b 26 46 3f 09 04 36 3f 52 c0 93 3f 86 ed 92 3f
       0.77402085 0.7109991 1.1543067 1.1478736
0000c0 ef fe f3 3f 26 ae 4c 3f ef f7 38 3f 5d ec b3 3f
       1.9062175 0.7995323 0.72253317 1.4056507
0000d0 75 df ed 3f 86 c0 1d 40 3e f4 be 3f 7e ba b7 3f
       1.8583819 2.4648757 1.4918287 1.4353788
0000e0 68 4d 6d 3f 01 ca 84 3f 79 43 37 3f 8b 75 ab 3f
       0.9269624 1.0374147 0.7158733 1.3395246
0000f0 f0 3a b3 3f 80 d0 66 3f 18 7a 95 3f 77 61 c3 3f
       1.4002361 0.90161896 1.1677885 1.5264119
000100 0b 98 5a 3f c0 8e 31 3f 8c 97 19 40 f9 e7 f2 3f
       0.8538825 0.69358444 2.3998747 1.8977042
000110 da 7c 55 40 86 57 8b 3f b0 5e 03 40 6e 17 6c 3f
       3.3357453 1.0886085 2.0526543 0.9222325
000120 06 91 27 3f 14 b6 94 3f bd 6e 04 3f 37 a3 2e 3f
       0.65455663 1.1618066 0.51731473 0.68217796
000130 92 72 34 3f 49 a8 69 3f 42 93 e0 3f 1b 9c 26 40
       0.7048732 0.9127241 1.754494 2.603278
000140 e6 ae 5c 3f c6 43 a7 3e 8d f2 d5 3f d5 f3 df 3f
       0.86204374 0.32668895 1.6714646 1.7496287
000150 cc 5d 10 40 1b 41 5a 3f ad 7f e1 3f 39 bb 94 3f
       2.255725 0.85255593 1.7617089 1.1619636
000160 8c 94 12 3f 26 2f c1 3f 58 60 18 40 3b d3 be 3f
       0.57257915 1.5092514 2.3808804 1.4908212
000170 33 ef 7c 3f 6f 69 3e 3f ad 5d c5 3f 04 94 a0 3f
       0.9880249 0.7437963 1.5419213 1.2545171
000180 09 55 45 3f ad 9b 88 3f d3 bb e8 3f a3 c2 8d 3f
       0.7708288 1.0672508 1.8182319 1.1075023
000190 78 f5 d3 3f cb b6 39 3f a7 4e 94 3f 8c 9c 71 3f
       1.6559286 0.72544545 1.1586503 0.94379497
0001a0 0d 82 28 40 65 76 f6 3f 47 20 cf 3f eb 22 a4 3f
       2.6329377 1.9254881 1.6181725 1.2823156
0001b0 29 18 62 3f be 83 22 40 51 b9 28 40 d0 e4 8e 3f
       0.88318115 2.539291 2.6363108 1.1163578
0001c0 89 c1 94 3f 89 f1 26 40 fd 0b 86 3f 73 0f 2d 3f
       1.1621562 2.6084921 1.0472409 0.676017
0001d0 f4 df 7a 40 44 eb c2 3f 6f 87 4f 40 cf f9 05 40
       3.919919 1.5228047 3.2426412 2.093372
0001e0 df fb 1b 3f b5 a7 85 40 e8 68 e1 3f 32 8c b4 3f
       0.609312 4.176722 1.761014 1.4105284
0001f0 e3 6c 86 3f 0d b5 dc 3f 16 fd f2 3f 29 e3 f8 3f
       1.050198 1.7242752 1.8983486 1.9444324
000200 78 5b 28 40 c1 ec be 40 bb 74 0f 3f f0 b7 2e 3f
       2.6305828 5.9664006 0.5603749 0.68249416
000210 4d ae 71 3f ce 7a 6c 3f 41 39 96 3f c6 59 20 3f
       0.94406587 0.92374885 1.1736223 0.62636983
000220 00 da ae 3f 5d d9 c1 3f a6 ee a3 3f 64 1c fa 3f
       1.3660278 1.5144459 1.2807205 1.9539914
000230 9e a7 12 40 e6 99 8f 3f 88 0f 01 40 49 91 11 3f
       2.2914805 1.1218841 2.016573 0.5686231
000240 5b d4 f3 3f 80 d7 30 3f be aa 93 3f 56 9a 1c 3f
       1.9049181 0.69078827 1.1536481 0.61173
000250 a4 3f 99 3f 00 a2 cf 3f 29 0a 91 3f 18 39 8a 3f
       1.1972547 1.6221313 1.1331226 1.0798674
000260 1e 30 9f 3e a3 1e 94 3f 4e 1a 4f 3f 61 be 4d 3f
       0.31091398 1.157185 0.8089951 0.8036862
000270 de 03 d0 3f 71 f0 15 3f b4 c1 dd 3f 6f e9 fa 3f
       1.625118 0.5857001 1.7324739 1.9602488
000280 6e d9 db 3f a7 10 27 3f b0 45 e6 3f d7 10 bc 3f
       1.7175729 0.65259784 1.7990017 1.4692639
000290 86 d9 a9 3f 85 a3 c4 3f df 21 71 3f b5 e9 39 3f
       1.3269508 1.5362402 0.9419231 0.72622234
0002a0 1c 6f af 3f 9d 10 5a 3f 41 85 70 40 5a 6a db 3f
       1.3705783 0.851816 3.7581332 1.7141831
0002b0 27 43 43 3f 08 08 32 40 22 4e 69 3f 68 eb 65 3f
       0.7627434 2.7817402 0.91134846 0.89812326
0002c0 e8 d1 65 3f 58 8e d7 3f 71 6b 35 40 15 b4 9b 3f
       0.89773417 1.6840315 2.8346827 1.2164332
0002d0 75 e4 c3 3f de b2 c8 3f fd 9c 52 3f d7 1b 8e 3f
       1.5304095 1.5679586 0.82270795 1.1102246
0002e0 51 68 6f 3f 0d ff af 3f 91 cf 52 3f 3f 60 32 3f
       0.9351855 1.374971 0.8234797 0.6967811
0002f0 fd e5 17 40 00 74 5f 40 c5 6a fb 3f 12 c0 12 3f
       2.3734124 3.491455 1.9641958 0.57324326
000300 17 a3 93 40 94 60 8d 40 b3 59 29 40 0e 0c 41 3f
       4.6136584 4.4180393 2.6460998 0.7540902
000310 ad 56 01 40 2f 1f 41 3f d6 92 38 40 41 0c 07 40
       2.0209153 0.7543821 2.8839622 2.110123
000320 0e 5e 92 3f b3 3f c2 3f 7a cf 28 3f 4c 53 79 3f
       1.1434953 1.517569 0.65941584 0.97392726
000330 e9 5c 1e 3f 98 74 29 40 e7 96 79 3f a5 e2 86 40
       0.6186052 2.6477413 0.97495884 4.2151666
000340 6a 76 d2 3f ad e3 88 3f 37 d5 76 3f 0b b4 bf 3f
       1.6442387 1.0694481 0.9641909 1.497682
000350 61 bc 57 3f 2c a6 5c 40 b8 99 7a 3f 85 43 fb 3f
       0.8427182 3.4476423 0.97890806 1.962998
000360 0f 25 57 40 4f dc 31 40 3f cd fc 3f 34 9b f7 3f
       3.3616369 2.7790716 1.9750136 1.9344239
000370 96 a6 a9 3f e7 ff c8 3f 94 71 a8 40 9d 62 89 3f
       1.3253963 1.5703095 5.2638645 1.0733219
000380 da 1d ca 3f 3a cb cc 3f 7e 9c ec 3f ac 3f 72 3f
       1.579036 1.599952 1.8485258 0.94628406
000390 e8 af 1e 40 8d 66 d0 3f d3 2a 58 40 cc 08 b8 3f
       2.4794865 1.6281296 3.3776138 1.4377685
0003a0 e1 d1 85 3f 1b dd 27 40 50 4f ac 3f 5b 43 90 3f
       1.0454675 2.6228702 1.3461704 1.1270555
0003b0 cd bc a4 3f 8e 4d 56 3f 10 07 54 40 0e 56 dd 3f
       1.2870117 0.8371209 3.312931 1.7291887
0003c0 6c 26 66 3f e3 1c c4 3f 98 0a 41 3f 73 89 73 3f
       0.8990238 1.5321316 0.7540679 0.95131606
0003d0 b9 f4 a0 40 87 f9 49 3f c2 65 ec 3f ce 9b 93 3f
       5.0298734 0.78896374 1.8468554 1.1531923
0003e0 75 22 76 3f 85 0c 8b 40 2a 83 8f 3f a4 0d 39 3f
       0.9614633 4.3452783 1.1211903 0.7228644
0003f0 30 67 6d 3f af 83 87 3f 56 bd a0 40 b3 8b 8e 3f
       0.92735577 1.0587062 5.0231123 1.1136383

fc2.weight f4 [128, 256]
000000 f8 6c e2 3d 30 1c 37 3e cb 13 4d 3d 92 c9 db 3d
       0.110559404 0.17881846 0.050067704 0.10731806
000010 ea d2 23 3e b7 4a ee 3d 8f c9 d0 bd fa dc 10 3e
       0.15998426 0.116353445 -0.10194694 0.14146796
000020 33 d5 08 3e 69 58 df bb 6b d4 0a 3e 7b 51 44 3b
       0.13362579 -0.0068159592 0.13557594 0.0029955793
000030 c3 f1 ce bc 77 9c 6a be 56 33 92 bc f0 8a 13 3e
       -0.025261765 -0.22911249 -0.017846745 0.14408469
000040 f3 ed 81 3a 2a f9 18 3e a8 f9 8a bd b5 0e 67 3b
       0.0009912833 0.14938799 -0.067858994 0.0035256569
000050 7a 79 c7 bd c5 49 92 3e de bf 10 3e 74 40 0c 3e
       -0.09739967 0.28571907 0.14135692 0.13696462
000060 53 65 d3 bd d3 83 37 3d e8 87 4e 3d 4c 48 91 bc
       -0.103220604 0.04480345 0.05042258 -0.01773467
000070 94 dd be bc 42 fa 49 3d 91 c8 05 3a 8f 69 9b bc
       -0.023299016 0.04931093 0.0005103434 -0.018971233
000080 c2 32 a0 3d 9e 93 21 be 0f fd 00 be c5 b0 df 3d
       0.07822181 -0.15778968 -0.12596534 0.10922388
000090 03 7d 34 bd e3 35 4b bd e5 40 f4 3d 43 a9 e4 3c
       -0.044064533 -0.049611937 0.1192644 0.027912742
0000a0 03 d3 10 be 03 e9 34 3e f5 3c 1e be 72 93 bb 3c
       -0.14142995 0.17667012 -0.15452941 0.022897456
0000b0 b3 71 0b 3d dc ee 07 bd ee d1 00 3e e4 dd c8 3d
       0.03404398 -0.03318678 0.12580082 0.09807947
0000c0 db 70 26 3d b6 91 75 bd 35 68 07 bc 4e ed b1 bd
       0.04063497 -0.059953414 -0.008264591 -0.086878404
0000d0 89 c9 f6 3d ef 09 17 be 02 da 6f 3c f4 a2 a5 bd
       0.120501585 -0.14749883 0.014639379 -0.080877215
0000e0 3c 68 24 3e 20 ae 6e 3d 75 f1 0a bd a0 af 2e 3d
       0.16055387 0.058271527 -0.033921678 0.042647958
0000f0 a4 56 16 be a4 63 16 3d f9 a7 4b be 18 9f 0e be
       -0.14681488 0.03671612 -0.19888295 -0.13927877
000100 e1 e5 83 3d ac 3b 38 be 64 38 0d bd 9d 96 dd 3d
       0.0644033 -0.17991513 -0.034477606 0.10819743
000110 70 a0 e9 3c 1f 85 a7 3c 20 4e 5b 3e 12 d0 06 bd
       0.028518885 0.02044922 0.21416521 -0.032913275
000120 47 ae fa 3d cc b5 bb bc 93 08 b8 bd 6d 2b 95 3c
       0.12240272 -0.022913836 -0.089860104 0.018209184
000130 96 f9 d5 3d a3 49 d7 3d ee 45 86 3d cb 8b 42 3e
       0.10447995 0.10512092 0.06556307 0.1899864
000140 c0 f5 27 be ea e0 7b bd e7 6b 1d 3e c3 b9 9a bd
       -0.1640234 -0.06149379 0.15373193 -0.075549625
000150 d4 31 cd bd 6b 9e a3 3d 2b 37 c2 bc b7 c8 13 3e
       -0.100192696 0.079892 -0.023707947 0.14432035
000160 88 2a f8 bd b1 2c 64 3e 04 4a 31 bd 53 67 01 bd
       -0.12117487 0.22282673 -0.043283477 -0.03159268
000170 3a 73 07 3e d3 8d 48 bd d8 38 cb 3d d6 50 19 3c
       0.13227549 -0.04896338 0.099229515 0.009357652
000180 4c 40 02 be 34 13 0c be 4f b8 89 3d 47 cb 81 bb
       -0.1271984 -0.136792 0.06724607 -0.003961
000190 ce 52 52 bd 3a 5b 04 3d 60 d4 8f bd de cf d9 3d
       -0.0513485 0.032313563 -0.07022929 0.10635351
0001a0 7f 1f d6 bd 05 09 c8 3d 04 bc 89 ba 69 dd e3 3c
       -0.10455226 0.09767345 -0.0010508304 0.027815538
0001b0 7c 04 82 bd 5e aa d8 3c 76 3a a9 bb 27 a0 d1 3d
       -0.063485116 0.026448425 -0.00516444 0.10235625
0001c0 4f 3f 09 3d 52 38 05 be 36 0a a5 3d 94 03 97 bd
       0.03350764 -0.13009766 0.08058588 -0.07373729
0001d0 bb 63 a6 bb 25 9e aa bd bc 62 d6 3c 35 61 77 3e
       -0.0050778068 -0.08330945 0.026170127 0.24158175
0001e0 84 7d 14 3e d4 bb a5 3d 7c 8a 46 3e 0f 10 2a bd
       0.14501005 0.08092466 0.19388765 -0.04151922
0001f0 2a 7f ef 3d 16 b6 e3 bd 67 fe 7e 3d 2c a7 d7 bd
       0.116941765 -0.111187145 0.062254336 -0.105299324
000200 bf e9 d5 3d ee 95 0d 3e 72 49 0c bd 4a 98 f2 3d
       0.10444974 0.13826725 -0.03424973 0.11845453
000210 a4 07 e1 3d 48 c0 72 3e 9e 35 1a 3d 72 c3 89 3d
       0.109877855 0.23706162 0.03764879 0.06726731
000220 8f 13 35 bd e9 af 42 be 37 63 38 3d d2 75 27 bd
       -0.044208106 -0.19012417 0.045016494 -0.040883847
000230 8e f5 13 3e 5b b9 70 bc cb 64 26 3d 32 8d e7 3d
       0.1444914 -0.01469263 0.040623467 0.11306228
000240 7d 7e 99 3d 9c ae 8e 3d ec 48 e9 3c 14 8e 35 3e
       0.07494829 0.06966898 0.028477155 0.1772998
000250 74 98 3b 3e 78 69 e6 bd 2e 46 84 3e 08 df 38 3d
       0.18319875 -0.11250585 0.25834793 0.045134574
000260 3c 41 58 3e ab f5 b9 3d 31 ab 02 3e 61 a9 62 bc
       0.21118635 0.090800606 0.12760617 -0.013834328
000270 24 db 97 bd 58 7c 2d be c2 c8 44 bd cf 65 b7 bd
       -0.07414845 -0.16941965 -0.04804302 -0.08954965
000280 6d 90 d5 bc 8e 25 e7 bc 71 a4 fc 3d 10 9e 8b bd
       -0.026069844 -0.02821615 0.12336052 -0.068172574
000290 e5 a4 c2 bd b1 dc 30 3e 8b 2e 0b be b8 b8 f3 3c
       -0.095041074 0.17271687 -0.13591973 0.029751167
0002a0 1a ce b2 bc f8 4d 2c 3e 16 4f 76 3c f4 b8 60 3d
       -0.021826793 0.16826618 0.015033504 0.054863885
0002b0 d6 a1 34 3d 84 68 c2 3b bd ab 19 3d 25 6f dd 3c
       0.04409965 0.0059328694 0.037517298 0.027030537
0002c0 2d db fc bc ec 2f 19 3d 3e fc f6 3d 9d c0 08 be
       -0.03086623 0.037399217 0.1205983 -0.13354726
0002d0 7f da d0 3d 7c fc a0 bd a3 95 0f 3e 60 3a 6f 3d
       0.10197925 -0.078606576 0.14021926 0.05840528
0002e0 08 f4 3d bd dc 23 e5 bd b3 e4 8b bd 91 2b 94 3d
       -0.046375304 -0.1118848 -0.0683073 0.07234872
0002f0 79 26 ff 3d f5 c9 76 be a0 7a c1 3d e0 cd 97 3c
       0.1245851 -0.24100478 0.09447217 0.018530786
000300 87 db 83 3d 87 83 c4 3d 20 75 85 3e 16 37 88 3d
       0.06438356 0.09595399 0.26065922 0.06651132
000310 3e 90 fd 3d ec 08 09 be 85 d9 c6 bd 1e 4a 9d ba
       0.12381028 -0.1338231 -0.09709457 -0.0012000238
000320 05 7a e1 bd 2c 30 4b 3d f8 57 61 bd 75 5c 50 3c
       -0.110096015 0.049606487 -0.055015534 0.012717356
000330 27 1e 36 3e 3f 0d 44 3e 0a 64 d5 bc 2e 44 2b 3c
       0.1778494 0.19145678 -0.026048679 0.010453267
000340 2d 09 88 3d 65 bd ee 3d c7 26 b1 bd 93 38 aa bc
       0.06642375 0.11657218 -0.08649974 -0.02077893
000350 fb 59 b0 bd a0 ea bb 3d ba 4c 3c be 36 ce 5d 3d
       -0.086109124 0.091756105 -0.18388644 0.054151736
000360 92 28 91 3d 8a f0 a1 3e f7 32 75 bd 69 a6 cc bc
       0.07087816 0.3162883 -0.059863057 -0.024981694
000370 34 7c 3e 3d 6f ea 82 bd bc 7e 2c 3e 62 1b 26 3d
       0.046505168 -0.06392371 0.1684522 0.040553458
000380 f8 41 cc bd 97 e3 76 3d c4 c2 8b bd ac c0 3f bd
       -0.0997352 0.06027564 -0.06824258 -0.046814606
000390 3e 37 be bd b9 fc 4f 3d 7e ce 0c bd d4 9b 44 3d
       -0.0928788 0.050778124 -0.034376614 0.04800017
0003a0 18 77 86 39 a0 6e ac bc 64 0d 60 3d 75 c1 92 3d
       0.00025647203 -0.021048844 0.05470027 0.07165805
0003b0 51 2d 51 be a6 5c ba bd ad 1c 66 3d ff 22 d6 3c
       -0.20427443 -0.090997025 0.05617969 0.026139734
0003c0 31 10 3f 3e 48 ff 06 3c 6d 83 33 3e 60 6e da 3d
       0.1865852 0.008239575 0.17530604 0.106655836
0003d0 ab ed 2d 3e 0c 47 b2 3d 12 ad 2b 3e a8 e0 8d bd
       0.16985194 0.08704957 0.1676524 -0.069276154
0003e0 60 c4 c5 bd d9 7d 72 bd 38 b2 98 3d f2 b3 08 3e
       -0.09656596 -0.05920205 0.074558675 0.13349894
0003f0 1f 2c 9a 3d 3d 10 19 be 40 10 83 3d aa 73 71 3d
       0.07527947 -0.149476 0.06399584 0.058948196
