Continuous Control - Actor Critic Methods/checkpoint_actor.pth (torch_old, 174005 bytes, 10 tensors)

fc1.weight f4 [256, 33]
-0.060798574 0.07744671 0.0664581 -0.026527438 -0.06715732 0.07809429 0.19242574 0.017745988
-0.008630801 -0.027226005 -0.00033890284 0.038915332 -0.017145822 0.009975992 0.087112874 0.12137077
-0.001419522 0.0328452 0.16228752 -0.0036818478 -0.01938553 0.013982745 0.0055838926 -0.023702972
-0.005162929 -0.0008628232 -0.04087107 -0.053323142 -0.024724858 -0.04536639 -0.008478474 -0.060311012
-0.085072994 -0.036113724 0.11411878 0.113968894 -0.036934037 -0.056291264 -0.049561065 -0.1133179
0.033268712 0.109240465 0.051935524 -0.03712276 0.016936732 0.0037473496 -0.056256577 -0.036362424
-0.049261626 0.011574227 -0.018715704 0.046203777 -0.038240287 -0.00023679441 0.1058152 -0.027345724
-0.022893872 -0.022832945 0.03590203 -0.101060785 0.06018878 0.00421011 0.019413285 -0.015545206
0.015093528 0.11867886 0.05032547 -0.007200889 -0.076385856 0.014644323 -0.0095472615 0.14695928
-0.027151287 0.075817816 -0.014920236 -0.010711156 -0.063910194 0.0049775764 -0.0046547255 -0.0068198545
0.13002707 0.074157685 0.020527927 0.054546878 -0.032230508 0.053677544 -0.033993986 -0.023029882
0.049677543 -0.0313034 0.046665505 0.039500155 -0.06998202 -0.0063575017 -0.02917229 -0.013837464
0.032378282 0.03348188 -0.18906385 -0.05720876 0.15036209 -0.016511876 -0.114110865 -0.15657888
0.10385411 -0.06455815 -0.038886115 -0.07113083 -0.02988506 -0.018367775 -0.03963435 0.035907816
-0.04628372 -0.0868684 -0.0047537354 0.025323477 -0.04581406 -0.05579666 -0.024263903 -0.029856496
-0.09968823 -0.051792953 -0.054626238 -0.04624679 0.08064532 0.051376812 0.0338672 -0.009408014
0.054159626 0.043037985 -0.057000525 0.13126095 0.14758575 0.17305015 -0.060101308 -0.11018944
0.005398568 -0.09281413 -0.049341556 0.045773916 -0.028227806 -0.037345175 -0.014446979 -0.0017841596
-0.0047447886 -0.067494385 -0.10512635 -0.024473874 -0.056834433 0.024557337 0.07234272 -0.013603908
0.028492803 0.019050805 0.060326207 -0.0008764319 -0.026224134 -0.0014452009 -0.052087262 0.039781895
0.020572843 0.017348453 -0.02671554 0.008923501 0.19529562 -0.049077604 0.1282566 0.02550468
-0.044250175 -0.0013884942 0.02391247 -0.040876716 -0.040710494 0.0027268038 0.027463265 -0.036798235
0.010001934 0.026550168 0.12288214 -0.023953378 -0.05684844 -0.032209195 0.040055707 -0.031332646
-0.037566308 0.02740266 -0.059207533 -0.033172984 0.03719048 0.020922558 -0.017112255 -0.04421414
0.04281583 0.054617435 -0.021730058 -0.04703131 -0.032008007 -0.12681195 0.034749262 -0.051712133
0.010670684 0.0680141 0.011947104 0.23015416 -0.016645854 0.090997204 0.02757329 -0.069676176
0.0054413103 0.03414262 -0.04523542 0.103083506 0.022888362 -0.0818496 -0.049709678 -0.0026573269
0.026502427 0.030235028 -0.019102467 0.04402306 -0.022374932 -0.043467473 0.0025497733 -0.041723993
0.05298187 -0.014243421 -0.009272558 -0.055645593 0.0060277167 0.045402363 -0.11180848 0.02791672
-0.043110933 -0.18018475 0.021729175 -0.048715115 0.03992658 -0.13275288 -0.07639101 -0.046713307
-0.007860002 0.048368037 0.007521722 -0.008353403 -0.088205144 0.033072688 -0.013705595 -0.043392863
0.103435755 0.08236495 0.019930476 0.018255869 -0.07928461 0.058823235 -0.07619038 -0.0020777564
00000000: ed07 79bd 619c 9e3d 2f1b 883d 1250 d9bc
00000010: c789 89bd e6ef 9f3d 410b 453e 0960 913c
00000020: 3468 0dbc 1209 dfbc c5ae b1b9 af65 1f3d
00000030: 6575 8cbc 5872 233c 3c68 b23d 3d91 f83d
00000040: 410f baba b088 063d b32e 263e 284b 71bb
00000050: 67ce 9ebc e217 653c 16f9 b63b bc2c c2bc
00000060: ca2d a9bb 162f 62ba 6c68 27bd 5e69 5abd
00000070: c98b cabc 1cd2 39bd 4ce9 0abc ae08 77bd
00000080: c03a aebd fceb 13bd 1bb7 e93d 8668 e93d
00000090: 2548 17bd ab91 66bd 8b00 4bbd 3713 e8bd
000000a0: c644 083d 77b9 df3d 58ba 543d 090e 18bd
000000b0: e7be 8a3c 1896 753b 4c6d 66bd c4f0 14bd
000000c0: 8fc6 49bd d4a1 3d3c ad51 99bc 2c40 3d3d
000000d0: d9a1 1cbd 044c 78b9 a4b5 d83d 2404 e0bc
000000e0: ee8b bbbc 280c bbbc 020e 133d f5f8 cebd
000000f0: 8388 763d f6f4 893b 9c08 9f3c 52b1 7ebc
00000100: d84a 773c e70d f33d 1422 4e3d 6ff5 ebbb
00000110: 3070 9cbd beee 6f3c 1e6c 1cbc 7e7c 163e
00000120: 606c debc 5f46 9b3d 0174 74bc d87d 2fbc
00000130: 59e3 82bd f01a a33b ab86 98bb 1679 dfbb
00000140: d125 053e fcdf 973d 2f2a a83c 8c6c 5f3d
00000150: 2304 04bd fcdc 5b3d 473d 0bbd 2aa9 bcbc
00000160: ae7a 4b3d fe37 00bd 5424 3f3d eaca 213d
00000170: bc52 8fbd 9752 d0bb bafa eebc 88b6 62bc
00000180: 179f 043d 4c24 093d f499 41be bc53 6abd
00000190: 85f8 193e ea43 87bc f5b2 e9bd 3756 20be
000001a0: 77b1 d43d 1037 84bd 0c47 1fbd 0aad 91bd
000001b0: 83d1 f4bc 0478 96bc a157 22bd 1314 133d
000001c0: ff93 3dbd 0fe8 b1bd 39c5 9bbb 2e73 cf3c
000001d0: 86a7 3bbd 0a8b 64bd 18c5 c6bc 9c95 f4bc
000001e0: 5829 ccbd d924 54bd c3bf 5fbd 466d 3dbd
000001f0: 6029 a53d 7e70 523d 55b8 0a3d 1224 1abc
00000200: 7cd6 5d3d 9948 303d 6279 69bd 4569 063e
00000210: b820 173e 0f34 313e ca2c 76bd 00ab e1bd
00000220: 79e6 b03b 5615 bebd 5f1a 4abd 6e7d 3b3d
00000230: 003e e7bc 41f7 18bd 06b3 6cbc 76da e9ba
00000240: 2c7a 9bbb 7f3a 8abd 7c4c d7bd 6f7d c8bc
00000250: 39cb 68bd 782c c93c 6c28 943d ede2 5ebc
00000260: bd69 e93c 6f10 9c3c 9d18 773d 59c0 65ba
00000270: ffd3 d6bc e56c bdba 7459 55bd 57f2 223d
00000280: 6188 a83c 581e 8e3c 8cda dabc e033 123c
00000290: 93fb 473e 9905 49bd b355 033e 31ef d03c
000002a0: ac3f 35bd 22fe b5ba 16e4 c33c 586e 27bd
000002b0: 0cc0 26bd 2db4 323b a4fa e03c bfb9 16bd
000002c0: 27df 233c bd7f d93c a2a9 fb3d e039 c4bc
000002d0: e9d9 68bd caed 03bd 7411 243d a956 00bd
000002e0: 21df 19bd 8b7b e03c 9983 72bd 65e0 07bd
000002f0: 0b55 183d c965 ab3c 002f 8cbc e319 35bd
00000300: a75f 2f3d 88b6 5f3d 3c03 b2bc e7a3 40bd
00000310: d41a 03bd feda 01be 3e55 0e3d 1ad0 53bd
00000320: 18d4 2e3c fa4a 8b3d c9bd 433c 88ad 6b3e
00000330: e35c 88bc be5c ba3d 61e1 e13c 62b2 8ebd
00000340: 054d b23b 22d9 0b3d c748 39bd 721d d33d
00000350: 6080 bb3c c3a0 a7bd 609c 4bbd 8c26 2ebb
00000360: 9e1b d93c 73af f73c c77c 9cbc 8651 343d
00000370: a24b b7bc f30a 32bd 191a 273b c7e6 2abd
00000380: 8403 593d 3d5d 69bc edeb 17bc a2ec 63bd
00000390: 2784 c53b d4f7 393d d8fb e4bd 9bb1 e43c
000003a0: 1795 30bd 5a82 38be 6201 b23c 8089 47bd
000003b0: 0e8a 233d 5ff0 07be e472 9cbd 7456 3fbd
000003c0: 3dc7 00bc 901d 463d c778 f63b b6dc 08bc
000003d0: e6a4 b4bd 3a77 073d 6f8d 60bc b7bc 31bd
000003e0: 20d6 d33d f4ae a83d 3d45 a33c 558d 953c
000003f0: f85f a2bd a2f0 703d b409 9cbd f82a 08bb

fc1.bias f4 [256]
-0.028461814 -0.09179847 0.13517764 -0.053485855 0.07661788 -0.005393496 -0.17285383 0.04702128
0.076861486 0.15353838 -0.14997576 0.12430617 -0.07053808 0.1444642 0.1695126 0.163393
0.07720431 0.017087443 -0.08756522 -0.10276134 0.048631668 -0.07423902 0.03499869 0.15706943
-0.07867288 0.02257662 0.16719778 0.03744672 0.03218045 -0.08706049 -0.05846541 -0.03451266
0.04851808 -0.12389286 -0.09921607 0.12075139 -0.1173024 -0.11956606 0.15454744 0.06458955
-0.14291032 0.03786724 0.1338284 0.15648605 0.14763631 -0.028827887 0.11622557 -0.009391569
0.14417534 0.11133099 -0.12716338 0.08239158 -0.054518685 -0.01332853 -0.047684815 0.09267288
-0.029023621 0.08192641 -0.15814166 0.05698132 -0.05597891 -0.05369877 0.029303325 0.01668063
-0.04892177 -0.13334459 0.16334811 0.004405765 0.059374664 -0.070466444 0.13627754 -0.11315087
-0.16430269 0.08850367 0.07521717 0.09731365 -0.08947708 0.011599916 -0.113679774 0.042782005
0.16392297 0.04314701 -0.104890324 -0.0049726777 0.07161758 0.0975911 -0.17397498 -0.077267885
-0.06145863 0.1434746 -0.015769107 0.08557144 0.0775402 0.14836839 0.0054027257 0.010457401
-0.028927643 -0.16013773 -0.026667759 0.09924586 0.081535935 0.08650364 0.04723572 0.06096647
0.042728342 -0.016397268 -0.06811196 0.036226586 0.014778684 0.0045363517 0.16392872 -0.048144866
-0.15237762 -0.14809516 0.07603899 -0.017996121 -0.09988729 -0.0724242 0.12367335 -0.024492448
0.13654916 0.13170326 -0.04203398 0.12552255 0.16255943 0.091278926 -0.09756921 -0.065713815
-0.08061591 -0.16804418 -0.10704738 -0.1502663 0.13216515 -0.076647095 -0.041190267 0.055745594
0.019388922 -0.1087743 -0.071622774 -0.0320781 0.0044394066 -0.008954488 0.076126896 0.0008392864
-0.10091778 -0.06919329 -0.040326703 0.11840471 0.12446139 -0.14763069 -0.13430639 0.023806985
0.077840455 -0.03237245 0.057130262 0.00062537845 -0.0871885 0.088271886 -0.058071025 -0.11281488
-0.0043820683 -0.072846755 0.09620533 0.15576972 0.10796577 -0.053893328 -0.08478306 -0.06242591
-0.09970932 -0.05091831 0.14651567 0.17237464 -0.06560976 0.056706145 0.010710891 0.04463737
-0.13485247 -0.09442869 -0.041079544 -0.05417879 -0.037792705 0.047822915 -0.005320137 -0.14273767
0.0073782704 0.034412295 0.12593976 -0.09398531 -0.09859442 0.12238922 -0.06395746 0.059776247
0.14185718 -0.031261064 -0.015396169 -0.1026816 0.083668895 0.08931362 -0.14709462 0.105349265
0.16980483 0.16114819 0.06345338 0.16745868 0.030294368 -0.0891932 -0.13697448 -0.13811043
0.06924581 0.07387846 -0.0880156 0.013702317 -0.07487615 0.07470108 -0.12306456 0.020643052
-0.05178833 -0.09920935 -0.062322736 0.1707219 0.039761763 -0.14188364 0.065961234 -0.14887139
0.13883692 -0.14596635 -0.056901146 -0.16249226 -0.05998437 0.12538858 0.078901716 0.00702229
-0.121100456 0.13252535 -0.017803878 -0.024117446 0.08044533 0.08907792 -0.121321045 0.00894966
-0.11751852 -0.11748236 0.0007121936 -0.0050027673 0.04460362 -0.10986423 0.046647355 0.11083735
0.014804786 0.15061085 0.0024709473 -0.12732665 -0.07733896 0.052672144 -0.11922465 -0.10345127
00000000: c028 e9bc d600 bcbd 026c 0a3e fc13 5bbd
00000010: d6e9 9c3d ecbb b0bb 9800 31be 6399 403d
00000020: 8e69 9d3d 2a39 1d3e 3f93 19be 3c94 fe3d
00000030: 4576 90bd 6cee 133e b694 2d3e 7f50 273e
00000040: 4b1d 9e3d f7fa 8b3c 6555 b3bd 8a74 d2bd
00000050: 0032 473d a10a 98bd c95a 0f3d cfd6 203e
00000060: 3f1f a1bd 9bf2 b83c e535 2b3e bb61 193d
00000070: a6cf 033d c54c b2bd 6d79 6fbd 265d 0dbd
00000080: e5ba 463d 8abb fdbd cb31 cbbd 814c f73d
00000090: 3e3c f0bd 0ddf f4bd af41 1e3e 8747 843d
000000a0: 1557 12be ae1a 1b3d 500a 093e e13d 203e
000000b0: f92d 173e 7628 ecbc ac07 ee3d 18df 19bc
000000c0: b3a2 133e 8101 e43d 1e37 02be ebbc a83d
000000d0: fc4e 5fbd e85f 5abc 2751 43bd 47cb bd3d
000000e0: f2c2 edbc 09c9 a73d e3ef 21be 3f65 693d
000000f0: 244a 65bd 3ef3 5bbd 870d f03c d1a5 883c
00000100: 3262 48bd 7c8b 08be ba44 273e 3c5e 903b
00000110: d932 733d b650 90bd 578c 0b3e a5bb e7bd
00000120: f73e 28be 6a41 b53d 760b 9a3d 614c c73d
00000130: c23f b7bd 930d 3e3c f1d0 e8bd 2f3c 2f3d
00000140: 6cdb 273e ebba 303d bdd0 d6bd d8f1 a2bb
00000150: 3dac 923d d8dd c73d 7f26 32be a03e 9ebd
00000160: 0bbc 7bbd 01eb 123e 372e 81bc 1440 af3d
00000170: 65cd 9e3d e2ed 173e 5909 b13b 8555 2b3c
00000180: aaf9 ecbc 25fb 23be 5876 dabc 6a41 cb3d
00000190: 50fc a63d d228 b13d 3e7a 413d fab7 793d
000001a0: ea03 2f3d 9053 86bc 497e 8bbd 5462 143d
000001b0: 4b22 723c ada5 943b eedc 273e 8d33 45bd
000001c0: e108 1cbe 42a6 17be 54ba 9b3d 9a6c 93bc
000001d0: b591 ccbd 2453 94bd 7448 fd3d 63a4 c8bc
000001e0: 8bd3 0b3e 38dd 063e d32b 2cbd fc88 003e
000001f0: fb75 263e 72f0 ba3d 5ed2 c7bd f794 86bd
00000200: f419 a5bd c613 2cbe a83b dbbd 69df 19be
00000210: 4d56 073e 27f9 9cbd 20b7 28bd 7e55 643d
00000220: 84d5 9e3c 0fc5 debd f6ae 92bd 5364 03bd
00000230: 7178 913b d8b5 12bc 6be8 9b3d 8f03 5c3a
00000240: fbad cebd 36b5 8dbd 9d2d 25bd 2b7e f23d
00000250: 9de5 fe3d 802c 17be 9d87 09be de06 c33c
00000260: d16a 9f3d f998 04bd 6c01 6a3d 70f0 233a
00000270: e28f b2bd e4c7 b43d e2db 6dbd 7d0b e7bd
00000280: 7497 8fbb ae30 95bd 4d07 c53d 1982 1f3e
00000290: 281d dd3d 40bf 5cbd bea2 adbd 50b2 7fbd
000002a0: 6634 ccbd b88f 50bd 3408 163e fa82 303e
000002b0: 695e 86bd b444 683d bc7c 2f3c add5 363d
000002c0: c416 0abe d463 c1bd 0643 28bd 94ea 5dbd
000002d0: 86cc 1abd f6e1 433d 8b54 aebb d329 12be
000002e0: 6bc5 f13b e8f3 0c3d 5af6 003e 5f7b c0bd
000002f0: dfeb c9bd 33a7 fa3d 21fc 82bd f0d7 743d
00000300: 0243 113e 9a0b 00bd 3740 7cbc bb4a d2bd
00000310: 995a ab3d 0fea b63d f99f 16be 5bc1 d73d
00000320: 51e1 2d3e 0804 253e d8f3 813d 4a7a 2b3e
00000330: e52b f83c edaa b6bd 0a43 0cbe d26c 0dbe
00000340: bfd0 8d3d 974d 973d 8641 b4bd af7f 603c
00000350: ab58 99bd e1fc 983d 4609 fcbd 9e1b a93c
00000360: 0020 54bd 462e cbbd 2046 7fbd b9d1 2e3e
00000370: 3bdd 223d f249 11be af16 873d be71 18be
00000380: 442b 0e3e 3478 15be 2d11 69bd 5f64 26be
00000390: 2cb2 75bd dd65 003e 3997 a13d 3d1b e63b
000003a0: 8403 f8bd bab4 073e 70d9 91bc f391 c5bc
000003b0: 85c0 a43d 7c6e b63d 2b77 f8bd 98a1 123c
000003c0: 8dad f0bd 979a f0bd 81b2 3a3a 41ee a3bb
000003d0: 49b2 363d 7f00 e1bd 4c11 3f3d b1fe e23d
000003e0: c68f 723c bb39 1a3e 9eef 213b eb61 02be
000003f0: e363 9ebd bfbe 573d 0e2c f4bd 42de d3bd

batch.weight f4 [256]
1.148315 1.1297201 1.0299735 0.79371923 0.77037555 0.486621 0.76841915 0.8224375
1.2355098 0.3893081 0.28865454 0.6881089 0.6817268 0.66344243 0.47262707 0.37749836
0.67871785 0.98130965 0.9160948 0.46659696 1.0552244 1.0972942 0.76832056 1.0889593
0.44796407 1.0048366 0.469411 1.0388641 0.9410367 0.9826417 1.0536991 0.87899536
0.7413633 0.6127034 0.9016154 0.40899533 0.19822662 0.6942169 0.4272099 0.5346139
0.69871193 0.493895 0.7943668 0.35635823 1.0395638 0.41440934 0.39201418 0.3572991
1.0095296 1.109744 0.794865 0.70686334 0.96729326 0.42807814 0.9026554 0.8830693
0.4232827 0.69618106 0.40973708 0.79300785 0.89325696 0.39368755 0.48604035 0.9097855
0.9271771 0.5330382 0.51045436 1.2755767 0.54782265 0.520394 0.475954 1.0163686
0.92028433 0.2845406 0.8469307 0.94508857 1.0037708 0.830294 0.64839536 1.1905406
0.24504377 0.6997978 0.98879623 0.3397253 0.34755114 1.0999191 0.8005092 1.1881801
0.6862539 1.1572758 0.645838 0.86405087 0.305799 0.9423985 0.2015856 0.37600556
0.3874572 1.2439029 0.56194544 0.40656215 1.0624385 0.22000654 1.0216055 0.8592345
0.24830599 0.45901665 1.054729 0.784542 0.3720904 0.5930418 0.88151336 0.48582503
0.61679506 0.42359325 0.4677533 0.69103646 0.3261794 0.8653171 0.9761749 0.9139115
0.9804722 0.33553982 0.7064189 0.90503865 0.8007843 1.0496122 1.074666 1.026363
0.77596784 0.51139915 0.38222715 1.0586611 0.56215 0.6634003 0.39505008 0.45179895
1.1337471 0.9807567 0.78870374 0.8364664 0.38488895 0.47082338 0.9159316 0.4085964
0.9964345 0.99030495 0.7782072 0.8895505 0.9539219 0.58444715 0.40912026 1.092041
0.7746036 0.84880954 0.45047328 0.7071269 0.78856194 0.62525076 0.9230942 0.7657635
0.84587395 0.60141516 0.29441717 1.1422576 0.4442011 0.61741424 1.04199 0.7749236
0.9589185 0.41564345 0.34202084 0.32279244 0.77798 0.91242653 0.24819909 0.70186603
0.9950845 0.43200037 0.96349174 0.67330796 0.32949895 0.8408135 0.24190144 0.7552011
0.64286476 1.0141897 1.0793062 0.66088444 0.7695394 1.0579337 0.7846206 0.3626111
0.34887502 0.78025544 0.51542133 0.4341912 1.0135455 0.985289 0.9778623 0.3735186
0.9278467 0.88424337 0.6271121 0.7620907 1.0703247 1.1978848 0.44518057 0.7326471
0.5856828 0.6948227 1.0697744 0.830216 1.0081928 1.0280801 0.8810059 0.5717619
0.52818507 0.3562861 0.39162183 0.63751054 0.3902578 1.0696657 0.42661434 0.7448318
1.0978571 0.77778935 0.9958976 1.0991888 0.66752785 0.934991 1.0701321 1.083874
0.91516465 0.3540395 0.5956315 0.52609533 0.9932666 0.82741475 0.20045021 0.6617505
0.58262277 0.3305713 0.8941719 0.7493694 0.2581723 1.0702243 1.0683851 0.5011686
1.2155591 0.65547824 0.6181201 0.84872854 0.5153852 0.76966137 0.34510913 0.4355537
00000000: fcfb 923f ab9a 903f 2cd6 833f 2f31 4b3f
00000010: 5537 453f 6326 f93e 1eb7 443f 448b 523f
00000020: 2f25 9e3f 6453 c73e 87ca 933e e827 303f
00000030: a685 2e3f 5dd7 293f 2dfc f13e 7747 c13e
00000040: 74c0 2d3f 1c37 7b3f 3085 6a3f cce5 ee3e
00000050: 9811 873f 2374 8c3f a8b0 443f 0563 8b3f
00000060: 8c5b e53e 7c9e 803f a356 f03e 80f9 843f
00000070: c8e7 703f 688e 7b3f 9ddf 863f d705 613f
00000080: fcc9 3d3f 21da 1c3f 44d0 663f d667 d13e
00000090: ebfb 4a3e 33b8 313f 42bb da3e 75dc 083f
000000a0: c9de 323f cedf fc3e 9f5b 4b3f 9674 b63e
000000b0: 6d10 853f 762d d43e 15b6 c83e e8ef b63e
000000c0: 4438 813f 170c 8e3f 467c 4b3f fff4 343f
000000d0: 88a0 773f 0f2d db3e 6d14 673f d410 623f
000000e0: 83b8 d83e ec38 323f 0fc9 d13e 9002 4b3f
000000f0: 7dac 643f 6a91 c93e 48da f83e b4e7 683f
00000100: 7a5b 6d3f 3175 083f 23ad 023f 1946 a33f
00000110: 1b3e 0c3f 8b38 053f 3eb0 f33e 5e18 823f
00000120: c197 6b3f 4eaf 913e 73d0 583f 53f1 713f
00000130: 907b 803f 268e 543f 3dfd 253f a263 983f
00000140: c1ec 7a3e f325 333f c021 7d3f 79f0 ad3e
00000150: 39f2 b13e 26ca 8c3f 2cee 4c3f 4916 983f
00000160: 56ae 2f3f 9d21 943f a455 253f 7032 5d3f
00000170: b091 9c3e 0741 713f 756c 4e3e cd83 c03e
00000180: ca60 c63e 3638 9f3f a8db 0f3f ea28 d03e
00000190: fcfd 873f 6549 613e f8c3 823f cbf6 5b3f
000001a0: ed43 7e3e 3b04 eb3e 5c01 873f bfd7 483f
000001b0: a282 be3e 96d1 173f dcaa 613f 0fbe f83e
000001c0: 48e6 1d3f 37e1 d83e 5c7d ef3e c4e7 303f
000001d0: fc00 a73e 6c85 5d3f 99e6 793f 1bf6 693f
000001e0: 3a00 7b3f e0cb ab3e ded7 343f 9db0 673f
000001f0: 3300 4d3f b159 863f a88e 893f dd5f 833f
00000200: d4a5 463f 0eeb 023f 47b3 c33e 3582 873f
00000210: 10e9 0f3f 9ad4 293f 0144 ca3e 3152 e73e
00000220: a01e 913f df12 7b3f 7de8 493f a922 563f
00000230: 2a10 c53e c30f f13e 7e7a 6a3f 8c33 d13e
00000240: 5516 7f3f a084 7d3f 9638 473f 95b9 633f
00000250: 3a34 743f 549e 153f 3678 d13e 00c8 8b3f
00000260: 6c4c 463f 954b 593f 6fa4 e63e 4506 353f
00000270: 32df 493f 6f10 203f e74f 6c3f 1409 443f
00000280: 328b 583f 58f6 193f d9bd 963e 7f35 923f
00000290: 546e e33e dc0e 1e3f ee5f 853f 6561 463f
000002a0: af7b 753f 38cf d43e 5b1d af3e 0d45 a53e
000002b0: b329 473f c994 693f e727 7e3e 7ead 333f
000002c0: dcbd 7e3f 272f dd3e 65a7 763f e95d 2c3f
000002d0: 16b4 a83e 8e3f 573f 03b5 773e dc54 413f
000002e0: c992 243f f8d0 813f b526 8a3f b92f 293f
000002f0: 8900 453f 5f6a 873f e5dc 483f 29a8 b93e
00000300: bf9f b23e d2be 473f a7f2 033f 4f4e de3e
00000310: dcbb 813f e63b 7c3f 2f55 7a3f d43d bf3e
00000320: 5d87 6d3f c65d 623f 6b8a 203f 6018 433f
00000330: 6600 893f 4a54 993f b5ee e33e c38e 3b3f
00000340: 4fef 153f e7df 313f 5eee 883f 0989 543f
00000350: 760c 813f 2198 833f 9a89 613f fd5e 123f
00000360: 2337 073f 226b b63e a882 c83e e433 233f
00000370: dfcf c73e ceea 883f 326d da3e 4cad 3e3f
00000380: 9586 8c3f 341d 473f 25f3 7e3f 38b2 8c3f
00000390: 1be3 2a3f 925b 6f3f 17fa 883f 62bc 8a3f
000003a0: 3b48 6a3f aa44 b53e 4e7b 183f 2fae 063f
000003b0: b846 7e3f 74d1 533f d242 4d3e 7b68 293f
000003c0: c426 153f a440 a93e 73e8 643f acd6 3f3f
000003d0: 292f 843e 1cfd 883f d8c0 883f 964c 003f
000003e0: 7197 9b3f 6ccd 273f 1e3d 1e3f 4646 593f
000003f0: 49f0 033f 8708 453f 25b2 b03e e500 df3e

batch.bias f4 [256]
0.050541006 0.0985453 -0.029803053 -0.029401917 -0.14264071 0.11199642 -0.08828444 0.0020286343
0.016740058 0.06946217 0.086001195 -0.1335607 0.00047043292 -0.021294856 0.11340142 -0.06687253
-0.043278456 0.0071853255 0.0007277208 -0.06990184 -0.058640156 0.028013742 -0.09975549 -0.08345726
-0.046971202 0.024854435 -0.07925303 -0.01911627 -0.023530908 0.021233847 0.017641664 -0.009748945
-0.013052837 0.15083843 -0.009237569 -0.106944926 0.03655981 -0.025277978 -0.020314239 0.078589454
-0.038053907 -0.0637834 0.10762145 0.07028928 -0.06351991 0.061676666 -0.0056928033 -0.022788145
-0.00840351 -0.111089304 -0.0048151645 -0.15061454 -0.04666126 0.08747689 0.07565356 0.057248827
-0.040147074 -0.08178754 0.008688642 -0.006443496 -0.04128141 -0.04089161 0.08383131 -0.038449112
0.058690254 0.01359213 -0.2605666 0.11227209 -0.025892569 0.018561108 -0.055990547 0.09759818
0.0029388948 -0.008407488 -0.046057746 -0.03955407 0.02001782 -0.0029260002 -0.2921376 0.025769193
0.08044856 -0.03729902 -0.011349449 0.038366605 -0.13271481 0.011287245 -0.036484443 0.03843211
-0.04534518 -0.060226258 0.06593486 0.00731866 -0.11901418 -0.03744354 0.02377461 0.052035302
0.055713568 0.061268464 0.02231411 -0.1283374 0.03140124 -0.0008964038 0.04790692 -0.040743735
0.033317123 -0.106512085 0.11308572 -0.13224804 -0.012544871 0.078987405 -0.01405499 -0.11604077
-0.044324145 0.015982319 -0.025913313 0.05014639 0.03634065 0.012095376 -0.0021221715 -0.01047468
0.009228675 -0.063216634 -0.003805221 -0.029233042 -0.036499448 -0.048630796 -0.008435256 -0.22087163
-0.086441614 0.0355298 -0.017131276 0.021924675 0.022728771 0.088670745 0.023729887 0.00811288
-0.014928066 0.0631517 -0.017800296 0.013305881 0.051062524 -0.05349587 -0.18159162 0.1097444
-0.021015506 -0.06706639 0.026076337 -0.006823606 -0.009614317 -0.04660148 -0.020973183 0.078687884
0.11937671 0.028602123 0.028706789 0.023914563 -0.075670555 0.02291324 -0.025361618 0.015308544
0.072643094 -0.032234043 -0.048470814 -0.118352026 -0.20193653 -0.09560664 0.04930886 0.080048546
0.02031473 0.06935738 -0.068945244 0.060854264 0.050655223 0.018975554 0.0028202962 -0.008907808
0.00696381 -0.071724325 0.106655374 0.04845398 0.09245457 0.03893944 -0.07345277 -0.17529352
0.030671582 -0.031239135 -0.035555862 -0.02167762 -0.03765044 -0.04964545 0.02669 0.073419645
-0.12076564 -0.09445987 -0.0014763039 0.044503268 0.07334645 0.1153099 0.024812145 0.07788518
0.032435663 0.023539763 -0.1166238 -0.09138125 -0.00462614 -0.02655231 -0.122155376 0.062178317
0.042330924 0.09345795 -0.0211844 -0.036353614 -0.08462297 0.040821385 -0.02379639 0.03842053
0.01463435 -0.009042646 -0.13309541 0.062225543 0.009183766 0.061862182 0.011894769 0.04316864
-0.17347734 0.05955415 -0.034150366 0.015020064 0.03188267 -0.044300195 0.047138523 -0.118861206
-0.008821991 -0.13099645 -0.0025863762 -0.060310237 0.020212514 0.06717322 -0.063569926 0.07637284
-0.07877088 -0.032321922 -0.052824765 -0.12780005 0.008449383 0.010906008 0.03020576 -0.08235266
-0.0025011122 -0.008968278 0.025210846 -0.022896364 0.0019815888 0.10704209 -0.0053668157 -0.015962046
00000000: 1604 4f3d 1ed2 c93d 8825 f4bc 4adc f0bc
00000010: 6810 12be 615e e53d 79ce b4bd d6f2 043b
00000020: 7222 893c 2f42 8e3d 6521 b03d 23c4 08be
00000030: 70a4 f639 8d72 aebc 013f e83d 77f4 88bd
00000040: c044 31bd e172 eb3b 84c4 3e3a b228 8fbd
00000050: a930 70bd 137d e53c 9b4c ccbd a4eb aabd
00000060: e064 40bd 879b cb3c 6a4f a2bd b999 9cbc
00000070: e4c3 c0bc 9bf2 ad3c 4085 903c 0aba 1fbc
00000080: 91db 55bc 6475 1a3e 2c59 17bc f105 dbbd
00000090: bdbf 153d c313 cfbc 0c6a a6bc 82f3 a03d
000000a0: 6ade 1bbd dfa0 82bd a368 dc3d d3f3 8f3d
000000b0: ba16 82bd aca0 7c3d b28a babb 34ae babc
000000c0: e0ae 09bc ca82 e3bd 87c8 9dbb b33a 1abe
000000d0: e11f 3fbd 1527 b33d 41f0 9a3d bf7d 6a3d
000000e0: 4271 24bd 3a80 a7bd ce5a 0e3c f623 d3bb
000000f0: b216 29bd f67d 27bd c0af ab3d d17c 1dbd
00000100: 3165 703d 86b1 5e3c fc68 85be e9ee e53d
00000110: a71c d4bc 770d 983c 5856 65bd 8ee1 c73d
00000120: 799a 403b 90bf 09bc 0ca7 3cbd 7303 22bd
00000130: 69fc a33c 23c2 3fbb 0f93 95be ea19 d33c
00000140: 37c2 a43d dbc6 18bd 0af3 39bc 4d26 1d3d
00000150: 64e6 07be 23ee 383c b670 15bd fd6a 1d3d
00000160: debb 39bd cfaf 76bd db08 873d 5fd1 ef3b
00000170: b5bd f3bd 665e 19bd f9c2 c23c f822 553d
00000180: e933 643d a4f4 7a3d 15cc b63c e16a 03be
00000190: 969e 003d a4fc 6aba 0c3a 443d e7e2 26bd
000001a0: 8977 083d 0223 dabd 7c99 e73d 086c 07be
000001b0: 0189 4dbc 26c4 a13d e746 66bc c9a6 edbd
000001c0: 3c8d 35bd 5aed 823c 2848 d4bc 4d66 4d3d
000001d0: efd9 143d af2b 463c 2114 0bbb fe9d 2bbc
000001e0: de33 173c b977 81bd 0461 79bb 227a efbc
000001f0: 7280 15bd 1631 47bd 0734 0abc 2c2c 62be
00000200: 4d08 b1bd b287 113d e456 8cbc 609b b33c
00000210: b031 ba3c 0299 b53d 2e65 c23c e3eb 043c
00000220: d994 74bc ae55 813d edd1 91bc e900 5a3c
00000230: f026 513d 7c1e 5bbd 27f3 39be acc1 e03d
00000240: b628 acbc 1a5a 89bd 0b9e d53c 8e98 dfbb
00000250: 5e85 1dbc 32e1 3ebd f4cf abbc 1d27 a13d
00000260: c77b f43d 004f ea3c 802a eb3c 79e8 c33c
00000270: 2af9 9abd 8cb4 bb3c 2bc3 cfbc b0d0 7a3c
00000280: e7c5 943d d807 04bd 5589 46bd 8c62 f2bd
00000290: 73c8 4ebe 6acd c3bd 16f8 493d 7ef0 a33d
000002a0: 146b a63c 3e0b 8e3d 2a33 8dbd 5242 793d
000002b0: da7b 4f3d 9f72 9b3c b8d4 383b 0ef2 11bc
000002c0: ac30 e43b 34e4 92bd 226e da3d ae77 463d
000002d0: d258 bd3d f67e 1f3d 686e 96bd 2580 33be
000002e0: f842 fb3c 37e9 ffbc 06a3 11bd 4495 b1bc
000002f0: 5937 1abd 0759 4bbd fda4 da3c 0a5d 963d
00000300: fa53 f7bd 2d74 c1bd 8a80 c1ba 0f49 363d
00000310: aa36 963d 9927 ec3d d742 cb3c 4482 9f3d
00000320: 42db 043d 76d6 c03c 75d8 eebd 1826 bbbd
00000330: e096 97bb 3b84 d9bc 992c fabd b1ae 7e3d
00000340: 3163 2d3d e266 bf3d e88a adbc 87e7 14bd
00000350: cf4e adbd 5334 273d a6f0 c2bc d85e 1d3d
00000360: eac4 6f3c 9b27 14bc 2a4a 08be 36e0 7e3d
00000370: 8277 163c 3363 7d3d 47e2 423c 9ad1 303d
00000380: 0ba4 31be 0def 733d 41e1 0bbd b716 763c
00000390: 6797 023d 1f74 35bd 5314 413d 816d f3bd
000003a0: 1d8a 10bc ef23 06be 3180 29bb de07 77bd
000003b0: b794 a53c 1d92 893d f330 82bd 5d69 9c3d
000003c0: a152 a1bd fe63 04bd c85e 58bd 04de 02be
000003d0: 486f 0a3c 1daf 323c 1272 f73c 83a8 a8bd
000003e0: b3e9 23bb afef 12bc fa86 ce3c 2891 bbbc
000003f0: 8bdd 013b e238 db3d 1ddc afbb d6c2 82bc

batch.running_mean f4 [256]
-0.433017 -0.41355738 -0.102765046 -0.34068978 -0.28955683 -0.47783494 -0.04065532 0.12306109
0.06778372 -0.020351093 0.70932895 -0.021926276 0.67472667 0.27317053 -0.07649119 -0.19229586
0.64421123 -0.7988429 -8.012291e-05 -1.2180749 0.02743733 -0.4064216 -0.10873876 -0.08599077
0.49429083 0.051847804 0.06944637 0.7042013 0.16467756 -0.29890957 0.15983115 -0.35383552
-0.24965605 -0.2545235 -0.10813172 -0.41075483 -0.16424437 -0.24736089 0.13662529 -0.087156974
-0.38360837 -0.35297418 0.21765046 0.67265177 0.09834666 0.46661317 0.21617524 -0.10532181
0.40919438 -0.39269406 0.13331154 -0.3690243 -0.17272787 0.060454093 -0.27784687 0.015712257
-0.42276496 0.05755772 -0.6626791 -0.04960002 -0.19019917 -0.8865219 -0.23978542 -0.18033555
0.22201522 -0.5583863 0.4282161 -0.2917922 0.21699351 0.07817871 0.304969 -0.29519105
-0.45032203 -0.27401006 0.0343509 0.33568695 0.12837921 0.30276766 -0.07501856 -0.18294884
0.558579 -0.5631957 0.21343288 -0.43554637 -0.68007374 -0.371211 0.027609313 0.2013972
-0.47901696 0.45406196 -0.11891136 0.18630621 -0.7391701 0.099854015 -0.32170123 -0.4317169
0.2483096 0.16851029 0.5683015 -0.3139275 -0.43341902 0.5436265 -0.057900265 -0.2922083
0.031297907 -0.16061701 -0.12871477 -0.4443096 -0.29655015 -0.03167978 0.55206925 0.45925304
-0.36856157 0.054009642 -0.23048373 0.013804661 0.07519328 0.04778252 0.9391946 0.2092694
0.24947792 -0.44665423 0.43946543 0.26605102 -0.30773348 -0.015919574 -0.0063741617 -0.35090038
-0.17593893 -0.10047379 -0.16250312 -0.07072513 -0.14735638 0.048205923 -0.74528253 0.12809229
-0.6336671 -0.3416681 0.020092184 -0.16571616 0.059055436 -0.07415863 -0.098574646 0.20178764
-0.10086055 -0.4227097 -0.01780939 0.28135663 0.3102971 0.7339439 0.22573067 -0.058560576
0.27664846 -0.2289631 0.21618828 -0.36379224 -0.33092898 -0.053145494 0.35984606 -0.007268566
0.061202023 -0.391329 0.10444897 -0.2511213 -0.30988103 0.020411618 -0.32404152 -0.5296555
0.30042914 -0.19126236 0.13749473 0.56404805 -0.03600344 0.08190263 0.36486852 0.16229291
-0.37545836 -0.18851545 0.040641494 -0.18987241 -0.234983 0.24132273 -0.675186 -0.2981434
0.036114328 0.03670912 -0.0113351075 -0.4710195 0.016766984 -0.36502817 -0.08750311 0.48318824
-0.35049832 -0.223191 0.1610778 0.38904265 0.3174953 -0.07178398 0.09627845 -0.20336688
0.34362322 0.11593502 -0.20886755 0.15686767 -0.004664905 -0.28290498 -0.6758005 0.040794056
-0.010805846 -0.23823743 -0.3452777 -0.20639852 -0.11072832 0.5735654 -0.21266462 0.16263947
-0.26013097 0.24829157 0.31068718 -0.29557964 0.14726394 0.120321006 0.6535648 0.34746084
-0.13543247 -0.0059014247 -0.34767643 -0.44935808 -0.05998376 0.1751354 0.23540065 -0.13965221
-0.17483713 -0.13061447 0.118876055 -0.15175658 0.20061423 0.273894 -0.25024223 0.49272084
-0.70346886 -0.014737134 0.023981405 -0.21813034 0.28726467 -0.015174973 0.27759373 0.092728786
0.033840153 0.5341136 0.19923699 -0.2723665 0.47874352 0.17456454 -0.20136091 0.27214187
00000000: 67b4 ddbe cbbd d3be 7b76 d2bd e46e aebe
00000010: cb40 94be c8a6 f4be 3186 26bd 7407 fc3d
00000020: 31d2 8a3d 56b7 a6bc 9596 353f bc9e b3bc
00000030: e3ba 2c3f 02dd 8b3e 6aa7 9cbd 35e9 44be
00000040: 07eb 243f f880 4cbf a907 a8b8 e1e9 9bbf
00000050: 40c4 e03c 7e16 d0be 6db2 debd ee1b b0bd
00000060: b013 fd3e 5d5e 543d e639 8e3d 8946 343f
00000070: 3ca1 283e ad0a 99be c7aa 233e ee29 b5be
00000080: d6a5 7fbe e750 82be 2a74 ddbd 754e d2be
00000090: ad2f 28be 2c4c 7dbe 80e7 0b3e 5b7f b2bd
000000a0: 5168 c4be 08b9 b4be c3df 5e3e e832 2c3f
000000b0: f969 c93d ece7 ee3e 0b5d 5d3e f6b2 d7bd
000000c0: ed81 d13e 320f c9be d282 083e c1f0 bcbe
000000d0: 93df 30be b69e 773d f241 8ebe feb6 803c
000000e0: a674 d8be a5c1 6b3d 56a5 29bf 6429 4bbd
000000f0: 92c3 42be 19f3 62bf 4f8a 75be e2a9 38be
00000100: f557 633e 68f2 0ebf 243f db3e ca65 95be
00000110: 8c33 5e3e 291c a03d e624 9c3e 4823 97be
00000120: 9c90 e6be 0c4b 8cbe 88b3 0c3d 29df ab3e
00000130: d775 033e 5d04 9b3e 55a3 99bd f156 3bbe
00000140: 09ff 0e3f 982d 10bf 268e 5a3e efff debe
00000150: 5019 2ebf 5e0f bebe ed2c e23c 113b 4e3e
00000160: b641 f5be cf7a e83e cd87 f3bd 0ec7 3e3e
00000170: 403a 3dbf 4380 cc3d 06b6 a4be ff09 ddbe
00000180: df44 7e3e f68d 2c3e 357c 113f 1bbb a0be
00000190: 19e9 ddbe 1b2b 0b3f d428 6dbd 549c 95be
000001a0: 3c32 003d c978 24be cecd 03be 8c7c e3be
000001b0: 6cd5 97be a8c2 01bd 6954 0d3f 3723 eb3e
000001c0: 1ab4 bcbe 3739 5d3d ed03 6cbe f22c 623c
000001d0: effe 993d 9bb7 433d 0f6f 703f b84a 563e
000001e0: 2477 7f3e ddaf e4be 9d01 e13e d737 883e
000001f0: 3e8f 9dbe c469 82bc 58de d0bb 37a9 b3be
00000200: 5629 34be 34c5 cdbd 3867 26be 56d8 90bd
00000210: 97e4 16be 9373 453d d6ca 3ebf a02a 033e
00000220: 0238 22bf 1fef aebe 5d98 a43c 7fb1 29be
00000230: 1de4 713d 7be0 97bd 81e1 c9bd 6ba1 4e3e
00000240: fa8f cebd 686d d8be ffe4 91bc fa0d 903e
00000250: 43df 9e3e bfe3 3b3f f125 673e 37dd 6fbd
00000260: dea4 8d3e 4e75 6abe 7660 5d3e fa42 babe
00000270: 866f a9be 17af 59bd be3d b83e 272d eebb
00000280: f9ae 7a3d 465c c8be 57e9 d53d f992 80be
00000290: baa8 9ebe 4436 a73c c5e8 a5be 8197 07bf
000002a0: d9d1 993e 48da 43be 6bcb 0c3e 7465 103f
000002b0: 5878 13bd 91bc a73d 0cd0 ba3e 1d30 263e
000002c0: 143c c0be 320a 41be b277 263d ea6d 42be
000002d0: 629f 70be 4e1d 773e fdd8 2cbf 40a6 98be
000002e0: 9eec 133d 4d5c 163d e3b6 39bc 7829 f1be
000002f0: ea5a 893c f9e4 babe d534 b3bd 7364 f73e
00000300: 8474 b3be 2e8c 64be 94f1 243e 9930 c73e
00000310: be8e a23e 7b03 93bd a32d c53d 683f 50be
00000320: 62ef af3e 576f ed3d 60e1 55be eba1 203e
00000330: 0fdc 98bb ecd8 90be 4301 2dbf ab17 273d
00000340: 010b 31bc 83f4 73be 3dc8 b0be 225a 53be
00000350: 88c5 e2bd 2fd5 123f c1c4 59be f68a 263e
00000360: e32f 85be 2540 7e3e 6412 9f3e 3756 97be
00000370: 5ccc 163e dc6a f63d 0650 273f 63e6 b13e
00000380: cfae 0abe bd60 c1bb a502 b2be 4312 e6be
00000390: 88b1 75bd b256 333e de0c 713e fd00 0fbe
000003a0: 8108 33be cdbf 05be 4a75 f33d 1466 1bbe
000003b0: d16d 4d3e d63b 8c3e c01f 80be e845 fc3e
000003c0: 8916 34bf 0574 71bc a774 c43c 8f5d 5fbe
000003d0: 5b14 933e 73a0 78bc c420 8e3e 97e8 bd3d
000003e0: f99b 0a3d abbb 083f c804 4c3e 9f73 8bbe
000003f0: df1d f53e 0cc1 323e 8e31 4ebe 2e56 8b3e

batch.running_var f4 [256]
0.5374811 0.7677493 0.18760978 0.15672159 0.17055011 0.05550708 0.89202356 1.0509679
0.12759572 0.15773575 0.11649788 0.099598356 0.75351167 0.64373887 0.6716326 0.45596036
0.68667215 0.32460052 0.048320536 0.1773153 0.5138572 0.23496743 0.03966687 0.23689723
0.13472521 0.09417619 0.3515147 0.21728778 0.5378657 0.15354353 0.0900907 0.31321582
0.15699728 0.23418677 0.8079862 0.12851255 0.23352508 0.24980612 0.065780796 0.12671618
0.46439043 0.23307267 0.29669115 0.20192373 0.58322394 0.30888987 0.40221643 0.39737263
0.18959545 0.17073372 0.5137261 0.1463246 0.04732179 0.24423902 0.13155057 0.13303305
0.048154462 0.1461385 0.38684663 0.2309378 0.22295095 0.4456667 0.3145516 0.06405341
0.1111545 0.22789072 0.14000359 0.065351844 0.13261393 1.1895384 0.35452396 0.23890267
0.057129316 0.11943962 0.23385951 0.56185573 0.25846338 0.37008944 0.27934644 0.15491733
0.5852143 0.19958594 0.55540353 0.10244043 0.29545358 0.1307009 0.042028427 0.4740714
0.03734213 0.2340537 0.2894495 0.22874087 0.26197207 0.21862213 0.21123984 0.23391731
0.7673816 0.25790167 0.099097446 0.05602247 0.2295009 0.43942896 0.2836059 0.26752117
0.1856307 0.09866756 0.11756175 0.08904335 0.21856675 0.08890075 0.28811643 0.11028438
0.20248583 0.066627726 0.10354609 0.08571696 0.02880867 0.21052295 0.5017747 0.053583022
0.050975546 0.056966912 0.39078382 0.45150167 0.079162225 0.26649845 0.23664986 0.288951
0.49533105 0.059223104 0.29995364 0.42126754 0.12752251 0.062319502 0.18199062 0.30940685
0.20951356 0.044548903 0.30263862 0.03690945 0.7925092 0.089804344 0.120552085 0.23210314
0.096535355 0.17794801 0.33940768 0.34195185 0.1936759 0.08394123 0.13840528 0.061222006
0.18993995 0.30928573 0.09051139 0.1806248 0.39376166 0.6489915 0.28344154 0.06975417
0.45812595 0.68992394 1.3742837 0.17235681 0.04928719 0.14246733 0.10486203 0.22521119
0.2899936 0.24234991 1.2089404 0.4997153 0.09145101 0.16592547 0.21455342 0.14587128
0.17071614 0.044581585 0.88912594 0.2981318 0.21408632 0.3253382 0.13303824 0.027515354
0.33613348 0.18090874 0.40256977 0.24541417 0.4735356 0.100017264 0.060847152 0.43627545
0.054000847 0.10809948 0.2642426 0.22085941 0.029308422 0.07032986 0.30682078 0.16703004
0.11169562 0.39096949 0.12960754 0.12545294 0.15559103 0.54555297 0.086598516 0.4315161
1.0218239 0.23155442 0.19340996 0.08615019 0.042217277 0.1257567 0.64284164 0.16599846
0.32714975 0.21941143 0.09859399 0.18187688 0.36420208 0.1359673 0.17323859 0.29513288
0.062808365 0.08552094 0.27253756 0.22097224 0.03345969 0.0897996 0.8842336 0.078569084
0.052882735 0.5598602 0.12555075 0.24881469 0.24383716 0.3529142 0.26109663 0.23989895
0.12891412 0.2207503 0.12053936 0.093487896 0.11274594 0.13949536 0.0700794 0.100958824
0.23460373 0.9003171 0.16689 0.72872734 0.1733794 0.34871924 0.028497815 0.10940864
00000000: 5d98 093f 388b 443f c71c 403e a07b 203e
00000010: b0a4 2e3e 645b 633d a85b 643f 1e86 863f
00000020: 74a8 023e 7b85 213e 7196 ee3d 39fa cb3d
00000030: 24e6 403f 12cc 243f 1df0 2b3f a373 e93e
00000040: bfc9 2f3f 0a32 a63e c1eb 453d 2492 353e
00000050: 258c 033f 4d9b 703e ba79 223d 3095 723e
00000060: 68f5 093e 72df c03d bcf9 b33e b080 5e3e
00000070: 91b1 093f 843a 1d3e 7981 b83d d35d a03e
00000080: e5c3 203e a8ce 6f3e 2fd8 4e3f cb98 033e
00000090: 3321 6f3e 2dcd 7f3e 15b8 863d e3c1 013e
000000a0: 95c4 ed3e 9aaa 6e3e e7e7 973e 18c5 4e3e
000000b0: 2a4e 153f d026 9e3e 50ef cd3e 6d74 cb3e
000000c0: 4f25 423e d2d4 2e3e 8e83 033f 1ed6 153e
000000d0: 7ed4 413d cb19 7a3e 31b5 063e d139 083e
000000e0: 9d3d 453d 55a5 153e c310 c63e f57a 6c3e
000000f0: 414d 643e 6d2e e43e e80c a13e 6f2e 833d
00000100: f8a4 e33d 2f5c 693e 1a5d 0f3e 30d7 853d
00000110: f2cb 073e cb42 983f 2a84 b53e e7a2 743e
00000120: 6e00 6a3d c29c f43d de78 6f3e c7d5 0f3f
00000130: 5055 843e 5d7c bd3e 7f06 8f3e a6a2 1e3e
00000140: 9bd0 153f 4260 4c3e ed2e 0e3f 4acc d13d
00000150: b145 973e 75d6 053e 0026 2c3d 7db9 f23e
00000160: 10f4 183d c6ab 6f3e ba32 943e 0c3b 6a3e
00000170: 3421 863e 7bde 5f3e 424f 583e 0588 6f3e
00000180: 1f73 443f b00b 843e 9af3 ca3d d177 653d
00000190: 4902 6b3e d5fc e03e cb34 913e 89f8 883e
000001a0: f915 3e3e 3812 ca3d 37c4 f03d 5c5c b63d
000001b0: f6cf 5f3e 9911 b63d ff83 933e c7dc e13d
000001c0: 7258 4f3e 1e74 883d f90f d43d 608c af3d
000001d0: 2900 ec3c 5493 573e 4f74 003f df79 5b3d
000001e0: bccb 503d 2356 693d d114 c83e 3a2b e73e
000001f0: ce1f a23d 7c72 883e 5754 723e 63f1 933e
00000200: 089c fd3e ed93 723d 8693 993e 61b0 d73e
00000210: 4395 023e bc42 7f3d c05b 3a3e 936a 9e3e
00000220: b98a 563e e978 363d 73f3 9a3e 5d2e 173d
00000230: e2e1 4a3f 57eb b73d 03e4 f63d 72ac 6d3e
00000240: 54b4 c53d 0138 363e d8c6 ad3e 5014 af3e
00000250: fa52 463e 61e9 ab3d 1dba 0d3e edc3 7a3d
00000260: 9e7f 423e b35a 9e3e 095e b93d b5f5 383e
00000270: 219b c93e 4f24 263f 401f 913e 46db 8e3d
00000280: 7c8f ea3e db9e 303f 87e8 af3f 4e7e 303e
00000290: 5de1 493d f5e2 113e e7c1 d63d c39d 663e
000002a0: 0b7a 943e 932a 783e 8fbe 9a3f afda ff3e
000002b0: ab4a bb3d 5ee8 293e e4b3 5b3e 485f 153e
000002c0: 36d0 2e3e 2e9b 363d c29d 633f bba4 983e
000002d0: 7239 5b3e bb92 a63e 2d3b 083e e167 e13c
000002e0: b019 ac3e 2440 393e a01d ce3e da4d 7b3e
000002f0: 4273 f23e dad5 cc3d dd3a 793d 7f5f df3e
00000300: fe2f 5d3d 4363 dd3d ce4a 873e f828 623e
00000310: 3718 f03c 1a09 903d 9d17 9d3e ec09 2b3e
00000320: acc0 e43d 272d c83e d7b7 043e bc76 003e
00000330: 4153 1f3e 5ca9 0b3f 905a b13d aeef dc3e
00000340: 20cb 823f 9a1c 6d3e 430d 463e 836f b03d
00000350: 06ec 2c3d 5dc6 003e 4591 243f 80fb 293e
00000360: 2c80 a73e 64ad 603e a5eb c93d ef3d 3a3e
00000370: b278 ba3e 033b 0b3e 7565 313e a81b 973e
00000380: aca1 803d 9a25 af3d 0b8a 8b3e 8c46 623e
00000390: 070d 093d dae8 b73d 225d 623f d4e8 a03d
000003a0: 919b 583d 0053 0f3f 6090 003e 47c9 7e3e
000003b0: 73b0 793e 2cb1 b43e 75ae 853e 12a8 753e
000003c0: 1002 043e 5e0c 623e 57dd f63d 9576 bf3d
000003d0: 58e7 e63d dfd7 0e3e ca85 8f3d 80c3 ce3d
000003e0: f63b 703e 2e7b 663f 36e5 2a3e e08d 3a3f
000003f0: 5f8a 313e 548b b23e 4074 e93c a311 e03d

fc2.weight f4 [128, 256]
-0.09701322 -0.015474726 -0.1266288 -0.07444021 0.19239824 0.023299493 0.028583894 0.090998314
0.1296558 -0.061666563 -0.054532632 0.01662568 0.014679211 -0.21252555 -0.024296517 -0.04466197
0.015158332 0.065219305 0.10759298 -0.15740179 0.12582362 -0.03240207 0.12975585 -0.03677073
-0.09027758 0.10710144 0.17151953 -0.03118108 0.10719877 0.089087084 0.15100722 -0.19270721
-0.28816676 -0.01015454 -0.013616079 0.0941642 0.00725246 0.05427138 -0.08186952 0.059421286
-0.032935236 0.20083763 -0.116881974 0.07449949 0.120268375 0.094470926 0.101476766 0.060608372
0.13898197 -0.12833022 0.029433938 0.023669284 0.1477088 -0.066402845 -0.005734842 -0.01463306
0.14756897 -0.015311241 0.14399977 -0.10981075 -0.19809647 -0.14074601 0.011958553 0.074101746
-0.08648797 -0.25413746 0.10721121 -0.1048561 -0.1657557 -0.07155231 -0.047863387 -0.08823991
0.012149593 -0.021448055 -0.069303624 0.029484168 0.030887509 -0.044929236 0.011497866 -0.08017843
-0.008590561 0.09720306 -0.00849661 -0.012964483 -0.0099729635 0.08336203 0.21018922 -0.13678354
-0.08824859 -0.08842549 -0.118524976 -0.00037489837 -0.019753069 -0.14108363 -0.011020895 -0.03158889
-0.059479877 -0.0040342454 -0.14688514 -0.08417149 0.04387617 -0.14262646 0.033702806 0.030124513
-0.03273979 0.26577705 -0.07881064 0.108735226 -0.021549042 0.003549182 -0.046423048 0.067272045
0.14760599 -0.22172853 0.16762649 -0.10071206 -0.13809511 -0.20949402 -0.06915082 -0.107148565
0.114452384 -0.033452176 -0.0054553924 -0.032438707 -0.09801246 -0.1447051 -0.07496382 0.009545484
0.04296855 -0.052998547 -0.004513849 0.046162233 0.032167148 0.21569231 -0.0038053377 -0.0244123
0.026954465 -0.11132935 0.21786135 0.06762409 0.06001491 0.06698895 0.1135722 -0.015823824
0.11571662 0.09494189 0.014327243 0.18820599 0.17388806 0.062114824 0.13186724 0.08680655
0.11910138 0.21129546 0.04291808 0.033484124 -0.14401548 -0.056975204 0.04448727 -0.00027038646
-0.085878 0.11220837 0.063157424 0.075334094 -0.10996759 -0.15145947 0.047489274 0.1679887
0.013498215 -0.105322376 -0.1294894 0.25076208 0.06568025 0.19109982 0.014082312 0.04289732
0.185773 -0.12881163 0.15279928 -0.12917632 -0.012903367 0.057491455 0.16463792 0.054112945
-0.04696502 0.054490097 -0.05371307 -0.054282885 0.17711526 -0.0023556084 0.07161168 -0.068647474
-0.11052406 0.03748751 0.05270095 -0.075857274 -0.12453238 -0.01817763 0.08658568 0.018818794
-0.17107925 0.10729531 0.13417435 0.16314696 0.1868592 0.044937175 0.09218224 0.021986378
-0.10652295 -0.09365788 -0.1523201 0.075261235 -0.0120732905 -0.041632775 -0.15816149 0.22486891
-0.05632843 0.11647322 0.090387 0.07780403 0.16327141 -0.06386459 0.20141298 0.18501264
-0.03490322 0.12387897 0.035621244 0.018919315 0.008992315 -0.06374798 -0.06533534 -0.002733811
0.09894147 -0.023422537 -0.23624669 0.17598191 -0.05075296 -0.03964271 -0.07895612 -0.04550491
-0.090688676 -0.045712184 0.11399908 -0.2547629 0.041668065 -0.0072175306 -0.037241574 -0.032417465
-0.045006953 -0.15958053 0.098657705 0.10168478 -0.06616086 -0.2549989 -0.07004595 0.04577191
00000000: deae c6bd b589 7dbc fbaa 01be 1c74 98bd
00000010: 0b04 453e 94de be3c c528 ea3c 535d ba3d
00000020: 7dc4 043e 1496 7cbd 9c5d 5fbd 9432 883c
00000030: 1381 703c 4ca0 59be 7d09 c7bc 78ef 36bd
00000040: a75a 783c b391 853d b559 dc3d ef2d 21be
00000050: e8d7 003e 08b8 04bd b8de 043e e89c 16bd
00000060: 74e3 b8bd 0058 db3d d1a2 2f3e 776f ffbc
00000070: 078b db3d 4a73 b63d a3a1 1a3e 0a55 45be
00000080: 988a 93be 3a5f 26bc fa15 5fbc 29d9 c03d
00000090: 0ba6 ed3b ab4b 5e3d 35ab a7bd bc63 733d
000000a0: 19e7 06bd 61a8 4d3e d15f efbd 3093 983d
000000b0: 444f f63d f979 c13d 0dd3 cf3d 7c40 783d
000000c0: 4a51 0e3e ff68 03be 711f f13c 16e6 c13c
000000d0: fa40 173e 37fe 87bd 57eb bbbb 81bf 6fbc
000000e0: 521c 173e 00dc 7abc ad74 133e 75e4 e0bd
000000f0: cdd9 4abe b91f 10be cfed 433c a8c2 973d
00000100: 9b20 b1bd 4e1e 82be 8d91 db3d ccbe d6bd
00000110: ddbb 29be 048a 92bd 660c 44bd 20b7 b4bd
00000120: 160f 473c d5b3 afbc 0fef 8dbd c888 f13c
00000130: cd07 fd3c b807 38bd 8c61 3c3c 9734 a4bd
00000140: 6dbf 0cbc 6612 c73d 5e35 0bbc fc68 54bc
00000150: a465 23bc b6b9 aa3d d83b 573e fc10 0cbe
00000160: adbb b4bd 6c18 b5bd 39bd f2bd 028e c4b9
00000170: 30d1 a1bc 3a78 10be fc90 34bc 5a63 01bd
00000180: 2ca1 73bd b431 84bb 0f69 16be 1a62 acbd
00000190: 80b7 333d ac0c 12be f40b 0a3d afc7 f63c
000001a0: 281a 06bd ee13 883e 7967 a1bd 93b0 de3d
000001b0: 9e87 b0bc 6599 683b 1826 3ebd edc5 893d
000001c0: 0626 173e ce0c 63be 47a6 2b3e 2042 cebd
000001d0: ce68 0dbe 9a85 56be f29e 8dbd b570 dbbd
000001e0: 0366 ea3d 2605 09bd 26c3 b2bb 73de 04bd
000001f0: c2ba c8bd 932d 14be a286 99bd a964 1c3c
00000200: caff 2f3d 0115 59bd e9e8 93bb 9c14 3d3d
00000210: b3c1 033d 72de 5c3e f962 79bb 4efc c7bc
00000220: 9ccf dc3c a400 e4bd 0c17 5f3e 807e 8a3d
00000230: 32d2 753d 8131 893d 8b98 e83d f7a0 81bc
00000240: d6fc ec3d e570 c23d d0bc 6a3c 12b9 403e
00000250: b60f 323e 1d6c 7e3d 3508 073e a2c7 b13d
00000260: 6deb f33d d65d 583e deca 2f3d a626 093d
00000270: cb78 13be d55e 69bd 4938 363d a8c2 8db9
00000280: cee0 afbd 80cd e53d ae58 813d c348 9a3d
00000290: b036 e1bd 3118 1bbe 1d84 423d 3b05 2c3e
000002a0: 9e27 5d3c 42b3 d7bd df98 04be e363 803e
000002b0: 5e83 863d acaf 433e 7fb9 663c 1ab5 2f3d
000002c0: 473b 3e3e 32e7 03be 6a77 1c3e cc46 04be
000002d0: a568 53bc 297c 6b3d d896 283e 89a5 5d3d
000002e0: 655e 40bd 0231 5f3d 3c02 5cbd bb57 5ebd
000002f0: b45d 353e 8d60 1abb 25a9 923d 0c97 8cbd
00000300: 705a e2bd 818c 193d f4dc 573d 0f5b 9bbd
00000310: d50a ffbd 41e9 94bc d553 b13d df29 9a3c
00000320: 662f 2fbe a5bd db3d 0065 093e ff0f 273e
00000330: 0558 3f3e 0b10 383d 0bca bc3d c71c b43c
00000340: b428 dabd b4cf bfbd cdf9 1bbe 9022 9a3d
00000350: 0dcf 45bc 2187 2abd 16f5 21be 0944 663e
00000360: a4b8 66bd 8389 ee3d d21c b93d b857 9f3d
00000370: 9f30 273e 70cb 82bd 343f 4e3e f473 3d3e
00000380: aef6 0ebd 42b4 fd3d 95e7 113d aefc 9a3c
00000390: 8154 133c 4d8e 82bd 89ce 85bd bd29 33bb
000003a0: d3a1 ca3d 9fe0 bfbc a7ea 71be 9a34 343e
000003b0: 56e2 4fbd 6560 22bd bfb3 a1bd 5b63 3abd
000003c0: fcba b9bd b33c 3bbd 5a78 e93d 4870 82be
000003d0: 22ac 2a3d 0981 ecbb 9f8a 18bd 2dc8 04bd
000003e0: 3659 38bd 1469 23be 0d0d ca3d 1c40 d03d
000003f0: 587f 87bd 378f 82be 4074 8fbd 547b 3b3d

fc2.bias f4 [128]
-0.021615325 -0.013800921 -0.015019406 0.05244506 -0.04382148 -0.099795945 0.030686405 -0.02627235
0.09179892 0.05692727 -0.040423248 0.00632887 0.054880004 0.035681155 0.0032724293 -0.05473045
-0.18697686 -0.021974882 0.04262566 0.052415647 -0.078101784 -0.0021831396 0.02218918 -0.0022567397
0.028164499 0.020408101 -0.012665352 -0.0026381298 -0.010715349 -0.043736864 0.021512441 0.035935733
0.041113667 -0.026412763 -0.09359279 -0.07707193 0.06825894 0.06320962 -0.012435972 0.0026322566
-0.011006658 0.014307469 -0.06456423 -0.035779234 -0.070287324 0.042872872 0.04406038 0.051725194
0.03925542 0.07491377 0.022374002 -0.0006635445 -0.05615298 -0.035001338 0.10882855 0.0150059555
-0.013151565 -0.06839548 -0.06604039 0.02713148 -0.079373136 -0.11053297 0.05193474 0.012621074
-0.013399657 0.075077854 -0.10925913 -0.00525302 0.038099784 -0.016751809 -0.05077965 0.040419497
0.026620338 -0.042278256 -0.019864086 0.055455945 0.09858505 0.016076647 -0.00925189 -9.7401855e-05
0.050071258 0.04347148 -0.009688826 0.071850896 -0.053353466 -0.024441132 0.010192351 -0.16911142
0.106657766 -0.06817967 0.11434088 0.059308723 -0.019880995 0.0487257 -0.024867356 0.0121446755
-0.019580245 -0.010531731 -0.0066067423 0.05914559 0.0042099133 -0.07136003 -0.026212838 -0.14078665
0.034002792 -0.066422924 0.035511192 -0.13108914 0.006900987 -0.08040389 -0.047390133 -0.006513384
0.04839873 -0.05141133 -0.09795741 -0.011495658 -0.023310978 0.09800465 -0.07509815 -0.06174653
0.026797168 -0.11513405 -0.015564853 -0.021479277 -0.030301668 0.057118233 -0.0316936 -0.071756825
00000000: 9f12 b1bc 421d 62bc f413 76bc a2d0 563d
00000010: 277e 33bd d161 ccbd 0e62 fb3c 1d39 d7bc
00000020: 1201 bc3d 922c 693d d992 25bd 6962 cf3b
00000030: dbc9 603d 6726 123d 4176 563b 092d 60bd
00000040: dd76 3fbe ab04 b4bc 3e98 2e3d cab1 563d
00000050: d4f3 9fbd 0113 0fbb 15c6 b53c cfe5 13bb
00000060: 3cb9 e63c e42e a73c 5682 4fbc 79e4 2cbb
00000070: 6e8f 2fbc 6d25 33bd dc3a b03c 5931 133d
00000080: ce66 283d 945f d8bc 94ad bfbd e3d7 9dbd
00000090: 58cb 8b3d 0c74 813d 3fc0 4bbc f081 2c3b
000000a0: 4555 34bc e069 6a3c 403a 84bd 3f8d 12bd
000000b0: cdf2 8fbd 779b 2f3d a878 343d ccdd 533d
000000c0: 4bca 203d 646c 993d af49 b73c b8f1 2dba
000000d0: ab00 66bd 905d 0fbd 81e1 de3d 8adb 753c
000000e0: a979 57bc ee12 8cbd 2f40 87bd d642 de3c
000000f0: 628e a2bd 1c5f e2bd 86b9 543d 9fc8 4e3c
00000100: 3c8a 5bbc 6bc2 993d 40c3 dfbd 8721 acbb
00000110: 850e 1c3d 173b 89bc 53fe 4fbd ea8e 253d
00000120: e512 da3c f72b 2dbd 02ba a2bc c625 633d
00000130: f5e6 c93d 2cb3 833c 3d95 17bc 3944 ccb8
00000140: 8517 4d3d 270f 323d e2bd 1ebc 9026 933d
00000150: 2a89 5abd c538 c8bc d2fd 263c 8b2b 2dbe
00000160: 636f da3d c8a1 8bbd 8d2b ea3d b4ed 723d
00000170: 78dd a2bc 9994 473d a0b6 cbbc 76fa 463c
00000180: c066 a0bc 488d 2cbc 5f7d d8bb a542 723d
00000190: 50f3 893b 3525 92bd 4ebc d6bc 602a 10be
000001a0: 8346 0b3d be08 88bd 2f74 113d 3b3c 06be
000001b0: ad21 e23b cbaa a4bd 281c 42bd 3a6e d5bb
000001c0: bf3d 463d b094 52bd e59d c8bd 4958 3cbc
000001d0: aaf6 bebc a9b6 c83d 0fcd 99bd eee9 7cbd
000001e0: bc85 db3c 67cb ebbd ba03 7fbc 4ff5 afbc
000001f0: 343b f8bc cff4 693d 26d1 01bd 3ef5 92bd
